scripts/model_cnn.pt (torch_old, 398776 bytes, 20 tensors)

weight f4 [10, 3, 2, 2]
000000 31 71 8c 3e 11 1c ee bd a7 94 55 3c a9 b1 3f be
       0.27430108 -0.11626447 0.01303593 -0.18720116
000010 52 6c 0f be cd d9 37 be fd d1 64 bd c9 4e 1c 3e
       -0.14006165 -0.17954178 -0.055864323 0.15264429
000020 4e 56 b2 be aa cb 5b be 5b 66 c4 3e 0d e3 b7 be
       -0.3483147 -0.2146441 0.3835934 -0.35915413
000030 cf 79 74 be ce da cf 3d c8 1a 35 bd 84 53 4e bd
       -0.23874591 0.101491556 -0.044214994 -0.050372615
000040 7c b3 4d 3e d5 07 cd 3d cd 24 25 3e 8c 63 07 3e
       0.20087999 0.100112595 0.1612732 0.13221568
000050 8e d8 94 3e 01 3f 80 3e 47 55 98 be ae a5 60 3b
       0.29071468 0.25048068 -0.2975256 0.003427844
000060 36 28 74 be 53 72 a5 3e d0 51 80 bd 35 5c 48 be
       -0.23843464 0.32313785 -0.062656045 -0.19566424
000070 be 57 4b 3d 75 d8 70 3e 29 23 a8 3b 1c 44 14 3b
       0.049644224 0.23520072 0.0051311445 0.0022623604
000080 a3 65 00 be 3e 68 06 be 40 96 59 3e f9 19 d4 3c
       -0.12538771 -0.13125703 0.21248722 0.025891291
000090 33 f5 1e be 2a 13 0b be dc 37 8b bc fb 46 95 3e
       -0.15523224 -0.1358153 -0.01699441 0.29155716
0000a0 62 8d 69 be c0 84 6e 3e c9 ed 5b 3e 5f ac be bd
       -0.2280784 0.23292828 0.21477427 -0.09310221
0000b0 4f 8f 05 bd a9 3b 12 3e ff 78 f0 3d e2 34 0a 3c
       -0.032607373 0.14280571 0.11741828 0.00843546
0000c0 70 9c d5 3d 29 0c 41 be 67 2a 96 3e 34 82 5e be
       0.10430229 -0.18852295 0.29329225 -0.21729356
0000d0 33 6d c2 3d c8 ef fe 3d 95 ed 04 be 4b d9 0b 3d
       0.09493484 0.124480784 -0.12981255 0.034142774
0000e0 62 8c 80 be 1d 3d 2d be ec 36 a0 be 96 b3 18 3e
       -0.25107104 -0.16917844 -0.31291902 0.14912257
0000f0 b7 0e 55 3e 32 83 da bd f1 a0 4c 3c b9 dd e0 3d
       0.20806395 -0.10669555 0.012489543 0.1097979
000100 6c 73 58 bd 07 86 79 be 3e f9 50 3e cd 8d f3 bc
       -0.05284445 -0.24367534 0.20407578 -0.029730702
000110 ff 53 bd be 22 9a bf 3c dc e6 37 3d 0c a7 4a be
       -0.36978146 0.023388926 0.0448979 -0.19790286
000120 cf e2 2e be 58 63 45 3e a9 23 46 3e 70 59 b8 bb
       -0.17078708 0.19276178 0.19349541 -0.005625896
000130 ec c5 8e be 50 8b bd 3e 0b 81 de 3d 70 7f b9 bd
       -0.27885377 0.3702035 0.10864457 -0.0905751
000140 83 8f 83 3e 5e 0c 26 be 31 08 21 3e 29 b0 d0 bc
       0.25695428 -0.16215655 0.15725781 -0.025474625
000150 8a 6d 00 3e 54 b4 80 be 86 d2 25 be 32 b8 55 3e
       0.12541786 -0.2513758 -0.1619359 0.20871046
000160 a4 f4 30 bc 54 05 c3 bd 87 95 e6 3c 37 ca c1 3d
       -0.010800514 -0.09522501 0.028147472 0.094623975
000170 ee 03 b3 bc 63 23 71 be 6e 31 f2 bd f0 5a fc bd
       -0.02185246 -0.23548655 -0.11825834 -0.123220325
000180 ca 8c 54 be 3d a1 f9 3d c9 e4 5e bd 2b 9a 33 3e
       -0.20756832 0.12188957 -0.054417405 0.17539279
000190 bb 84 b4 3d d8 e1 7a be a3 26 10 3e 8f 7f 16 be
       0.08814379 -0.24500215 0.14077239 -0.14697097
0001a0 1f 0b 88 3c 99 ce 1c be 90 2c 6c be 3c 32 06 3d
       0.016606865 -0.15313186 -0.23063874 0.03276275
0001b0 f0 51 27 be 63 85 b2 bd d9 4d 84 3e 84 1e 0f 3e
       -0.1633985 -0.08716848 0.25840643 0.13976485
0001c0 21 e9 15 3e 16 63 0e 3e ff 57 d7 bc 33 29 9e bb
       0.14639713 0.13904986 -0.026287077 -0.0048266887
0001d0 1b 2f 2c 3e 0a 3d 63 be 10 05 16 be dc 9b 3f 3e
       0.16814844 -0.22191253 -0.14650369 0.187118

bias f4 [10]
000000 73 86 92 3e d2 71 d1 3d 84 3b 7e be 54 8d 4b be
       0.28618202 0.102267876 -0.24827391 -0.19878131
000010 1b 2b af 3d 8c 4f 29 be cf d1 5f be ee 00 f5 bb
       0.085531436 -0.16534251 -0.2185738 -0.0074769175
000020 84 b2 53 3d d1 f4 f5 3d
       0.051683918 0.12009586

weight f4 [10, 10, 3, 3]
000000 2f 1f fe bd 70 79 55 bd 57 eb 92 3c ed cf 76 3b
       -0.124082915 -0.052117765 0.017934484 0.0037660555
000010 ba b8 3c be ec 98 23 be 11 d7 0f be 0c ef 44 bd
       -0.18429843 -0.15976304 -0.14046885 -0.048079535
000020 aa c3 0b be cd 9e 7c bd f1 af c9 bd 94 2c ac bd
       -0.13648859 -0.06167488 -0.09848011 -0.0840694
000030 75 90 b9 bd 91 0c 5d bd f4 8d 90 bb 95 9c 03 be
       -0.09060756 -0.053967062 -0.0044114534 -0.128527
000040 ff 78 77 bc 6d 5d 63 3d 37 23 4a be a3 f1 0d be
       -0.015104531 0.05550902 -0.19739996 -0.13861708
000050 b9 7b 9a bc 81 f4 28 bd 3e 18 e4 bc c8 5c 26 3d
       -0.018857824 -0.041248802 -0.02784359 0.040615827
000060 79 ed 90 bd 1e ca 2d 3d 66 d1 98 bc 18 5a 4a bc
       -0.07076544 0.042429082 -0.018654536 -0.012350582
000070 03 bc 34 be 80 ec 34 bd ae 03 23 be ac 19 16 be
       -0.17649846 -0.044170856 -0.15919372 -0.1465823
000080 67 94 0d be aa ee b6 3d c2 38 cc bd 43 b6 70 3d
       -0.13826142 0.0893224 -0.09971763 0.05876757
000090 d5 98 81 3c ec 1c f1 3c 0c 76 08 bd a9 ad 46 3c
       0.015819946 0.029432736 -0.033315703 0.012126365
0000a0 0c 22 69 b8 32 d3 4c bc 07 cf 92 bb ca 75 b1 3b
       -5.5583238e-05 -0.012501525 -0.004480246 0.005415653
0000b0 a1 80 fb bc b4 94 cf bc 78 a3 94 3c c0 fe 43 be
       -0.030700983 -0.025339462 0.018144354 -0.19140148
0000c0 27 9b 8d bc ba 8d 20 be e3 a4 35 bb 93 ef 8e bd
       -0.017285896 -0.15679064 -0.0027716688 -0.06979289
0000d0 e8 d7 ea bd 65 ae 15 be 46 8c 19 bd 6f 55 78 bd
       -0.11466962 -0.14617307 -0.03748729 -0.06062835
0000e0 c0 0a 08 3d 6c c0 23 be db 16 bd bd 80 46 04 be
       0.033213377 -0.15991372 -0.09232875 -0.12917519
0000f0 f1 dc 37 3d 34 51 96 bc 77 70 b0 bd 08 f6 d5 bd
       0.04488844 -0.018349268 -0.08615201 -0.10447317
000100 cc de 42 be 3e 39 94 bd e6 b0 78 bd a7 21 14 be
       -0.19030303 -0.072374806 -0.06071558 -0.14465962
000110 56 4d 2e bd ad bb d0 3c 85 ee aa bc 61 e6 d7 bd
       -0.042554222 0.025480116 -0.020865688 -0.10541988
000120 52 f5 4f 3b 00 d8 d4 bd 47 fb 48 bd 47 93 1f bd
       0.0031731916 -0.10392761 -0.04906776 -0.038958814
000130 b1 d8 f7 bd 70 58 90 bd ad ec 00 be ad 41 00 3d
       -0.121018775 -0.07048118 -0.12590285 0.031312633
000140 69 78 35 bd ba b6 b7 bc 49 46 77 3d dc 5d 66 3d
       -0.044304285 -0.022425998 0.060369764 0.056241855
000150 35 c4 18 bd cf ee b5 bc 69 ff 05 3d a7 b3 bc bd
       -0.037296493 -0.0222086 0.03271428 -0.092139535
000160 8e df 2e 3c fd a6 9c bd 73 80 8b bd 3e 88 05 3e
       0.010673417 -0.07649038 -0.06811609 0.13040254
000170 f2 69 d3 3c f7 03 d1 3d 56 fc a9 3d 4e 74 3a bd
       0.025807355 0.10205834 0.083000824 -0.045521073
000180 7e 49 dc 3d 80 f9 63 3d d6 de e1 3d 80 62 0a 3d
       0.10756205 0.055657864 0.11028831 0.033785343
000190 6b 82 46 bb 1c 3e b0 3d 71 99 16 3e 38 29 fb 3d
       -0.0030290138 0.086055964 0.14706971 0.12263721
0001a0 b0 a3 ec 3b 00 4f cc 3d 63 4a d1 3c 5a 8c 3d bd
       0.0072216615 0.099760056 0.025548166 -0.046276428
0001b0 15 b5 8e bd 74 71 17 3e 8f 29 10 3e 66 fd 16 3e
       -0.069681324 0.14789373 0.14078353 0.14745101
0001c0 26 3c da 3d 09 3f cd 3d d2 d5 36 3c f0 ae af 3d
       0.10656004 0.100217886 0.011159377 0.085782886
0001d0 eb 4a dd 3c 73 5a 4c 3e 10 e6 09 3e e0 3f a7 3d
       0.027013263 0.19956379 0.13466668 0.0816648
0001e0 57 ce f5 bd bb 2b 09 3d 89 82 b0 3d bf 09 a9 3c
       -0.12002247 0.03348897 0.086186476 0.02063453
0001f0 55 54 c2 3c a1 af 2e bc bc a3 08 3e 3e 74 bc 3d
       0.023721853 -0.01066199 0.1334371 0.09201859
000200 fd 6f 3c bd 24 0b fe 3d ba 11 e3 3d 43 59 66 bd
       -0.046005238 0.12404469 0.110873654 -0.05623747
000210 f8 95 54 bd aa 45 d0 3d 44 78 28 3d 0e b8 c2 3d
       -0.051900834 0.10169537 0.04113032 0.09507762
000220 23 70 42 3d 2a a2 4f bd 32 6e 6f 3d 0c 6f 82 3d
       0.047470223 -0.05069176 0.0584547 0.06368837
000230 18 94 16 bc 27 d0 91 bc 26 c6 54 3d 85 76 de 3d
       -0.009190582 -0.01779945 0.05194678 0.108624496
000240 c5 e7 8a 3c 2f aa 91 3d 74 ce 14 3e 21 a6 91 3d
       0.01695622 0.07112538 0.1453188 0.07111765
000250 26 b7 ad 3c 5f c4 42 bc 2b 9a 03 bd 7f 81 59 3d
       0.021205496 -0.011887639 -0.032129448 0.053102013
000260 5f 06 b6 3c ec 1d c9 3d 0f a1 74 3d e9 b1 a0 bd
       0.022219835 0.0982016 0.05972391 -0.07846434
000270 6b 6d df bc b4 20 09 3d 0c bc 56 3d 46 eb af bd
       -0.027273854 0.033478454 0.05242543 -0.08589797
000280 f8 b2 f6 3d 07 f2 45 3d 32 c5 b9 3d 7a e0 4b bd
       0.12045854 0.04832652 0.09070815 -0.049774624
000290 f2 f0 d3 3d 06 4c eb bc 6b 77 e4 3d 26 52 2b 3d
       0.10348691 -0.028722774 0.1115559 0.04182639
0002a0 30 70 5e bc 23 68 fc 3d 7e 8d 39 bd ab 32 3e 3c
       -0.013576552 0.1232455 -0.045300953 0.01160876
0002b0 2b 21 dd 3d 54 80 40 bd 4e 1e ce 3c 84 83 51 bd
       0.10797342 -0.046997383 0.025160935 -0.051150814
0002c0 00 e2 01 3e 18 f2 49 bd b9 b0 26 3d 45 a9 5f 3c
       0.12683868 -0.049303144 0.04069588 0.013651197
0002d0 b6 7d 1f be 06 20 01 be 51 50 87 bd ef 0e c8 3a
       -0.15575299 -0.12609872 -0.06607116 0.001526324
0002e0 44 2a 2c be 79 a4 25 bd 44 f2 58 bd b4 f9 70 3c
       -0.16812998 -0.040440056 -0.052965418 0.014707971
0002f0 a1 a0 9b bd 47 c0 e3 3c ca 57 47 bc e4 fa 1f be
       -0.07598997 0.027801646 -0.012166927 -0.15623051
000300 e4 fb 86 bd 61 ca fb bc 18 3d 09 be 8b ae ea bd
       -0.06591013 -0.03073615 -0.13402212 -0.11459073
000310 bb 23 a1 bc ed 25 33 be 2b 72 23 bc 04 ad 1a be
       -0.019670358 -0.17494936 -0.00997595 -0.15105063
000320 93 99 7f bb 01 b6 87 3a 6e 9d eb bd f0 ab 03 be
       -0.003900145 0.0010353924 -0.11504637 -0.12858558
000330 38 f2 ad bd de 3e 8f bc 0f 72 20 bd da de cd bd
       -0.08493465 -0.017486032 -0.039171275 -0.10052271
000340 77 bd 97 bd 36 e3 14 be 71 89 87 bc dd 70 69 bd
       -0.074091844 -0.14539799 -0.01654503 -0.0569924
000350 53 6e 9f bd 83 31 26 bd 02 a5 1f bd 0a 0a 51 bd
       -0.077847145 -0.04057456 -0.038975723 -0.051034965
000360 41 b4 13 be 19 fd 05 bd 00 99 d3 bb 09 41 ff bd
       -0.1442423 -0.032712076 -0.006457448 -0.12463576
000370 ff 27 2a be 51 f3 76 bd 05 96 0d bd 04 46 d0 bd
       -0.1661682 -0.06029064 -0.034566898 -0.101696044
000380 64 f1 c9 bd 95 f8 18 be 60 bf 2a be c0 23 46 bd
       -0.09860495 -0.14938577 -0.16674566 -0.048373938
000390 92 01 86 3c 21 3b 13 be 0d 21 c3 bd df 0c a4 3c
       0.01635817 -0.14378025 -0.09527788 0.020025669
0003a0 67 32 db bd ee 9d 29 be e4 87 71 bc 05 dd 9b bd
       -0.10702973 -0.16564152 -0.0147418715 -0.076105155
0003b0 10 a2 c9 bd 15 37 f1 bd e0 6c e6 bd 3d 9b 02 be
       -0.09845364 -0.11778084 -0.11251235 -0.12754531
0003c0 8a d6 c2 3d f1 a6 38 bd 59 9b 90 bd a8 c6 2a bd
       0.09513576 -0.045081083 -0.0706088 -0.04169336
0003d0 9a 4a 50 bd af 01 bc bd c1 99 19 bd 0d 66 2a be
       -0.050852396 -0.091800086 -0.037500147 -0.16640492
0003e0 f5 04 c6 bd 1b f7 b8 bd a0 c4 ac bd 43 06 d0 3c
       -0.09668914 -0.09031507 -0.08435941 0.02539361
0003f0 a7 d0 08 bc 00 91 8f bd 8f 62 44 bc 7b 54 09 be
       -0.008350528 -0.070100784 -0.011986389 -0.13411133

bias f4 [10]
000000 0f c8 ed bd 70 5c 55 3d 76 8c 2a be 5c 45 ad bc
       -0.11610424 0.05209011 -0.16655144 -0.021151237
000010 d3 1c cd bc 65 af 37 bd f1 a6 d5 3d 73 89 8a 3d
       -0.025038159 -0.044845004 0.10432232 0.067644976
000020 46 84 8c 3d 23 0f 96 3c
       0.06861167 0.018317765

weight f4 [10, 10, 4, 4]
000000 45 96 c9 3d 20 9c 30 3d b7 53 bf 3d 54 56 c4 3d
       0.09843115 0.043117642 0.09342139 0.09586778
000010 de 4e b1 3d af 75 fd bb 0f 93 3a 3d 31 35 94 bb
       0.08657621 -0.0077349762 0.045550402 -0.0045229425
000020 57 ec dc 3d ce 10 91 3c cc 0a 47 3d 08 7a 5c 3c
       0.10787266 0.017708208 0.04859428 0.013456829
000030 c6 54 6a bc b8 b4 3f 3d e5 15 a6 bb b8 d6 a4 bc
       -0.014302438 0.046803206 -0.005068528 -0.020121917
000040 5a 8d 81 3d e5 eb df bc 5e fb f2 3c c5 70 4e bd
       0.06325789 -0.027334163 0.029660877 -0.050400514
000050 99 29 cc bc 67 fe d8 3c e0 ba be 3d fc 94 f9 bd
       -0.024922179 0.026488496 0.09312987 -0.1218662
000060 e9 2e 0e 3e a2 2d ff bd f8 b3 55 bd 47 83 c6 bd
       0.13885082 -0.12459876 -0.052173585 -0.09693008
000070 13 0a 01 3c ee 0c 18 3d da c9 c5 3d 77 7b 4e bd
       0.007875937 0.037121706 0.09657641 -0.050410714
000080 4d 7c b4 3c d9 40 84 bc 3e f6 0f 3d 48 12 6c bc
       0.022031927 -0.016144203 0.035146944 -0.014408655
000090 af 5e 0a bc 39 5f dd bd 52 a0 95 bc 3d 06 2f be
       -0.008445426 -0.10809178 -0.018264923 -0.17092223
0000a0 07 f6 ac bd 13 5f 2a bd cf 70 f9 bd 98 85 fc bd
       -0.084453635 -0.041594576 -0.1217972 -0.123301685
0000b0 12 89 ad bd 11 e7 6b bd 98 9d 62 bd 2d f1 03 bd
       -0.0847341 -0.05759341 -0.055326074 -0.032212425
0000c0 19 9c 88 bc 20 53 f0 3d d9 6b 80 3d c9 ee 99 3d
       -0.016675996 0.11734605 0.0627057 0.07516248
0000d0 62 b5 fe 3c 2c ac aa ba ca 13 09 3e 32 52 b6 3d
       0.03109235 -0.0013021282 0.13386455 0.08902396
0000e0 69 ab 7f bc b1 2a c2 bc 8e ab 92 3d 1a 4d 14 bd
       -0.015604832 -0.023701997 0.07161628 -0.036206342
0000f0 10 a5 c9 3d 90 89 ab 3d ca 37 05 3b 55 dd 50 3d
       0.09845936 0.08375847 0.0020327442 0.05099233
000100 14 c7 62 3c d6 c0 d1 3d 24 82 bd 3d cb de 67 bd
       0.013841409 0.10241859 0.09253338 -0.056608956
000110 ab ca 9e bd e3 fc e8 bd 8d cf 3e bd 48 5c 38 bc
       -0.077534996 -0.11376359 -0.046584655 -0.01125247
000120 99 fa 06 3d b5 eb d9 3d 74 34 64 3d db 0a 19 bd
       0.032953832 0.10640661 0.055714086 -0.03736387
000130 90 ec bb 3d 26 c7 4e bc ff 0d 25 3b 0f a9 c4 3d
       0.0917598 -0.012620723 0.0025185344 0.09602558
000140 fa 3b 9c 3d 05 ff 2a 3d 45 95 c2 3d 03 28 9a 3c
       0.07628627 0.04174711 0.09501127 0.018817907
000150 33 54 29 3d 4b db 86 3d d6 fd 9b 3d 72 39 d9 3d
       0.041340064 0.065847956 0.07616775 0.1060666
000160 82 9a 99 3c d2 35 fb 3b e2 e4 fe 3d 90 b2 67 3c
       0.018750433 0.007666328 0.12446 0.014141694
000170 e8 70 1e 3e 9c 29 e0 3d 65 fd 2e 3d 8a 25 9f 3c
       0.15472758 0.10945436 0.042722125 0.01942708
000180 74 aa 3b 3d 6c 6a 87 bb a3 25 00 3e d6 e7 4a 3d
       0.045816854 -0.0041325595 0.12514357 0.049537502
000190 3e e9 01 3e fc 7c e3 3d 26 5e a4 3d 9a c5 07 3d
       0.12686631 0.11107823 0.0802577 0.033147432
0001a0 42 ef 9c 3d 7d 81 0c 3e 9c 31 5e 3d 26 aa 9d 3c
       0.07662822 0.13721271 0.05424653 0.019246172
0001b0 df 8f e8 3d 30 80 30 3c 2e fe ed 3b 5f cc 02 3e
       0.11355566 0.01077275 0.0072629666 0.12773274
0001c0 4c e6 36 3c 6e 11 41 3d e8 e0 d6 bd ee 2d ec bd
       0.0111633055 0.047135763 -0.10492116 -0.11532198
0001d0 ce ee de bd 5f ef a1 bd 59 9f 1f be a5 e6 65 bb
       -0.10885392 -0.079069845 -0.1558813 -0.0035080102
0001e0 30 1c c1 3d 45 24 ff bd 8c 65 f2 bd 09 79 a6 3d
       0.094292045 -0.1245809 -0.11835775 0.081285544
0001f0 43 1d 37 bd 98 b3 30 be 05 b9 92 bd a9 9e 0f bd
       -0.04470564 -0.1725601 -0.07164196 -0.03506342
000200 b1 20 e4 3d bd 9f 18 3d a1 b7 6f bd 90 02 4a 3d
       0.11139048 0.037261713 -0.05852473 0.04931885
000210 57 4e c4 3c e9 3e f3 3c 58 86 eb 3d 01 5a 9b bd
       0.023963137 0.029693084 0.115002334 -0.07585526
000220 20 7e 93 3d 88 b8 9b bc e0 12 9f 3c 49 a5 66 3c
       0.07201791 -0.01900889 0.01941818 0.014077493
000230 da bb 82 3c a1 90 9e bc 78 46 90 3d 99 91 a9 3c
       0.015958715 -0.019356074 0.07044691 0.02069931
000240 46 ae c0 bc a0 64 a9 3d 9e dc 18 bc 93 5f 95 bd
       -0.0235206 0.08271146 -0.009329943 -0.0729362
000250 44 05 80 bc 42 04 8c 3b f7 7c 1e 3d 97 dc d0 3c
       -0.01562751 0.0042729685 0.038693395 0.02549581
000260 c0 7f ae bd e0 f7 f1 3d 35 a4 c4 3d c0 5a 60 3c
       -0.0852046 0.118148565 0.096016325 0.0136935115
000270 31 3b 77 3d 3f 70 0a 3b 71 f0 be 3d 9d 3c 01 3d
       0.060359184 0.0021124033 0.09323204 0.031551946
000280 fa 02 04 bd cf 6e e4 bb 4e 93 96 bc a4 9d e9 3c
       -0.0322294 -0.006971217 -0.018380787 0.028517552
000290 37 7d 0b 3c a6 b9 cf bd 74 09 78 ba e0 2e 27 bd
       0.00851374 -0.101428315 -0.0009461858 -0.040816188
0002a0 47 1f 0d be 34 d0 5f 3a 85 82 0f be 8a bf 03 be
       -0.13781463 0.00085377996 -0.14014633 -0.12866035
0002b0 a0 71 9c bd 45 2c c1 bd bf 07 56 3d 9e e4 d6 3d
       -0.0763886 -0.09432272 0.05225348 0.10492824
0002c0 b4 48 00 3b d7 4f 5b 3c b8 4d b6 bb 58 16 00 be
       0.0019574584 0.0133857345 -0.005563464 -0.12508523
0002d0 76 26 26 bd 4b ef f4 bc b1 64 34 bd d2 91 05 3b
       -0.040564023 -0.02989926 -0.04404134 0.0020381105
0002e0 2c db 9c bd da c7 ca bd 06 ea 98 3c 27 5f f7 bd
       -0.07658991 -0.099014 0.018666279 -0.12078696
0002f0 ee 05 ac bd 80 1f e5 bd fd 32 b6 bd 4d 90 1d bd
       -0.083995685 -0.11187649 -0.08896444 -0.038467694
000300 e5 10 bc bc 55 33 52 3b 89 21 2b bc 4b 93 8d 3d
       -0.022957275 0.0032074053 -0.010445007 0.069128595
000310 57 e7 23 3d 95 50 3f bd 51 6c d8 3b aa a1 bb bc
       0.040015545 -0.04670771 0.006604709 -0.022904236
000320 2e d9 7f bc 48 87 d9 bd ba ae c7 bd ca c1 a5 bd
       -0.0156157445 -0.10621506 -0.09750123 -0.08093603
000330 88 50 34 3c fb 72 e8 bb c7 ed b6 bc 1a 77 96 3b
       0.011005528 -0.007093785 -0.022330178 0.0045918347
000340 e6 f6 f7 bd 6c fa a7 bd 3e f0 59 bd f5 74 c8 bd
       -0.12107639 -0.08202061 -0.05320763 -0.09787933
000350 0d 14 db bb 02 3f 9a bd cd a8 87 3c d1 27 11 be
       -0.00668574 -0.07531549 0.016559983 -0.14175345
000360 be c2 05 be af 0b 38 bd 5b 4e 52 bd 8d 9d a7 bd
       -0.1306257 -0.044933017 -0.051344257 -0.08184347
000370 b5 90 ab bc 7d 34 06 be f3 d8 3d bd 8b 54 04 be
       -0.020943025 -0.1310596 -0.046349477 -0.12922876
000380 43 bf 97 bd a8 8e f0 3b 14 e1 09 bc 67 58 b0 bb
       -0.07409527 0.0073412247 -0.008415479 -0.005381632
000390 fc d2 25 bc df b8 4c bd db ce ec bd d9 c9 12 ba
       -0.010121103 -0.049980994 -0.11562892 -0.00055995357
0003a0 ea b9 26 bd a6 95 86 bc f8 21 57 bb 0b b0 42 bd
       -0.040704645 -0.01642878 -0.0032826643 -0.04753117
0003b0 c5 fe ee 3b 7f 4c fa bd 67 66 21 bc 38 10 be bd
       0.0072935545 -0.12221622 -0.009851075 -0.09280437
0003c0 fa e1 35 bd 44 1a a2 bd 4e 1a dd bd f1 a3 ab bd
       -0.04440496 -0.07915166 -0.10796033 -0.08380879
0003d0 00 a1 56 bd 06 bf d2 bd 71 48 08 be 20 3e 62 3c
       -0.052399635 -0.10290341 -0.13308884 0.013808757
0003e0 1d 1a 94 bd 52 65 ed bd 03 7a 15 bd 58 a9 a1 bd
       -0.07231543 -0.11591591 -0.036493313 -0.07893628
0003f0 c2 7c 8b bd 96 e2 a2 bd 74 1a dc bd d6 a4 85 bc
       -0.06810905 -0.07953374 -0.10747233 -0.016313951

bias f4 [10]
000000 99 95 c8 3b b0 34 c7 bd 4a da ed 3b e8 07 74 bc
       0.006121349 -0.09726846 0.007258688 -0.014894463
000010 88 77 3e 3d 7e 13 2d bc 0a 0b 13 3b 56 22 c2 3d
       0.046500713 -0.010563729 0.0022437 0.09479205
000020 b3 3d d5 bd b2 1d 95 3d
       -0.10412159 0.072810546

weight f4 [10, 10, 5, 5]
000000 2f 14 0d 3d 96 e7 21 3d ed b8 09 3c 33 23 e7 bc
       0.034443077 0.0395275 0.008405906 -0.028215026
000010 99 62 75 bc 11 b2 c5 3c fe 7e 87 bd 8c 32 f1 bc
       -0.014977121 0.02413276 -0.06616019 -0.029443048
000020 91 70 c9 3b ff 02 82 bd 31 94 af 3b 05 b1 d2 bd
       0.006147452 -0.06348228 0.005358242 -0.1028767
000030 81 e2 00 be c5 31 ae bd 25 f6 f2 bd a6 83 31 bd
       -0.12586404 -0.085055865 -0.118633546 -0.04333844
000040 f2 67 61 bd 32 cf 02 bd 39 00 6e bd 28 b4 51 bb
       -0.05503077 -0.031935878 -0.05810568 -0.003199825
000050 d0 36 a4 bd 24 b0 b1 bd da 39 8b 3c 7f bc b1 bd
       -0.08018267 -0.08676174 0.01699536 -0.08678531
000060 2d 5a 22 3c c3 e3 eb 3d 2a 8a 0f bd 4d ac ef 3d
       0.009909195 0.115180515 -0.035043873 0.11702786
000070 6c af 8e bd 3b 14 17 bd 8e 8b 4d bc 42 93 d6 bd
       -0.06967053 -0.036884528 -0.012545479 -0.10477306
000080 10 e0 96 bd 06 e2 57 3b 5c 30 6d bc e8 51 9a bd
       -0.07366955 0.0032941117 -0.014476862 -0.075351536
000090 a4 d2 f5 bd b0 4a 82 bd aa 42 2a bc e2 65 09 bd
       -0.12003067 -0.06361902 -0.0103918705 -0.03354443
0000a0 dd 45 7c 3b fe ad e8 bd 29 39 b4 bd 0d f8 e8 bd
       0.003849379 -0.113613114 -0.08799965 -0.11375437
0000b0 eb e3 50 bd f2 d9 80 bd 43 65 c1 bc c1 55 da bd
       -0.05099861 -0.0629157 -0.023607856 -0.106608875
0000c0 8c 98 ca bd 6e 2a af 3d df 57 81 bc 43 03 d0 bc
       -0.09892377 0.08553015 -0.01578897 -0.02539218
0000d0 76 f5 91 bd aa 5c e4 bd d2 c3 85 bd 33 94 f9 bd
       -0.07126896 -0.11150487 -0.065314904 -0.1218647
0000e0 92 71 3e bd a6 7c 36 bd d9 f2 0b be 2d 5f a0 bd
       -0.046495028 -0.044552468 -0.13666858 -0.07830653
0000f0 dc 79 30 bd b7 8d 34 3b 21 6b dc bd bf 52 97 bd
       -0.043084964 0.002755029 -0.10762621 -0.073888294
000100 ce 09 88 bd 7c a1 a9 3b 8a 9e b6 bb df 03 02 be
       -0.06642495 0.005176721 -0.0055730985 -0.12696789
000110 33 ae 8b bd 60 3b bc 3c e1 57 91 bb 6c 44 56 bd
       -0.06820335 0.022977531 -0.004435525 -0.052311346
000120 c4 c0 cc bd b1 e1 5d bd 5a 47 06 bd 3d fe 2e 3c
       -0.099977046 -0.054170314 -0.03278289 0.010680732
000130 37 b6 d6 bd 4d 04 20 bd ec 3e 3a bc f2 3d 40 bd
       -0.104839735 -0.0390666 -0.011367541 -0.046934076
000140 a4 5c 67 b9 26 c7 32 bd 76 26 04 bd 2b 47 cd ba
       -0.00022064388 -0.043646954 -0.03226324 -0.0015661468
000150 35 ef 46 bc e0 55 0a bd 12 2c 57 bd d7 60 68 bd
       -0.012141992 -0.033773303 -0.052532263 -0.05673298
000160 96 53 be bc 27 00 6c bd d8 01 a4 bd 27 de 77 bc
       -0.023233216 -0.057617333 -0.08008164 -0.015128649
000170 44 e4 b7 3c e6 0e 9f 3c 36 ad 47 bc d9 34 55 3c
       0.022447713 0.019416284 -0.012187293 0.013013088
000180 7b 40 62 bd a9 ab 9b 3b bf 8f 9f bd 0f 5a d5 bd
       -0.055237275 0.004750688 -0.07791089 -0.10417568
000190 90 66 dd bc ef 40 5f bd f7 4e 7a 3c b7 e3 a9 bc
       -0.027026445 -0.054505285 0.015277616 -0.020738466
0001a0 98 ef b5 3c 10 8d 65 3b be 23 8e bc df cd cf bd
       0.022208974 0.0035026707 -0.017351028 -0.10146689
0001b0 d4 fd 70 bd f4 01 8e bc 11 3f 9d bd 33 50 7b bd
       -0.05883582 -0.017334916 -0.076780446 -0.06135578
0001c0 6b f9 cf bd d2 85 23 3c 31 22 50 bd 9f eb 49 bd
       -0.101549946 0.009980636 -0.050813857 -0.04929697
0001d0 37 61 51 bd fa 00 bb bc ba fb af bd 63 21 ce 3c
       -0.051118102 -0.022827614 -0.08592935 0.025162404
0001e0 c2 4a 74 bd cc 23 91 bc f3 e8 69 bd b8 20 46 3c
       -0.059641607 -0.017717265 -0.057106923 0.012092762
0001f0 14 5e 85 bc 41 b3 5e bd 72 63 27 bd 1f 19 b8 3c
       -0.016280212 -0.05437017 -0.040866323 0.022472916
000200 ba e3 a8 bd f3 0b cc bc 89 3d bc bd 51 24 5f bd
       -0.082465604 -0.024908042 -0.091914244 -0.054477993
000210 21 a3 cd bd 0c 72 25 bd 58 4c 02 be a3 9b 4e 3c
       -0.1004088 -0.040391967 -0.12724435 0.012610349
000220 2f b7 e2 bd d4 d4 c6 bd e8 9b c6 bd 99 f3 e0 bd
       -0.11070096 -0.097085625 -0.096977055 -0.109839626
000230 8f b5 da bc 95 7a 8d 3c da 05 55 bd 86 b4 17 bd
       -0.026697902 0.017270366 -0.052007534 -0.037037395
000240 3b 3a 8a bd 14 1b b9 bd 64 85 07 be 52 8a b3 bd
       -0.06749388 -0.09038368 -0.13234478 -0.08766617
000250 fc 84 69 bd cd f6 cf bd 6d c7 97 bd f3 40 cf bd
       -0.05701159 -0.101544954 -0.07411084 -0.1011981
000260 16 5e d6 bb 16 57 6b bd 89 dc 32 bd 3a 6e 77 bd
       -0.0065419776 -0.0574561 -0.04366735 -0.060407855
000270 1f 27 82 bd a3 b0 ab bd 2a 93 45 bc 97 6b 5a bd
       -0.06355118 -0.083833 -0.012059012 -0.053325262
000280 9b 19 f0 bd 8f 3b a2 bd 49 96 52 bc 53 73 fa bc
       -0.11723634 -0.07921516 -0.012853214 -0.030572569
000290 66 e2 68 bc 24 5e 9b bc 2c 99 23 bd 22 e1 e0 bd
       -0.014214134 -0.018965788 -0.039940998 -0.10980441
0002a0 d4 74 f4 bd b6 71 aa bd e7 90 f4 ba fa f0 95 bc
       -0.11936346 -0.0832247 -0.0018658907 -0.018303383
0002b0 41 55 cd bd e5 b5 86 bd 37 e3 d4 bc bf f0 9c 3c
       -0.100260265 -0.065776624 -0.02598725 0.019157765
0002c0 82 11 46 bd 94 63 9a 3c 00 94 fc bc 44 b5 e2 bd
       -0.04835654 0.01884631 -0.03083229 -0.1106973
0002d0 0b af 98 bd 9a b3 82 3d 71 2b 87 bd 34 7e 94 bd
       -0.07455262 0.063819125 -0.06600083 -0.07250634
0002e0 65 f0 22 3c 09 7c 9b bd 3b 3d 08 3d 71 27 af 3d
       0.00994501 -0.07592017 0.03326152 0.08552445
0002f0 f3 ee 7d bd c8 41 ae bc 56 e3 71 bc f2 55 fc bc
       -0.061995458 -0.021271601 -0.014763674 -0.0308027
000300 2b 6a d8 bd d2 16 69 bd 77 0e 86 bd d4 ab d1 bd
       -0.10567125 -0.05690653 -0.06545728 -0.10237852
000310 d0 84 48 bd ba f4 9d bd 6c 97 94 bd ef 63 34 3c
       -0.048954785 -0.077126935 -0.07255444 0.011010154
000320 09 eb c7 bd e0 43 a1 bc 91 ce 58 bb 1c 30 f6 bb
       -0.09761626 -0.019685686 -0.0033082108 -0.0075130593
000330 82 2a 9c bd ee 19 e2 bc f7 53 86 bd ac 85 f1 bd
       -0.07625295 -0.027600255 -0.06558984 -0.11793074
000340 cc fd 8e bd 3a cc b4 bd 9d 39 22 bc 53 9b 98 bc
       -0.06982002 -0.088280156 -0.009901431 -0.018628752
000350 ad b8 86 bb 35 86 c1 bc a3 90 92 bc c5 3b 83 bd
       -0.0041113705 -0.023623565 -0.017891234 -0.064078845
000360 a3 a0 30 bd 8d 7f 63 bd 64 4d 0e bd 26 77 ca bd
       -0.043121945 -0.055541564 -0.034741774 -0.09886007
000370 05 55 75 bd 7e 60 22 bc 85 24 4f bd 8c 37 c7 bd
       -0.059895534 -0.009910701 -0.050571937 -0.097273916
000380 f2 94 c1 bd 59 21 08 be e9 d3 d8 bd 6a 05 f0 bd
       -0.09452237 -0.13293971 -0.10587294 -0.11719783
000390 6f 0f fb bd c7 43 35 bd af 07 07 be c8 84 58 bd
       -0.12258803 -0.04425409 -0.13186525 -0.052861005
0003a0 dd 73 3d bd d7 2e a4 bc 28 be c3 bd e1 35 65 bd
       -0.046253074 -0.020041866 -0.09557754 -0.055959586
0003b0 8a 70 d1 bd 24 37 81 bd f3 67 dd 3c d1 85 8a bc
       -0.10226543 -0.06309345 0.027027106 -0.016909512
0003c0 67 d2 83 bd dd 30 8f 3c c9 e9 02 bd 58 11 39 bd
       -0.064366154 0.017479355 -0.031961236 -0.045182556
0003d0 cb 12 d3 bd e6 6c f4 bd 00 91 3b bd 02 36 07 be
       -0.10306319 -0.11934833 -0.04579258 -0.13204196
0003e0 68 32 f2 bc c6 05 ff bd 3c 8f 08 3e 65 71 18 3d
       -0.029565051 -0.12452273 0.1333589 0.037217516
0003f0 46 78 11 3d e1 7c 8c 3d 92 58 b2 3c 63 d1 bf 3d
       0.035515092 0.06859756 0.02177075 0.09366109

bias f4 [10]
000000 be ac 07 be 09 b3 4d bd 4c e4 ff bd 2f 62 f5 bd
       -0.1324949 -0.05021957 -0.12494716 -0.11981618
000010 b4 00 c5 bd 4f ca fb 3a bc 3c 49 bd 09 56 ba 3d
       -0.09619275 0.0019210073 -0.049130186 0.09098441
000020 05 b7 db bd e3 1f 60 3d
       -0.107282676 0.05471791

weight f4 [810]
000000 23 50 6c 3f 88 2d 69 3f 41 0a 71 3f 8a 27 64 3f
       0.9230978 0.910851 0.9415627 0.8912283
000010 a3 07 6a 3f 89 1e 84 3f bc 5c 75 3f bd d1 8a 3f
       0.914179 1.0321819 0.95844626 1.0845257
000020 11 b8 74 3f c9 67 5e 3f de 76 7a 3f 2f cf 58 3f
       0.95593363 0.86877114 0.97837627 0.8469114
000030 52 58 5a 3f f3 0d 5b 3f 78 6a 5a 3f 7d 87 85 3f
       0.85291016 0.8556816 0.8531871 1.0431973
000040 b1 89 6e 3f 67 99 8a 3f c8 46 88 3f 5b cd 88 3f
       0.9317885 1.0828065 1.0646601 1.068767
000050 7f 95 8b 3f be 70 7d 3f 3f dc 6f 3f 5f 26 7f 3f
       1.0904998 0.99000156 0.93695444 0.99667925
000060 6c 7d 82 3f 45 8d 84 3f 57 43 73 3f 3e f0 74 3f
       1.0194526 1.0355612 0.9502463 0.9567908
000070 10 83 6f 3f 84 e1 6a 3f dd 11 81 3f 49 d3 7b 3f
       0.9355936 0.9175036 1.0083576 0.9836927
000080 c9 47 7e 3f 8f a1 80 3f 56 3d 79 3f 5b f7 6a 3f
       0.99328285 1.0049304 0.97359216 0.91783684
000090 57 2d 70 3f 07 47 8d 3f 9a e3 6a 3f bd 77 6d 3f
       0.93819183 1.1037301 0.9175354 0.9276083
0000a0 20 25 73 3f 05 ba 8a 3f b8 ab 76 3f 06 02 77 3f
       0.94978523 1.0838019 0.9635577 0.9648746
0000b0 e0 9e 79 3f e5 df 69 3f 1e 9a 80 3f d8 46 7f 3f
       0.9750805 0.9135726 1.0047033 0.99717474
0000c0 3d 69 6d 3f 11 19 68 3f c5 c1 65 3f 09 2e 7d 3f
       0.92738706 0.9066325 0.89748794 0.9889837
0000d0 83 5c 82 3f 6b 84 8a 3f e9 9c 83 3f a4 5f 81 3f
       1.0184482 1.0821661 1.028226 1.0107312
0000e0 28 74 87 3f d3 67 58 3f 53 3e 82 3f 5e 20 79 3f
       1.0582323 0.84533423 1.017527 0.97315013
0000f0 cb 00 6e 3f 4e 29 89 3f 1d 87 84 3f af 85 6c 3f
       0.9296996 1.071573 1.0353733 0.92391485
000100 37 e6 62 3f c5 8e 6d 3f 51 b5 72 3f 8e 88 56 3f
       0.8863253 0.92795974 0.94807917 0.83802116
000110 7f 7a 64 3f f7 b1 7a 3f 34 dc 7c 3f 34 24 85 3f
       0.89249414 0.979278 0.98773503 1.0401673
000120 01 1b 7a 3f 76 5e 77 3f 4c 37 5e 3f 14 5d 7b 3f
       0.97697455 0.9662851 0.86803126 0.981889
000130 cf 21 7c 3f cc 2a 81 3f 61 9f 7a 3f ad 1e 87 3f
       0.9848909 1.0091186 0.9789944 1.0556237
000140 28 c0 80 3f 14 a0 68 3f a2 42 6e 3f e6 8b 8a 3f
       1.0058641 0.9086926 0.93070424 1.0823944
000150 3d 3c 69 3f 2e de 80 3f fd 41 88 3f 6c 5c 7a 3f
       0.9110754 1.0067804 1.0645138 0.97797275
000160 4c 61 89 3f 81 d6 87 3f 36 60 87 3f 65 9c 8b 3f
       1.0732818 1.0612336 1.0576236 1.0907103
000170 58 54 75 3f 65 e2 8a 3f e8 2a 88 3f f9 18 86 3f
       0.95831823 1.085034 1.0638094 1.0476371
000180 2d 5f 7b 3f 3a 38 80 3f 86 2e 83 3f e4 ce 7f 3f
       0.981921 1.0017159 1.0248573 0.99925065
000190 cb 79 76 3f 47 b2 71 3f 7f 01 82 3f 6b 82 70 3f
       0.9627959 0.94412655 1.0156707 0.93949
0001a0 6e 72 75 3f 21 d0 8d 3f 30 ec 81 3f 02 b1 7d 3f
       0.9587773 1.1079141 1.0150204 0.9909822
0001b0 31 8d 7b 3f 63 90 7c 3f 33 d1 8c 3f 60 b5 86 3f
       0.98262316 0.98657817 1.1001343 1.0524101
0001c0 fc d8 86 3f 21 04 88 3f b1 4d 85 3f b6 f3 83 3f
       1.0534968 1.062626 1.0414335 1.030875
0001d0 52 67 83 3f b0 81 8a 3f 36 64 8e 3f 68 7e 8c 3f
       1.0265906 1.0820827 1.1124332 1.0976076
0001e0 7a 5f 82 3f 16 0d 86 3f 47 33 8f 3f bf 01 8c 3f
       1.0185387 1.0472744 1.1187524 1.0938033
0001f0 1d 1e 82 3f 06 a9 82 3f e2 df 87 3f 1a 54 84 3f
       1.016544 1.0207832 1.0615199 1.0338166
000200 d6 9d 87 3f d5 8f 8d 3f 50 4a 8c 3f ab 48 8b 3f
       1.0595043 1.1059519 1.0960178 1.0881552
000210 d0 33 73 3f dc 59 6a 3f 6c 16 71 3f 47 8e 81 3f
       0.95000935 0.91543365 0.9417484 1.0121545
000220 23 b9 8c 3f 22 7b 88 3f 4f 5e 6b 3f 38 35 73 3f
       1.0993999 1.0662577 0.9194078 0.9500308
000230 0c f7 66 3f 0a 05 85 3f e5 e4 69 3f 09 18 7d 3f
       0.90220714 1.0392163 0.9136489 0.988648
000240 31 5b 89 3f 55 e2 85 3f 83 77 84 3f 45 f2 6c 3f
       1.0730954 1.0459696 1.0348972 0.92557174
000250 9d 6b 8a 3f 16 83 8c 3f f7 dc 78 3f 4e be 81 3f
       1.0814091 1.0977504 0.97212166 1.0136201
000260 95 d3 79 3f 10 9c 82 3f c5 21 79 3f 2a 18 67 3f
       0.97588474 1.0203876 0.97317153 0.90271246
000270 06 66 82 3f 63 2d 88 3f 1c 51 8d 3f 09 db 76 3f
       1.0187385 1.0638851 1.1040378 0.9642797
000280 ce 62 86 3f d1 1e 82 3f b5 67 63 3f 36 6b 65 3f
       1.0498903 1.0165654 0.8883012 0.89616716
000290 45 f4 77 3f 5c cc 69 3f e4 7b 78 3f bf d8 7d 3f
       0.968571 0.9132745 0.9706404 0.99158853
0002a0 b4 e1 86 3f d9 5f 85 3f 37 cb 82 3f 5a f3 82 3f
       1.0537629 1.0419875 1.0218266 1.0230515
0002b0 20 1b 7f 3f 71 37 68 3f f2 a1 74 3f c0 4c 71 3f
       0.99650764 0.90709597 0.9555961 0.94257736
0002c0 db 10 83 3f 13 57 71 3f e7 e1 84 3f d1 ad 8b 3f
       1.0239519 0.9427349 1.038144 1.091242
0002d0 94 0a 7e 3f 7f ce 64 3f 41 e9 84 3f fa 7d 88 3f
       0.9923489 0.8937759 1.0383683 1.0663445
0002e0 c7 b4 92 3f 93 71 84 3f 8e 7b 75 3f c4 be 82 3f
       1.1461419 1.034716 0.95891654 1.0214467
0002f0 ab 46 83 3f 58 80 81 3f 43 77 78 3f 3e 11 89 3f
       1.0255941 1.0117292 0.9705698 1.0708387
000300 39 51 72 3f 43 21 90 3f 98 54 87 3f 87 1f 79 3f
       0.94655186 1.1260151 1.0572691 0.9731373
000310 a0 4b 8d 3f be 30 69 3f 88 41 88 3f 52 69 82 3f
       1.1038704 0.9109 1.0644999 1.0188391
000320 73 1b 77 3f a5 3e 83 3f dd 1f 8b 3f ee e4 74 3f
       0.9652626 1.0253493 1.0869099 0.9566182
000330 ab d0 78 3f 69 13 72 3f fd b0 85 3f 39 d9 81 3f
       0.971934 0.9456087 1.0444638 1.0144416
000340 5f 42 8c 3f 32 23 86 3f da 2e 7f 3f 01 db 82 3f
       1.0957755 1.0479491 0.99680865 1.0223085
000350 bd 9c 80 3f 0c 1e 7d 3f c8 e1 79 3f 32 e0 85 3f
       1.0047833 0.9887397 0.9761014 1.0459044
000360 04 30 74 3f 33 60 8b 3f ba 90 84 3f 1b 64 82 3f
       0.95385766 1.0888733 1.0356667 1.01868
000370 39 0a 70 3f 53 8b 7c 3f 16 76 89 3f b9 3a 95 3f
       0.937656 0.9865009 1.0739162 1.1658546
000380 cb fe 81 3f d7 d1 6e 3f b6 0c 7a 3f 53 25 6d 3f
       1.0155882 0.9328894 0.97675645 0.9263508
000390 27 e1 8c 3f 1b 50 7e 3f d1 a5 8f 3f b8 b0 6e 3f
       1.1006211 0.9934098 1.1222478 0.932384
0003a0 52 56 7c 3f 23 37 8d 3f 4d 42 8b 3f 42 29 85 3f
       0.98569214 1.1032451 1.0879608 1.0403216
0003b0 71 2c 8c 3f a2 c8 80 3f ab c9 71 3f c5 55 78 3f
       1.0951062 1.0061228 0.94448346 0.97005874
0003c0 23 85 82 3f 0d 05 81 3f cb 33 73 3f d3 f2 66 3f
       1.019688 1.0079666 0.95000905 0.9021427
0003d0 f2 b2 82 3f ce 3b 83 3f 87 32 6e 3f 95 1f 7c 3f
       1.021086 1.0252626 0.9304585 0.9848569
0003e0 d5 04 83 3f c7 6f 86 3f 52 e2 6b 3f 42 06 5e 3f
       1.023585 1.0502862 0.9214221 0.867283
0003f0 cd e6 6e 3f c5 0a 6d 3f 2a 7d 71 3f 3a 17 72 3f
       0.93320924 0.9259456 0.9433161 0.9456669

bias f4 [810]
000000 a5 51 8d bd 71 a0 ac bd 69 ba 9c bd 9f a9 03 3d
       -0.06900338 -0.08429039 -0.076527424 0.032144185
000010 74 78 84 bd 35 ec aa bd 41 c6 8b bd 49 d9 b4 bd
       -0.06468287 -0.08345834 -0.06824923 -0.08830506
000020 b7 b2 09 bd 15 c2 46 bd 2c 1c 04 bc 66 c2 32 bd
       -0.0336177 -0.048524935 -0.008063357 -0.043642424
000030 48 29 9a bb c6 85 79 bd c2 54 b5 bd 83 26 86 bd
       -0.004704628 -0.060918592 -0.08854057 -0.06550314
000040 28 be 56 3c 68 9a 65 bd 2a a3 a8 bd 48 f9 b0 bd
       0.01310686 -0.056055456 -0.08234246 -0.086412966
000050 f4 3b c1 3d 3f 6e 8e 3d 8d 4b 14 bd 7e 63 23 3d
       0.09435263 0.069546215 -0.036204863 0.039889805
000060 05 85 c3 3d 50 13 a9 bd 5f 01 e8 3c 02 14 43 bd
       0.09546856 -0.08255637 0.028320966 -0.047626503
000070 c1 aa 3c 3d b7 a6 3f bc b8 e3 c5 bc 20 43 b3 bd
       0.04606128 -0.011697463 -0.024156436 -0.087530375
000080 cc f0 fc 3c b5 66 9a 3d 71 ab 50 bc 31 62 08 3d
       0.03087654 0.07539121 -0.012736187 0.033296768
000090 d6 e5 1d bd 6e cc 69 bd 5f a1 39 3d 05 10 ab bd
       -0.038549267 -0.057079725 0.04531991 -0.08352665
0000a0 7b 57 b7 3b 4b 7f 67 3c 89 d4 bd bd 86 eb cc 3b
       0.0055951453 0.01412947 -0.092690535 0.0062536625
0000b0 3a 58 cf bc 3b bc ae bd b8 86 3e bd 2e 7b 91 bd
       -0.025310624 -0.08531996 -0.046515197 -0.07103573
0000c0 98 b1 67 3c f1 05 9e 3c 69 35 84 bd 51 91 ce 3d
       0.014141463 0.019289942 -0.064555 0.10086311
0000d0 77 6b 48 bd 0a 81 f1 3c 83 09 4a bd 3e c4 95 bd
       -0.04893061 0.029480476 -0.049325477 -0.07312821
0000e0 31 3b 9e bd 5b f7 a2 3d 6f 1a 38 bd f2 db 02 be
       -0.077261336 0.079573356 -0.044947084 -0.12779215
0000f0 ff 83 56 3c bb eb 62 3d 41 2a 63 3d fc 73 b9 3d
       0.013092994 0.05540059 0.05546022 0.090553254
000100 1b 96 d9 bc 92 42 89 3b 4a f3 45 bd 55 09 61 3d
       -0.026560834 0.004188844 -0.04832772 0.05494054
000110 e5 60 87 bd 1c d3 93 3d 3e 57 8d 3d c0 97 25 bd
       -0.06610278 0.07218 0.06901406 -0.040427923
000120 52 e2 7f 3b e3 17 86 bd eb 56 89 3b 8e 89 0c 3c
       0.003904481 -0.06547525 0.0041912696 0.0085777175
000130 c8 49 2e bd d2 a2 b5 3d 31 8e 8d bd 17 75 77 bd
       -0.042550832 0.08868946 -0.069118865 -0.0604144
000140 20 e8 17 bc 51 07 76 bd ca 25 5f bd 67 da 97 bd
       -0.0092716515 -0.06006557 -0.054479398 -0.07414704
000150 42 fd b9 bd 88 35 4b 3d fe 10 44 3d f0 ec 06 3c
       -0.09081508 0.0496116 0.047867768 0.008235201
000160 33 44 9d bc 00 be ee ba 94 26 22 3d cd f0 58 3d
       -0.019197559 -0.0018214583 0.039587572 0.05296402
000170 f3 d1 7c bd 33 1a 14 bc 4b 43 1d 3e c7 6d fe 3d
       -0.06172366 -0.0090394495 0.15357701 0.12423282
000180 4e 4c 3f bd 71 8d 11 bc 07 cc c2 3d f9 fa 9d 3d
       -0.04670363 -0.00888382 0.095115714 0.07713885
000190 05 c7 50 bd 53 7f ca bd a0 f4 de 3b c7 f7 64 3d
       -0.05097105 -0.098875664 0.006804064 0.05590036
0001a0 b7 3f 25 bd 28 bd ab bd 18 91 58 bd 92 76 c8 3d
       -0.040343966 -0.08385688 -0.052872747 0.097882405
0001b0 89 f5 df 3c cc e7 8a bc 1a 82 ca bc 8b 11 50 bd
       0.02733876 -0.016956232 -0.02472024 -0.05079798
0001c0 cb 73 b3 3c 1f 81 b1 3d 16 e2 06 bb b6 21 b6 3c
       0.0219058 0.08667206 -0.0020581535 0.022232872
0001d0 31 4d 39 ba 6a ec 84 bd 4e 07 bb bc 4a 6b e0 bc
       -0.00070686924 -0.06490405 -0.022830632 -0.02739491
0001e0 75 d1 d9 3d d1 51 63 3d 41 e1 6e bd e6 c6 90 3d
       0.10635654 0.055497948 -0.058320288 0.07069187
0001f0 40 2c ab 3c 65 2b 81 3d 5b 1a 84 bd f9 d3 95 bd
       0.020895123 0.06307105 -0.064503394 -0.07315821
000200 9e 47 01 3b 6a e8 66 3d 7f 13 5f 3d 0e f5 82 3c
       0.0019726525 0.05637399 0.054461952 0.015985992
000210 29 f5 92 bd e7 38 1e 3d ad 0f 4d 3d 4e b4 91 bd
       -0.07175667 0.038628485 0.050063778 -0.071144685
000220 d2 94 a7 bd 1f fb f6 3c c7 79 86 bd dc 0b 99 bd
       -0.08182682 0.03014904 -0.06566196 -0.07472965
000230 36 91 b5 3d 82 38 cf bc 53 61 97 bc 87 5f 99 3c
       0.088655874 -0.0252955 -0.018479025 0.018722309
000240 77 36 8f 3d 2f b7 ac bc 25 82 e1 3d 45 64 ae 3d
       0.0699281 -0.021083442 0.11011151 0.08515219
000250 11 9c a1 3d 6b bb aa 3d 9c b4 6e 3d 42 17 14 bd
       0.078910954 0.083365284 0.05827771 -0.036154993
000260 52 04 b0 3d 1e e1 9f 3c 44 0c 87 bd 97 02 bc 3d
       0.08594574 0.019516524 -0.06594136 0.091801815
000270 d8 8f 62 bd 9b 0c 9b 3d c2 fd e1 bc 2f be 59 bc
       -0.05531296 0.07570764 -0.027586821 -0.013289972
000280 d2 aa c6 bb f9 94 84 bc df cc ce 3c 51 38 91 3d
       -0.006062844 -0.016184317 0.025244175 0.070908196
000290 55 c1 6d bd 56 d4 1e bd 5d 36 9f bd 70 2f 2b bd
       -0.058045704 -0.038776718 -0.07774041 -0.041793287
0002a0 7c ea eb 3c ea 52 3b bc c3 f7 73 bd 3a 40 fc 3c
       0.028798334 -0.0114333425 -0.059562456 0.030792344
0002b0 38 66 8f bd 33 69 0d bd 22 ea 45 3c 9a 43 06 3d
       -0.070019186 -0.034524154 0.012079747 0.032779314
0002c0 30 08 94 bd cb 87 ce 3c 6e e6 75 3b 49 33 45 bd
       -0.07228124 0.025211236 0.003752138 -0.048144612
0002d0 6d b0 f2 3c 80 42 65 bd 70 30 ab bc 75 14 3f bd
       0.029625142 -0.055971622 -0.02089712 -0.04665037
0002e0 24 1a 5e bd 36 e6 ad 3c 89 d2 34 bc 2c ec 1f b7
       -0.05422415 0.021227937 -0.011036524 -9.532127e-06
0002f0 34 9b 48 3d 96 a5 a8 3c 5d 21 46 bd e7 cb 43 bd
       0.04897614 0.02058677 -0.04837166 -0.04780188
000300 42 77 4c 3d 94 7c 78 bd a1 56 b6 bc aa 9e 5e 3c
       0.04991842 -0.060665682 -0.022258105 0.013587633
000310 75 55 80 3d 87 d7 19 bd dd 68 0f bd bf c0 59 bd
       0.062663 -0.03755906 -0.035012115 -0.053162333
000320 f1 84 66 bd 27 8a 03 3d ed d4 d3 3c ad fa 58 3d
       -0.056279127 0.032114174 0.025858367 0.052973438
000330 11 6c 72 3d 96 a9 c3 bc 7d d3 3f 3d a5 f5 3c bd
       0.05918509 -0.023884576 0.04683255 -0.046132702
000340 f7 6d 02 3c 03 10 83 3d 52 df 88 bd 00 e6 21 bc
       0.007960788 0.06399538 -0.0668322 -0.009881496
000350 83 43 b1 3d 33 e8 55 3d 58 24 d8 bc 64 fe 7c bd
       0.08655455 0.052223396 -0.026384518 -0.061766043
000360 29 73 07 3c 1c 9f 8d 3d b4 d6 40 bc 3a 89 8e 3d
       0.008267202 0.06915113 -0.011769939 0.06959768
000370 cf dd de bd 6a a8 a9 bd 93 8b 02 be 33 1a dc bc
       -0.108821504 -0.082840756 -0.12748556 -0.026867962
000380 35 e8 85 3d f3 cb 88 3d 90 a7 b0 bd bf 62 22 3d
       0.065384306 0.06679525 -0.0862571 0.039644953
000390 88 16 c4 3b 8c 25 49 3d a2 ff 0d 3d a1 0f 43 bb
       0.0059841312 0.049108073 0.03466762 -0.0029763954
0003a0 13 83 cd bc 48 f2 f8 bc 9f b4 75 3d e4 d6 63 3d
       -0.025086915 -0.030388966 0.059986707 0.055624858
0003b0 dc e1 3c 3d 6c 8f b8 bc 90 43 c3 3d 19 83 0e 3d
       0.046113834 -0.022529326 0.09534371 0.034792993
0003c0 fb b5 83 3d 04 a3 03 bd 4f db 10 bd f8 8c 8c 3d
       0.064311944 -0.032137886 -0.0353654 0.06862825
0003d0 bc 0d 9f bd 0d 5d ba bd f6 19 a5 3a d1 c2 69 3c
       -0.077662915 -0.09099779 0.0012596238 0.014267639
0003e0 94 07 bd bd b0 32 e5 bb 98 00 93 bd 9a 5a 43 bd
       -0.09229961 -0.006994568 -0.071778476 -0.047693826
0003f0 2b f4 77 3c 8b 88 97 3d 0d 90 72 bd 77 8e 53 bd
       0.015133898 0.073990904 -0.05921941 -0.051649537

running_mean f4 [810]
000000 bc 95 c6 be 0a 6a c7 be c8 cb c6 be a6 71 c6 be
       -0.38786113 -0.3894809 -0.38827348 -0.38758582
000010 46 98 c6 be 22 d8 c5 be 1f 66 c4 be c1 40 c3 be
       -0.3878805 -0.3864146 -0.38359162 -0.3813534
000020 c1 cc c2 be 46 41 c7 be 53 95 c8 be 28 a2 c8 be
       -0.3804684 -0.38916987 -0.39176425 -0.39186215
000030 19 23 c8 be 5f 81 c7 be bb c2 c6 be b5 a3 c5 be
       -0.39089277 -0.3896589 -0.38820443 -0.3860146
000040 ee f1 c4 be 59 76 c4 be 1e c5 c6 be a4 d5 c8 be
       -0.38465828 -0.38371542 -0.38822263 -0.39225495
000050 65 3d c9 be d6 4e c8 be 06 09 c7 be 5e 2a c6 be
       -0.39304653 -0.39122647 -0.38874072 -0.387042
000060 1d c3 c5 be 38 6d c5 be b4 7e c4 be 3b f9 c4 be
       -0.38625422 -0.3855989 -0.38377917 -0.38471398
000070 36 4f c7 be 91 bc c7 be 21 bc c6 be 7d db c5 be
       -0.3892762 -0.39011052 -0.38815406 -0.3864402
000080 02 61 c5 be 6f 49 c5 be 28 50 c4 be 8a c1 c2 be
       -0.38550574 -0.38532588 -0.38342404 -0.38038284
000090 b7 ac c3 be 76 30 c5 be 1c 2c c5 be 21 68 c4 be
       -0.38217708 -0.38513535 -0.38510215 -0.38360694
0000a0 a6 1b c4 be 9a 3c c4 be f4 d6 c3 be 34 10 c2 be
       -0.38302344 -0.38327485 -0.38249934 -0.37902987
0000b0 f7 32 c0 be e4 40 c3 be 18 1b c4 be fb cd c3 be
       -0.37538883 -0.38135445 -0.3830192 -0.38243088
0000c0 cf 0a c3 be 97 aa c2 be 65 d3 c2 be ce b3 c1 be
       -0.38094184 -0.38020775 -0.38051906 -0.37832493
0000d0 b3 f4 bf be 54 9c be be 8d 6f c2 be dd ef c2 be
       -0.37491378 -0.37228644 -0.37975731 -0.38073626
0000e0 08 ee c2 be 87 4f c2 be 94 84 c1 be 21 08 c1 be
       -0.38072228 -0.379513 -0.37796462 -0.37701514
0000f0 1f 35 c0 be e3 f9 be be d4 b3 be be f7 6a c0 be
       -0.37540528 -0.37300023 -0.37246573 -0.37581608
000100 d3 cd c0 be f3 05 c1 be 4c 9d c0 be bf d0 bf be
       -0.3765703 -0.3769985 -0.37620008 -0.37463948
000110 6f f3 be be bb 73 be be f8 ec bd be 09 6a bd be
       -0.372951 -0.3719767 -0.37094855 -0.3699496
000120 5c 42 be be 31 a6 be be d3 1f bf be 8b f0 be be
       -0.37160003 -0.3723617 -0.37328967 -0.37292895
000130 a2 49 be be 82 b2 bc be 77 f2 bb be 3b ec bb be
       -0.37165552 -0.3685494 -0.36708423 -0.36703667
000140 22 39 bc be e5 72 2e 42 e6 e5 2e 42 e2 9b 2e 42
       -0.3676234 43.6122 43.72451 43.65223
000150 46 f2 2d 42 0e 49 2e 42 61 dd 2d 42 86 72 2c 42
       43.486595 43.571342 43.46619 43.11184
000160 81 3d 2b 42 36 b3 2a 42 6e 3f 2f 42 de 6c 30 42
       42.810062 42.67501 43.811943 44.106316
000170 4c 6a 30 42 41 9d 2f 42 a8 38 2f 42 dd b0 2e 42
       44.103806 43.90357 43.80533 43.672718
000180 f5 c9 2d 42 85 69 2d 42 27 0f 2d 42 27 73 2f 42
       43.447224 43.353046 43.264797 43.862453
000190 4a 4f 31 42 65 ae 31 42 af 78 30 42 46 1a 2f 42
       44.32743 44.420307 44.117855 43.775658
0001a0 c0 cf 2e 42 7a a4 2e 42 56 2e 2e 42 8a 5f 2d 42
       43.70288 43.66062 43.54525 43.3433
0001b0 94 71 2e 42 56 3d 30 42 3a 61 30 42 73 7a 2f 42
       43.610916 44.0599 44.094948 43.86958
0001c0 8a 19 2e 42 ac 07 2e 42 c6 14 2e 42 6b 3d 2d 42
       43.52494 43.507492 43.520287 43.30998
0001d0 6f 41 2b 42 8b 4f 2c 42 73 75 2d 42 70 a9 2d 42
       42.8139 43.07768 43.364697 43.415466
0001e0 05 16 2d 42 d0 7d 2c 42 26 66 2c 42 74 0c 2c 42
       43.271503 43.122864 43.099754 43.01216
0001f0 be c3 2a 42 eb 8f 28 42 71 1e 2b 42 94 01 2c 42
       42.691154 42.140545 42.779728 43.00154
000200 b5 15 2c 42 66 7a 2b 42 75 17 2b 42 2e c1 2a 42
       43.0212 42.86953 42.772907 42.688652
000210 36 7a 2a 42 5c 3d 29 42 a5 bb 27 42 85 9a 2a 42
       42.619347 42.30992 41.933247 42.650898
000220 8f 70 2b 42 30 45 2b 42 41 d5 2a 42 d8 8f 2a 42
       42.85992 42.817566 42.708256 42.640472
000230 ae 12 2a 42 87 8f 29 42 89 b9 28 42 f3 c5 27 42
       42.51824 42.390163 42.181187 41.94331
000240 12 6d 28 42 65 fe 28 42 8e 45 29 42 fc 88 29 42
       42.106514 42.248432 42.317924 42.383774
000250 36 f8 28 42 02 19 28 42 c0 38 27 42 45 01 27 42
       42.242393 42.02442 41.80542 41.75124
000260 32 f2 26 42 ac 54 27 42 1d d3 27 42 c2 1d 28 42
       41.73652 41.832687 41.956165 42.02906
000270 5f 2e 28 42 8b 59 27 42 39 6f 26 42 72 b0 25 42
       42.045284 41.837444 41.608616 41.42231
000280 99 b5 25 42 32 b5 25 42 c9 5b b4 be c6 50 b5 be
       41.42734 41.42695 -0.35226277 -0.35413188
000290 4a 8c b4 be dc 2c b4 be 42 74 b4 be 00 c0 b3 be
       -0.35263282 -0.35190475 -0.35244948 -0.35107422
0002a0 ce 2f b2 be 72 25 b1 be 85 e8 b0 be 5d dc b4 be
       -0.34802097 -0.3459888 -0.34552398 -0.35324374
0002b0 54 22 b6 be d1 60 b6 be 7d 7d b5 be dc e0 b4 be
       -0.35573065 -0.3562074 -0.35447302 -0.35327804
0002c0 bb 24 b4 be 11 3f b3 be 20 99 b2 be 42 7c b2 be
       -0.35184273 -0.35009053 -0.3488245 -0.34860426
0002d0 40 6c b4 be 16 43 b6 be 73 d6 b6 be 02 af b5 be
       -0.35238838 -0.35598058 -0.35710487 -0.35485083
0002e0 40 71 b4 be af a2 b3 be 48 9c b3 be 5c 16 b3 be
       -0.35242653 -0.35085055 -0.3508017 -0.34977996
0002f0 a1 35 b2 be 22 d0 b2 be a6 c6 b4 be af fd b4 be
       -0.3480654 -0.34924418 -0.35307807 -0.35349795
000300 8c ef b3 be 27 18 b3 be 49 ee b2 be f5 ea b2 be
       -0.35143697 -0.34979364 -0.34947422 -0.34944883
000310 74 c3 b1 be b5 4c b0 be 14 87 b1 be 5a c0 b2 be
       -0.3471943 -0.34433523 -0.3467337 -0.34912378
000320 79 9b b2 be 41 f9 b1 be 91 a9 b1 be 1e 07 b2 be
       -0.3488424 -0.34760478 -0.3469968 -0.34771055
000330 ea 90 b1 be 23 b6 af be c7 16 ae be 72 4a b1 be
       -0.34680873 -0.34318647 -0.34001753 -0.3462711
000340 5a 1f b2 be de aa b1 be 99 da b0 be b5 55 b0 be
       -0.34789544 -0.34700674 -0.34541777 -0.3444039
000350 67 8e b0 be 73 a1 af be fb d4 ad be c2 df ac be
       -0.34483644 -0.34302863 -0.33951554 -0.33764464
000360 5a 3e b0 be 28 bb b0 be 0e cb b0 be 9a 24 b0 be
       -0.3442257 -0.3451779 -0.34529918 -0.34402925
000370 13 44 af be c7 ba ae be b4 3c ae be fe 1e ad be
       -0.34231624 -0.34126875 -0.34030688 -0.33812708
000380 18 d6 ac be 13 43 ae be 4f 92 ae be 00 f0 ae be
       -0.3375709 -0.3403555 -0.34096 -0.3416748
000390 94 8a ae be 80 f7 ad be 35 c9 ac be 96 78 ac be
       -0.34090102 -0.3397789 -0.3374726 -0.3368575
0003a0 dc 1c ac be fc a9 ab be e0 81 ac be f7 e8 ac be
       -0.33615768 -0.33528125 -0.33692837 -0.33771488
0003b0 52 3b ad be 6f ff ac be 08 73 ac be a3 cd aa be
       -0.3383432 -0.3378863 -0.33681512 -0.33360013
0003c0 c0 3c aa be 8f 69 aa be 36 c7 aa be f2 50 70 be
       -0.33249474 -0.3328366 -0.3335511 -0.23468378
0003d0 38 4a 71 be 9a 67 70 be e5 c7 6f be c7 64 70 be
       -0.23563468 -0.23477021 -0.23416097 -0.23475944
0003e0 6d 6e 6f be 20 9c 6d be 01 5d 6c be c0 f6 6b be
       -0.23381968 -0.23204088 -0.23082353 -0.23043346
0003f0 4f 30 71 be bb 83 72 be a0 e1 72 be 58 23 72 be
       -0.23553585 -0.23683064 -0.23718882 -0.23646295
