scripts/model_.pt (torch_old, 412135 bytes, 12 tensors)

weight f4 [10, 3, 2, 2]
0.2028263 0.16764018 0.25864062 0.029874321 0.08842988 -0.116821505 0.037115388 -0.14547488
-0.094262764 -0.064452045 -0.18178967 0.2700525 0.1908306 0.2725849 0.013598153 0.15888354
0.2735766 0.2785916 0.09656457 0.07065874 0.27097428 0.18742007 0.12021844 0.12394486
-0.014088236 -0.26656407 -0.023312444 -0.06585518 0.28236687 -0.050478987 0.29539606 0.28384495
-0.138064 -0.2524764 -0.023569927 0.12679864 -0.22272281 0.3009476 0.1262416 0.17584312
-0.1861046 -0.015779857 0.10592103 0.11202611 -0.2347833 -0.16076986 0.23327322 -0.17559011
-0.2928503 0.06105029 -0.03400893 -0.17178075 -0.28404108 -0.2419129 -0.12677236 -0.19657399
0.023582358 -0.0075339526 -0.01661605 -0.22281124 -0.1988892 -0.08773245 0.25319695 0.29089183
0.1888165 -0.26509112 -0.13134804 0.12425671 0.16754307 -0.18392292 -0.1301558 -0.16263118
-0.15093128 -0.12931375 -0.03597053 0.10814667 0.17409275 0.1920152 0.24263015 -0.2908631
0.24998675 0.0016745091 -0.25094193 -0.25736266 -0.11817358 0.19014965 0.26561522 0.24035928
0.001916216 0.27240908 -0.18643138 0.12740107 -0.055955347 -0.23950388 -0.25502118 -0.068808876
-0.22381549 -0.06471377 -0.03199936 -0.09926259 -0.06515115 0.17509052 -0.18859652 0.2986211
0.29144678 -0.097376175 0.09126478 -0.2720609 0.060040224 0.07446418 -0.28470135 -0.0952097
0.12938549 0.2083081 0.25887543 -0.0023741466 -0.290506 0.2042894 -0.11695574 0.16944723
00000000: b3b1 4f3e dea9 2b3e 8b6c 843e feba f43c
00000010: ba1a b53d 1d40 efbd 4e06 183d 5ef7 14be
00000020: d60c c1bd 6fff 83bd 1227 3abe 5244 8a3e
00000030: 1969 433e 3f90 8b3e caca 5e3c 5eb2 223e
00000040: 3b12 8c3e 8fa3 8e3e a5c3 c53d 88b5 903d
00000050: 24bd 8a3e 0ceb 3f3e 1635 f63d ced6 fd3d
00000060: 58d2 66bc 167b 88be bdf9 bebc 15df 86bd
00000070: 6492 903e 0ec3 4ebd 273e 973e 2054 913e
00000080: a660 0dbe 9644 81be b815 c1bc 81d7 013e
00000090: 7311 64be ce15 9a3e 7a45 013e 3810 343e
000000a0: 3492 3ebe c244 81bc 20ed d83d f26d e53d
000000b0: 096b 70be dba0 24be 2ddf 6e3e e5cd 33be
000000c0: 79f0 95be de0f 7a3d f34c 0bbd 4be7 2fbe
000000d0: d56d 91be 04b8 77be 9dd0 01be b14a 49be
000000e0: ca2f c13c 60df f6bb 621e 88bc a128 64be
000000f0: 9ca9 4bbe 12ad b3bd 08a3 813e c6ef 943e
00000100: 1d59 413e 06ba 87be 1a80 06be 4d7a fe3d
00000110: 6990 2b3e 4a56 3cbe 9047 05be ca88 26be
00000120: bb8d 1abe d36a 04be d655 13bd 007c dd3d
00000130: 5f45 323e a29f 443e 0a74 783e 02ec 94be
00000140: 87fc 7f3e 347b db3a 767b 80be 0ac5 83be
00000150: fd04 f2bd 97b6 423e b8fe 873e be20 763e
00000160: 8a29 fb3a 3479 8b3e dee7 3ebe 6d75 023e
00000170: 6f31 65bd 8140 75be 2392 82be abeb 8cbd
00000180: e32f 65be a788 84bd c311 03bd 2f4a cbbd
00000190: f76d 85bd ee4a 333e 721f 41be dde4 983e
000001a0: 8338 953e 296d c7bd 07e9 ba3d 914b 8bbe
000001b0: bdec 753d ad80 983d 60c4 91be 4efd c2bd
000001c0: a17d 043e b84e 553e 528b 843e 9297 1bbb
000001d0: 34bd 94be 3e31 513e 7e86 efbd 9383 2d3e

bias f4 [10]
0.16860637 -0.03729282 -0.26952437 0.06328899 0.19815262 -0.12824368 0.03751605 0.050056804
0.21395311 -0.050549217
00000000: 26a7 2c3e 5bc0 18bd 19ff 89be a89d 813d
00000010: 85e8 4a3e 5052 03be 6eaa 193d 5d08 4d3d
00000020: 8616 5b3e b20c 4fbd

weight f4 [10, 10, 3, 3]
0.02700664 -0.108243756 0.0040789265 -0.021921387 -0.011974925 -0.08871508 -0.06682752 -0.100388885
-0.08964215 -0.029864466 -0.08174295 -0.054648396 -0.09175618 -0.10491547 0.014892929 -0.09859893
0.009900906 -0.0984695 0.024867577 0.019538345 0.07030992 -0.055194367 -0.04576677 -0.080475636
-0.08983914 0.039565124 -0.011240585 0.052172486 0.082480535 -0.06811781 0.0334366 -0.09176979
-0.025336545 0.032379255 0.07773396 -0.050576232 0.095333084 0.066920616 0.07156376 -0.08078393
0.09509211 0.066338345 -0.073496275 0.019736042 -0.009059184 -0.0007986779 -0.08766077 -0.04384549
-0.09219175 -0.112024516 0.07485903 0.028450971 0.053533617 0.06717485 -0.011072616 0.08393257
0.039111212 0.04407692 -0.014461502 0.07269984 -0.047465723 -0.07963174 -0.06456184 -0.076829046
-0.06427709 -0.06714676 -0.05231785 0.03999425 0.032529462 0.035506517 -0.07880489 -0.108324796
-0.112830184 -0.024407683 0.06769192 0.05907995 -0.09425972 0.023205442 -0.09314223 -0.09418224
-0.09744219 -0.10886977 0.050075445 -0.0018029806 0.008347821 -0.10254914 0.0752879 0.0104466155
-0.101196826 -0.03229488 -0.08958691 -0.04017556 0.05873286 0.00980997 0.0060685757 -0.011113705
-0.009850753 0.036841948 0.0886161 0.07447927 0.041955046 -0.08160614 -0.035399087 0.08017634
0.0592041 -0.02814397 0.109064564 -0.018545272 0.024886139 0.05627986 0.010301514 -0.06388617
0.111721665 -0.029977381 0.08201064 -0.057329983 0.060563482 0.03881835 0.027141823 0.025002917
0.079060815 0.0930308 0.079706326 -0.005853319 0.03245657 0.105389066 0.09654138 -0.005205179
-0.02170072 0.03617116 0.04213095 -0.07915806 -0.032588895 0.10191193 -0.06513231 0.022502983
-0.041462284 -0.03071989 0.0038323025 0.061066348 -0.0003353663 -0.0060664103 0.09194296 0.003435826
-0.02793811 -0.024039429 0.038936213 -0.074789174 0.07461703 0.0634185 0.09912088 0.106781885
0.007636627 -0.060167585 0.0610328 0.05865496 -0.015908577 0.12016265 0.09652396 -0.077551596
0.07538687 0.09958326 -0.0760497 -0.0036854115 -0.075414814 0.08245589 -0.07267387 0.112811826
-0.06897749 0.04319445 0.005384856 0.08573682 0.07873596 0.027753366 0.024140278 0.055934854
-0.068149574 -0.05448701 0.08550758 -0.04367756 0.054352384 -0.056604844 0.06727299 0.04625082
0.11250177 0.11430043 0.06353527 0.08382443 0.103652075 0.050719578 0.025955934 -0.05729684
-0.018813381 -0.014603803 0.098028384 0.04381053 0.05253609 -0.088935934 -0.015225769 -0.004293601
0.035238348 0.0037495636 -0.01269136 0.11147428 -0.010721432 -0.036757782 -0.040522624 -0.080488436
0.015460693 -0.08618899 0.09394393 0.11429724 -0.06471781 0.0752669 -0.03234227 -0.04854497
0.102425545 0.07107655 0.013606121 0.062309623 0.07237031 0.0028221295 -0.029716522 0.038135607
0.08160777 0.10418706 -0.044693965 0.0051369383 0.08689484 0.03299876 -0.03774868 0.049920667
0.04496639 -0.077715404 -0.06387219 0.10960059 0.099460974 0.022421272 0.112027876 0.01516926
0.0194088 0.09072593 0.010528216 -0.03963364 -0.08430461 0.049970377 -0.08582884 -0.03207024
-0.069748074 0.0011977126 -0.02476234 0.013904799 -0.0735573 0.032756224 0.051549282 -0.009249352
00000000: 073d dd3c e7ae ddbd 84a8 853b 7b94 b3bc
00000010: 7a32 44bc 40b0 b5bd dedc 88bd b098 cdbd
00000020: 4e96 b7bd 53a6 f4bc d968 a7bd ffd6 5fbd
00000030: aaea bbbd ecdd d6bd 7901 743c 3cee c9bd
00000040: 6937 223c 61aa c9bd 17b7 cb3c e10e a03c
00000050: a6fe 8f3d 7d13 62bd f075 3bbd 69d0 a4bd
00000060: 95fd b7bd 0a0f 223d 6e2a 38bc d1b2 553d
00000070: 8eeb a83d 5a81 8bbd d1f4 083d cdf1 bbbd
00000080: 968e cfbc 1ca0 043d fb32 9f3d 0629 4fbd
00000090: fe3d c33d ad0d 893d 0590 923d 0c72 a5bd
000000a0: a7bf c23d 66dc 873d 3785 96bd 7bad a13c
000000b0: f96c 14bc 5e5e 51ba 7d87 b3bd 5497 33bd
000000c0: 07cf bcbd 1c6d e5bd b14f 993d 0312 e93c
000000d0: 1146 5b3d f892 893d eb69 35bc d7e4 ab3d
000000e0: 1433 203d 008a 343d f0ef 6cbc a7e3 943d
000000f0: 6b6b 42bd f715 a3bd ff38 84bd 8c58 9dbd
00000100: b5a3 83bd 3e84 89bd 3e4b 56bd 03d1 233d
00000110: 9d3d 053d 486f 113d 7564 a1bd 64d9 ddbd
00000120: 8313 e7bd 9ff2 c7bc 10a2 8a3d d1fd 713d
00000130: 3d0b c1bd 5719 be3c 5ac1 bebd 9ee2 c0bd
00000140: c58f c7bd 1df7 debd e91b 4d3d fd51 ecba
00000150: 4dc5 083c 4905 d2bd 8b30 9a3d 4828 2b3c
00000160: 4840 cfbd a347 04bd 5879 b7bd 218f 24bd
00000170: de91 703d ffb9 203c e7da c63b 4216 36bc
00000180: 0d65 21bc 95e7 163d 5c7c b53d 9688 983d
00000190: 0ed9 2b3d 1f21 a7bd a2fe 10bd 7e33 a43d
000001a0: 0080 723d 2f8e e6bc 3e5d df3d 41ec 97bc
000001b0: 04de cb3c b685 663d aec7 283c c1d6 82bd
000001c0: 54ce e43d 2093 f5bc 32f5 a73d d8d2 6abd
000001d0: 6a11 783d fdff 1e3d 8758 de3c ebd2 cc3c
000001e0: a3ea a13d ef86 be3d 123d a33d 33cd bfbb
000001f0: 2ef1 043d 39d6 d73d 7db7 c53d 3590 aabb
00000200: b5c5 b1bc 3628 143d 8191 2c3d 9f1d a2bd
00000210: ef7b 05bd 34b7 d03d 1764 85bd 2d58 b83c
00000220: 5bd4 29bd 47a8 fbbc 5e27 7b3b b520 7a3d
00000230: 1ad4 afb9 bdc8 c6bb 974c bc3d 982b 613b
00000240: 77de e4bc 56ee c4bc 947b 1f3d 112b 99bd
00000250: d0d0 983d 8fe1 813d e3ff ca3d 76b0 da3d
00000260: ac3c fa3b 4972 76bd 87fd 793d 2f40 703d
00000270: b452 82bc d617 f63d 5bae c53d 5fd3 9ebd
00000280: 6e64 9a3d 4ff2 cb3d f2bf 9bbd f286 71bb
00000290: 1573 9abd a2de a83d 0ad6 94bd e309 e73d
000002a0: 1244 8dbd aaec 303d 7273 b03b c996 af3d
000002b0: 5240 a13d 075b e33c d5c1 c53c f21b 653d
000002c0: 0192 8bbd c52d 5fbd 991e af3d 3ee7 32bd
000002d0: 9ba0 5e3d 7bda 67bd 6cc6 893d 8071 3d3d
000002e0: 5467 e63d 5816 ea3d c81e 823d 25ac ab3d
000002f0: 8a47 d43d 55bf 4f3d 8aa1 d43c 17b0 6abd
00000300: 851e 9abc ca44 6fbc 1bc3 c83d ac72 333d
00000310: 1530 573d 0b24 b6bd 8175 79bc 56b1 8cbb
00000320: 1656 103d 3dbb 753b 6cef 4fbc a14c e43d
00000330: f2a8 2fbc 548f 16bd 0dfb 25bd 1fd7 a4bd
00000340: d94e 7d3c da83 b0bd ad65 c03d ac14 ea3d
00000350: c58a 84bd 8825 9a3d 5479 04bd 17d7 46bd
00000360: 7cc4 d13d 9590 913d 35ec 5e3c 6038 7f3d
00000370: e336 943d 7af3 383b 1070 f3bc 1534 1c3d
00000380: f921 a73d 0660 d53d 0511 37bd c353 a83b
00000390: ecf5 b13d b529 073d 5c9e 1abd 9d79 4c3d
000003a0: ad2e 383d 4129 9fbd 6ccf 82bd 4676 e03d
000003b0: 32b2 cb3d d1ac b73c df6e e53d 7d88 783c
000003c0: 34ff 9e3c 84ce b93d 8a7e 2c3c e256 22bd
000003d0: e5a7 acbd bdad 4c3d 08c7 afbd 155c 03bd
000003e0: 14d8 8ebd 91fc 9c3a 64da cabc f4d0 633c
000003f0: 36a5 96bd 642b 063d 5725 533d 988a 17bc

bias f4 [10]
-0.02455724 -0.007530512 -0.05397268 -0.091693275 -0.0058092647 -0.02180783 -0.059224475 0.029283933
0.06777909 -0.115717694
00000000: 442c c9bc 83c2 f6bb 7512 5dbd afc9 bbbd
00000010: a55b bebb 56a6 b2bc 5d95 72bd dce4 ef3c
00000020: c3cf 8a3d 66fd ecbd

weight f4 [10, 10, 4, 4]
0.044384345 -0.0076467735 -0.07534753 0.04578376 -0.01006513 -0.06338105 0.036070496 0.021546245
-0.041476116 -0.06348924 0.050565504 -0.05164781 0.07071393 0.06025353 -0.05800326 -0.065197796
-0.019647382 0.070331275 -0.038874894 -0.06952069 -0.040348258 -0.061807916 -0.008707351 0.017940687
-0.06624636 0.04094772 0.062020242 0.009890813 0.014094917 -0.054981392 -0.043626245 0.019764364
0.025824416 -0.0055961725 -0.018301846 -0.042413443 -0.029986221 0.057297677 -0.034799654 0.05493372
0.006032451 0.0033180122 -0.07004793 -0.054481633 -0.0022959083 -0.056802336 0.044674985 -0.07340404
0.040478405 -0.074576356 0.02900376 0.053812843 0.021814432 -0.012519015 -0.067222364 -0.058561973
-0.010927686 -0.027523516 -0.059415545 0.0010353035 -0.03206289 -0.013389473 -0.055882197 0.071417995
-0.0337486 0.03464799 -0.075986356 0.01468123 -0.025572645 0.033673555 0.04514675 -0.03976357
-0.00609964 -0.07049799 0.0026424255 -0.0029752161 -0.06690917 0.056408312 -0.060632635 -0.06508965
-0.06375559 -0.03973427 0.046410717 -0.06415324 -0.015731234 -0.07841011 -0.06228364 0.03730642
-0.060103215 -0.032527316 -0.041565232 0.03749263 0.034774818 -0.022775812 0.07420758 -0.07568191
0.027802587 0.020802693 0.057633493 -0.05569865 -0.00035305048 -0.046905056 0.034270618 -0.07355675
-0.046405375 -0.061292302 -0.078875415 0.014360035 -0.00087337807 -0.020822939 0.06587859 -0.040747114
-0.07437694 0.033625036 -0.053372357 0.030981839 0.037205733 0.06490154 0.031082226 0.06056104
-0.07729072 0.01442967 0.015568197 -0.030846244 0.010902524 0.055538237 -0.078720294 0.019306729
0.03087756 -0.025472209 -0.011230118 -0.045307107 0.04395226 -0.05121656 -0.039517228 0.045313425
0.049519096 -0.016127085 -0.06829099 0.024202673 0.061890323 0.021574676 0.024780985 0.018465525
-0.064223185 0.032134008 0.06348099 0.032493927 0.02036342 0.06288588 -0.04321147 -0.0027355554
0.0067176335 0.06536519 -0.07522773 0.0028214462 -0.06522734 0.02819734 0.0388625 0.0056293253
-0.033854052 0.084388636 -0.045029324 0.005009741 -0.01891581 0.06059318 0.010229599 0.074600324
0.0099462755 -0.06670007 -0.031167526 0.024193035 0.015652487 0.017250067 0.079764344 0.07850014
0.084121086 -0.015486903 0.086049356 0.044861913 0.010996088 -0.007422453 -0.045664705 0.08382599
-0.03230289 -0.0023489113 -0.019570963 0.03767213 -0.06662307 0.027659897 0.07757656 0.024491344
0.046311982 -0.02317393 0.07720984 0.08453971 0.045562554 -0.041803557 0.089439504 0.0474044
0.04988906 0.06817997 0.049382776 0.04270695 0.040895756 0.07353809 0.065878406 0.0013976236
-0.003617505 -0.018446926 0.051051475 0.01631712 0.02110313 0.04316335 0.080486804 -0.03344637
0.073583245 0.010772086 0.019582713 -0.02764782 0.03152046 0.02637376 -0.011526462 0.037390027
-0.010409773 0.05220594 0.05958465 -0.030017788 0.005886381 0.04582378 -0.005922726 -0.00039299676
-0.0129464185 -0.034016933 -0.031121997 0.054703537 0.00825914 -0.058290005 0.086340494 0.010217111
-0.06535794 -0.060787562 0.058630638 0.077491224 0.0039862585 0.003311644 -0.012798437 0.01095745
0.08474225 0.007490248 0.010317173 -0.024843035 -0.039884966 -0.05990772 0.01135757 0.030576956
00000000: 5ccc 353d c991 fabb ce4f 9abd c087 3b3d
00000010: 37e8 24bc edcd 81bd a8be 133d c081 b03c
00000020: dce2 29bd a606 82bd c61d 4f3d a78c 53bd
00000030: 77d2 903d 68cc 763d d494 6dbd 6c86 85bd
00000040: 8cf3 a0bc d809 903d 483b 1fbd dd60 8ebd
00000050: 3744 25bd 4c2a 7dbd 47a9 0ebc 59f8 923c
00000060: 2cac 87bd ccb8 273d f008 7e3d 140d 223c
00000070: 5eee 663c 2b34 61bd 6fb1 32bd e0e8 a13c
00000080: ba8d d33c 1960 b7bb c1ed 95bc b8b9 2dbd
00000090: aaa5 f5bc f8b0 6a3d 158a 0ebd 2e02 613d
000000a0: deab c53b 0273 593b 4a75 8fbd 2228 5fbd
000000b0: f376 16bb 91a9 68bd 1efd 363d db54 96bd
000000c0: afcc 253d 7dbb 98bd 4b99 ed3c db6a 5c3d
000000d0: 2eb4 b23c 8e1c 4dbc e1ab 89bd aede 6fbd
000000e0: 090a 33bc ff78 e1bc b75d 73bd 05b3 873a
000000f0: 6054 03bd 855f 5bbc bbe4 64bd 9943 923d
00000100: f93b 0abd 0deb 0d3d bc9e 9bbd 8b89 703c
00000110: b97d d1bc 48ed 093d cceb 383d 20df 22bd
00000120: 7ddf c7bb 4061 90bd 8b2c 2d3b d8fb 42bb
00000130: ad07 89bd 670c 673d ed59 78bd b94d 85bd
00000140: 4a92 82bd 67c0 22bd 2a19 3e3d c662 83bd
00000150: cade 80bc 7b95 a0bd 211d 7fbd 9ece 183d
00000160: ca2e 76bd 5d3b 05bd 4e40 2abd df91 193d
00000170: 0a70 0e3d 5794 babc 25fa 973d 1eff 9abd
00000180: 40c2 e33c 696a aa3c 1911 6c3d 4524 64bd
00000190: a219 b9b9 841f 40bd 595f 0c3d eca4 96bd
000001a0: 9013 3ebd a30d 7bbd 6f89 a1bd 5a46 6b3c
000001b0: 69f3 64ba de94 aabc 5beb 863d 72e6 26bd
000001c0: f052 98bd 68ba 093d f99c 5abd a0cd fd3c
000001d0: 0a65 183d 19eb 843d 27a0 fe3c da0e 783d
000001e0: 994a 9ebd 6c6a 6c3c c011 7f3c 43b1 fcbc
000001f0: 80a0 323c 107c 633d 1b38 a1bd 2529 9e3c
00000200: f0f2 fc3c 18ab d0bc 87fe 37bc f293 39bd
00000210: 4907 343d 75c8 51bd d1dc 21bd 929a 393d
00000220: 89d4 4a3d f31c 84bc 26dc 8bbd af44 c63c
00000230: b580 7d3d 60bd b03c 7e01 cb3c 0345 973c
00000240: 7287 83bd f39e 033d 5202 823d 5a18 053d
00000250: 30d1 a63c 50ca 803d 83fe 30bd 0147 33bb
00000260: 981f dc3b 2fde 853d ff10 9abd 03e8 383b
00000270: e995 85bd 1cfe e63c 492e 1f3d 3476 b83b
00000280: 8caa 0abd f3d3 ac3d ab70 38bd c128 a43b
00000290: 54f5 9abc 8e30 783d 0c9a 273c 0ec8 983d
000002a0: b4f5 223c 0c9a 88bd 0a53 ffbc 7930 c63c
000002b0: a539 803c 0350 8d3c 7d5b a33d aec4 a03d
000002c0: ad47 ac3d c7bc 7dbc a53a b03d 20c1 373d
000002d0: f028 343c 0c38 f3bb ea0a 3bbd f6ac ab3d
000002e0: 0950 04bd 31f0 19bb 4953 a0bc 174e 1a3d
000002f0: ad71 88bd 0297 e23c 76e0 9e3d 12a2 c83c
00000300: a2b1 3d3d 41d7 bdbc 3120 9e3d 2823 ad3d
00000310: cd9f 3a3d 353a 2bbd 0f2c b73d 1e2b 423d
00000320: 7958 4c3d f1a1 8b3d 9845 4a3d 7ced 2e3d
00000330: 4f82 273d 239b 963d 42eb 863d 7730 b73a
00000340: aa13 6dbb 021e 97bc 5a1b 513d 7bab 853c
00000350: 79e0 ac3c 0ecc 303d 44d6 a43d 10ff 08bd
00000360: d0b2 963d 677d 303c ed6b a03c ae7d e2bc
00000370: 991b 013d c90d d83c 7cd9 3cbc 4926 193d
00000380: c18d 2abc e5d5 553d 090f 743d dde7 f5bc
00000390: 8be2 c03b b7b1 3b3d 6d13 c2bb 220b ceb9
000003a0: 371d 54bc 5755 0bbd 8ff3 febc d110 603d
000003b0: 5851 073c 80c1 6ebd 49d3 b03d ab65 273c
000003c0: 62da 85bd 61fc 78bd ae26 703d b8b3 9e3d
000003d0: 299f 823b 2b08 593b 89b0 51bc e086 333c
000003e0: 588d ad3d c170 f53b 5c09 293c 9f83 cbbc
000003f0: 6b5e 23bd cc61 75bd 1a15 3a3c 867c fa3c

bias f4 [10]
0.021164475 -0.021367686 -0.06317663 0.0017931579 0.009111509 0.030447565 0.06523311 0.0676063
-0.01840074 -0.0670797
00000000: 1f61 ad3c 490b afbc c062 81bd 6508 eb3a
00000010: 7048 153c 2c6d f93c f098 853d 2c75 8a3d
00000020: 26bd 96bc 1561 89bd

weight f4 [10, 10, 5, 5]
-0.0032707856 0.05693987 0.015066482 -0.042246327 0.007904121 -0.033996437 0.054298416 0.028961388
0.048172876 -0.051565737 0.059692387 -0.031191776 0.0075570163 0.048787646 -0.048957936 -0.059597358
-0.021669298 -0.032695048 0.054364935 -0.06044622 -0.053527106 0.054817993 0.05852466 0.048635397
-0.033814855 0.059369795 0.0287532 0.013985911 0.03993567 0.069815375 0.04857503 0.058790464
0.0018829156 -0.0075439396 -0.030764079 -0.009320254 0.03805704 0.02718105 0.07536326 -0.034048736
0.0006125439 -0.040931 -0.0056463866 -0.024205092 0.04173251 -0.029100956 -0.025064748 0.0034706474
0.07175786 0.011923572 0.005771706 -0.005585674 0.030297775 0.028811874 -0.03926726 -0.028987857
0.008585501 0.03136893 -0.00420846 -0.01854162 -0.037271544 -0.027413411 -0.044804275 0.045870185
0.0022824695 0.0007283023 -0.020010987 0.004065756 0.07814337 0.018667547 0.0491494 0.061059
0.06761546 0.03692345 0.0022362263 -0.04864134 0.05174513 0.020278702 0.019955143 -0.015081767
0.035150092 0.05884893 0.05748549 0.015244142 -0.01400072 0.060561247 0.005825844 -0.02257291
0.026499346 -0.03847997 -0.009976347 -0.042227928 -0.044690087 0.020088527 0.050098177 -0.02068783
-0.014179923 -0.016161816 0.02582783 0.06470141 0.010971298 0.047282584 -0.006716179 0.06540713
-0.023159714 0.04335626 0.014898965 0.04599932 -0.002569488 -0.016655007 0.049981944 -0.0006750806
0.0673493 -0.04289801 0.05527973 -0.0020599382 0.06031434 0.057820145 -0.007093837 0.07698382
0.028143425 0.023726806 -0.0004222311 -0.015172749 0.06737457 0.020778826 0.040913288 -0.017691376
0.038924716 0.019707888 0.023498135 0.039141703 -0.038070235 0.0007600887 0.058170315 0.07725057
0.07508253 0.03955657 0.06288491 -0.0049194046 0.016445732 -0.017404912 0.074887104 0.047440033
0.010303271 0.024214108 0.028537054 0.028833363 0.00359032 -0.009212699 0.062374953 0.07120557
0.07420742 0.02492952 0.07427631 0.07781617 -0.014571885 0.004483883 0.051520634 0.07019784
-0.013617869 0.013816328 -0.0106165195 -0.0029258463 -0.017845592 0.067390494 -0.0021219056 -0.043454524
-0.0475933 0.049273677 0.00829556 0.036694404 0.03902224 -0.03589626 -0.026380418 -0.01782972
0.074807115 0.034299273 0.06040793 0.025750048 0.053085577 -0.01628067 0.023132361 -0.020514268
0.03707004 -0.033420186 -0.011512739 0.07411354 -0.043461833 0.039451502 0.069081455 0.009947987
0.047352314 0.035443828 0.0699027 -0.019420967 0.03831712 -0.000325996 0.00020960157 0.067320876
-0.03828587 0.06916637 -0.0072421636 0.0035780193 -0.04390967 0.068360984 0.061571527 0.005331921
0.009328194 0.05718357 0.009125351 0.020619245 0.0033687805 0.039134964 0.072366685 0.027832048
0.061616037 0.01714335 -0.042403676 0.03953657 0.025257075 -0.04373532 -0.004627499 0.05494174
0.045118466 0.05895088 -0.026404908 -0.019899407 0.057994585 -0.02813314 0.07729594 0.056571662
0.034357507 0.013405405 0.07557613 -0.010095515 -0.03854943 0.05154378 0.02655712 0.074061826
-0.027845524 0.06728786 0.010555576 -0.025468288 -0.020457152 0.0765126 -0.03718041 0.011335171
-0.019333394 0.0010339221 0.027309814 0.060830742 -0.0144841615 -0.012984042 -0.043860517 -0.024006587
00000000: ad5a 56bb c839 693d 68d9 763c 7c0a 2dbd
00000010: 4980 013c d93f 0bbd 0468 5e3d 6f40 ed3c
00000020: ec50 453d 9836 53bd 0180 743d e585 ffbc
00000030: d9a0 f73b 8ed5 473d 1e88 48bd 5c1c 74bd
00000040: d083 b1bc 3eeb 05bd c4ad 5e3d 7596 77bd
00000050: 3d3f 5bbd d588 603d 8eb7 6f3d e935 473d
00000060: 7281 0abd be2d 733d d58b eb3c 2a25 653c
00000070: 9693 233d 5dfb 8e3d 9cf6 463d 45ce 703d
00000080: 2acc f63a 2733 f7bb f304 fcbc fbb3 18bc
00000090: b3e1 1b3d cbaa de3c 0e58 9a3d b076 0bbd
000000a0: 2093 203a 44a7 27bd 5305 b9bb c249 c6bc
000000b0: b5ef 2a3d 2165 eebc 9654 cdbc cd73 633b
000000c0: c9f5 923d 165b 433c 9420 bd3b 0808 b7bb
000000d0: 0a33 f83c e106 ec3c b5d6 20bd f177 edbc
000000e0: 34aa 0c3c b57c 003d 1fe7 89bb 98e4 97bc
000000f0: 0caa 18bd 1792 e0bc b084 37bd 60e2 3b3d
00000100: 7c95 153b 8aeb 3e3a 15ee a3bc 093a 853b
00000110: a209 a03d afec 983c e250 493d 0119 7a3d
00000120: f979 8a3d 0b3d 173d a78d 123b 243c 47bd
00000130: b4f2 533d 851f a63c f878 a33c 8419 77bc
00000140: 8bf9 0f3d 930b 713d e875 6b3d 91c2 793c
00000150: 4763 65bc 120f 783d b9e6 be3b d3ea b8bc
00000160: 2815 d93c 2c9d 1dbd d573 23bc 31f7 2cbd
00000170: f40c 37bd b290 a43c bf33 4d3d 8679 a9bc
00000180: e852 68bc c965 84bc e394 d33c 2c82 843d
00000190: f6c0 333c 62ab 413d 6513 dcbb 2cf4 853d
000001a0: 71b9 bdbc 5596 313d ca1a 743c c869 3c3d
000001b0: db64 28bb 1570 88bc deb9 4c3d e4f7 30ba
000001c0: 6eee 893d d3b5 2fbd 006d 623d 0700 07bb
000001d0: 2b0c 773d d1d4 6c3d 6b73 e8bb b1a9 9d3d
000001e0: 0a8d e63c b85e c23c e65e ddb9 1f97 78bc
000001f0: aefb 893d 5b38 aa3c b194 273d 81ed 90bc
00000200: 866f 1f3d 7072 a13c 297f c03c 0d53 203d
00000210: 89ef 1bbd b040 473a ff43 6e3d 8c35 9e3d
00000220: dfc4 993d 1206 223d cec9 803d f532 a1bb
00000230: 33b9 863c bf94 8ebc 695e 993d 7b50 423d
00000240: 0dcf 283c aa5c c63c 8ac6 e93c f233 ec3c
00000250: 934b 6b3b dcf0 16bc e17c 7f3d 3ad4 913d
00000260: 0ffa 973d fe38 cc3c 2e1e 983d 165e 9f3d
00000270: eabe 6ebc 89ed 923b 4d07 533d e3c3 8f3d
00000280: 7b1d 5fbc e15d 623c e9f0 2dbc 8ebf 3fbb
00000290: eb30 92bc 0704 8a3d ab0f 0bbb 5ffd 31bd
000002a0: 31f1 42bd 32d3 493d 1aea 073c df4c 163d
000002b0: c9d5 1f3d f507 13bd bf1b d8bc a20f 92bc
000002c0: 7934 993d 657d 0c3d 4e6e 773d c4f1 d23c
000002d0: 4370 593d 0a5f 85bc 1480 bd3c 8a0d a8bc
000002e0: c1d6 173d 9be3 08bd ed9f 3cbc d7c8 973d
000002f0: 0905 32bd e697 213d 947a 8d3d e2fc 223c
00000300: 80f4 413d 8c2d 113d 2629 8f3d b818 9fbc
00000310: 6af2 1c3d 71ea aab9 7ec8 5b39 87df 893d
00000320: a5d1 1cbd 19a7 8d3d ac4f edbb 347d 6a3b
00000330: a0da 33bd d800 8c3d 6d32 7c3d 65b7 ae3b
00000340: 48d5 183c 5239 6a3d 7f82 153c b1e9 a83c
00000350: c2c6 5c3b fc4b 203d fc34 943d 0900 e43c
00000360: 1961 7c3d 3670 8c3c 7aaf 2dbd 19f1 213d
00000370: ede7 ce3c cf23 33bd 46a2 97bb 970a 613d
00000380: 24ce 383d 7a76 713d 1b4f d8bc 1504 a3bc
00000390: bb8b 6d3d 7977 e6bc 554d 9e3d b0b7 673d
000003a0: 75ba 0c3d 58a2 5b3c a8c7 9a3d a967 25bc
000003b0: 02e6 1dbd 921f 533d 518e d93c baad 973d
000003c0: 4c1c e4bc 38ce 893d 4bf1 2c3c dfa2 d0bc
000003d0: c295 a7bc a3b2 9c3d 7c4a 18bd 27b7 393c
000003e0: 1161 9ebc ab84 873a d5b8 df3c a829 793d
000003f0: fa4e 6dbc 05bb 54bc 16a7 33bd 76a9 c4bc

bias f4 [10]
0.070944786 0.009956367 0.06527304 -0.019837607 0.07724095 0.06745272 -0.059730384 -0.023981752
-0.051005527 0.051753093
00000000: 804b 913d 0820 233c dfad 853d 7a82 a2bc
00000010: 8130 9e3d a724 8a3d d9a7 74bd 6175 c4bc
00000020: 2ceb 50bd 0dfb 533d

weight f4 [100, 810]
-0.019422315 -0.024707614 -0.012465531 -0.030285195 0.023035865 0.00553898 -0.020059137 0.022242965
0.022247 -0.0024001282 -0.030510413 0.01978923 -0.037383802 -0.021635106 -0.026909953 0.0063193464
-0.021107033 -0.009804561 -0.011830522 0.015769703 0.008549805 0.024325082 -0.02547865 -0.037810132
0.02664112 0.0036137374 -0.028992133 -0.0052232216 -0.0349981 -0.017142357 0.020346176 -0.019567331
-0.022967132 0.021381773 0.012625582 -0.014984161 -0.002855959 -0.0029053993 -0.036685813 0.023075763
0.0032818 -0.025508182 -0.02578913 -0.023965951 -0.0034225883 0.00032745485 -0.0087504815 0.015622704
-0.036639314 0.010584585 0.013856791 0.023614328 0.02029863 -0.035371218 -0.011526205 -0.002792115
0.022163557 7.143388e-05 -0.036961004 0.01104185 -0.021043919 -0.020259732 -0.007975436 -0.018042166
-0.015767004 -0.041599616 0.0007002422 -0.040317174 0.010540554 -0.028319225 0.016393976 0.02379598
0.0044608978 -0.011014752 0.006089578 0.0025821114 -0.013969018 -0.017524218 0.0015483175 0.0036102475
-0.0070138033 -0.0041415463 -0.027560394 -0.0049459278 -0.015374849 0.0063283513 -0.014878082 -0.032813907
-0.023781782 0.027981559 -0.014467458 0.007214112 -0.0073312246 0.009669583 0.010168402 -0.005889104
-0.021868352 -0.028208429 0.024607407 0.023722075 -0.03170933 0.014405345 -0.028036382 0.0018874309
-0.013250935 0.015328164 -0.013818926 -0.009287095 -0.010729894 -0.0017345753 -0.038641956 -0.0009384956
0.010744356 -0.023005283 0.017156808 -0.026099391 -0.019474082 -0.0031856052 -0.01932854 -0.02548145
-0.013869497 -0.034164753 -0.0051709744 0.014407713 -0.028184876 -0.009388975 0.006706835 0.00826934
-0.015775371 -0.016677137 -0.007687578 0.026608493 0.0008618186 -0.03191128 0.013210063 0.0131041985
0.010422931 0.011184912 -0.039976325 0.013879199 -0.033302043 -0.027296776 -0.015234446 -0.0027464395
-0.028324755 -0.008174613 0.0009868529 -0.028951805 -0.022428373 0.017838808 -0.024115415 -0.01647142
-0.03643952 -0.026389576 -0.016619373 0.016652342 -0.03188497 -0.022408819 0.0059209317 -0.023006227
-0.027528523 -0.024191568 0.024972007 0.00978121 -0.015742602 -0.0010354437 0.026537577 -0.03516562
0.022091946 -0.010327848 0.0072932625 -0.011419567 0.006936863 -0.038641877 -0.0055625634 -0.024801876
0.026458586 -0.007057698 -0.02025695 -0.03786829 -0.030915009 -0.014526736 0.0066513075 0.0101609165
-0.027201694 -0.034637313 0.01209638 -0.025518727 -0.03223542 -0.008829492 0.014398594 0.00039077067
0.021172132 0.016397642 -0.016816165 -0.015905682 0.0016716545 0.022647355 0.00025487598 -0.017890943
0.020364344 -0.0026528297 -0.005003575 -0.04005673 0.005572861 -0.01294789 -0.017470537 -0.02926523
-0.041155923 -0.0128310295 -0.012738031 -0.04032835 -0.04038646 -0.014165722 -0.03868876 -0.008348299
-0.018354125 -0.015147796 -0.024841774 -0.013581729 0.003121104 -0.038228128 0.016614977 -0.042063184
-0.0074216113 -0.03952797 -0.014686219 -0.040477447 -0.01707728 -0.020131044 0.021957837 -0.011162417
0.014389445 -0.027486451 0.020079087 0.017141348 0.016993888 0.007960885 -0.001692065 0.026375702
0.02415765 0.024084873 0.025180897 -0.02092647 -0.0033280984 -0.03925727 0.00021398041 0.0059907916
0.020974338 0.004203923 -0.0012750126 0.011844764 0.020813895 -0.008736525 0.012982801 -0.038148034
00000000: 8c1b 9fbc 9f67 cabc 3a3c 4cbc a818 f8bc
00000010: b6b5 bc3c 5580 b53b 0f53 a4bc e136 b63c
00000020: 573f b63c 784b 1dbb f9f0 f9bc 061d a23c
00000030: c21f 19bd 1b3c b1bc 4372 dcbc 8512 cf3b
00000040: a8e8 acbc 4fa3 20bc ced4 41bc 772f 813c
00000050: 7b14 0c3c 6545 c73c 9ab8 d0bc ccde 1abd
00000060: 7a3e da3c 74d4 6c3b e980 edbc 8f27 abbb
00000070: 2b5a 0fbd 216e 8cbc 06ad a63c ab4b a0bc
00000080: 9125 bcbc d428 af3c 87db 4e3c 2080 75bc
00000090: 0b2b 3bbb 8368 3ebb dd43 16bd 6209 bd3c
000000a0: 7813 573b 89f6 d0bc ba43 d3bc 3e54 c4bc
000000b0: 814d 60bb 3fae ab39 2e5e 0fbc 5ff6 7f3c
000000c0: 1b13 16bd f86a 2d3c 9807 633c d672 c13c
000000d0: 5049 a63c 69e1 10bd 68d8 3cbc ebfb 36bb
000000e0: 5990 b53c c6ce 9538 6c64 17bd e0e8 343c
000000f0: 4c64 acbc bdf7 a5bc 67ab 02bc 2acd 93bc
00000100: ce29 81bc 5c64 2abd 7590 373a 9f23 25bd
00000110: 4ab2 2c3c b8fd e7bc a94c 863c c9ef c23c
00000120: b92c 923b 3877 34bc 158b c73b a438 293b
00000130: 4fde 64bc f38e 8fbc eaf0 ca3a e799 6c3b
00000140: 0cd4 e5bb cfb5 87bb 56c6 e1bc 7311 a2bb
00000150: cae6 7bbc 0f5e cf3b 33c3 73bc e067 06bd
00000160: 03d2 c2bc 9539 e53c eb08 6dbc 5c64 ec3b
00000170: c53a f0bb 2c6d 1e3c 5f99 263c 63f9 c0bb
00000180: 4225 b3bc 5d15 e7bc 7995 c93c cc54 c23c
00000190: a4e1 01bd 6504 6c3c 8eac e5bc ac63 f73a
000001a0: 731a 59bc fb22 7b3c c768 62bc e628 18bc
000001b0: 70cc 2fbc b05a e3ba 0747 1ebd 6005 76ba
000001c0: 1809 303c 9375 bcbc 6f8c 8c3c 64ce d5bc
000001d0: 1c88 9fbc 96c5 50bb e356 9ebc 79be d0bc
000001e0: e33c 63bc 57f0 0bbd 4771 a9bb 540e 6c3c
000001f0: f8e3 e6bc 37d4 19bc 02c5 db3b 207c 073c
00000200: 5a3b 81bc 7e9e 88bc 14e8 fbbb 0efa d93c
00000210: abeb 613a 67b5 02bd 056f 583c feb2 563c
00000220: f1c4 2a3c ec40 373c 37be 23bd 9465 633c
00000230: b967 08bd 7d9d dfbc e699 79bc 9cfd 33bb
00000240: 5109 e8bc d0ee 05bc 4a59 813a 562c edbc
00000250: b5bb b7bc b122 923c b18d c5bc 12ef 86bc
00000260: 9b41 15bd f42e d8bc 5a25 88bc 7e6a 883c
00000270: d099 02bd b392 b7bc 6004 c23b 8e77 bcbc
00000280: 7f83 e1bc 652d c6bc 1892 cc3c 5e41 203c
00000290: a1f6 80bc bab7 87ba 5565 d93c d309 10bd
000002a0: 2bfa b43c 2236 29bc 52fc ee3b 2319 3bbc
000002b0: a04e e33b f246 1ebd 2a46 b6bb 4e2d cbbc
000002c0: adbf d83c 4344 e7bb e7f1 a5bc c81b 1bbd
000002d0: 7941 fdbc 8c01 6ebc 36f3 d93b f979 263c
000002e0: 16d6 debc dbdf 0dbd e52f 463c a60c d1bc
000002f0: 4a09 04bd 93a9 10bc 15e8 6b3c 5ae0 cc39
00000300: 2e71 ad3c 5954 863c 0ec2 89bc a24c 82bc
00000310: 6b1b db3a f286 b93c e0a0 8539 0790 92bc
00000320: 20d3 a63c 19db 2dbb 07f5 a3bb 8712 24bd
00000330: 8c9c b63b 6323 54bc 5f1e 8fbc a3bd efbc
00000340: 1d93 28bd 3d39 52bc 2db3 50bc 572f 25bd
00000350: 466c 25bd 5817 68bc 1b78 1ebd 4ec7 08bc
00000360: 645b 96bc 762e 78bc fa80 cbbc e685 5ebc
00000370: 708b 4c3b 1995 1cbd 221c 883c 724a 2cbd
00000380: fd30 f3bb 15e8 21bd 789e 70bc aecb 25bd
00000390: a7e5 8bbc dce9 a4bc ece0 b33c 92e2 36bc
000003a0: b5c1 6b3c 442b e1bc e67c a43c 036c 8c3c
000003b0: c436 8b3c 5f6e 023c 48c8 ddba db11 d83c
000003c0: 44e6 c53c a44d c53c 2b48 ce3c fd6d abbc
000003d0: 3a1c 5abb 3bcc 20bd ee5f 6039 674e c43b
000003e0: 60d2 ab3c 10c1 893b 531e a7ba 8b10 423c
000003f0: e781 aa3c a423 0fbc d0b5 543c 1d41 1cbd

bias f4 [100]
0.008501645 -0.0032748692 0.011177605 -0.0070397775 0.0069565326 0.00489286 0.008196204 0.024120802
-0.01839378 0.0106856385 0.031615842 -0.009660382 -0.026674096 -0.00017552536 -0.02535945 0.006855208
-0.002356099 -0.016405756 0.00561949 -0.022150887 -0.0061044027 0.009080891 0.040489197 0.021351853
0.023179399 0.03592459 0.03535757 0.028600302 0.02860012 -0.014695212 0.024210157 0.028360901
0.0023977235 -0.029123329 -0.011615609 0.010441675 -0.01987997 0.049204845 -0.0036630514 -0.020920677
-0.003200688 0.010159203 -0.028773692 -0.02417933 0.030410131 -0.0077855824 0.034310486 0.003695934
0.041965354 -0.016969454 0.010171613 -0.030183231 -0.015689272 -0.0019535162 0.02141067 0.020146316
-0.009792972 0.030692587 0.038321495 0.014040469 -0.020288376 0.03186125 0.05108327 -0.0020981473
0.030128647 0.031715218 -0.011707048 -0.016523974 -0.0024377306 -0.020212336 -0.007881795 -0.040706016
-0.009053694 0.044602685 0.02179792 0.0024030718 0.0136605725 -0.015947072 0.0039150035 0.01268407
-0.030470546 0.03318995 -0.0069226986 0.04946262 -0.011753721 0.0454363 -0.0002740256 0.01526488
-0.0322656 -0.019020582 0.0032442845 0.031793967 -0.0030839434 0.04101868 -0.010184017 0.027460909
-0.010100711 -0.023544777 -0.007896186 -0.014825798
00000000: 7c4a 0b3c 309f 56bb 4622 373c efad e6bb
00000010: a0f3 e33b 4954 a03b 5f49 063c fd98 c53c
00000020: 8dae 96bc d112 2f3c 9d7f 013d 9446 1ebc
00000030: a283 dabc 3b0d 38b9 9fbe cfbc a7a1 e03b
00000040: c868 1abb 5d65 86bc b323 b83b c775 b5bc
00000050: 7107 c8bb 04c8 143c 00d8 253d 15ea ae3c
00000060: b9e2 bd3c aa25 133d 19d3 103d 2e4b ea3c
00000070: cd4a ea3c 30c4 70bc 6154 c63c 1f55 e83c
00000080: 2023 1d3b 0c94 eebc 654f 3ebc 8f13 2b3c
00000090: 52db a2bc 058b 493d ce0f 70bb d761 abbc
000000a0: a2c2 51bb c972 263c ceb6 ebbc bb13 c6bc
000000b0: ab1e f93c 331e ffbb 2789 0c3d 7c37 723b
000000c0: dde3 2b3d 8603 8bbc d6a6 263c d342 f7bc
000000d0: ca86 80bc 9006 00bb 6e65 af3c e309 a53c
000000e0: b472 20bc 056f fb3c 00f7 1c3d ff09 663c
000000f0: cf33 a6bc f180 023d b13c 513d 1281 09bb
00000100: 5ad0 f63c d1e7 013d ebce 3fbc 495d 87bc
00000110: 55c2 1fbb 5794 a5bc a522 01bc 5abb 26bd
00000120: f255 14bc 4eb1 363d 8d91 b23c db7c 1d3b
00000130: 98d0 5f3c 6fa3 82bc 6e49 803b d8d0 4f3c
00000140: 5e9d f9bc 2ff2 073d ced7 e2bb 5199 4a3d
00000150: ae92 40bc 6a1b 3a3d 18ab 8fb9 8c19 7a3c
00000160: ef28 04bd 0dd1 9bbc 109e 543b 643a 023d
00000170: fc1b 4abb 3403 283d ddda 26bc b3f5 e03c
00000180: 747d 25bc fae0 c0bc 015f 01bc e7e7 72bc

weight f4 [123, 100]
0.003141711 -0.075354174 -0.04563444 0.02977439 0.060586333 -0.11237117 -0.05302031 -0.06609977
-0.06020811 0.0009109947 -0.045488752 -0.08675384 -0.023402555 0.05904297 0.06561782 0.08145329
0.066197924 0.029206688 0.006240374 0.03528086 0.015012377 0.074821584 -0.02763936 0.03718429
-0.00837902 0.03672307 -0.038698524 0.058271326 -0.08395946 0.012016772 -0.0414979 0.06906302
0.025673516 0.066210344 0.000825535 -0.029416854 0.048999608 -0.0037857555 -0.009712677 -0.05721031
-0.031479783 0.038791206 0.0941984 0.094693445 -0.10857595 0.06216405 -0.07024938 0.02020652
0.07272858 0.05899396 -0.09296302 -0.019935928 -0.00455788 -0.032571994 -0.05261233 -0.0005804292
0.08667534 -0.0986444 0.045072176 -0.039182685 0.043766797 -0.039217997 0.039381802 0.0043583633
0.0028687268 -0.08450202 0.027797615 0.08667261 -0.030076245 -0.09386768 -0.078027606 0.023967354
0.08584266 -0.115989596 -0.009082016 -0.011049774 0.024766723 -0.03810927 0.06895817 -0.09002328
0.09122441 0.06901107 -0.04969297 -0.07937273 0.020900982 -0.05793126 0.021877475 0.040895097
0.091058455 0.033453397 -0.08376042 -0.040445965 -0.10108594 -0.051834643 -0.053170305 0.034632027
-0.0036054496 -0.0724195 -0.039824504 -0.030336274 -0.075457156 0.0858453 -0.05483087 -0.057248354
0.014131893 0.04521357 -0.020207942 0.00048757083 0.09277165 -0.0077741053 -0.08452119 -0.057548214
0.07798531 -0.05977308 0.022870015 -0.034674916 -0.102984965 -0.08625048 -0.035334583 0.027492754
-0.08731667 -0.07703329 -0.059640512 -0.04467345 0.051255252 -0.047622565 0.08121418 -0.03372717
0.064309604 0.05395406 -0.0961914 0.046188347 -0.06580967 -0.0517738 0.062106125 -0.107804716
-0.092115894 -0.078158624 -0.061807252 0.06643288 -0.112185135 0.045172486 0.029634317 0.008799575
-0.039949056 0.014454294 -0.03626085 0.043329082 0.065928355 -0.09266878 0.01348308 -0.04452436
-0.003513649 -0.08235687 0.055693798 -0.038100347 -0.013958976 -0.089812145 -0.038024105 0.040030647
0.014951923 -0.062390603 -0.012080966 0.018128615 -0.0014252812 0.014625713 -0.07862481 0.07445692
0.06206902 -0.000552319 -0.054386433 -0.0021818313 -0.09243725 -0.014726223 -0.020153414 -0.019382838
0.044063456 0.029790912 0.09327332 0.026541255 -0.025597164 -0.00072073936 -0.09534027 0.07541452
-0.070813626 0.0576779 -0.06168947 0.06913329 0.070108056 -0.00016961992 -0.042907298 -0.027560063
-0.044025533 0.033924676 0.034942605 -0.016610872 -0.097635925 0.07425741 -0.043715276 0.050576992
-0.064424336 0.030478157 -0.028960358 0.072236694 -0.058776297 0.07449928 0.04619545 -0.09857623
0.031162739 -0.00014753362 0.07481294 0.09906422 0.041765828 0.009512495 0.024048926 0.02799768
-0.07814503 -0.05327867 -0.0076735313 0.0148555245 -0.045416523 -0.0050918898 0.060061682 0.07365488
0.019305483 -0.08376925 -0.06470192 -0.022998676 -0.061601486 -0.035731528 0.06989813 0.00086015224
0.057903297 -0.070817806 -0.034631178 0.032466605 0.0359439 0.0022103782 0.03465464 0.08026351
0.022229189 0.090477176 0.03966269 0.091594584 -0.11138791 -0.08394572 0.082843624 -0.09721494
-0.10539561 -0.016695084 0.031634487 -0.07729149 0.05608879 -0.07559188 -0.002341807 0.08136878
00000000: 2ae5 4d3b 4a53 9abd 2eeb 3abd 6ce9 f33c
00000010: 6029 783d db22 e6bd d32b 59bd 515f 87bd
00000020: c79c 76bd d2cf 6e3a 6a52 3abd ffab b1bd
00000030: b7b6 bfbc 0bd7 713d a362 863d fcd0 a63d
00000040: c792 873d dd42 ef3c 0d7c cc3b aa82 103d
00000050: 79f6 753c 0f3c 993d f06b e2bc 8e4e 183d
00000060: 2848 09bc ee6a 163d 5882 1ebd eaad 6e3d
00000070: f0f2 abbd ffe1 443c b4f9 29bd ea70 8d3d
00000080: 4451 d23c 4a99 873d b768 583a 9dfb f0bc
00000090: d0b3 483d 701a 78bb ec21 1fbc 5c55 6abd
000000a0: f2f0 00bd 87e3 1e3d 17eb c03d a3ee c13d
000000b0: 115d debd bb9f 7e3d e8de 8fbd 2588 a53c
000000c0: b9f2 943d a7a3 713d 6563 bebd ac50 a3bc
000000d0: 455a 95bb 366a 05bd 0780 57bd f227 18ba
000000e0: d782 b13d 1306 cabd 9a9d 383d 067e 20bd
000000f0: d044 333d 0da3 20bd d04e 213d 9ad0 8e3b
00000100: 4001 3c3b 650f adbd d3b7 e33c 6981 b13d
00000110: 7562 f6bc b33d c0bd f0cc 9fbd 2f57 c43c
00000120: 47ce af3d f48b edbd bccc 14bc 1c0a 35bc
00000130: 95e3 ca3c 7718 1cbd f139 8d3d 205e b8bd
00000140: ddd3 ba3d ad55 8d3d db8a 4bbd 2b8e a2bd
00000150: 8938 ab3c 5449 6dbd 6438 b33c 9e81 273d
00000160: db7c ba3d 6e06 093d 958a abbd abaa 25bd
00000170: 2506 cfbd 9050 54bd 1bc9 59bd 50da 0d3d
00000180: 6849 6cbb ad50 94bd 051f 23bd c783 f8bc
00000190: 4889 9abd a9cf af3d 5696 60bd 407d 6abd
000001a0: 7589 673c dd31 393d 208b a5bc a6a0 ff39
000001b0: 10ff bd3d ecbd febb 7219 adbd adb7 6bbd
000001c0: c3b6 9f3d 9ed4 74bd e659 bb3c 4907 0ebd
000001d0: c8e9 d2bd 17a4 b0bd ffba 10bd 7c38 e13c
000001e0: 15d3 b2bd a1c3 9dbd 9c49 74bd 82fb 36bd
000001f0: 07f1 513d e10f 43bd 9f53 a63d 8025 0abd
00000200: c1b4 833d effe 5c3d ffff c4bd fe2f 3d3d
00000210: 38c7 86bd c410 54bd fe62 7e3d b8c8 dcbd
00000220: 42a7 bcbd a111 a0bd 9a29 7dbd f60d 883d
00000230: 52c1 e5bd c906 393d abc3 f23c 182c 103c
00000240: 9fa1 23bd b4d1 6c3c 4286 14bd d679 313d
00000250: 7205 873d 21c9 bdbd 23e8 5c3c 2d5f 36bd
00000260: 4045 66bb b8aa a8bd 2e1f 643d 1c0f 1cbd
00000270: 30b4 64bc 6eef b7bd 2abf 1bbd 2df7 233d
00000280: e9f8 743c 4a8d 7fbd 3eef 45bc 7682 943c
00000290: 80d0 baba b0a0 6f3c 0b06 a1bd df7c 983d
000002a0: 163c 7e3d 80c9 10ba 4fc4 5ebd 0efd 0ebb
000002b0: be4f bdbd 4246 71bc c618 a5bc c2c8 9ebc
000002c0: e27b 343d 120c f43c 1506 bf3d 0c6d d93c
000002d0: 25b1 d1bc 00f0 3cba c241 c3bd ee72 9a3d
000002e0: bc06 91bd a93f 6c3d 19ae 7cbd c195 8d3d
000002f0: d094 8f3d 00dc 31b9 90bf 2fbd a4c5 e1bc
00000300: 1e54 34bd 9af4 0a3d fa1f 0f3d 8613 88bc
00000310: 58f5 c7bd 4514 983d ca0e 33bd d229 4f3d
00000320: e8f0 83bd 54ad f93c 463e edbc d5f0 933d
00000330: 6abf 70bd 1493 983d 7137 3d3d 56e2 c9bd
00000340: 0049 ff3c 41b3 1ab9 8737 993d 2fe2 ca3d
00000350: a512 2b3d 4cda 1b3c 4102 c53c 645b e53c
00000360: 800a a0bd bc3a 5abd 3f72 fbbb 9664 733c
00000370: ad06 3abd ded9 a6bb 3d03 763d 5fd8 963d
00000380: 8826 9e3c 368f abbd 7182 84bd b867 bcbc
00000390: d751 7cbd 395b 12bd c026 8f3d d77b 613a
000003a0: 022c 6d3d ed08 91bd 6cd9 0dbd b4fb 043d
000003b0: e939 133d fedb 103b 06f2 0d3d 3261 a43d
000003c0: fd19 b63c 194c b93d 5875 223d f195 bb3d
000003d0: 581f e4bd bceb abbd eba9 a93d a018 c7bd
000003e0: a7d9 d7bd 21c4 88bc 2a93 013d 004b 9ebd
000003f0: 5cbd 653d eacf 9abd 0079 19bb ada4 a63d

bias f4 [123]
-0.09933457 -0.1051356 0.048620608 -0.08511718 -0.0022263825 -0.118950136 -0.098867044 -0.022279609
-0.008247866 0.07491862 0.017469712 0.035175607 -0.09850014 0.0028844546 -0.08035804 0.028319672
0.001656417 -0.08128278 0.046525493 0.0027499758 0.07304377 0.016589232 0.04530225 -0.10831862
-0.10334654 0.041353103 0.0464783 0.05644843 -0.0188172 0.069100715 -0.0060355305 0.026886169
-0.111138344 -0.096726686 -0.11255922 0.062118046 -0.0022027213 -0.052444715 -0.07807609 -0.0017790005
0.0065994277 -0.07358898 -0.0828306 -0.058959868 -0.042946603 -0.041165795 0.0076093455 0.05378441
-0.015303393 -0.10916718 0.012930014 -0.044230912 0.033322368 -0.014715903 0.050338317 0.040582966
0.048518684 -0.11023177 -0.01900922 -0.0014533995 0.0397239 0.07912417 0.0077092354 -0.004093428
0.07146406 -0.022123849 -0.024449805 0.029154679 0.05782808 -0.07175417 0.06114518 -0.013898696
-0.055237234 0.05557295 -0.09228115 -0.011915815 -0.019153668 -0.10954524 0.015683519 -0.09813905
-0.062482834 -0.044518027 -0.07372914 0.03574954 -0.07386153 0.061304335 -0.05423322 0.004589589
0.015477088 0.05776968 0.026074126 -0.054288495 -0.009839713 -0.110713564 0.04268639 0.0011522298
-0.035111263 0.026252678 -0.08765157 -0.028454468 0.010286302 -0.079249226 -0.0036756783 -0.08406832
0.06494655 0.07428887 -0.054031704 0.06880235 -0.104395024 -0.026626013 0.012925313 -0.010125445
-0.016904918 -0.11236276 -0.013194594 -0.0419622 0.010700745 -0.08375385 -0.06140459 -0.031033026
0.04202257 -0.106324784 0.043462835
00000000: ec6f cbbd 5551 d7bd 6726 473d eb51 aebd
00000010: 80e8 11bb 219c f3bd ce7a cabd ba83 b6bc
00000020: 0f22 07bc ef6e 993d a41c 8f3c 4c14 103d
00000030: 71ba c9bd 1e09 3d3b c292 a4bd a8fe e73c
00000040: 221c d93a 9677 a6bd 8491 3e3d f038 343b
00000050: f997 953d 24e6 873c da8e 393d 27d6 ddbd
00000060: 5aa7 d3bd df61 293d 0860 3e3d 7836 673d
00000070: 8726 9abc ad84 8d3d b3c5 c5bb 6240 dc3c
00000080: 809c e3bd a418 c6bd 7385 e6bd 7e6f 7e3d
00000090: 885b 10bb 45d0 56bd 5be6 9fbd 5a2d e9ba
000000a0: 0340 d83b d2b5 96bd 17a3 a9bd e77f 71bd
000000b0: c7e8 2fbd 779d 28bd d157 f93b 0b4d 5c3d
000000c0: 15bb 7abc 0b93 dfbd 69d8 533c 792b 35bd
000000d0: 097d 083d f91a 71bc 8d2f 4e3d 533a 263d
000000e0: 87bb 463d 32c1 e1bd 39b9 9bbc ff7f beba
000000f0: 87b5 223d da0b a23d c19d fc3b 2a22 86bb
00000100: c05b 923d 133d b5bc f54a c8bc cbd5 ee3c
00000110: 23dd 6c3d daf3 92bd 5e73 7a3d 5bb7 63bc
00000120: 7040 62bd 76a0 633d e6fd bcbd 8d3a 43bc
00000130: 27e8 9cbc 4159 e0bd b97a 803c 20fd c8bd
00000140: 00ee 7fbd 8958 36bd 4eff 96bd 1c6e 123d
00000150: b744 97bd 411a 7b3d a723 5ebd 4364 963b
00000160: 9d93 7d3c e69f 6c3d 6899 d53c 9d5d 5ebd
00000170: bf36 21bc cbbd e2bd edd7 2e3d 6b06 973a
00000180: d4d0 0fbd db0f d73c ab82 b3bd 5819 e9bc
00000190: e187 283c 6b4d a2bd a6e3 70bb 032c acbd
000001a0: b202 853d c324 983d 5950 5dbd 3fe8 8c3d
000001b0: 0fcd d5bd cc1e dabc b1c4 533c 32e5 25bc
000001c0: 2f7c 8abc 721e e6bd 232e 58bc 8ee0 2bbd
000001d0: 2d52 2f3c 2387 abbd 6183 7bbd f938 febc
000001e0: dc1f 2c3d cfc0 d9bd 1606 323d
