scripts/model_cnn.pt (torch_old, 402843 bytes, 12 tensors)

weight f4 [10, 3, 2, 2]
0.18926248 -0.17088063 -0.07946022 0.27920902 0.25768468 0.18358025 0.11015757 -0.22905144
-0.15642025 -0.09458465 0.023419805 0.075564526 0.1794597 0.1693102 0.18470208 0.041983355
-0.023431826 0.0802611 -0.088659786 -0.15521707 -0.013701502 0.13295402 -0.10226442 -0.2471307
0.0064677317 0.05174569 -0.04385646 0.099822916 -0.26591334 0.11814312 0.18202715 -0.14460593
0.004582957 0.18150923 0.02861103 -0.021256642 -0.17804702 -0.017208342 -0.1215387 -0.2398282
0.12284191 -0.004297423 -0.16038564 -0.07552099 0.18617992 0.11330996 -0.05032023 -0.28877693
0.15202026 0.18474346 -0.0025959713 -0.09205827 -0.04927503 0.13112341 -0.25886342 0.23248716
0.08399173 -0.23156051 -0.29357758 0.015513398 -0.029259162 0.17927289 0.05257797 -0.097034626
0.06916651 -0.12589693 -0.22631042 0.122655705 -0.21195914 -0.081248954 0.18980774 -0.13032576
-0.024346856 -0.09238855 -0.2689654 -0.051835705 0.20799375 0.13272916 -0.2479352 0.1936996
0.15047523 0.17776623 0.25512308 0.09365512 0.1660548 0.11034209 0.023498187 -0.25707135
0.18432164 -0.14119342 -0.11591588 -0.17309919 -0.26290143 0.27672115 -0.20417738 0.09518775
-0.029446416 0.08765795 -0.1368005 0.28118107 -0.058048077 0.091401175 -0.008374829 0.2551161
-0.10099734 0.06895713 -0.22759761 -0.20910826 0.18050885 0.18416564 -0.03609183 0.28798974
-0.050937947 -0.23670301 -0.07890691 0.038345665 -0.06693128 0.199532 -0.27291483 -0.2472776
00000000: 06ce 413e 55fb 2ebe 0abc a2bd 7cf4 8e3e
00000010: 3fef 833e 76fc 3b3e 4b9a e13d 768c 6abe
00000020: a12c 20be 99b5 c1bd e4da bf3c 93c1 9a3d
00000030: 49c4 373e a75f 2d3e 8b22 3d3e bdf6 2b3d
00000040: 1af4 bfbc ee5f a43d 4393 b5bd 39f1 1ebe
00000050: 447c 60bc 1925 083e 0270 d1bd d50f 7dbe
00000060: 44ef d33b 4af3 533d d5a2 33bd f56f cc3d
00000070: cb25 88be 05f5 f13d 5365 3a3e 9413 14be
00000080: a12c 963b 8edd 393e ae61 ea3c 6922 aebc
00000090: f551 36be 82f8 8cbc 48e9 f8bd 8695 75be
000000a0: 8a94 fb3d 66d1 8cbb 223c 24be c0aa 9abd
000000b0: f3a5 3e3e 0d0f e83d 961c 4ebd 92da 93be
000000c0: 33ab 1b3e 642d 3d3e 2c21 2abb 0c89 bcbd
000000d0: 9dd4 49bd 3745 063e bf89 84be 1d11 6e3e
000000e0: db03 ac3d 331e 6dbe cd4f 96be e82b 7e3c
000000f0: e9b0 efbc 5093 373e ff5b 573d 17ba c6bd
00000100: 2ca7 8d3d 20eb 00be ebbd 67be ea32 fb3d
00000110: d10b 59be da65 a6bd f65c 423e 1e74 05be
00000120: 0f73 c7bc 3536 bdbd d5b5 89be ad51 54bd
00000130: 50fc 543e 27ea 073e bae2 7dbe 3059 463e
00000140: 2e16 1a3e 5a08 363e 7e9f 823e 41ce bf3d
00000150: 450a 2a3e 09fb e13d 457f c03c db9e 83be
00000160: d0be 3c3e 0295 10be 4e65 edbd ea40 31be
00000170: 049b 86be 65ae 8d3e e013 51be ccf1 c23d
00000180: 9c39 f1bc 0386 b33d 6e15 0cbe f7f6 8f3e
00000190: d2c3 6dbd 8a30 bb3d 9436 09bc 949e 823e
000001a0: b2d7 cebd 6539 8d3d 590f 69be 7a20 56be
000001b0: 50d7 383e eb95 3c3e 07d5 13bd 6473 933e
000001c0: 4fa4 50bd 4662 72be f299 a1bd 5810 1d3d
000001d0: 4413 89bd 1e52 4c3e 7ebb 8bbe 5736 7dbe

bias f4 [10]
-0.04376369 -0.19976227 0.16741003 0.21790066 0.21186015 -0.02595817 0.075467765 -0.28163794
-0.28355676 0.14893544
00000000: 8e41 33bd 7b8e 4cbe 896d 2b3e 5a21 5f3e
00000010: def1 583e 3aa6 d4bc d88e 9a3d d932 90be
00000020: 5a2e 91be 8882 183e

weight f4 [10, 10, 3, 3]
-0.028255865 0.053101465 -0.077789694 -0.066099465 0.10412799 0.050003164 -0.023491034 0.057434663
-0.058900643 0.0064759245 0.012201979 0.085291766 -0.059299946 -0.0029371844 0.046925347 0.004648465
0.027513357 0.067506194 -0.054924216 -0.06424478 -0.051126063 -0.06378459 0.06193078 -0.05683285
0.016452849 0.101633415 -0.040460408 0.009052561 -0.0032012642 0.008048321 0.043028116 0.0064199525
0.0029161598 0.055930015 -0.02781344 0.069145836 0.087905094 -0.0925228 0.107859805 -0.029683568
-0.037314218 -0.07074574 0.08229081 -0.020392431 -0.03540476 0.0495363 0.017667156 0.051396266
0.10144447 -0.01351587 0.059649535 -0.0037951304 0.034805812 0.10791951 -0.06500822 -0.0030664483
-0.030008422 0.021643806 0.06634684 0.00905175 0.0656715 0.08045545 0.017477656 0.040877633
-0.040851634 0.111720525 -0.050109133 0.05850113 -0.00070207706 0.112574495 0.10492744 0.09345341
0.072920665 0.039354816 -0.029288307 0.05067133 -0.06018068 0.052110076 0.102960914 -0.08453837
0.010883137 0.07901956 0.081545554 0.0075314306 -0.093339376 0.11010572 0.0799937 0.005646279
0.08423968 0.026566317 0.073225506 -0.038307942 -0.018901922 -0.045269016 -0.09691752 -0.0013501978
-0.046128463 -0.010448712 0.05447211 -0.012864774 -0.024618568 0.078371845 -0.026988816 -0.05798763
0.015611819 -0.061508253 0.04457226 -0.062315013 0.02032509 -0.052920207 -0.06880262 -0.08522907
0.008561854 -0.092301 -0.048476797 -0.08338406 -0.01624201 -0.081777684 0.033732094 -0.06817865
0.08920989 -0.08824872 -0.011306117 0.063228056 0.04774154 0.056119096 -0.053028096 -0.054063585
0.02397877 -0.07562657 -0.025722433 -0.054934375 0.010589795 0.018193759 -0.0032226795 0.058352455
0.008599883 0.08777956 0.065581806 0.054705873 -0.02490287 -0.024686936 -0.07124955 0.043560445
0.08653641 -0.06532653 0.036637988 0.08431609 -0.10152612 -0.006101399 0.10054654 -0.04947169
-0.053497635 0.08715292 -0.103406966 -0.028988596 0.0136370035 0.02942935 0.07062552 0.021919409
-0.041191086 0.03795916 0.09117251 -0.013685253 0.05124407 0.0048388382 0.061368395 0.021002222
0.016089387 0.09780137 0.08950631 0.07674993 0.03967861 0.057864446 -0.07252854 -0.0842726
-0.100581735 0.031788416 -0.024643362 0.039474674 -0.0073823105 0.09773188 0.03969927 -0.05164893
-0.036065962 0.02086526 0.062140465 0.105246484 0.05773943 -0.08123006 0.024504114 -0.09574216
0.08617025 0.045540467 0.0011601426 -0.021069694 -0.09578519 0.060759164 0.08318349 0.04485745
-0.041685827 -0.025930189 -0.09282556 0.0875713 -0.06848189 -0.034916464 0.068300605 0.10453686
-0.0080899885 -0.049721677 0.073798895 -0.02835717 0.088263564 -0.016097419 0.05679012 -0.06987505
-0.026318427 -0.013853109 0.09142001 0.03795409 -0.019124106 -0.05726248 0.09379297 -0.043530334
0.03647563 0.039820746 -0.07857042 -0.006104165 -0.072089374 -0.028020384 0.040444452 -0.055915
0.0146607915 -0.007899092 -0.04250428 0.041722238 0.015956897 -0.057741288 -0.021449681 0.034911927
0.059838153 0.045995187 -0.0015778814 -0.038172062 -0.06633679 -0.043055985 0.06397384 0.03037825
0.06833125 -0.020096185 -0.0711846 -0.075280786 0.10177555 0.08683012 0.020625079 0.011635254
00000000: d878 e7bc ec80 593d 3450 9fbd 285f 87bd
00000010: 0e41 d53d 1ed0 4c3d 4570 c0bc 9c40 6b3d
00000020: cd41 71bd fe33 d43b cfea 473c 73ad ae3d
00000030: 80e4 72bd c77d 40bb cb34 403d 2752 983b
00000040: b163 e13c b040 8a3d 37f8 60bd c492 83bd
00000050: 9069 51bd 7fa1 82bd 21ab 7d3d 90c9 68bd
00000060: 20c8 863c 2e25 d03d d0b9 25bd 3151 143c
00000070: 4dcc 51bb 1bdd 033c 403e 303d 775e d23b
00000080: 0b1d 3f3b df16 653d 03d9 e3bc 559c 8d3d
00000090: 9607 b43d 987c bdbd 9ae5 dc3d f42a f3bc
000000a0: cbd6 18bd 24e3 90bd 1688 a83d 070e a7bc
000000b0: 9504 11bd 93e6 4a3d b6ba 903c e484 523d
000000c0: 1ec2 cf3d ab71 5dbc 1253 743d b9b7 78bb
000000d0: 8a90 0e3d e704 dd3d 0823 85bd 77f6 48bb
000000e0: 39d4 f5bc 5a4e b13c dae0 873d cb4d 143c
000000f0: c87e 863d d4c5 a43d 4d2d 8f3c 4e6f 273d
00000100: 0b54 27bd bbcd e43d 3c3f 4dbd e29e 6f3d
00000110: 980b 38ba 758d e63d 33e4 d63d 8064 bf3d
00000120: 6e57 953d 8432 213d 08ee efbc be8c 4f3d
00000130: 0480 76bd 6071 553d 2cdd d23d 7422 adbd
00000140: 2f4f 323c 02d5 a13d 5b01 a73d 38ca f63b
00000150: b728 bfbd 1c7f e13d bdd3 a33d 6c04 b93b
00000160: da85 ac3d 9ba1 d93c 41f7 953d cae8 1cbd
00000170: 34d8 9abc 016c 39bd b17c c6bd 1ff9 b0ba
00000180: 33f1 3cbd 1331 2bbc 261e 5f3d c6c6 52bc
00000190: e1ac c9bc 6b81 a03d a617 ddbc 7084 6dbd
000001a0: b7c8 7f3c 14f0 7bbd 6791 363d 073e 7fbd
000001b0: ce80 a63c dcc2 58bd 63e8 8cbd 948c aebd
000001c0: 0547 0c3c 4f08 bdbd 9b8f 46bd 43c5 aabd
000001d0: f70d 85bc 0f7b a7bd aa2a 0a3d 40a1 8bbd
000001e0: adb3 b63d bfbb b4bd 4b3d 39bc b67d 813d
000001f0: a28c 433d 23dd 653d fd33 59bd c771 5dbd
00000200: 206f c43c 1ae2 9abd dab7 d2bc de02 61bd
00000210: d280 2d3c 140b 953c 9733 53bb fc02 6f3d
00000220: 86e6 0c3c c5c5 b33d c14f 863d 4413 603d
00000230: 1b01 ccbc 423c cabc 49eb 91bd 706c 323d
00000240: 003a b13d eac9 85bd b711 163d eaad ac3d
00000250: edec cfbd 3fee c7bb 58eb cd3d d4a2 4abd
00000260: 5620 5bbd 3b7d b23d 08c7 d3bd 7e79 edbc
00000270: bd6d 5f3c d215 f13c 1da4 903d 5590 b33c
00000280: fcb7 28bd 107b 1b3d a7b8 ba3d 1d38 60bc
00000290: 4de5 513d 1e8f 9e3b 6d5d 7b3d da0c ac3c
000002a0: e4cd 833c 164c c83d 164f b73d 112f 9d3d
000002b0: 0a86 223d 4503 6d3d d889 94bd 1d97 acbd
000002c0: ccfd cdbd 9234 023d e0e0 c9bc 32b0 213d
000002d0: 4fe7 f1bb a727 c83d b49b 223d d48d 53bd
000002e0: e7b9 13bd 9fed aa3c 0087 7e3d 788b d73d
000002f0: 2e80 6c3d f25b a6bd dabc c83c 7714 c4bd
00000300: 077a b03d a488 3a3d ed0f 983a 5a9a acbc
00000310: 072b c4bd 9ade 783d 1b5c aa3d 72bc 373d
00000320: c2be 2abd 8c6b d4bc 541b bebd 9558 b33d
00000330: 3c40 8cbd 9104 0fbd 30e1 8b3d 6c17 d63d
00000340: df8b 04bc f5a8 4bbd e023 973d 4c4d e8bc
00000350: 87c3 b43d bcde 83bc c29c 683d a61a 8fbd
00000360: be99 d7bc 27f8 62bc 6a3a bb3d bf75 1b3d
00000370: 28aa 9cbc 108c 6abd 8716 c03d dd4c 32bd
00000380: 7867 153d 141b 233d 87e9 a0bd 7305 c8bb
00000390: 98a3 93bd 018b e5bc 15a9 253d 2107 65bd
000003a0: d133 703c 316b 01bc f818 2ebd f0e4 2a3d
000003b0: 0ab8 823c 2182 6cbd 3eb7 afbc cfff 0e3d
000003c0: da18 753d 7365 3c3d ead0 ceba 4f5a 1cbd
000003d0: 95db 87bd 795b 30bd b704 833d cfdb f83c
000003e0: 41f1 8b3d c1a0 a4bc 3bc9 91bd d02c 9abd
000003f0: b36f d03d fdd3 b13d edf5 a83c cba1 3e3c

bias f4 [10]
-0.016552595 0.008924 0.092834294 0.037812777 0.04480805 -0.05073615 0.0039607915 -0.099977955
0.015283965 0.08781224
00000000: 4f99 87bc f835 123c e81f be3d 92e1 1a3d
00000010: a588 373d b6d0 4fbd 87c9 813b 3ec1 ccbd
00000020: 9869 7a3c e7d6 b33d

weight f4 [10, 10, 4, 4]
-0.0166197 0.021105325 -0.038667552 -0.017594561 0.08119553 0.074797064 -0.0034909793 0.0039968467
0.025994193 0.032511484 -0.062507086 0.051313456 0.012613664 -0.00571106 -0.0308028 -0.005596585
0.016165147 0.0633754 -0.045643564 -0.043917775 -0.05707242 -0.035075363 0.0022102473 0.0067221383
0.021709641 0.039113242 0.025654528 -0.023678696 -0.038346294 0.0127304215 -0.052049834 -0.015845636
0.060595397 -0.029623542 0.08502333 -0.012589439 0.06829401 -0.008388273 -0.067396365 -0.037241053
-0.040518396 -0.037506256 0.0018096582 -0.05775128 0.06307564 -0.060853556 -0.058414694 -0.03166599
0.009842011 -0.05994702 -0.036895137 -0.048275057 0.023435358 0.020126333 0.08146696 -0.023030298
0.0424755 -0.010168061 0.00915114 0.05764075 -0.007936657 0.03060097 0.014042064 -0.032617886
0.014610151 0.02282288 0.004718445 -0.002273259 0.05631447 0.08431456 -0.026302882 0.015370178
-0.048975788 0.025100518 0.04971177 -0.07274474 -0.04863555 0.034698747 0.07999278 0.016532473
-0.044497278 -0.0075330078 0.037959132 -0.0077315085 0.0078114825 -0.013987734 -0.022088522 0.046572976
0.027332786 0.013269319 0.07494408 -0.013057643 -0.055916216 -0.016915841 0.0037623937 -0.067134105
-0.00860279 0.048356067 -0.048409536 0.04397447 0.07488994 -0.04576877 -0.03456164 0.012896634
-0.018326836 0.082503945 -0.058492057 0.089467205 -0.03175218 -0.059729006 -0.021292938 -0.03527806
0.059575234 0.06519423 0.032654937 -0.022407692 0.055229966 -0.06729231 -0.035893768 0.06067604
-0.008398873 0.08157997 -0.069185205 0.012245907 -0.07541045 -0.019770684 0.05772746 -0.00885863
-0.069405764 0.021776231 0.07674181 0.06280996 0.03000968 -0.0024299019 0.008898442 0.074924216
0.064262435 0.0015783191 0.06711055 0.044890393 0.043053955 0.07373355 0.014703548 -0.029700978
0.032573085 0.028957516 0.039150413 0.075686246 -0.030302688 0.011958644 -0.024729634 -0.07070081
0.02384934 -0.024893757 -0.06798277 0.057504818 0.030001182 -0.036538415 0.040953286 0.07713305
0.036504492 0.025437638 -0.006513824 -0.0615399 0.079294175 -0.03425668 -0.011139332 -0.033711247
-0.054741263 -0.055872135 -0.031014875 -0.024686618 0.021866785 0.07989991 0.02857158 0.0250702
-0.04360487 -0.04096059 -0.055422004 0.042735487 -0.060189787 -0.049374197 0.019551164 0.040041238
0.015744563 0.045066867 0.06043426 0.008961213 -0.0026831918 -0.041876063 0.004872355 0.032703497
0.07110851 0.011061872 -0.028857976 0.02292868 -0.043325588 0.032615136 0.050193753 -0.049257703
0.056854483 0.06514178 0.086041 -0.022363357 0.052855797 0.0049924147 -0.07087937 -0.06399431
-0.05188358 -0.044485714 0.07915137 0.037708398 0.033687517 -0.06146257 -0.033107795 -0.06859828
0.07584563 0.06525666 -0.0019725475 0.0776335 0.07842293 -0.06580583 0.033250242 -0.042548884
0.010905138 0.08119616 0.058931023 0.048092324 0.010257879 0.02667706 0.065909594 0.06934461
0.07246491 0.06974951 -0.018389536 -0.03845468 -0.06623483 -0.025339369 0.043415487 0.06834471
0.075041905 0.010595916 0.07739275 -0.04425635 -0.050072335 -0.07029348 -0.007506294 0.04417122
-0.06998433 -0.045605604 -0.024891896 -0.03494751 -0.03890382 -0.007961402 -0.009972749 -0.07419236
00000000: 0926 88bc 13e5 ac3c de61 1ebd 7822 90bc
00000010: d849 a63d 342f 993d eac8 64bb fbf7 823b
00000020: c6f1 d43c c32a 053d b703 80bd 0f2e 523d
00000030: 8ba9 4e3c d823 bbbb 2756 fcbc 8f63 b7bb
00000040: c56c 843c f6ca 813d bff4 3abd 20e3 33bd
00000050: c5c4 69bd 2fab 0fbd ccd9 103b 6245 dc3b
00000060: 6bd8 b13c 3535 203d 7229 d23c d3f9 c1bc
00000070: 0111 1dbd 4293 503c 3532 55bd b5ce 81bc
00000080: e132 783d 12ad f2bc b620 ae3d ef43 4ebc
00000090: bbdd 8b3d f86e 09bc 1b07 8abd 138a 18bd
000000a0: 9ef6 25bd 29a0 19bd 0e32 ed3a 9b8c 6cbd
000000b0: cd2d 813d 9441 79bd 3f44 6fbd 32b4 01bd
000000c0: 6340 213c 028b 75bd 5b1f 17bd 11bc 45bd
000000d0: 82fb bf3c fbdf a43c 26d8 a63d 09aa bcbc
000000e0: cafa 2d3d f097 26bc aaee 153c b518 6c3d
000000f0: c108 02bc e3ae fa3c af10 663c 559a 05bd
00000100: 6a5f 6f3c 0cf7 ba3c 2f9d 9a3b f5fa 14bb
00000110: 00aa 663d 1dad ac3d 2479 d7bc 33d3 7b3c
00000120: d69a 48bd 9a9f cd3c 929e 4b3d 32fb 94bd
00000130: 1236 47bd 4620 0e3d 41d3 a33d 1c6f 873c
00000140: c742 36bd 73d7 f6bb 097b 1b3d 9858 fdbb
00000150: 77f7 ff3b cf2c 65bc fdf2 b4bc 4ec3 3e3d
00000160: 02e9 df3c 8f67 593c 487c 993d b9ef 55bc
00000170: 6708 65bd 1793 8abc 7e92 763b 9b7d 89bd
00000180: b7f2 0cbc 0311 463d 1449 46bd 931e 343d
00000190: e65f 993d 0978 3bbd 8290 0dbd 674c 533c
000001a0: 2922 96bc d4f7 a83d 5e95 6fbd 953a b73d
000001b0: 930e 02bd 67a6 74bd 876e aebc ba7f 10bd
000001c0: 2905 743d 8d84 853d 2fc1 053d 5690 b7bc
000001d0: d138 623d 8dd0 89bd 5805 13bd 7087 783d
000001e0: 6d9b 09bc 6613 a73d f9b0 8dbd 0fa3 483c
000001f0: cb70 9abd 21f6 a1bc a173 6c3d ca23 11bc
00000200: 9c24 8ebd 1164 b23c cf2a 9d3d 82a2 803d
00000210: dcd6 f53c fd3e 1fbb c5ca 113c de71 993d
00000220: 069c 833d 9adf ce3a 4271 893d fdde 373d
00000230: 5859 303d 9e01 973d 26e7 703c 774f f3bc
00000240: 5b6b 053d 5038 ed3c 2f5c 203d 6401 9b3d
00000250: 583d f8bc 30ee 433c cd95 cabc 96cb 90bd
00000260: b15f c33c feed cbbc 8d3a 8bbd 2c8a 6b3d
00000270: 0ac5 f53c 4ea9 15bd a2be 273d eff7 9d3d
00000280: bc85 153d 9862 d03c eb71 d5bb 4311 7cbd
00000290: fc64 a23d bc50 0cbd bf81 36bc ce14 0abd
000002a0: 6038 60bd 2eda 64bd e812 febc 973b cabc
000002b0: f921 b33c 90a2 a33d f20e ea3c 0560 cd3c
000002c0: 059b 32bd 4bc6 27bd 2f02 63bd 680b 2f3d
000002d0: 9189 76bd 993c 4abd c329 a03c 4802 243d
000002e0: befa 803c 0998 383d ea89 773d 0dd2 123c
000002f0: 7dd8 2fbb 3c86 2bbd 47a8 9f3b 1af4 053d
00000300: 57a1 913d db3c 353c 9067 ecbc edd4 bb3c
00000310: 2c76 31bd 7397 053d f797 4d3d 72c2 49bd
00000320: 3fe0 683d 0e69 853d 4436 b03d 5c33 b7bc
00000330: 527f 583d 6997 a33b 3429 91bd 730f 83bd
00000340: e083 54bd a736 36bd 1d1a a23d 1f74 1a3d
00000350: ecfb 093d 2dc0 7bbd 0a9c 07bd 417d 8cbd
00000360: f454 9b3d 49a5 853d db45 01bb 50fe 9e3d
00000370: 339c a03d 35c5 86bd 6831 083d bd47 2ebd
00000380: 77ab 323c 2c4a a63d a861 713d 75fc 443d
00000390: aa10 283c da89 da3c 9cfb 863d 8c04 8e3d
000003a0: 7c68 943d d5d8 8e3d a7a5 96bc a882 1dbd
000003b0: 20a6 87bd 8294 cfbc 70d4 313d 50f8 8b3d
000003c0: 92af 993d 7e9a 2d3c 1780 9e3d 2546 35bd
000003d0: a618 4dbd 07f6 8fbd 5cf7 f5bb e2ec 343d
000003e0: f253 8fbd f1cc 3abd 17ea cbbc 1f25 0fbd
000003f0: 9d59 1fbd 8a70 02bc be64 23bc 2af2 97bd

bias f4 [10]
0.042706408 0.0034163615 -0.018873947 -0.07449831 -0.061051052 -0.06259456 -0.027539153 0.022551706
-0.06396295 -0.05072198
00000000: eaec 2e3d 09e5 5f3b 899d 9abc 9292 98bd
00000010: ab10 7abd 9431 80bd ca99 e1bc 5bbe b83c
00000020: 02ff 82bd dac1 4fbd

weight f4 [10, 10, 5, 5]
-0.05707215 0.018641945 0.023680693 0.0054850457 0.0013960823 0.050467577 0.05123241 -0.05956181
-0.014899747 0.046891727 -0.0051093316 -0.035289347 -0.047855876 0.019313732 0.024513526 -0.03827419
-0.055653047 -0.022669077 -0.01844709 -0.027793285 -0.055669826 0.05753554 -0.009140497 -0.02682844
0.004247168 -0.061050218 0.039131 0.037871107 -0.009429635 0.020446213 -0.04935955 0.008433504
-0.062352233 -0.048788037 -0.024787765 -0.014657056 -0.050386272 -0.044851895 -0.066476285 -0.038796045
0.047658525 -0.03375164 -0.05524789 -0.0058611995 -0.047721248 0.049198516 0.04675827 -0.021625584
-0.038097072 -0.018644882 -0.0547699 -0.022945734 -0.050791 0.05935648 0.05133138 -0.013464828
-0.0012515951 0.013256167 -0.031437382 -0.016891703 -0.03923741 0.03681322 -0.057380203 -0.034543965
0.048522007 -0.029432481 -0.035215423 -0.041469045 -0.055499643 0.0403038 0.0048580593 -0.0010586065
-0.025305083 -0.05228209 -0.035390165 0.03924454 0.04124315 -0.060167573 0.031186767 0.011660233
0.0120777935 0.008706264 -0.05642008 0.052214906 0.04656484 0.024985924 -0.00044609606 -0.005781777
-0.05661126 0.017535217 -0.059835814 0.013931088 -0.057997704 0.03876789 -0.052538052 -0.0138795525
-0.04482002 -0.043451905 0.048945703 0.06244144 0.026189426 -0.06783051 -0.034616563 -0.0024642868
-0.026652323 0.04691539 -0.04189344 -0.05759708 -0.061302602 0.027829891 -0.011804386 -0.056847885
0.05175638 0.026554719 0.03816919 -0.033877693 0.032381143 0.02054881 0.04820705 0.04134483
0.05318944 0.043213353 -0.022317018 -0.008245591 -0.006990709 0.042420126 -0.0049588038 0.047775596
0.0140574835 -0.044032056 -0.029505396 -0.041568343 0.044596203 0.018748092 -0.05901313 0.0017901496
-0.015970465 0.019231644 0.016450623 0.012964622 -0.031682767 0.04871089 0.046034906 0.0143707385
0.051271122 0.0078005586 0.018783608 0.0031177653 -0.02817597 -0.03990891 -0.019177608 -0.008954137
-0.017761117 0.019645168 -0.065703526 0.019577196 -0.003644984 -0.065893345 0.025628438 -0.008202812
-0.0138729755 0.0082642445 -0.012335892 -0.026247403 0.02867042 0.031108594 0.016738135 0.050415583
-0.03907382 -0.025250446 -0.04860316 -0.043707468 0.027638135 -0.015856357 -0.031413816 0.041216534
0.023020476 -0.013084568 0.054299135 -0.034867078 -0.06307919 -0.028733632 -0.04597967 -0.023571415
0.022697093 -0.06439931 0.022247601 -0.060918566 0.027755475 0.015528556 -0.027077489 -9.1927155e-05
-0.034494992 -0.005890801 -0.042621836 0.010505826 -0.009925793 -0.0530301 -0.018489854 0.033576287
0.04968276 0.012188569 0.010988906 -0.044491276 0.032949045 -0.05490566 0.015275791 -0.030247346
0.033096798 -0.0051622503 0.021459535 0.013408691 0.022844441 -0.03447548 0.018600568 0.059699394
-0.04504613 0.049241297 0.03841009 0.036366336 -0.050758604 0.060656413 -0.046315413 0.018999353
0.019352034 0.002953946 0.051257543 0.011687739 0.004950073 -0.041760024 0.06922504 0.026673468
-0.04865326 -0.000262368 -0.017943338 -0.010645864 -0.028669046 0.019677922 -0.027631866 -0.017227497
-0.032641105 0.005671477 -0.014244517 -0.033451695 0.01890709 0.05576807 -0.056252696 0.019920466
-0.031283814 0.013611804 0.05079878 -0.048533853 0.06164375 -0.0030332804 0.030281648 0.034533218
00000000: 7dc4 69bd feb6 983c 03fe c13c e6bb b33b
00000010: c0fc b63a 17b7 4e3d 13d9 513d 16f7 73bd
00000020: 121e 74bc 8a11 403d 2e6c a7bb 908b 10bd
00000030: 8604 44bd d537 9e3c 97d0 c83c 66c5 1cbd
00000040: 73f4 63bd 80b4 b9bc 5a1e 97bc beae e3bc
00000050: 0b06 64bd 63aa 6b3d 06c2 15bc 51c7 dbbc
00000060: d42b 8b3b cb0f 7abd d447 203d bc1e 1b3d
00000070: c17e 1abc d17e a73c 3d2d 4abd ae2c 0a3c
00000080: 0e65 7fbd f7d5 47bd b60f cbbc 2624 70bc
00000090: d661 4ebd 9fb6 37bd b824 88bd 9ae8 1ebd
000000a0: 9635 433d 293f 0abd 9d4b 62bd 4e0f c0bb
000000b0: 5b77 43bd 6284 493d 9a85 3f3d 2328 b1bc
000000c0: ad0b 1cbd 27bd 98bc 6756 60bd b1f8 bbbc
000000d0: 390a 50bd c81f 733d da40 523d 959b 5cbc
000000e0: 900c a4ba 6530 593c 7cc4 00bd 7860 8abc
000000f0: 68b7 20bd 75c9 163d 8107 6bbd f97d 0dbd
00000100: 03bf 463d 631c f1bc 0c3e 10bd 72db 29bd
00000110: 9853 63bd 9915 253d 5b30 9f3b f1c0 8aba
00000120: 9b4c cfbc bf25 56bd 47f5 10bd e2be 203d
00000130: 94ee 283d 4672 76bd 647b ff3c 900a 3f3c
00000140: f0e1 453c b8a4 0e3c be18 67bd 4cdf 553d
00000150: c6ba 3e3d 48af cc3c 00e2 e9b9 1075 bdbb
00000160: 35e1 67bd 04a6 8f3c 6616 75bd 383f 643c
00000170: 008f 6dbd 14cb 1e3d 2432 57bd 1067 63bc
00000180: 3395 37bd a0fa 31bd 4a7b 483d 98c2 7f3d
00000190: 358b d63c b9ea 8abd 19ca 0dbd df7f 21bb
000001a0: f955 dabc 5a2a 403d 7598 2bbd eaea 6bbd
000001b0: 7018 7bbd 83fb e33c 2f67 41bc 54d9 68bd
000001c0: 7ffe 533d 4889 d93c 4c57 1c3d 56c3 0abd
000001d0: 17a2 043d fa55 a83c c174 453d 3259 293d
000001e0: 2cdd 593d 7c00 313d 2ed2 b6bc 8418 07bc
000001f0: 5112 e5bb bac0 2d3d 767d a2bb 58b0 433d
00000200: 5c51 663c f55a 34bd 4db5 f1bc 9143 2abd
00000210: 82aa 363d 9995 993c c0b7 71bd 74a3 ea3a
00000220: 7ed4 82bc ae8b 9d3c 75c3 863c 9169 543c
00000230: cac5 01bd 1285 473d 198f 3c3d 3f73 6b3c
00000240: ab01 523d d49b ff3b 15e0 993c 6c53 4c3b
00000250: 4bd1 e6bc 8677 23bd 5c1a 9dbc 5fb4 12bc
00000260: c37f 91bc e7ee a03c 928f 86bd 5b60 a03c
00000270: afe0 6ebb 17f3 86bd bbf2 d13c 1665 06bc
00000280: 7a4b 63bc c166 073c 7b1c 4abc cb04 d7bc
00000290: 3bde ea3c 73d7 fe3c 6a1e 893c 9280 4e3d
000002a0: df0b 20bd 06da cebc 1b14 47bd 9a06 33bd
000002b0: 5f69 e23c 31e5 81bc c6ab 00bd abd2 283d
000002c0: 7095 bc3c a860 56bc c568 5e3d c8d0 0ebd
000002d0: aa2f 81bd cb62 ebbc 2e55 3cbd d718 c1bc
000002e0: 41ef b93c c9e3 83bd 9a40 b63c bf85 79bd
000002f0: 735f e33c 7c6b 7e3c 9cd1 ddbc 04c9 c0b8
00000300: 9f4a 0dbd 9f07 c1bb 3c94 2ebd a120 2c3c
00000310: cb9f 22bc 1736 59bd 0978 97bc 4a87 093d
00000320: 2680 4b3d 90b2 473c d00a 343c 7c3c 36bd
00000330: 94f5 063d c2e4 60bd 5047 7a3c 48c9 f7bc
00000340: 8290 073d 1828 a9bb e8cb af3c 20b0 5b3c
00000350: 4424 bb3c 2936 0dbd 3860 983c 5a87 743d
00000360: 4a82 38bd 3eb1 493d e653 1d3d def4 143d
00000370: 41e8 4fbd dc72 783d 3bb5 3dbd 88a4 9b3c
00000380: 2888 9e3c fd96 413b 6ef3 513d ee7d 3f3c
00000390: 3934 a23b 8f0c 2bbd dcc5 8d3d 5182 da3c
000003a0: a448 47bd 708e 89b9 e8fd 92bc fd6b 2ebc
000003b0: 59db eabc 9833 a13c 395c e2bc ae20 8dbc
000003c0: aeb2 05bd ccd7 b93b d661 69bc a504 09bd
000003d0: 0be3 9a3c 0f6d 643d 3a69 66bd 3f30 a33c
000003e0: 7523 00bd 0b04 5f3c 6212 503d 6fcb 46bd
000003f0: 287e 7c3d 00ca 46bb 3811 f83c b472 0d3d

bias f4 [10]
0.020730307 0.023529455 0.035746768 0.020592876 0.012536204 -6.501506e-05 -0.01930843 0.046950508
0.0645545 0.074436866
00000000: 9bd2 a93c d8c0 c03c 346b 123d 64b2 a83c
00000010: a764 4d3c b258 88b8 b62c 9ebc 2d4f 403d
00000020: 2635 843d 5b72 983d

weight f4 [100, 810]
0.006585836 -0.030464994 -0.020629961 -0.027607188 0.026262475 -0.035941564 -0.0077912183 -0.0046380144
-0.00898631 -0.0024508748 -0.008879832 -0.034268297 -0.007973697 -0.0012693267 0.014535764 -0.00886797
-0.04188408 -0.01645691 -0.024371294 -0.009861953 0.025294708 0.0050659543 -0.041994944 0.018821068
-0.00014573132 -0.024115829 -0.004143361 0.0010579055 0.0102569 -0.016054695 -0.029707136 0.014465657
-0.027534014 -0.035361424 -0.01758773 -0.024957912 0.02403123 -0.0067715193 -0.01662459 -0.033979446
-0.0099185705 0.0023056334 -0.00747071 0.029084783 -0.0069577405 0.012263183 0.004056646 0.014685407
-0.026822096 0.029224755 -0.03991915 0.029025976 0.017894031 -0.0010883512 -0.028431708 -0.016111448
0.027879365 0.028823262 -0.032317434 0.0113007 -0.01809076 -0.0050473735 0.006980523 -0.03180792
0.007950636 -0.022948496 0.0015183969 -0.007341344 0.015952218 -0.008245092 0.015524833 0.015991673
-0.024823198 0.0006449414 -0.02681789 -0.0008196075 -0.0062346095 -0.030777931 -0.037324946 0.012354404
-0.023531483 -0.025693927 -0.025195746 0.024755683 0.024561677 -0.008977789 0.028026883 -0.011247903
-0.002411265 -0.010813404 -0.028670752 0.006764926 0.016603194 0.0028142333 -0.018936228 0.010283422
0.005276259 -0.010596737 0.012559339 0.015129123 0.022166803 -0.031028513 -0.034184594 0.008862127
0.024318691 -0.0039684903 -0.014645727 -0.032257885 -0.026972841 0.0066374354 -0.0027444586 0.0011764839
-0.0060033146 -0.0040145684 0.007319037 -0.0114395395 -0.024786323 -0.020282846 -0.02439576 0.014813654
0.015177891 -0.030454857 -0.012195442 -0.011197988 0.003360048 0.018598013 -0.005824549 0.023063157
0.027616452 -0.027346037 0.008162081 -0.008398265 0.0051663183 0.017071474 -0.012071481 0.020563226
-0.030797645 0.019180227 0.028611068 0.010144759 -0.013178755 -0.0041329674 -0.0012664795 -0.0035389513
0.0035872608 -0.030666133 0.008838784 -0.0256886 -0.01756717 0.023237858 0.032448594 -0.020032525
0.01599288 0.002904158 -0.0005372204 0.03085323 0.011501383 0.028950278 0.0129283 0.013538122
-0.033674248 0.00037408993 0.01625092 0.009499956 0.006624587 -0.029672265 0.015583012 0.03492171
-0.023792166 -0.010944163 -0.009874994 -0.031478815 0.02133641 -0.0040732976 -0.011965426 -0.015989631
-0.012746019 -0.014524061 0.012878634 -0.011108462 -0.02263321 -0.019117268 -0.012495127 -0.016991215
0.0017406344 0.007200077 0.024653628 0.02381273 0.020488951 0.03341065 -0.00012247264 0.020634323
-0.02124082 -0.033747517 0.0009400211 -0.026450872 -0.0037522763 -0.02222099 0.0235591 0.02463799
0.034060467 0.0154813975 0.01081413 0.032302145 0.032780927 0.024892904 -0.034525625 0.020720515
0.012858346 0.007569801 -0.02522061 0.0084443055 -0.0025116205 -0.02298012 0.027880717 0.007984705
-0.031590305 0.0024054497 -0.0037363544 -0.026154539 0.010742944 0.021590956 -0.019254586 -0.0026476122
-0.025591291 -0.020241212 -0.020930398 0.023737606 0.019397274 0.031215105 -0.018943664 0.00015452877
-0.0072539896 0.0057706498 0.011619486 -0.008152939 -0.01102113 -0.031569008 -0.034266703 -0.02211217
0.02660323 0.022157248 0.02561158 0.03365769 0.03131647 0.0060890913 -0.034760892 -0.015879568
0.034808766 0.001836054 -0.021434244 0.02749737 -0.022792585 0.0033426657 -0.020197906 -0.029745905
00000000: ffcd d73b b991 f9bc 2a00 a9bc 7828 e2bc
00000010: 6724 d73c 7637 13bd 7a4d ffbb 7cfa 97bb
00000020: 513b 13bc db9e 20bb b77c 11bc ea5c 0cbd
00000030: 1ca4 02bc 895f a6ba 6a27 6e3c f64a 11bc
00000040: a48e 2bbd a4d0 86bc 4fa6 c7bc 0794 21bc
00000050: d936 cf3c 4e00 a63b e402 2cbd a42e 9a3c
00000060: 74cf 18b9 8f8e c5bc 08c5 87bb 6ba9 8a3a
00000070: 8f0c 283c 2385 83bc 615c f3bc 5d01 6d3c
00000080: 038f e1bc 24d7 10bd 2514 90bc 8974 ccbc
00000090: 24dd c43c 9fe3 ddbb 4b30 88bc 082e 0bbd
000000a0: 8081 22bc 1c1a 173b dccc f4bb 3643 ee3c
000000b0: c2fd e3bb 84eb 483c 9ded 843b 109b 703c
000000c0: 03ba dbbc c168 ef3c 4382 23bd e2c7 ed3c
000000d0: 8196 923c 02a7 8eba 9de9 e8bc 28fc 83bc
000000e0: 4463 e43c c31e ec3c 495f 04bd 9226 393c
000000f0: 1333 94bc 7064 a5bb dfbc e43b 0649 02bd
00000100: 6243 023c 7cfe bbbc f204 c73a a88f f0bb
00000110: 3aae 823c 6c16 07bc df5b 7e3c f800 833c
00000120: 055a cbbc 4911 293a 31b1 dbbc eeda 56ba
00000130: b24b ccbb 0022 fcbc 0be2 18bd 206a 4a3c
00000140: 19c5 c0bc 127c d2bc 4f67 cebc 6ecc ca3c
00000150: 9235 c93c 9417 13bc a298 e53c 2049 38bc
00000160: 5006 1ebb b42a 31bc edde eabc 50ac dd3b
00000170: 6c03 883c 006f 383b 2620 9bbc cc7b 283c
00000180: 78e4 ac3b f09d 2dbc b0c5 4d3c 24e0 773c
00000190: 2897 b53c 822f febc 2505 0cbd 7432 113c
000001a0: fe37 c73c 1c0a 82bb a2f4 6fbc d820 04bd
000001b0: 26f6 dcbc d87e d93b 60dc 33bb 4034 9a3a
000001c0: 74b7 c4bb a48c 83bb 88d4 ef3b e86c 3bbc
000001d0: b00c cbbc 3628 a6bc 9ed9 c7bc f8b4 723c
000001e0: b0ac 783c 777c f9bc 64cf 47bc c477 37bc
000001f0: 4034 5c3b dc5a 983c dcdb bebb f2ee bc3c
00000200: e63b e23c cc04 e0bc 40ba 053c e098 09bc
00000210: 384a a93b 7ad9 8b3c 76c7 45bc 3674 a83c
00000220: 584b fcbc da1f 9d3c c261 ea3c 3436 263c
00000230: b4eb 57bc d86d 87bb 0000 a6ba c0ed 67bb
00000240: 4018 6b3b 8b37 fbbc 8cd0 103c e670 d2bc
00000250: 07e9 8fbc 525d be3c d1e8 043d 401b a4bc
00000260: 8003 833c b053 3e3b 40d4 0cba eabf fc3c
00000270: 4c70 3c3c 2229 ed3c 38d1 533c 00cf 5d3c
00000280: 02ee 09bd 8021 c439 a620 853c b4a5 1b3c
00000290: 1013 d93b 4013 f3bc e44f 7f3c 110a 0f3d
000002a0: cae7 c2bc 264f 33bc baca 21bc eeef 00bd
000002b0: b2c9 ae3c 4c79 85bb a20a 44bc b0fc 82bc
000002c0: aed4 50bc 54f6 6dbc e800 533c 4400 36bc
000002d0: 4869 b9bc d19b 9cbc 5cb8 4cbc 2931 8bbc
000002e0: 0026 e43a a0ee eb3b 68f6 c93c ea12 c33c
000002f0: 72d8 a73c 9bd9 083d 006c 00b9 5009 a93c
00000300: 3a01 aebc d63a 0abd c06b 763a 80af d8bc
00000310: c0e8 75bb cb08 b6bc 04ff c03c 9cd5 c93c
00000320: fd82 0b3d b0a5 7d3c c02d 313c 414f 043d
00000330: 4b45 063d 34ec cb3c be6a 0dbd 12be a93c
00000340: d0ab 523c 180c f83b 749b cebc fc59 0a3c
00000350: 009a 24bb ce40 bcbc 1a66 e43c 48d2 023c
00000360: d664 01bd c0a4 1d3b a0dd 74bb 0b42 d6bc
00000370: 2c03 303c 84df b03c cbbb 9dbc 9083 2dbb
00000380: d4a4 d1bc e6d0 a5bc 3a76 abbc 5e75 c23c
00000390: 08e7 9e3c d2b6 ff3c be2f 9bbc 0009 2239
000003a0: e0b2 edbb b817 bd3b a85f 3e3c e893 05bc
000003b0: f891 34bc 814e 01bd 3e5b 0cbd 9524 b5bc
000003c0: 04ef d93c 1e83 b53c 60cf d13c a5dc 093d
000003d0: b345 003d 0087 c73b 7061 0ebd de15 82bc
000003e0: a393 0e3d c0a7 f03a de96 afbc 2a42 e13c
000003f0: 84b7 babc a010 5b3b 1476 a5bc afad f3bc

bias f4 [100]
0.021878993 -0.011311188 -0.034857728 -0.02136887 0.0033257129 -0.03554451 0.011584123 -0.004991579
-0.028001463 -0.039996773 0.0032147034 -0.01969415 -0.0071019926 -0.014791327 0.011948708 0.007248272
-0.024183901 0.035014655 0.017437309 0.027424175 -0.033755273 -0.0021628328 -0.023634061 -0.018510941
-0.03993278 0.037245322 -0.026911592 -0.026355276 0.040415417 0.014375289 0.005059071 -0.012562987
-0.014645213 -0.018325243 0.015168344 0.025906693 0.029013956 -0.0127919 0.025450356 0.0019095764
-0.0028544548 -0.012045465 -0.0060003325 -0.0008090355 -0.03234041 -0.00727547 0.0059421947 0.0075789504
0.0017554483 -0.0051515773 -0.004009802 -0.03265774 0.015940012 -0.03452597 -0.029039085 -0.014606784
-0.030883348 0.022358393 -0.0038537842 0.024999639 0.021908646 0.013361478 -0.016049124 0.013270367
-0.005746264 -0.019831333 -0.0067135924 -0.0113737695 -0.03475726 0.022654677 -0.0099475775 0.016263442
0.0049856715 -0.0037384261 -0.018016184 0.024745008 0.016381366 -0.0018661744 -0.0071763336 0.0017136359
-0.02963954 0.009709477 -0.021560304 0.0013213679 -0.01839738 -0.01279835 -0.0050264914 0.010606192
-0.006857716 -0.0041207816 0.008741338 0.0089351805 0.028336367 0.025617568 0.015072057 -0.01789379
-0.033944443 -0.005559064 0.019769933 0.017993972
00000000: 933b b33c 9052 39bc fac6 0ebd c50d afbc
00000010: 34f4 593b 1f97 11bd 55cb 3d3c 6690 a3bb
00000020: 5363 e5bc a8d3 23bd c6ad 523b a055 a1bc
00000030: d5b7 e8bb 5257 72bc 84c4 433c ea82 ed3b
00000040: 511d c6bc 876b 0f3d b0d8 8e3c aaa8 e03c
00000050: f842 0abd 50be 0dbb 389c c1bc 42a4 97bc
00000060: 8e90 23bd 8d8e 183d b375 dcbc 05e7 d7bc
00000070: a38a 253d 5586 6b3c 90c6 a53b fdd4 4dbc
00000080: 7af2 6fbc d21e 96bc a584 783c 463a d43c
00000090: adae ed3c 1e95 51bc 447d d03c c04a fa3a
000000a0: ce11 3bbb 585a 45bc 709e c4bb 7415 54ba
000000b0: 6177 04bd 1167 eebb beb6 c23b d858 f83b
000000c0: 1217 e63a 90ce a8bb a864 83bb 1fc4 05bd
000000d0: a194 823c 1b6b 0dbd 60e3 edbc 4b51 6fbc
000000e0: 13ff fcbc f328 b73c c58f 7cbb 0bcc cc3c
000000f0: c379 b33c 1aea 5a3c 7479 83bc f46b 593c
00000100: 284b bcbb 5275 a2bc b2fd dbbb 0c59 3abc
00000110: a15d 0ebd 4d96 b93c 2afb 22bc e93a 853c
00000120: d85e a33b 6200 75bb ad96 93bc 0bb6 ca3c
00000130: 3732 863c 6c9a f4ba 7327 ebbb 149c e03a
00000140: 9fce f2bc 8014 1f3c 3c9f b0bc c031 ad3a
00000150: 1ab6 96bc 2cb0 51bc 44b5 a4bb 98c5 2d3c
00000160: b1b6 e0bb 9f07 87bb d437 0f3c dd64 123c
00000170: ab21 e83c efdb d13c caf0 763c ff95 92bc
00000180: 5409 0bbd cf28 b6bb 8ef4 a13c 1868 933c

weight f4 [100, 100]
0.0029661716 0.020709978 -0.093983375 0.08485488 -0.098837756 0.07454856 0.03458864 0.013449765
-0.04759226 0.08520889 -0.09551097 0.09505875 -0.041216254 -0.10373113 0.057293426 0.08522047
0.07879103 0.01170167 -0.006177187 -0.049266648 -0.08572805 0.030988825 -0.10448992 0.0054257885
0.091419585 -0.01897833 0.03396698 -0.08164191 -0.07088438 0.03552334 -0.00046619028 0.0822875
-0.10141587 0.021556111 0.028665803 -0.102432415 0.049654663 0.069846265 -0.10445748 -0.039972473
0.043805607 -0.008355521 0.058591895 -0.09228742 0.03231548 -0.052914772 -0.07497012 0.08399811
-0.026814215 -0.091942444 0.030987643 -0.018857328 0.011290974 0.074896105 0.07843525 -0.03787335
-0.10855554 -0.10928727 -0.011406784 -0.03164352 0.08493522 0.073289186 -0.10472566 -0.036405303
-0.061404027 0.03942705 -0.07962323 -0.053525746 0.01986466 0.05535456 0.050249718 -0.09093167
-0.06879617 -0.018894818 -0.03664595 0.049830794 -0.07623215 0.051913332 0.09336451 -0.06239796
-0.02387578 -0.08133974 -0.086012416 -0.089600645 -0.08642255 0.0796877 -0.024898691 -0.07771547
0.0451811 0.025204632 -0.022959283 0.021810925 0.045052495 -0.009066225 0.028096424 -0.09628012
0.004063919 0.05051419 -0.08607759 -0.0007363605 -0.08696271 -0.028185684 0.07505941 0.013184152
0.061326303 -0.069380395 0.060609195 -0.028873404 0.016936503 -0.08543147 0.10271171 -0.052035403
0.05470278 0.015208771 0.05613385 -0.047140755 -0.0050583547 -0.058454197 -0.06539126 0.09555798
0.05810866 -0.08025362 0.06595405 0.015874907 0.09330558 0.011321353 0.07742555 0.04671817
0.07601199 -0.031096572 -0.04073584 -0.08776037 0.048851416 -0.05584404 -0.039062623 0.096217155
0.0072363275 0.062844455 -0.06846591 0.09129859 -0.002556139 0.09090481 -0.06369142 0.024939632
-0.035551388 -0.055025928 0.017416863 0.039825536 -0.073901676 -0.027848199 -0.081164606 -0.05946768
-0.04722492 -0.040878415 0.031931825 -0.09546085 0.08828362 -0.073323235 -0.019990988 -0.0044949437
0.0055428087 0.038860057 0.0797678 -0.09151027 -0.030430235 0.086287804 -0.07354046 -0.090946004
0.08074855 -0.070930526 -0.09128696 0.007701907 -0.036493264 0.011240436 0.07079313 -0.0069880807
0.04161202 0.07735596 0.09597723 -0.00074413605 0.05455902 0.09826102 0.05896895 0.063153796
0.09188033 -0.052174546 0.0299518 -0.095521726 0.062542506 0.01461502 -0.08122286 -0.0936799
-0.056986902 0.054538354 -0.042945992 0.098266415 0.09349502 -0.051414736 -0.0072170496 0.06544896
-0.078235455 0.033182606 -0.004459977 -0.045187376 -0.019258702 0.036960613 0.09263593 0.046126667
0.012508258 0.09241104 0.023764402 0.02899488 -0.08312052 0.054969765 -0.093622126 -0.048478346
0.018737966 0.0841257 0.083820365 -0.049835324 -0.047148716 0.105448656 0.0052969563 0.06541866
0.032497488 -0.022100573 -0.028151155 0.042559557 -0.05852242 0.06728236 0.0121008605 0.096641764
0.012245576 0.06503067 0.045000758 -0.0027348888 -0.004437973 -0.067143805 0.044984158 -0.017692268
-0.025134383 0.03341893 0.040662833 0.048181117 -0.058921468 -0.007352628 0.031549767 -0.07422365
0.04376651 -0.059365 0.062613405 0.006474589 -0.063424855 -0.03511794 -0.007594526 -0.015877092
00000000: 1a64 423b f9a7 a93c 5b7a c0bd 65c8 ad3d
00000010: 736b cabd eaac 983d d1ac 0d3d 675c 5c3c
00000020: 1af0 42bd 0082 ae3d 419b c3bd 29ae c23d
00000030: 60d2 28bd fd70 d4bd 83ac 6a3d 1288 ae3d
00000040: 315d a13d 5cb8 3f3c 006a cabb d3cb 49bd
00000050: 3092 afbd 47dc fd3c d0fe d5bd d0ca b13b
00000060: 313a bb3d 7178 9bbc f620 0b3d e033 a7bd
00000070: d42b 91bd ec80 113d 006b f4b9 5986 a83d
00000080: 20b3 cfbd 7196 b03c 8cd4 ea3c 16c8 d1bd
00000090: b062 4b3d 8f0b 8f3d ceed d5bd 2dba 23bd
000000a0: 826d 333d 98e5 08bc 0efe 6f3d 3001 bdbd
000000b0: 3d5d 043d 29bd 58bd ef89 99bd 3307 ac3d
000000c0: 7ca9 dbbc 524c bcbd ccd9 fd3c af7a 9abc
000000d0: c7fd 383c 2163 993d a9a2 a03d 1621 1bbd
000000e0: 5e52 debd 01d2 dfbd 85e3 3abc a39c 01bd
000000f0: 84f2 ad3d a418 963d 687a d6bd ba1d 15bd
00000100: ca82 7bbd 427e 213d 8111 a3bd d03d 5bbd
00000110: 36bb a23c 77bb 623d a6d2 4d3d 623a babd
00000120: 02e5 8cbd 4ec9 9abc 101a 16bd 601b 4c3d
00000130: 9a1f 9cbd 13a3 543d e435 bf3d 0195 7fbd
00000140: 2497 c3bc 7395 a6bd 4727 b0bd 8b80 b7bd
00000150: 4efe b0bd 4e33 a33d 57f8 cbbc 4a29 9fbd
00000160: d10f 393d f279 ce3c 1b15 bcbc d3ac b23c
00000170: f788 383d 818a 14bc 792a e63c 832e c5bd
00000180: a02a 853b f8e7 4e3d 7349 b0bd 5108 41ba
00000190: 8119 b2bd aae5 e6bc bfb8 993d 5702 583c
000001a0: 4a31 7b3d 4f17 8ebd 5941 783d eb87 ecbc
000001b0: 6cbe 8a3c b2f6 aebd 845a d23d 1323 55bd
000001c0: 0610 603d 362e 793c 9cec 653d aa16 41bd
000001d0: 8ec0 a5bb ab6d 6fbd daeb 85bd e7b3 c33d
000001e0: 5903 6e3d 035c a4bd eb12 873d 180c 823c
000001f0: ff16 bf3d 327d 393c 4991 9e3d 8d5b 3f3d
00000200: 2dac 9b3d 3dbe febc a0da 26bd b5bb b3bd
00000210: 6c18 483d b8bc 64bd 2100 20bd 800d c53d
00000220: b71e ed3b 98b4 803d db37 8cbd c1fa ba3d
00000230: e584 27bb 4d2c ba3d a670 82bd 334e cc3c
00000240: 559e 11bd de62 61bd cfad 8e3c 1a20 233d
00000250: c359 97bd e821 e4bc a139 a6bd 6294 73bd
00000260: eb6e 41bd 2070 27bd f2ca 023d fa80 c3bd
00000270: 0bce b43d 7e2a 96bd 24c4 a3bc 524a 93bb
00000280: 73a0 b53b b92b 1f3d 4d5d a33d bd69 bbbd
00000290: d448 f9bc a9b7 b03d 619c 96bd e641 babd
000002a0: 7f5f a53d 0644 91bd a8f4 babd 4760 fc3b
000002b0: f679 15bd ce29 383c fdfb 903d 45fc e4bb
000002c0: 5e71 2a3d cd6c 9e3d b68f c43d 2012 43ba
000002d0: 4779 5f3d 133d c93d 6d89 713d c756 813d
000002e0: c12b bc3d fab4 55bd 7a5d f53c e5a0 c3bd
000002f0: 4916 803d d673 6f3c 2c58 a6bd 3fdb bfbd
00000300: 196b 69bd 9c63 5f3d 23e8 2fbd e73f c93d
00000310: 517a bf3d 4298 52bd 007d ecbb 1b0a 863d
00000320: e939 a0bd 7cea 073d 0025 92bb 6616 39bd
00000330: 6dc4 9dbc 0364 173d e8b7 bd3d 51ef 3c3d
00000340: 70ef 4c3c 0042 bd3d 90ad c23c ac86 ed3c
00000350: 173b aabd fa27 613d f5bc bfbd 3b91 46bd
00000360: 5d80 993c 184a ac3d 03aa ab3d 2020 4cbd
00000370: 031f 41bd 77f5 d73d 1792 ad3b 38fa 853d
00000380: 161c 053d 430c b5bc 409d e6bc ee52 2e3d
00000390: 34b5 6fbd 55cb 893d b042 463c 1eec c53d
000003a0: aba1 483c cd2e 853d b752 383d d23b 33bb
000003b0: 6a6c 91bb b182 89bd 4f41 383d 60ef 90bc
000003c0: 9fe6 cdbc 4ae2 083d 128e 263d 9059 453d
000003d0: a357 71bd 50ee f0bb 543a 013d 9202 98bd
000003e0: 8344 333d b728 73bd 753b 803d ca28 d43b
000003f0: e4e4 81bd d4d7 0fbd 80db f8bb ad10 82bc

bias f4 [100]
0.04051765 -0.09096499 -0.036312018 -0.09476306 -0.08634265 -0.08134537 0.057423398 0.063211665
0.0340893 0.03229919 0.058745295 0.022123385 -0.014984254 -0.08495325 -0.096922256 0.006898549
-0.029818635 -0.019397669 -0.1073504 0.026335215 0.0742235 0.0414817 0.06323445 0.014182141
0.0049669063 -0.10633758 -0.09420051 -0.066873826 0.026582338 0.07802635 0.06641777 -0.053512473
-0.07963827 0.024722386 -0.11410398 0.012487926 -0.017689481 -0.047712676 0.02768878 -0.049068786
-0.039102532 -0.06238448 -0.056710646 -0.07457908 -0.00648888 0.0005973436 -0.0067705517 -0.06253158
0.06545633 0.008013125 0.018392848 0.0023287893 -0.09809231 -0.107263066 -0.00035808663 -0.0074854563
-0.027602434 -0.10186418 -0.025993211 -0.0580741 -0.015495463 0.02954395 0.053120807 -0.10933687
0.0020100179 -0.03948661 -0.08352444 0.06562519 -0.115596175 0.040729754 -0.0383852 -0.048288345
-0.10408242 -0.074119 -0.028619498 0.029993614 -0.0037366431 0.075993575 -0.0742161 0.013820154
-0.07794814 0.038124207 0.061233636 -0.07889797 0.063024096 0.03261965 -0.099126 0.025131209
-0.08872471 -0.07361887 -0.030320486 0.034370236 -0.014419585 0.006609501 -0.00023341007 -0.072405614
0.036759008 0.008556791 0.025285516 -0.042792823
00000000: d6f5 253d da4b babd e9bb 14bd 2313 c2bd
00000010: 6ad4 b0bd 6798 a6bd cc34 6b3d 1e75 813d
00000020: 39a1 0b3d 284c 043d e89e 703d 1a3c b53c
00000030: 8480 75bc f8fb adbd 2d7f c6bd 390d e23b
00000040: 3646 f4bc dce7 9ebc 87da dbbd f3bc d73c
00000050: 7e02 983d b7e8 293d 1081 813d 365c 683c
00000060: 6ec1 a23b 84c7 d9bd 32ec c0bd 25f5 88bd
00000070: 34c3 d93c 47cc 9f3d 0a06 883d e52f 5bbd
00000080: 6419 a3bd 9a86 ca3c 59af e9bd 289a 4c3c
00000090: 88e9 90bc 5e6e 43bd 95d3 e23c 5afc 48bd
000000a0: fa29 20bd de86 7fbd 6c49 68bd ebbc 98bd
000000b0: aca0 d4bb 0d97 1c3a 81db ddbb 8f10 80bd
000000c0: f80d 863d 7b49 033c 99ac 963c 9a9e 183b
000000d0: 9fe4 c8bd bdac dbbd 93bd bbb9 8f48 f5bb
000000e0: 801e e2bc 2b9e d0bd b7ef d4bc 1cdf 6dbd
000000f0: afe0 7dbc 2706 f23c 3495 593d 02ec dfbd
00000100: 81ba 033b b6bc 21bd dd0e abbd 8066 863d
00000110: b0bd ecbd 3ed4 263d cd39 1dbd 00ca 45bd
00000120: 2a29 d5bd b4cb 97bd 7073 eabc 2bb5 f53c
00000130: 78e2 74bb 85a2 9b3d 9cfe 97bd ed6d 623c
00000140: 46a3 9fbd 2128 1c3d 1fd0 7a3d 4295 a1bd
00000150: c712 813d 2f9c 053d 9302 cbbd f7df cd3c
00000160: 4db5 b5bd 7dc5 96bd ab62 f8bc cec7 0c3d
00000170: 1f40 6cbc 8394 d83b 8abf 74b9 6549 94bd
00000180: 9d90 163d c831 0c3c 9223 cf3c 8747 2fbd
