scripts/model_cnn.pt (torch_old, 378752 bytes, 12 tensors)

weight f4 [10, 3, 2, 2]
000000 35 1b 21 3e 5c 1c 90 3e e8 c1 8b be 21 21 e5 bd
       0.15733035 0.28146636 -0.27296376 -0.111879595
000010 df 13 8b 3e 75 3a a1 3d 97 28 86 3e cb 9f 09 3e
       0.27163598 0.07872478 0.26202843 0.13439862
000020 3f a6 81 be ea e0 9d 3d 6e cc 5e be e9 33 93 bc
       -0.25322148 0.077089146 -0.21757671 -0.017969089
000030 3c f7 37 be 93 49 81 3e 60 20 7c be da 25 5b be
       -0.17965406 0.25251445 -0.24621725 -0.21401158
000040 34 7e 03 be 80 e5 c4 3d 94 ac 11 be 18 c2 5f 3e
       -0.12841111 0.09614086 -0.1422599 0.21851385
000050 49 1c 00 bd e0 c4 24 be ea 82 9f bd 5e ce 81 be
       -0.031276975 -0.16090727 -0.07788642 -0.25352758
000060 71 8a 70 be 26 f7 fc bd 33 71 17 3e 88 28 64 be
       -0.23490311 -0.12351827 0.14789276 -0.22281086
000070 33 0f ac bc 14 4b 14 be 6d 9c b0 bd 12 6e eb bd
       -0.021003341 -0.14481765 -0.08623586 -0.114956036
000080 da 82 4f be a7 48 45 3e b0 7e 50 3d 36 93 a9 3b
       -0.2026476 0.19265996 0.05090207 0.0051750196
000090 4e 9f 40 be 9f 10 4d be da b5 61 be cd 1e 88 3e
       -0.1881077 -0.20025872 -0.22042027 0.26586
0000a0 3e 4f 64 3c 8d 99 e8 3d 69 35 5f bc 58 b0 36 be
       0.013934908 0.113574125 -0.013623574 -0.17840707
0000b0 ef 82 8b 3d d9 ce 26 ba 7d 0d 51 be 1e 29 08 3e
       0.06812083 -0.000636322 -0.20415302 0.13296935
0000c0 a6 17 53 be 87 aa 2c be 74 01 f0 3d 22 7a f5 3c
       -0.2061449 -0.16861926 0.11719027 0.029965464
0000d0 17 44 8a 3e cf 1b 8b 3d 6d 3a 5f 3d 66 7b ac bc
       0.27005073 0.067924134 0.05449908 -0.021054935
0000e0 5c af 2b 3e e5 8c 53 3e 0a fc d7 bd 76 ba 56 3e
       0.16766113 0.20659216 -0.105461195 0.20969567
0000f0 16 15 6f be 44 af 63 3d e9 28 ae bc ee 55 d5 3c
       -0.23347887 0.05558707 -0.021259742 0.026041951
000100 47 0c 4c be 14 87 a6 bd 48 e7 01 be 38 a1 83 be
       -0.19926558 -0.08131233 -0.12685883 -0.25708938
000110 87 b0 8a 3d 65 be 2f be 4d 88 41 be 7e a0 28 be
       0.06771951 -0.17162473 -0.18899651 -0.16467473
000120 1c 2f 4e 3e 3e 8e 4e be 9d d9 77 bd 47 57 dc bc
       0.20135158 -0.20171449 -0.060510267 -0.026897086
000130 82 bc 0e be 15 2e 23 3e d5 d7 f8 bd ae f8 43 be
       -0.13939098 0.15935548 -0.12150542 -0.19137833
000140 8c 44 3f bc 9d 3b 6b 3e 7b 18 da bd 06 de 09 be
       -0.011674058 0.2297196 -0.106492005 -0.13463601
000150 bc 24 09 be bb 71 fa 3d 25 c2 c6 3d de 94 58 be
       -0.1339292 0.122287236 0.09704999 -0.21150538
000160 eb b4 2b 3e 4e c8 2f 3e 80 72 14 3e 11 c1 67 bd
       0.16768233 0.17166254 0.14496803 -0.056580607
000170 62 40 22 3e 1c cd 82 be 78 11 3d be 65 37 2d 3e
       0.15844873 -0.2554711 -0.18463695 0.16915663
000180 69 13 4c 3e e8 20 6a be a2 3c 74 be 6f 02 27 bd
       0.1992928 -0.22864115 -0.23851255 -0.040773805
000190 91 14 94 be a1 a2 64 bd 82 d3 6b be 4f ba 26 be
       -0.2892194 -0.055819158 -0.23029903 -0.16282009
0001a0 9f a9 3d be 13 c4 8b 3e 10 bc 4e be 70 5d 64 be
       -0.18521737 0.2729803 -0.20188928 -0.22301269
0001b0 78 05 2c be 80 d6 dd bd f3 0a be 3c 4c cf 04 3e
       -0.16798961 -0.10831928 0.02319858 0.12969702
0001c0 e4 aa b7 3d c6 30 88 be cb c3 86 3d 02 6f 9e bd
       0.08968142 -0.2659971 0.06580313 -0.07736017
0001d0 cd a1 86 be 9c d8 78 be 29 47 cd 3b d9 22 1b 3e
       -0.2629532 -0.2430138 0.0062645865 0.15150012

bias f4 [10]
000000 99 79 3b 3e 29 90 bb 3d 16 1e 19 bd 7e 27 76 be
       0.18308105 0.09158356 -0.037382208 -0.24038503
000010 9f a8 dc 3d 9d 96 21 be 11 c4 ac bc c7 80 5e bd
       0.107743494 -0.1578011 -0.021089585 -0.05432203
000020 ea 85 fc bd 58 f7 35 be
       -0.123302296 -0.17770135

weight f4 [10, 10, 3, 3]
000000 67 ac a1 3d 31 95 8c bd 9e 2c fa 3c d8 58 71 bd
       0.07894211 -0.068643935 0.030538853 -0.05892262
000010 37 d2 be 3d 41 c0 60 bb 59 36 c4 bd 6a 59 16 bc
       0.09317439 -0.003429428 -0.095806785 -0.009176591
000020 93 33 51 3d 72 a4 2f 3d 9a 4f cf bc bf be 72 bc
       0.051074576 0.042881437 -0.025306512 -0.014815985
000030 e2 d5 9e 3c fc b3 d2 3d 74 86 a8 3d 45 52 98 3d
       0.019389097 0.102882355 0.0822877 0.07437567
000040 e9 cd 87 bd e8 82 7a bb 18 64 bb bd 60 d0 9d bd
       -0.06631071 -0.0038225 -0.09149951 -0.0770576
000050 ff 76 96 bb 72 f2 da 3d 89 26 9c 3d 2a 4a 9b 3d
       -0.004591822 0.10690774 0.076245375 0.07582505
000060 44 a0 39 3d 41 32 ec bc 2f 81 7a bd f4 15 35 bd
       0.045318857 -0.028832557 -0.061158355 -0.04421039
000070 08 54 b7 bc 30 9c 86 3d fb 98 ad 3d f2 c0 42 bc
       -0.022378936 0.06572759 0.08476444 -0.011886822
000080 98 66 a2 bd ac e6 e4 ba 60 29 c0 bd 95 a3 c1 bb
       -0.079297245 -0.0017463765 -0.09382892 -0.005909393
000090 9c 32 c9 bc 95 e6 cc 3d 17 64 c4 3b cf f5 f4 bc
       -0.024560265 0.100049175 0.005993377 -0.029902367
0000a0 ae c7 f8 bc 59 f1 73 3d d2 ac 1f bd eb 2a 7f 3d
       -0.030368652 0.05955634 -0.038983174 0.06229679
0000b0 38 06 90 bd ee cd c4 bc 72 a2 2f 3c a8 f3 d1 bd
       -0.07032436 -0.024023976 0.010719882 -0.10251552
0000c0 0f 12 03 bd 17 bb 78 bc b6 8c 9a 3c c1 ec 0f bd
       -0.031999644 -0.015181324 0.018865924 -0.035137895
0000d0 a6 0d 86 3d d1 67 70 bd e6 eb 7a bd 75 f4 9e bd
       0.06545572 -0.058692757 -0.061260127 -0.0776147
0000e0 a6 ee 6b bd 11 88 c9 bc e6 6d af bb 94 37 cb bd
       -0.05760064 -0.024601014 -0.005353677 -0.0992271
0000f0 c8 72 76 bc 64 73 7f 3d bb db b2 bd dd 63 d2 3d
       -0.015042014 0.062365904 -0.087333165 0.10272954
000100 1a 64 8c bd 70 93 1d bd 72 d4 d2 3c b5 e1 b1 3d
       -0.0685503 -0.038470685 0.025736067 0.08685628
000110 6e 3f 0c 3d 07 08 08 3d 20 a1 bc 3d 7b 8f 39 3c
       0.03424018 0.03321078 0.0921042 0.011325712
000120 d0 da 8a bd 95 3d 8e 3d 8d b7 73 3d 9d 7f 99 bc
       -0.067800164 0.069453396 0.05950122 -0.018737609
000130 8b b1 37 bd ad 22 86 bb 97 3d 88 3d 77 c8 c7 3d
       -0.044847053 -0.004093489 0.06652372 0.097550325
000140 d4 1a 9e bd b2 e9 b0 3d 65 ac 58 bd bf af 09 3d
       -0.07719961 0.08638324 -0.052898783 0.03361487
000150 46 5c 4e 3a 6d a9 5c 3d b4 8b e4 bc 8c aa 9c bd
       0.0007872026 0.053872515 -0.027898647 -0.07649717
000160 6e da 0c bd 19 0f 7a 3d e1 7c ab b8 6e 5d 61 3d
       -0.034388 0.061049554 -8.177176e-05 0.055020742
000170 bb 45 57 bd 37 31 af 3c 4a e7 92 bd a0 5f a8 bd
       -0.052556735 0.021385772 -0.07173021 -0.08221364
000180 55 fd 60 bc 32 0f 6b 3d 54 c1 43 3d a0 9c d7 3c
       -0.013732274 0.05738754 0.047791794 0.026319802
000190 2a 13 6f 3d 57 d0 1e bd 30 14 91 bb 2b dd 08 3d
       0.058367886 -0.038772907 -0.0044274554 0.033414047
0001a0 d9 a8 aa 3c 9f f5 46 3d 52 31 45 bd 0c 28 8a bd
       0.020832466 0.048574086 -0.04814274 -0.067459196
0001b0 91 fa 21 bc 53 33 7d bd 61 00 55 bd 6d 44 59 3c
       -0.0098864 -0.061816525 -0.052002314 0.013260943
0001c0 ce 98 18 bd 49 34 b1 3b 17 e1 32 bc a9 4b 52 3d
       -0.0372551 0.005407844 -0.010917923 0.051341686
0001d0 31 77 4e 3d 74 d0 00 bd 28 09 d7 3d ed 51 ad 3d
       0.05040664 -0.031448796 0.10499793 0.08462892
0001e0 bc 89 4e 3c 3d 73 5f 3d 68 09 a6 bd e9 ed a4 bd
       0.012606081 0.05455326 -0.08107263 -0.0805319
0001f0 36 2a 92 bc a4 5b 2c bd 74 f3 7b bc da 0c b5 3c
       -0.017842393 -0.042079583 -0.015377868 0.022100855
000200 b7 94 60 bd 8c 2c bd 3d f3 f0 e5 3a 48 b7 19 bd
       -0.054829326 0.09237012 0.0017543122 -0.037528306
000210 81 4d 69 3c 17 f6 74 3d c5 a5 54 3b d3 bf 94 3d
       0.01423967 0.059805002 0.003244744 0.0726315
000220 72 4d aa bd f7 1c 65 3c 81 a8 31 3c 81 2c 88 bb
       -0.08315553 0.013983957 0.010843397 -0.004155696
000230 db 45 b4 bd 8d 0f 72 3d cd ca 89 bd 96 06 be 3d
       -0.088023864 0.05909686 -0.06728134 0.092786
000240 51 ca 7e 3c a5 62 cf bd 9a 22 c1 3d ca 6f 99 3d
       0.015551166 -0.10126237 0.09430428 0.07492025
000250 41 23 43 3d 07 3d b9 bd f0 80 a1 bd 82 94 c8 bb
       0.047641043 -0.09044843 -0.07885921 -0.006121219
000260 2d 5e 97 bc d4 38 42 bd 9e 74 f0 bc d0 40 7a 3d
       -0.018477524 -0.047417477 -0.029352482 0.061096966
000270 66 5b e7 3b 8d 31 c6 3d f4 9b 41 bd 16 78 8b 3b
       0.007060456 0.0967742 -0.04726787 0.0042562587
000280 45 de 9a bd b0 b4 5d ba 1e 15 c2 3d 0f 82 17 bc
       -0.07561926 -0.00084574055 0.09476684 -0.009247317
000290 84 25 2b 3d b7 37 ac 3d 29 ea 0a 3d 66 1a c4 bd
       0.041783825 0.08409064 0.03391472 -0.095753476
0002a0 eb f2 88 3d 14 c8 ee 3c ab 96 8e bd 3d ee 32 bb
       0.06686958 0.029148139 -0.069623314 -0.0027302646
0002b0 22 a4 a5 3b b8 34 a0 bd 4d c5 cb bd d7 4c ae 3d
       0.0050549665 -0.07822555 -0.099497415 0.0851075
0002c0 0f cd 27 ba ac 3b bf 3c 25 f2 c5 bd 89 cc e1 3a
       -0.00064011005 0.023343883 -0.09665326 0.0017227094
0002d0 37 46 80 3d 71 90 58 3c 49 70 87 bd 23 c2 9f bd
       0.062633924 0.013218031 -0.066132136 -0.078007005
0002e0 88 ad 12 bd 8f fb a8 bd 48 e4 57 3b e6 1d 01 bd
       -0.035810024 -0.08251106 0.0032942463 -0.031522654
0002f0 37 d5 b9 bd 93 12 46 3d e8 8b 8a 3d 9b fc 3f 3b
       -0.09073871 0.048357558 0.06764966 0.0029294852
000300 ca 93 35 3d ab 3b f5 3b d0 90 df bb f7 03 48 3c
       0.044330396 0.0074839196 -0.006822683 0.012207977
000310 5d bb b6 3d aa 41 c4 3d ee 60 3f 3b b3 8e 23 bd
       0.089224555 0.09582837 0.0029202062 -0.03993101
000320 72 1d c4 3c bc 92 7e 3d 37 28 c3 bd ab 9e 2a bd
       0.023939822 0.062151656 -0.09529155 -0.041655224
000330 a7 1f 16 bd 04 47 b0 bb 8f 91 ce 3d 38 d9 6f 3d
       -0.03665128 -0.0053795595 0.10086357 0.058556765
000340 43 f2 18 bd 52 8f 87 3d b2 32 8b 3d 71 c6 a3 bd
       -0.037340414 0.06619133 0.06796779 -0.07996834
000350 ce c7 47 3d 53 f0 b5 3d c4 8b 5a 3d 49 da ff 3c
       0.048774533 0.08883729 0.053355947 0.031232016
000360 71 f9 79 3d 0c 80 0e bc c6 c9 cc 3c d2 6b e2 bc
       0.0610289 -0.008697521 0.024998557 -0.027639303
000370 fb 9d 6d bd 7d 2f 00 3c 97 81 d9 bb 89 23 bf bd
       -0.05801199 0.007823822 -0.0066377628 -0.0933295
000380 8a 9c a3 3a 6c 31 06 3d 50 0a 00 3d 24 28 a6 3d
       0.0012482565 0.032761976 0.031259835 0.08113125
000390 6c 47 ca 3d 3d 18 b2 bc d7 83 b7 3c 1e cf a8 3d
       0.09876904 -0.021740073 0.022401733 0.082426295
0003a0 14 0a a9 3a c9 f1 82 3d b3 69 ae bd b6 3e 7b bc
       0.001289668 0.06393773 -0.08516254 -0.015334776
0003b0 42 50 38 bc 77 04 64 3c b2 ea 6c 3d 7a 64 a5 bd
       -0.011249604 0.01391708 0.05784101 -0.08075805
0003c0 f3 26 d7 3c 9d 9d a0 bd e7 23 61 bc 02 17 ca 3b
       0.02626369 -0.07842562 -0.01374147 0.0061672935
0003d0 91 b0 39 3d fc 7b 35 3d 76 f0 07 3d 31 53 ba bc
       0.045334402 0.044307694 0.033188306 -0.022744747
0003e0 02 d9 cf 3d 5b c5 a6 bd 1f c9 a0 3d 59 86 ba 3d
       0.10148813 -0.08143111 0.07850861 0.09107656
0003f0 1d 24 62 3c a6 67 1c bd 47 1e ab 3d 19 df 00 3d
       0.013802555 -0.038184784 0.08355384 0.031462763

bias f4 [10]
000000 2e 4d fb 3c e1 6a a2 3d 0e 67 d5 3d b0 e7 87 3c
       0.03067645 0.07930542 0.10420047 0.01658997
000010 d6 d6 2b bd a3 91 92 3d 06 8e 30 bd 9c 9d 69 3d
       -0.04195293 0.07156684 -0.043104194 0.057035074
000020 55 b7 d0 bd ee 7e 35 bd
       -0.10191218 -0.044310503

weight f4 [10, 10, 4, 4]
000000 f4 a9 12 3d 47 6b 9e 3d 04 a9 9c bc 45 cc 66 bc
       0.03580661 0.07735305 -0.019123562 -0.014086788
000010 7a 57 37 bd eb fa 72 3d a2 30 af 3c 1d e9 c6 bc
       -0.04476116 0.059321325 0.021385495 -0.024281079
000020 1f 29 99 bc d5 e6 90 bd 6d e5 cc 3a 35 ad 37 bc
       -0.018696366 -0.07075278 0.0015632339 -0.011210729
000030 db c6 8f bd bd c6 f7 bb aa d0 86 3d 54 87 46 3d
       -0.070203505 -0.0075615332 0.06582768 0.048468903
000040 13 a6 42 3d 0b ca 9d 3c 45 4f 20 bd f9 aa 37 3d
       0.047521662 0.01926138 -0.039138097 0.044840787
000050 10 23 51 3d 7b 28 10 3d 2f cc fb bc 80 7f 1c bd
       0.05105883 0.035194855 -0.03073701 -0.03820753
000060 61 23 90 3d 44 cd 97 bd a9 84 9f 3d 08 a3 85 bd
       0.07037998 -0.07412198 0.07788975 -0.06525236
000070 e3 cb 32 3d dc fd 43 bd 93 a4 4b bd 0b 17 9c 3d
       0.043651473 -0.04784952 -0.049717497 0.076215826
000080 90 05 62 3d cf 20 08 3d f7 f2 2a 3d a5 f3 fb 3c
       0.055181086 0.033234414 0.041735616 0.030755827
000090 5f d1 7d bb 58 aa 9d 3d 82 9c b8 3c 7b 7e 1b 3c
       -0.0038729531 0.07698506 0.022535566 0.0094906045
0000a0 b5 3a 8f bd 91 2b 74 3d cb 17 3b 3d 59 92 91 3d
       -0.06993619 0.05961186 0.045676988 0.07107992
0000b0 10 f0 f2 3c 6a a1 24 bc 1f 57 fb 3b 04 1f 55 bd
       0.029655486 -0.01004825 0.0076702978 -0.052031532
0000c0 c7 eb 19 bd ad 0b c6 bc f2 57 82 3c 79 69 03 bd
       -0.03757837 -0.02417549 0.015911076 -0.03208301
0000d0 0e cb c3 3c fc 96 f3 bc cf 33 4b 3d b1 74 e7 bc
       0.023900535 -0.02973508 0.049609955 -0.028253885
0000e0 ad 72 43 3c db b7 51 3d 9c dc d9 bc bd 73 97 3d
       0.011929196 0.05120073 -0.026594453 0.07395122
0000f0 34 3d 04 bc bc 4f 87 3d 0d c3 9e 3c 55 29 1c 3d
       -0.008071233 0.06607005 0.019380117 0.038125355
000100 f1 99 99 3d 4e d1 e0 bb 60 28 00 bd c4 e8 7b 3d
       0.07500065 -0.0068608886 -0.031288505 0.06150128
000110 e0 da a9 ba 5d 08 4d 3c 45 85 12 bd 95 29 8d 3d
       -0.0012958907 0.012514201 -0.035771627 0.06892697
000120 6d 1d 81 3d 95 b5 54 bd 9d 7a c3 bc 13 cd 65 bc
       0.06304441 -0.051930983 -0.023862178 -0.014025944
000130 cf 59 75 3d be 49 98 bd 03 9a c5 bc 44 86 9b bd
       0.0599001 -0.0743594 -0.02412129 -0.075939685
000140 65 07 29 3d 7b 04 4e bb 86 af 90 3d 3d 3e 12 3d
       0.041266818 -0.0031435776 0.070647284 0.035703886
000150 38 9b 0c 3c 85 a4 b2 bc 75 cf 21 3d 64 19 2c bd
       0.008581929 -0.021806965 0.039504487 -0.042016402
000160 4d 4c 88 bd 32 e8 93 3d 31 e6 f3 bb 6b 03 ad bb
       -0.06655178 0.07222022 -0.0074432124 -0.0052799485
000170 13 ce 0b bd 85 7a 6f bc 30 7e 4d bd 2e 50 1f bd
       -0.034132075 -0.014616613 -0.05016917 -0.038894825
000180 79 e6 d5 3c ba 6d 81 bd 70 f3 1c bd 05 b1 84 3d
       0.026110874 -0.06319757 -0.038318098 0.06479076
000190 c0 ec 8b 3d 35 c4 31 bd 79 61 88 bd cd f7 10 3d
       0.06832266 -0.04340001 -0.066592164 0.03539257
0001a0 b0 3f 7e 3d f9 65 f4 3c 40 17 79 3d 2b 78 54 bd
       0.062072456 0.02983378 0.06081319 -0.051872414
0001b0 a9 51 11 bc 44 4d f0 bb 1e 2c 84 3b ce ed 5d bc
       -0.008869567 -0.0073334295 0.0040335795 -0.013545467
0001c0 f8 98 93 bc 1f 99 21 bd f5 00 86 bd 62 01 a4 3d
       -0.018017277 -0.03945267 -0.06543151 0.08008076
0001d0 77 e8 ad bb 82 b8 3b bd f0 91 a4 3c f2 55 de bc
       -0.005307253 -0.045830257 0.02008912 -0.027140591
0001e0 bb 78 8f bd 7c 50 46 bd 17 30 5a 3d 08 38 8a 3d
       -0.070054494 -0.0484166 0.05326852 0.06748968
0001f0 f5 69 10 bd d5 2b a1 bc 6b b0 34 3d 01 cd 53 bc
       -0.0352573 -0.019674221 0.044113558 -0.012927295
000200 3a db f5 bc 14 b8 ef 3c 47 1c a9 3c 13 83 40 bd
       -0.030011762 0.02926258 0.020643367 -0.047000002
000210 aa f3 11 bb f3 43 86 3d 96 1c 5b bd e4 39 88 3d
       -0.002227048 0.06555929 -0.05349406 0.06651667
000220 91 85 1c 3d 80 a1 e9 3c c4 b5 71 3d 85 c2 65 bd
       0.038213316 0.028519392 0.059011236 -0.05609371
000230 e9 1f 0d 3d a3 7b 5c 3d 4a 30 66 3d 18 67 b4 39
       0.03445426 0.053828847 0.056198396 0.00034409086
000240 58 42 f9 bc 28 3d 91 3d 1b 31 47 3c 70 75 46 3d
       -0.030427143 0.07091743 0.012157704 0.04845184
000250 07 2e 07 bc 75 d7 14 3d dd 84 5f 3d 9b 60 97 3d
       -0.00825072 0.03633829 0.054570068 0.07391473
000260 e2 81 a7 3d 5d 4c ad bc 41 9f 1d bd 34 0c 8e bd
       0.0817907 -0.021154577 -0.038481954 -0.06935921
000270 e8 19 9a 3d 55 47 ff 39 94 e8 84 3d 21 c4 10 ba
       0.075244725 0.00048690537 0.06489673 -0.00055223895
000280 2e 74 80 bc b1 de 2b bd a1 99 92 bd b1 cd 4e bb
       -0.015680399 -0.041960422 -0.07158209 -0.0031555707
000290 d0 7c 14 3d 0f af fa bb 12 db 20 3d a0 49 c5 bb
       0.036251843 -0.007650263 0.03927142 -0.0060207397
0002a0 f8 8d 0d bd eb 44 82 3d 15 5c 23 3d 11 cf 89 bd
       -0.03455922 0.06360801 0.03988274 -0.06728948
0002b0 e6 91 2e bc 19 27 87 3c 54 fb 7c bd 61 aa f2 bc
       -0.010654902 0.016498135 -0.061763123 -0.029622259
0002c0 34 ee 9b 3d e0 ce 03 3d ea 4a 1a bd f2 c2 9d bb
       0.07613793 0.032179713 -0.0376691 -0.004814499
0002d0 ae 5d 8f 3d 33 45 42 3d 5e 13 d0 3c 96 0c d3 3c
       0.0700029 0.047429275 0.02539986 0.025762837
0002e0 5d e4 15 bd 75 b4 93 3d 02 e5 9e 3d 9e e4 88 3b
       -0.036594737 0.07212154 0.077585235 0.004177644
0002f0 53 ae 4a 3d b6 3e 03 bc 58 a3 09 3d 9c c0 85 bd
       0.049482655 -0.008010557 0.033603042 -0.06530878
000300 ab c9 a3 3d c1 40 4f 3d 32 72 26 3c 0c d8 5a bd
       0.079974495 0.050598864 0.010159062 -0.053428695
000310 a4 15 1c bd b5 d6 97 3d de ed 09 3d 1d 77 69 bd
       -0.038106576 0.07413999 0.033674113 -0.05699836
000320 f7 5e 08 bd a9 5b e0 3c 58 52 98 bc 6d 78 7f bd
       -0.03329369 0.027387457 -0.018593952 -0.062370706
000330 47 c3 70 3d ba b5 43 bd 06 c1 5c bc 4c 7a a5 3d
       0.05877998 -0.04778073 -0.013473755 0.08079967
000340 35 17 7f 3d a9 bc 9a 3c e6 03 dd 3b dd 53 92 3a
       0.06227799 0.018888788 0.0067448495 0.0011163909
000350 65 22 83 3d 9a cb 81 bd ed a4 94 bd 72 20 08 bc
       0.064030446 -0.06337662 -0.072580196 -0.008308517
000360 0d bc 92 bc 63 c8 84 bd a0 2c 9c bd fe d8 0c bd
       -0.017911935 -0.06483533 -0.07625699 -0.034386627
000370 40 01 9e bd 07 72 a7 bc ab 8a 54 3d ee 92 7b bd
       -0.07715082 -0.020440115 0.051890057 -0.06141942
000380 9a 54 8a bd ed 93 5e 3d 4f 19 54 bd 1f 53 a0 3c
       -0.06754418 0.05434029 -0.05178195 0.019570885
000390 39 1e d6 bc 93 7c 8f bd c7 5d 8c bd a8 f2 30 bd
       -0.026137458 -0.070061825 -0.06853824 -0.043200165
0003a0 1e 2c 0b 3d ec 8e 0a 3d 6c fb 51 3d 7d 07 0d 3b
       0.03397762 0.033827707 0.051265165 0.0021519356
0003b0 91 da 91 bd 03 38 4b ba 25 58 bd bc 39 52 52 3c
       -0.07121766 -0.0007752182 -0.02311332 0.012836986
0003c0 9e 8e 9c bd 4f bf 47 3d 8e ac 8c bd c2 06 6a 3d
       -0.076443896 0.04876643 -0.0686885 0.05713535
0003d0 42 92 06 bc 16 10 ab bc 4b 3a 8a bd 97 b4 3c bc
       -0.0082135815 -0.020881694 -0.067494 -0.011517665
0003e0 e6 c0 97 3d b1 09 7e 3d 8d b5 84 3d dd aa 47 bd
       0.07409839 0.06202096 0.064799406 -0.048746932
0003f0 a0 e6 7a bc 4a 80 96 3d 7c fc 80 bc 1b 77 4f bd
       -0.015313774 0.07348688 -0.015745394 -0.050650697

bias f4 [10]
000000 4e e9 9b 3c ee 6f 35 bb 3e ab 1e 3d 08 8d b1 bc
       0.019032147 -0.0027685123 0.038737528 -0.021673694
000010 f2 de ff 3b c7 a1 66 bd 77 52 94 bd f1 5c 95 bc
       0.0078085596 -0.056306627 -0.072422914 -0.018232794
000020 da 90 31 bd 19 b6 48 3d
       -0.04335103 0.049001787

weight f4 [10, 10, 5, 5]
000000 58 fc 60 bd 6d 1b 70 bd 86 a3 58 bd 2c 7f 52 3d
       -0.054928154 -0.058619905 -0.052890323 0.05139081
000010 27 a6 c0 bb a7 8c 45 bd df 37 03 bc 62 0f f7 3c
       -0.005879182 -0.04822984 -0.008008926 0.030158702
000020 52 3c 55 bd 3c 8e 5b bd e8 7f 1c bd 5c 57 c2 bc
       -0.05205948 -0.053602442 -0.03820792 -0.023723297
000030 1c c1 7e bd 07 ea b0 bc 9c 87 1b bd 62 fd 0e 3d
       -0.062195882 -0.021595968 -0.037971124 0.034909613
000040 f5 37 99 bb 4e 01 2f 3d 57 f1 1d 3d 83 f7 33 bd
       -0.00467586 0.042725854 0.038560238 -0.043937217
000050 2f 8f 84 bc da 23 f2 bc df 4c de ba 2a 72 2c 3d
       -0.016181557 -0.029558111 -0.0016960165 0.042101063
000060 7a 20 f4 bc 1d d3 26 bd 58 3d 4b bd 82 7a 44 bd
       -0.029800642 -0.040728677 -0.04961905 -0.047968395
000070 7a e0 02 3c cb 85 19 bd 64 f2 6f 3d d0 fa 60 3a
       0.00798809 -0.03748111 0.05858077 0.0008582296
000080 3e 97 16 3d c7 20 31 3d 8e 1f 9d 3c c8 89 55 bd
       0.03676533 0.04324415 0.019180086 -0.05213335
000090 e0 86 71 3c e5 96 45 3b 30 fe 5d bb db 17 7f 3d
       0.014741629 0.0030149755 -0.0033873431 0.06227861
0000a0 bd 05 fd 3c 8a 71 e3 3c e0 6b 40 bd e0 8c 6c 3d
       0.030886525 0.0277641 -0.046977878 0.057751536
0000b0 38 73 1a bd ad ce 7f bd a3 7c 2f 3d c7 e4 de bc
       -0.037707537 -0.06245296 0.042843472 -0.027208699
0000c0 a7 a4 09 3c b1 a2 7c bd ab fe 57 3d 0a ea 39 3b
       0.008401073 -0.061678592 0.052733105 0.0028368258
0000d0 55 cf 59 bc 7c 39 b3 bc 27 87 81 bc 09 1d 0c 3d
       -0.013294061 -0.021877997 -0.015811516 0.034207378
0000e0 d2 4d 33 3d 3e e2 71 3d 90 3b 33 3c 2e 57 7f 3d
       0.043775387 0.059053652 0.010939494 0.062339
0000f0 df d3 39 bd 21 76 4b 3d a9 f2 96 3c 26 1d 5e bd
       -0.04536807 0.049673203 0.018426256 -0.054227017
000100 49 6a 10 bd b8 1d 12 bd c7 7b 89 bc 10 c9 32 bd
       -0.03525761 -0.035672873 -0.016782654 -0.04364878
000110 29 a8 ee 3c 16 5e e0 3c a9 65 69 3c f0 69 29 bc
       0.02913292 0.027388614 0.014245429 -0.010340199
000120 d8 06 b0 3c 7e 27 2b bd f4 39 a7 3c e9 1b 3f bd
       0.021487638 -0.04178571 0.020413376 -0.046657477
000130 a3 22 13 3c 83 b4 bf 3b ce 92 80 3d 32 70 12 bc
       0.008980426 0.005850376 0.06278001 -0.008937882
000140 98 fd 68 3d a8 c0 ef bc fc fb df 3b a9 ff 64 3d
       0.05688247 -0.02926667 0.006835459 0.05590788
000150 52 11 18 bd 7c d4 67 3c db be 0f 3d 61 36 41 bd
       -0.037125893 0.014149781 0.035094123 -0.047171
000160 64 07 7d 3d 5b 66 3f bd 22 36 de 3c cd 93 6d bd
       0.061774626 -0.046728473 0.027125422 -0.058002282
000170 d3 66 19 3d 26 ef 11 bd 82 ca 6c bd ea ed 44 3c
       0.037451576 -0.03562846 -0.057810314 0.012019614
000180 03 ed 35 bd cc 20 82 3b b3 a2 ad 3c 9c c8 c6 bc
       -0.044415485 0.003971195 0.021195745 -0.02426558
000190 ac 8e 36 3d 37 90 62 3c 27 5d 5d 3d 3c 4d 38 bd
       0.044569656 0.013828329 0.054043915 -0.04499553
0001a0 cc 20 55 bd 54 58 37 bd a1 6b 54 bc 05 32 40 3d
       -0.05203323 -0.04476197 -0.012965114 0.046922702
0001b0 71 10 2b bd 8a 01 31 bb 35 b7 8d bc 33 14 ce 3c
       -0.041763727 -0.0027008974 -0.017299274 0.025156116
0001c0 f5 3a 9f bc 12 d1 6a 3d cf d4 68 bd 0f fe 0e bd
       -0.019437293 0.05732829 -0.056843575 -0.034910258
0001d0 a9 48 97 bc e5 97 08 bd 4a c3 b4 3c 1a 09 e9 bc
       -0.018467264 -0.033347983 0.022065777 -0.028446723
0001e0 4e 52 0b bd 85 a5 0c bd 26 bb e0 bc 39 ba ed bc
       -0.03401404 -0.03433754 -0.02743299 -0.029019462
0001f0 9e e3 7b bd d9 2e d0 3b 19 e5 0c 3d e9 1d ec bc
       -0.06149637 0.006353241 0.034398172 -0.028822856
000200 69 81 20 3d 52 9b 09 bd 7d f9 21 3d 02 53 22 bd
       0.039185915 -0.03359539 0.03954457 -0.039629944
000210 62 bb a5 3c 83 e4 15 bd fd e9 e4 3c 79 88 b4 bc
       0.020230953 -0.03659488 0.027943606 -0.022037731
000220 d8 74 7b 3d 94 e3 02 3d 44 35 dc 3c 69 96 6d bd
       0.061390728 0.031955317 0.026880868 -0.05800477
000230 c1 2b 75 bd 3c e0 f4 3c b8 bd 06 3d 51 7e 50 bd
       -0.05985618 0.02989208 0.032895774 -0.050901715
000240 b0 cc 98 3c ba 95 a9 bc 5e fa 4a bd b0 b3 c9 3c
       0.01865229 -0.020701278 -0.049555175 0.024621814
000250 cf c0 b1 3c 70 12 bd 3c 8d 6f 89 bc f9 7b 9e bc
       0.021698384 0.02308008 -0.016776824 -0.019346224
000260 13 52 08 bd c8 72 98 bc f1 fa 43 bd af b9 63 3d
       -0.033281397 -0.01860942 -0.04784674 0.055597004
000270 bc 90 f1 bc cd 77 0d 3d d7 da 29 bd 5f 5f d5 bc
       -0.02948796 0.03453808 -0.041468468 -0.026046453
000280 a9 fb 67 bc 8f 86 0f 3d 81 d5 48 bd 5f b5 b0 bc
       -0.014159122 0.035040434 -0.04903174 -0.02157086
000290 08 1e fb 3c a7 86 47 bd 52 81 6a bc 97 aa 1d 3d
       0.030653968 -0.0487124 -0.014313059 0.038492765
0002a0 0a 19 02 3d bd 6c 55 bd 08 29 e8 bc e4 ce 19 bd
       0.03176216 -0.052105654 -0.028339878 -0.037550822
0002b0 40 3a a1 38 9e 5b d8 bc 56 7f 6c 3b dc 57 22 3c
       7.687928e-05 -0.026410874 0.003608664 0.009908643
0002c0 a0 58 fc 3c a7 0e 4a bd 51 c6 f5 3c 5e 42 7a 3d
       0.030803978 -0.04933038 0.030001791 0.06109845
0002d0 f2 6c 80 bd 4a e5 5d bc 16 a4 01 3d 22 c3 23 bd
       -0.0627078 -0.013543436 0.031650625 -0.039981015
0002e0 34 c7 ed 3b 51 b3 9a 3c d6 3f 07 3d 97 35 86 3c
       0.007256413 0.018884333 0.033019863 0.016382976
0002f0 fb 20 9f bc 6e 3a 1a 3d 9e 62 27 3d 8f 99 4d bd
       -0.019424906 0.03765338 0.040865533 -0.050195273
000300 0d 31 82 ba b1 f8 6e 3c 53 49 98 3c e4 71 28 bd
       -0.0009932831 0.01458566 0.018589651 -0.04112424
000310 44 9b 43 3d c4 d4 29 3d 73 ab 6d bd ae 9a c4 bc
       0.047755495 0.041462675 -0.058024835 -0.023999538
000320 0d 75 45 bd fc 38 dc bc 25 52 48 3d 0a 59 c9 bb
       -0.04820733 -0.026882641 0.048906464 -0.0061446475
000330 99 2b 18 3d 86 bc e0 3c d5 c7 18 3d 0b 50 2b bb
       0.037150953 0.027433645 0.03729995 -0.0026140239
000340 b3 f6 0b 3d 43 77 ec bc 00 98 2c 3d c0 1a 16 bd
       0.034170818 -0.028865462 0.042137146 -0.036646605
000350 41 ef 9b 3c 4f a8 57 bc a9 9c 45 3d 4c d3 75 bd
       0.019034984 -0.0131626865 0.048245106 -0.06001596
000360 2f e1 27 bd 66 a3 49 3d a9 0f e0 bc d1 81 15 3d
       -0.040986236 0.049228095 -0.027351217 0.036500756
000370 4e a0 c9 bc 8f 09 90 3c 25 fd 54 3d ed a1 c2 bc
       -0.024612572 0.017582683 0.05199923 -0.023758853
000380 42 f1 17 bd 5a 2c 21 bd 07 30 79 bd 2b 96 d7 3c
       -0.037095316 -0.039348938 -0.060836818 0.026316723
000390 25 84 4e 3d 14 fe 31 3d 46 c4 59 3d 20 e5 ec bc
       0.05041899 0.0434552 0.053165697 -0.028917849
0003a0 16 63 b7 39 e7 00 99 3c 72 79 cf bc d5 fc 4b 3d
       0.00034978305 0.018677188 -0.025326464 0.049801666
0003b0 80 01 0d bd 96 76 4a 3d a1 af 3c ba 59 ea 14 3c
       -0.03442526 0.0494295 -0.00071978016 0.009089076
0003c0 02 70 b8 3c 3c 63 80 ba 25 34 5a bd fd a6 55 3d
       0.022514347 -0.0009795199 -0.053272385 0.052161206
0003d0 b1 13 b1 3c 44 9c 36 3d 53 de 94 bc 67 d5 c5 bc
       0.021615835 0.04458262 -0.018172419 -0.02414961
0003e0 22 c2 6d bd f5 73 1c bd cf 89 4a bd 5f df 37 3d
       -0.058046468 -0.038196523 -0.04944783 0.044890758
0003f0 24 6e 76 bd a1 3d be bc 75 ec 57 bd 95 37 48 bc
       -0.060163632 -0.023222746 -0.052715737 -0.012220283

bias f4 [10]
000000 57 b3 00 3c 91 df 86 3c b5 1e c8 3b b8 ba a9 3c
       0.007855258 0.016464027 0.006107176 0.020718917
000010 11 84 28 3d c2 ef 82 3c 83 b6 c5 3c 53 5b a8 bc
       0.041141573 0.015983466 0.02413488 -0.02055136
000020 5e b2 5e 3d 05 f8 91 3c
       0.054369323 0.01781846

weight f4 [100, 810]
000000 6e a1 d4 3c ee 22 7e 3b a6 97 f4 bb a0 06 e4 bc
       0.025955882 0.0038778144 -0.007464367 -0.02783519
000010 23 97 70 3c 8a 9a 53 3c 47 aa 8c 3c fd 0f 04 3c
       0.014684471 0.012915263 0.017171038 0.0080604525
000020 07 e6 a2 3b 6f 5b 26 bb 44 d5 80 3c 0b e5 7c 37
       0.004971269 -0.0025384089 0.015726693 1.5073699e-05
000030 e4 4b 08 bd b6 2b 12 bc 7a a7 46 bc e1 09 4f 3c
       -0.0332755 -0.008921554 -0.01212489 0.012636633
000040 4f cf 8f 3c 45 8e d5 bb b9 0b f1 bc 96 e9 9c bb
       0.017554907 -0.006517204 -0.029424535 -0.004788588
000050 a3 2f fd bc 62 0c b5 3c 03 cc 37 bc 1e 8e fe 3c
       -0.030906504 0.022100631 -0.011218074 0.031073626
000060 f1 b2 28 bc 8c ae 04 3d 8d 48 65 bc d4 2c fa 3c
       -0.010296569 0.032393023 -0.013994348 0.030538954
000070 be 82 fb 3c 0e 7e 7c 3c 7f 3d 6a bc ec 53 96 3c
       0.030701991 0.015410913 -0.014296888 0.018350564
000080 0b 98 01 3d 87 8f bf 3c 5d 01 94 bc 4e 6b 95 3c
       0.03163914 0.023383869 -0.018067056 0.018239643
000090 69 6c 05 3d 4a af 9c bc 6c 81 a0 3c 1b 68 36 bc
       0.03257409 -0.019126553 0.019592963 -0.011133219
0000a0 1c c3 bc bc b5 d0 ce 3b 83 94 eb 3c 6a ee 13 bd
       -0.023042254 0.006311501 0.02875734 -0.03611604
0000b0 7c 5f bd b9 cd cc e4 3c be 27 a8 3c 49 4d 2e 3c
       -0.0003612003 0.027929688 0.020526763 0.010638543
0000c0 d0 fa e6 3c 4c 8a 27 3b 48 be 53 bc a4 18 da 3c
       0.028195769 0.002556461 -0.012923785 0.026623078
0000d0 20 fa cd bb 04 c2 cd bb 08 8c ec bb 55 df 98 bb
       -0.0062859207 -0.006279232 -0.0072188415 -0.004665295
0000e0 1b c2 3e bc c8 4f 89 3a c8 e4 3e bb db 2c 4a bb
       -0.011642958 0.0010476047 -0.0029128063 -0.003084949
0000f0 a9 8b 11 3c c6 14 fd 3c 64 e3 63 3c 47 bd 57 b7
       0.008883395 0.030893695 0.013909195 -1.2859068e-05
000100 e1 f4 13 3c 44 6e b3 bc bc f0 20 bc fe d3 8b 3c
       0.009030552 -0.021903165 -0.009823021 0.01706886
000110 f4 46 08 3d 2d b7 a3 3c 38 f7 ee 3c 91 7f e2 3c
       0.03327079 0.019984806 0.029170617 0.027648719
000120 a6 fe ec bc cc cc f2 3b 8f 9c 9e 3b 6f be e6 3c
       -0.02893002 0.0074096676 0.0048404406 0.028166978
000130 a7 38 31 bc 89 5f c5 bb 29 10 05 bc 63 30 52 3c
       -0.01081673 -0.0060233516 -0.008121529 0.012828919
000140 5b 64 1a 3b e5 27 fd bc bc 7e 93 bc 13 1b 30 3a
       0.0023558352 -0.030902812 -0.018004768 0.00067179016
000150 bb 58 21 bc 95 ec 4d bc 3c b1 56 bc 36 c4 ae 3b
       -0.009847815 -0.012568613 -0.013103779 0.0053334488
000160 04 cb 90 3a 47 87 af bc 4d f0 b6 bb c6 46 76 3c
       0.0011046831 -0.02142681 -0.0055828453 0.015031522
000170 b4 04 15 3c 46 24 36 ba 9b 3b 85 3c 0f 86 9f 3c
       0.00909536 -0.0006948154 0.016263774 0.019473104
000180 f3 c9 87 bc aa 13 db bc 66 8f 01 bd cc 39 be bc
       -0.01657579 -0.026742775 -0.031630896 -0.02322092
000190 18 54 cd 3c 69 b4 87 bc c1 8d 40 39 5b a2 e0 bc
       0.025064513 -0.016565518 0.00018363354 -0.027421167
0001a0 69 46 0a 3b 75 e6 25 bc 1c ca ee 3c e1 67 5e bb
       0.0021099097 -0.010125746 0.029149108 -0.0033936428
0001b0 82 ec b9 3b 3f 5a 81 bc e5 01 e9 3c 61 4e 7d bc
       0.005673946 -0.015790103 0.028443286 -0.0154605815
0001c0 62 5a c7 bc 68 f6 08 3d 89 35 d8 bc aa f6 0b bc
       -0.02433509 0.033438116 -0.026392715 -0.008542696
0001d0 30 f5 81 3c 4f 6b 92 bb 9b 7e a8 3c 51 de 04 bd
       0.015863985 -0.0044683586 0.020568183 -0.03243858
0001e0 6d aa c8 3c 55 51 ae bc 38 17 0f 3d ae 5e cd bc
       0.024495328 -0.021279017 0.034934253 -0.02506956
0001f0 50 e7 2d 3c 92 a7 50 3c a1 b5 06 3d d2 2c 28 3c
       0.010614231 0.012735264 0.03288806 0.010264592
000200 d9 22 17 3c c0 5f 8e 3c a2 e9 91 3c b9 28 50 3c
       0.009224617 0.017379642 0.0178116 0.012705022
000210 9d 94 e9 bc cc ac dd bb 95 4a b6 3c 60 6f ce bc
       -0.028513247 -0.0067649838 0.02225236 -0.025199592
000220 4f f1 77 bb b7 6b a1 bc cc 42 b2 bc a7 80 b5 bb
       -0.003783304 -0.019704683 -0.021760367 -0.005539018
000230 40 42 9f 3b 02 f7 c2 bc 07 28 1b bc c7 2f f2 3c
       0.0048601925 -0.023799423 -0.0094699925 0.029563798
000240 3a 57 a6 3c 1a b2 73 3c 49 1c 9d 3c 41 f7 02 3d
       0.020305265 0.014874006 0.019178526 0.03197408
000250 55 16 10 3d d9 22 b0 bc 41 7c 8e 3c a6 8a 04 3c
       0.035177547 -0.021500992 0.017393233 0.008089697
000260 f2 8e 81 bc 1b d1 ac 3c 7f d5 3b bc b5 1e f4 3c
       -0.015815232 0.021095803 -0.011464476 0.029799799
000270 bd 01 e0 3c 2e e9 af 3a ae 30 8b 3c 5d 77 f4 bc
       0.027344579 0.0013420933 0.016990986 -0.029842073
000280 14 88 72 3c ff 9b dc bc 69 de f5 bc 18 5d af bc
       0.014802951 -0.026929853 -0.03001328 -0.021406695
000290 b3 3f 3f 3c 00 7f 08 bb 99 36 da ba a0 e4 03 bd
       0.011672902 -0.002082765 -0.0016648351 -0.032200456
0002a0 46 73 99 3c 82 64 f5 3c ec 52 a8 3c 4e de b8 3b
       0.018731724 0.029955152 0.020547353 0.005641735
0002b0 fd ba b8 3c 3d 3e b4 bb eb 73 aa bc 6d d7 03 bd
       0.0225501 -0.0055005834 -0.020807227 -0.032187868
0002c0 44 76 c4 3c 17 45 92 bc 69 4c 87 3c 9b e9 a5 3c
       0.023982175 -0.01785521 0.016515927 0.020252993
0002d0 a5 27 c5 bb 49 c9 18 3d 04 19 8a bc 47 7a ce bc
       -0.006016689 0.037301335 -0.016857632 -0.02520479
0002e0 94 c2 ca bc 40 7d a7 3c a9 7c 48 3b de 0c dc b8
       -0.024750985 0.020445466 0.0030591881 -0.00010492814
0002f0 f8 a3 02 bb f9 cd 9a 3c 59 d4 04 bc f1 bc fe 3c
       -0.0019934159 0.018897044 -0.008107268 0.031095954
000300 f7 20 91 3c 7f 47 eb bc 81 da 31 bc b3 03 4b 3a
       0.017715914 -0.028720615 -0.010855318 0.00077443867
000310 00 b0 e4 3c 86 7f 89 b9 d8 29 72 3c 79 75 8c bc
       0.027915955 -0.0002622569 0.014780484 -0.01714586
000320 b3 79 48 3c 9f 4d e4 3c 9b 7a 9d bc 36 e7 b4 bc
       0.012236047 0.027869044 -0.019223502 -0.022082906
000330 2f 94 69 3c 25 2b 2e 3c dc b1 9c bc 50 f7 7c 3c
       0.014256521 0.010630404 -0.019127779 0.015439823
000340 e5 aa f8 3c 16 31 9d 3c f0 5a 0e 3d 13 eb fd 3b
       0.030354926 0.019188445 0.034754694 0.0077489703
000350 ec c4 e7 3c e4 62 d4 bc 89 98 c1 3c eb 25 9f 3c
       0.028292142 -0.025926061 0.023632305 0.01942726
000360 50 88 be bc 3f 16 00 3d 5d 6a 13 3d 40 6e 1a 3d
       -0.023258358 0.031271216 0.035990108 0.0377028
000370 4b f8 93 bc 0c 5a 80 3c d7 c5 0b bc b3 48 09 3d
       -0.018062731 0.015667938 -0.008531055 0.033516597
000380 a3 ec 94 3c 55 6f c6 bc b0 56 b1 bc 31 a9 7c bc
       0.018179243 -0.02422301 -0.021647781 -0.015421198
000390 d9 0c 06 3d d0 ab ff bb a3 1e 11 3d 58 ce 92 3c
       0.032727096 -0.007802464 0.035429608 0.017920658
0003a0 57 54 21 3c 69 f1 42 bc 1d 57 37 3c 84 de d0 3c
       0.009846768 -0.011898377 0.011190203 0.025496729
0003b0 dd c0 2f 3c 18 6c 8b bc f1 45 00 bc 20 73 19 3b
       0.0107271345 -0.017019317 -0.007829175 0.0023414567
0003c0 63 0e 01 bd 06 a6 9f 3b 4c 55 c5 ba 7c db 70 3c
       -0.03150786 0.0048720865 -0.0015055328 0.014700767
0003d0 3d 99 96 3c a9 8d cb bc f2 c7 d8 3c ee 5f d5 bc
       0.018383617 -0.024847822 0.026462529 -0.02604672
0003e0 7b 7c 8b 3b 82 24 34 bc ce bf 2f 3c f8 08 cc 3c
       0.0042567826 -0.010995032 0.010726882 0.02490662
0003f0 5e d9 f7 3a d7 af ba 3c ed 56 71 3c ba 46 1d 3c
       0.0018909385 0.022788925 0.014730197 0.009599382

bias f4 [100]
000000 ac 4a 0a 3d 4f 76 e4 bc 09 45 6d bc 09 4e d5 3c
       0.03376262 -0.027888445 -0.014481791 0.026038187
000010 f0 df af ba b8 94 dd 3c 20 2b 91 3c 92 85 62 bc
       -0.0013418179 0.027048454 0.017720759 -0.013825791
000020 e2 32 83 bc 84 eb 00 3d c3 c2 f3 bc 43 6d 3c 3a
       -0.016015474 0.031474605 -0.029755956 0.0007187912
000030 39 ad 8e bc 6f 0f 50 bc 4a 93 0b 3b c0 98 78 3c
       -0.017416583 -0.012698992 0.0021297508 0.015173137
000040 10 0b cc 38 9e a0 74 bc 53 9d 9e bc 14 95 14 3d
       9.7295386e-05 -0.014930872 -0.019362127 0.036274984
000050 b4 51 6a 3c 76 d1 78 bb df 92 30 3c f8 13 04 bc
       0.014301706 -0.0037966645 0.010777204 -0.008061402
000060 a9 75 af ba 5a a5 4f 3c 3e c2 ff 3c d2 84 6c bc
       -0.0013386506 0.0126737 0.031220552 -0.014435964
000070 83 41 0c 3d 70 9c 0b 3d 49 08 c6 3a 08 45 01 3c
       0.034242164 0.034084737 0.001510867 0.0078899935
000080 39 80 92 bc 30 6a 97 3c 03 02 f6 bc 0b bf dd bb
       -0.017883407 0.018483251 -0.030030256 -0.006767159
000090 e0 70 e9 3c 0f 13 03 3c 18 0a 38 3c 15 55 2d 3c
       0.028496206 0.008000149 0.011232875 0.010579367
0000a0 b4 3f 23 3b 9a 10 e2 3c 0a d7 c6 3b 44 2f 95 3b
       0.0024909796 0.027595807 0.006068115 0.0045527536
0000b0 1a 15 04 3d 93 11 16 bd 5e 0f b7 3c 8d d4 6f bc
       0.032246687 -0.036637854 0.022346195 -0.014638078
0000c0 93 45 42 bc b6 3b 06 bd fb 8e b3 bc 4b 37 7f 3b
       -0.011857408 -0.03277179 -0.021918764 0.003894287
0000d0 37 d5 98 3c df 95 1c 3b 4d a6 04 3d 2a 04 3c 3c
       0.018656356 0.002389304 0.03238516 0.011475602
0000e0 94 1c f1 bc c8 1c c7 bc db 83 06 3c 1e 84 5e bc
       -0.029432572 -0.024305716 0.008210148 -0.013581304
0000f0 31 c7 5a ba de a0 ac 3c 2c 60 e8 39 2c 57 cc 3c
       -0.0008345722 0.021072801 0.00044322142 0.02494391
000100 bb 3b 8f bb 8c b7 f5 3b 9b 22 5d 3c e8 bf 65 3b
       -0.004371134 0.007498687 0.01349702 0.0035057012
000110 af de df 3c 61 8d 43 3c 3b ca e6 3b a6 3a e0 bc
       0.027327863 0.011935563 0.0070431507 -0.027371716
000120 5b 0b 66 bc 54 2e 86 3c d1 ad 7f 3a 49 0f 05 3d
       -0.014040793 0.016379513 0.00097533787 0.03248528
000130 68 95 1f 3c 6a ce 91 bc bc cc c1 3c 4a f3 ef 3c
       0.009740211 -0.017798621 0.023657195 0.029290814
000140 0d c3 ec 3c 81 b2 8d bc c6 9b dd bb 71 b9 64 3c
       0.028901601 -0.017297031 -0.0067629544 0.013960228
000150 cc ec cc bc 8d a2 13 3b a6 77 ee bc 17 8b 34 3b
       -0.025015257 0.0022527308 -0.029109787 0.0027548724
000160 44 98 98 3b a1 fa 32 3c ed cf 72 bc 9b 8f e4 3c
       0.0046568234 0.010924012 -0.014820081 0.027900508
000170 7f dc db 3b f2 88 13 bb 1b 30 9c 3c c1 1b f3 3c
       0.006709635 -0.0022512046 0.019065907 0.02967632
000180 df 8e 8c bc e2 24 58 3b c0 26 98 bc 27 d9 a7 bc
       -0.01715797 0.0032980968 -0.018573165 -0.020489288

weight f4 [40, 100]
000000 05 d3 fe bc 9a c3 d1 bc 1a 32 c1 ba 78 8d bb bd
       -0.031106481 -0.025605965 -0.0014739663 -0.091578424
000010 e6 18 fd bc 4e 4e 45 3d a1 a0 af bc 4e 0d 8a bc
       -0.030895662 0.04817038 -0.021438899 -0.016852047
000020 4b c2 f4 bc 45 bf 88 3d 3e b5 69 3d 87 cc 0d 3b
       -0.029877802 0.06677107 0.05705761 0.00216368
000030 e5 bd 9a bd 7b cd 1a bc da 59 30 3d ee 4c 9f 3d
       -0.07555751 -0.009448404 0.04305444 0.07778345
000040 53 e6 05 bc 46 a9 8c 3d 99 1c e7 bc 16 b1 2a bd
       -0.008172589 0.06868224 -0.028211879 -0.04167279
000050 2b e9 89 bc 14 7b a9 3d b2 2e e3 3a 5e de 12 bd
       -0.016834816 0.082754284 0.0017332642 -0.035856597
000060 1f af 24 bb ed 78 9d bb b7 06 14 bc 07 29 3d bd
       -0.0025128794 -0.0048056752 -0.009034804 -0.046181705
000070 66 34 cf 3c 5c 47 c5 3d 07 c4 8b bd 1c 89 c0 3d
       0.02529354 0.09632751 -0.068244986 0.094011515
000080 ff 8e c2 bd 7e 4a 8c 3d d6 97 ba bd ea ac 0c 3d
       -0.094999306 0.06850146 -0.09110992 0.03434459
000090 c3 d0 a9 3d f6 ae d0 bc 9e c7 a1 3c 88 38 ac 3d
       0.08291771 -0.025474053 0.019748505 0.0840922
0000a0 46 23 bb bd 93 d5 b8 3c 70 34 88 bd 1b 79 6f bd
       -0.09137587 0.022562778 -0.06650627 -0.058465105
0000b0 51 cd 8a bd 1c e8 19 3d 41 b0 75 bd b2 07 c8 bc
       -0.06777442 0.037574872 -0.059982542 -0.024417732
0000c0 b5 29 65 3d 84 8b 9e bd ee 85 5c bd f0 46 c3 3d
       0.055947978 -0.07741454 -0.053838663 0.09535015
0000d0 4a 80 34 bd 5a 5f bc 3d a2 e8 04 bd aa 82 16 3d
       -0.04406766 0.09197874 -0.03244842 0.036745705
0000e0 30 74 f9 3c 8c e6 a8 3c cd 3a 7c bc a1 a2 7d 3d
       0.03045091 0.020617746 -0.015394879 0.061922673
0000f0 33 78 4f 3d 91 a4 b5 3d a4 9a 3c bd e0 3e 45 bd
       0.05065174 0.08869279 -0.046045914 -0.048155665
000100 a3 86 7b bc dc 0c 65 bd 85 09 35 bc df 9b 5b 3d
       -0.015351924 -0.055920467 -0.011049633 0.053615447
000110 72 13 a4 bd 9e 82 64 bd af 1a 6d 3d a5 99 8a 3d
       -0.080115214 -0.05578863 0.057886776 0.067675866
000120 64 95 6f bd c6 99 7a 3d e2 c0 41 bd 4c 51 ae bc
       -0.05849208 0.061181806 -0.047303088 -0.021279
000130 9e 43 97 3d 57 24 60 bd 0c 9f 42 bc 03 a6 73 3d
       0.07385944 -0.054722156 -0.01187874 0.059484493
000140 92 80 a2 3d c8 27 bc bb 15 7f 86 3c f8 d5 15 bd
       0.07934679 -0.005742047 0.01641802 -0.03658101
000150 3e 3a 5e bd 45 49 43 3d 53 58 04 3d ce 1f bc bd
       -0.054254763 0.047677297 0.032310795 -0.09185754
000160 1a 70 72 3b 27 53 8e 3d 03 da 83 bd c9 af 86 3d
       0.0036993087 0.06949454 -0.06438067 0.06576497
000170 24 75 b3 bd 49 96 ba bd e1 fb a5 bb 6f 6c 88 bd
       -0.08762577 -0.09110696 -0.0050654267 -0.06661307
000180 94 86 3a 3d e8 3d ad 3d fb c9 99 3d d4 62 33 3d
       0.0455385 0.08459073 0.07509228 0.04379542
000190 4e 09 d6 bc c6 8f 07 3d e4 7d 8d 3d fb 7a bc bd
       -0.026127484 0.033096097 0.06908777 -0.09203144
0001a0 57 9d c0 3d 7a c2 95 3d f8 4d 2f bd 34 5e 17 3d
       0.0940501 0.07312484 -0.042798966 0.036955073
0001b0 dc 1d e8 3c 1e 59 d9 3c 40 cc c5 bd fc 82 7c 3c
       0.02833455 0.026531752 -0.09658098 0.0154120885
0001c0 7f 30 90 bd de 5d a7 3c e9 b9 b3 3d 58 4f 37 bd
       -0.070405 0.020430502 0.08775694 -0.044753402
0001d0 1f c5 e7 3c 87 5a 86 3d 4e 00 e2 3b 3d 52 a8 bd
       0.028292237 0.065602355 0.006897009 -0.08218811
0001e0 a7 09 35 3d a5 b8 9e bd 02 3a 1c 3d 2c 12 f3 3c
       0.04419866 -0.07750062 0.038141258 0.029671751
0001f0 44 a4 57 3d 5c 78 e4 3b 64 62 cc bd d7 b5 b7 3c
       0.05264689 0.006972356 -0.09979704 0.022425575
000200 ac 23 d3 bc b9 05 d2 3c 84 c4 0c bd 1f 1c 80 bc
       -0.025773846 0.025637494 -0.0343671 -0.01563841
000210 17 cc 9b bd 2f a0 05 3c f3 35 0a bd 23 c4 6d bd
       -0.076072864 0.0081558665 -0.033742856 -0.05804838
000220 0f 0b af bd 67 d6 6c 3d ef 35 8a bd 4b 6f a1 bc
       -0.08547031 0.057821658 -0.06748568 -0.019706389
000230 20 4c 14 bd 03 46 84 3d 43 04 aa 3d 45 a4 be bd
       -0.03620541 0.06458666 0.08301594 -0.09308676
000240 87 f0 9c bd d2 48 4b bc 3e 6c 76 3d 8f 68 88 3b
       -0.076630645 -0.012407498 0.06016182 0.004162855
000250 ca 93 98 3d 06 19 8f bb 29 7b 89 bb d4 7a 69 3d
       0.074500635 -0.0043669967 -0.00419559 0.057001904
000260 aa 3b 50 3d 74 69 ab 3d 97 35 e7 3c 19 a3 ce bd
       0.05083815 0.08369723 0.028223796 -0.10089702
000270 be 43 b3 bc 9d f0 93 bd b5 e2 d0 bd 0f 3c 7d 3c
       -0.021882888 -0.07223628 -0.10199491 0.015456214
000280 2d f2 c9 3d f3 06 a1 3d c9 5b 62 3d 3a ce bb bb
       0.098606445 0.078626536 0.055263314 -0.005731371
000290 00 73 9e 3d 07 34 a4 3b 70 f5 0c bd 4b 83 96 bd
       0.07736778 0.005011085 -0.034413755 -0.07349261
0002a0 4b d4 ae 3d f2 48 82 bd 1f 90 3d 3d e0 3d 26 bd
       0.085365854 -0.063615695 0.046280023 -0.040586352
0002b0 be ff 07 bd 43 6f a4 3d 36 8a d8 3c 41 e1 7d 3d
       -0.03320288 0.08029034 0.026433092 0.061982397
0002c0 5e 5c 5f 3c 51 d4 9c bd 57 34 99 3d cc 1e 30 3d
       0.013632862 -0.07657684 0.07480686 0.04299812
0002d0 eb 7f 9c 3a d5 a0 12 bd 2a dc e3 3b e5 83 b2 3d
       0.0011939978 -0.035797913 0.006953736 0.08716563
0002e0 7c 88 60 3d a1 6d c9 3d 8e eb 81 bd e0 96 a0 3c
       0.05481766 0.09835363 -0.063437566 0.019603193
0002f0 6f 6f b3 3d c7 72 b4 3d ab 5d 88 3d 3f ac 44 bd
       0.08761489 0.088109545 0.06658491 -0.04801583
000300 b5 ba 0c 3a 2f 83 43 3d 14 96 7c 3d 0a e9 a3 bd
       0.00053683977 0.04773253 0.061666563 -0.08003433
000310 e0 21 8c 3d ca 03 79 bd 29 96 a6 bd eb 89 2a 3c
       0.06842399 -0.06079463 -0.081341095 0.010408859
000320 64 be 32 bd 43 99 b7 39 6d ea 1c bd d0 d7 a6 3c
       -0.043638602 0.0003501867 -0.038309503 0.02036658
000330 ca 72 53 3d e5 8f 8e bd 7c ec 24 3d 0c 94 5e 3d
       0.051623143 -0.069610395 0.04026459 0.054340407
000340 a9 f5 2c bd 2a ab 85 3d ca 12 4b bc ac 41 97 3d
       -0.042226467 0.065267876 -0.012394616 0.07385573
000350 c6 f3 db bc e5 b2 1f 3c 1c af 56 bd 45 f2 6f bd
       -0.026849639 0.009747242 -0.05241309 -0.058580656
000360 9d 60 37 bd 56 19 8c bd 36 27 d8 3c 17 1f 2f 3d
       -0.044769872 -0.0684077 0.026385885 0.04275426
000370 f0 69 4d 3d fa a5 c1 bd 93 0e ce 3d ed 3d b1 3b
       0.050149858 -0.09455486 0.100613736 0.0054089935
000380 ea 53 8d bb b1 73 b8 3c 2a b3 c6 3d 7a eb 5b 3d
       -0.004312982 0.022516103 0.097021416 0.053691365
000390 bc 2b 90 3d 9e 0b a9 bd cb 2c 9f bd 6d f7 f8 3c
       0.07039592 -0.08254169 -0.077722155 0.03039142
0003a0 e8 b2 a8 bd ff 56 4e 3d 4e 48 a5 bd 9e 1d fa bb
       -0.08237249 0.050375935 -0.08070432 -0.007632925
0003b0 d7 da 0d bd b3 77 37 3d 8c 72 d4 bc ab 8e 66 bd
       -0.03463253 0.04479189 -0.025933526 -0.056288403
0003c0 df 16 ae 3d e2 2f 23 bd 1d ae bc 3d a6 44 90 3d
       0.08500456 -0.039840586 0.09212897 0.07044344
0003d0 72 53 9c 3d 7d d1 c4 3d cd 75 72 bd fe 6e 2c bd
       0.076331034 0.09610269 -0.059194375 -0.042098038
0003e0 dd 42 a5 3d af e6 b6 3d e3 07 9a bd 74 79 d0 bc
       0.08069394 0.08930718 -0.075210355 -0.025448538
0003f0 9b 6f b0 3d ee 83 c4 3c 44 2b 5f 3d 9b e2 a8 3d
       0.08615037 0.02398869 0.05448462 0.082463466

bias f4 [40]
000000 b4 b0 91 bc 99 05 bd 3c ae db 0d bd ba f8 0d 3c
       -0.017784454 0.023073958 -0.03463333 0.008665258
000010 01 19 5f bd 14 e9 97 3d d1 3a 87 bd 57 2f 55 bc
       -0.054467205 0.07417503 -0.06603015 -0.013011775
000020 27 d2 c1 bd 92 84 73 bd 99 cb 73 3c d4 b3 c5 3c
       -0.094639115 -0.0594526 0.014880084 0.0241336
000030 6c a0 ab bd 36 aa e2 3c fc 84 45 3d db 66 82 3d
       -0.083802074 0.027669054 0.048222527 0.063672744
000040 fe ca 13 bd ce 39 c0 bc 23 a8 8c bd 90 1b bc 3d
       -0.03608226 -0.023465063 -0.06868007 0.09184945
000050 1e 08 a9 3d 8e 81 87 bd fd cd c2 bb d8 fd ab bd
       0.08253501 -0.066165075 -0.005944966 -0.08398026
000060 63 be 46 bd c7 b2 b9 3d 21 a6 c5 3d 8d d3 96 3c
       -0.04852141 0.09067302 0.09650827 0.018411422
000070 4a 1f 06 3d 11 59 5c 3d 4b ab b6 bd ac 06 96 3d
       0.032744683 0.053795878 -0.0891939 0.07325491
000080 d2 82 fd bb d0 09 c7 3d a6 a6 a1 3d 90 e0 a1 3d
       -0.0077365423 0.097186685 0.07893114 0.0790416
000090 08 2f 00 bc 55 70 6c 3c d0 0d 40 bd d2 68 9e 3d
       -0.007823713 0.014431079 -0.046888173 0.07734837
