scripts/model_baseline.pt (torch_old, 696539 bytes, 12 tensors)

weight f4 [10, 3, 2, 2]
0	0xbdb4db3f	-0.088308804
1	0xbc241042	-0.010013642
2	0x3e8970e2	0.26843935
3	0xbe633ea9	-0.22191872
4	0x3e983f51	0.29735807
5	0x3e4d42b9	0.20044984
6	0xbe3c9fcc	-0.18420333
7	0xbe7e72b1	-0.24848439
8	0x3db11c94	0.08648029
9	0x3e1d6823	0.15371756
10	0x3a8cbdf6	0.0010737765
11	0x3e749a9b	0.23887102
12	0x3e78ff42	0.24316123
13	0x3a433adf	0.0007447432
14	0x3dace149	0.08441407
15	0xbe85e7fe	-0.26153558
16	0x3dafcdd9	0.08584184
17	0x3e376004	0.17907721
18	0xbdbf3b47	-0.09337478
19	0xbe232487	-0.15931903
20	0xbda4917a	-0.0803556
21	0x3e91d661	0.2848387
22	0x3d7b1de4	0.061307803
23	0xbe8f2087	-0.27954504
24	0xbd1206af	-0.035650905
25	0x3e5d9f89	0.21642889
26	0xbe2ddf1a	-0.16979638
27	0xbd4c9725	-0.04994883
28	0xbdca4fad	-0.09878478
29	0xbe2cde94	-0.16881782
30	0x3e388bff	0.18022154
31	0xbdcf9541	-0.1013589
32	0xbd99ed4a	-0.075159624
33	0xbe5eeec7	-0.21770774
34	0x3e13dbe5	0.14439352
35	0x3e176de5	0.14788015
36	0xbdd233d4	-0.10263792
37	0x3d8a803f	0.06762742
38	0xbe8b92d3	-0.27260455
39	0xbddde8ae	-0.10835396
40	0xbd38da64	-0.04513015
41	0x3e421cc8	0.18956292
42	0x3d87165b	0.06596061
43	0x3ceda6a5	0.029010126
44	0x3d9b8a54	0.07594743
45	0xbe61e8cf	-0.22061466
46	0xbe033a61	-0.12815239
47	0x3e1cba5e	0.15305468
48	0x3dafbde3	0.0858114
49	0x3d05358a	0.032521762
50	0xbdcc5d98	-0.09978789
51	0x3d214bc0	0.03937888
52	0xbdad0d6c	-0.08449826
53	0x3e8762e6	0.2644264
54	0x3e710445	0.23536785
55	0x3d54918f	0.051896628
56	0xbd17a846	-0.037025712
57	0x3cfb1861	0.030651273
58	0xbe0e2818	-0.13882482
59	0x3e2672d0	0.16254735
60	0x3d65fcd7	0.05614933
61	0x3cf103c5	0.029420743
62	0xbd8b6fd8	-0.06808442
63	0x3e7db28b	0.2477514
64	0x3e30d4e5	0.17268713
65	0x3d9c8931	0.07643355
66	0xbe0facb0	-0.14030719
67	0xbe54af84	-0.20770079
68	0xbe18112a	-0.14850298
69	0xbe493e6d	-0.1965272
70	0x3e46e71d	0.194241
71	0x3e36afd6	0.17840514
72	0x3d5eb8f5	0.054375608
73	0xbe5d781c	-0.2162785
74	0xbdf9e61b	-0.12202092
75	0xbdfd70d5	-0.123750366
76	0xbd9bdbec	-0.07610306
77	0xbc74f8a7	-0.014951861
78	0x3d84c687	0.064831786
79	0xbe0e0c6e	-0.13871929
80	0xbe22b6ed	-0.15890093
81	0x3ceca23c	0.028885953
82	0xbe18f68d	-0.14937802
83	0x3e7e33e7	0.24824487
84	0xbe0241a1	-0.12720348
85	0x3e5e966a	0.21737066
86	0x3de4f42f	0.11179387
87	0xbe5578cf	-0.20846866
88	0x3dfb84a3	0.12281158
89	0xbe71062d	-0.23537512
90	0xbcfb13b6	-0.030649047
91	0x3d1c716c	0.038194105
92	0xbe980a0a	-0.2969516
93	0xbe73e431	-0.23817517
94	0xbe28537b	-0.16438095
95	0x3c9aa0da	0.018875528
96	0x3dc1feee	0.09472452
97	0xbb8acd18	-0.004235875
98	0xbe707225	-0.23481043
99	0x3d6766e4	0.05649461
100	0x3de77bcc	0.11302909
101	0x3e6cf10f	0.23138832
102	0xbe8163a5	-0.25271335
103	0x3e2f53a8	0.17121756
104	0xbe370eb7	-0.17876707
105	0xbe0c63f5	-0.13710006
106	0xbe69eedc	-0.22845024
107	0xbca8642c	-0.020555578
108	0xbe094569	-0.13405384
109	0xbe8d6051	-0.27612546
110	0xbe7ac7e6	-0.24490318
111	0xbe253517	-0.16133533
112	0x3e8cb6ff	0.27483365
113	0xbe4ce089	-0.20007528
114	0x3e177f11	0.14794566
115	0xbe2102d0	-0.15723729
116	0x3e10f820	0.14157152
117	0xbdbbc03f	-0.091675274
118	0xbd1f6239	-0.03891203
119	0x3e572f4f	0.2101414

bias f4 [10]
0	0xbdd85a97	-0.10564154
1	0xbe22551c	-0.15852779
2	0xbca44eaf	-0.02005705
3	0xbe602081	-0.218874
4	0x3df639b7	0.12022727
5	0x3d9c7449	0.07639367
6	0xbb7b082d	-0.0038304434
7	0xbd099f31	-0.033599082
8	0xbd59a42f	-0.053135093
9	0x3e75c675	0.24001487

weight f4 [10, 10, 3, 3]
0	0xbdc2ee7f	-0.09518146
1	0x3d5bfbd3	0.053706955
2	0x3c6cfcd7	0.014464579
3	0x3db9fa39	0.09080929
4	0x3d86ed66	0.06588249
5	0xbd5806df	-0.052740928
6	0xbc8b5cc9	-0.017012017
7	0x3ccb51fc	0.024819367
8	0x3d730587	0.059331443
9	0x3ced37e8	0.028957322
10	0x3d8f7af6	0.07005875
11	0xbd836804	-0.06416324
12	0x3de48ef9	0.11160082
13	0x3d8c81dc	0.06860706
14	0xbd7402d4	-0.05957301
15	0xbcdfc7a6	-0.02731688
16	0xbd72c6f9	-0.059271786
17	0xbd7dd4f6	-0.061970674
18	0x3cba7fd8	0.022766039
19	0x3bfee1a3	0.007778363
20	0x3db20e19	0.08694095
21	0xbd8d3db2	-0.06896533
22	0xbd32e361	-0.043673877
23	0x3c1ca787	0.009561426
24	0xbda60b28	-0.08107597
25	0xbd1a09d7	-0.03760704
26	0xbce155fd	-0.027506823
27	0xbcdf9280	-0.027291536
28	0xbcc53001	-0.024070742
29	0x3b622834	0.0034508826
30	0xbb91eab8	-0.0044530295
31	0x3d416311	0.047213618
32	0xbd974984	-0.07387069
33	0x3dbb129f	0.09134411
34	0xbdc1305a	-0.094330505
35	0xbb49531d	-0.0030719705
36	0xbd85c37c	-0.06531426
37	0x3bb3fef2	0.0054930383
38	0x3d6131f4	0.05497928
39	0xbd10fb69	-0.035396013
40	0xbbfcfeab	-0.0077207885
41	0x3dac5a4f	0.084156625
42	0xbd56e7ce	-0.05246716
43	0xbda8f9b2	-0.082507506
44	0xbd52545c	-0.051349983
45	0xbd981a89	-0.07426936
46	0x3d8994a0	0.06717801
47	0xbdb76685	-0.08955101
48	0xbca6d156	-0.020363491
49	0x3d48200b	0.048858684
50	0xbd8b6b83	-0.068076156
51	0x3c339cff	0.010962724
52	0xbc4041d2	-0.011734443
53	0x3da8eca9	0.08248264
54	0xbcb8ed0b	-0.022573968
55	0x3a0da8f7	0.0005403901
56	0x3d983ecd	0.07433853
57	0x3dd4c3f5	0.10388938
58	0x3dc48173	0.09595003
59	0x3cc41778	0.023936972
60	0x3dd6bf27	0.10485678
61	0xbc80e324	-0.01573331
62	0xbda360d6	-0.07977454
63	0x3d1e8f13	0.038710665
64	0xbdadfc36	-0.08495371
65	0x3c166bb0	0.009180948
66	0xbc8ccd1c	-0.017187648
67	0x3da0e39f	0.07855915
68	0xbb96c6b3	-0.0046013235
69	0x3db01b99	0.08599014
70	0x3d491d5c	0.049100265
71	0x3c64aaae	0.013956709
72	0x3dae8dbd	0.08523128
73	0x3dcbbb1c	0.09947798
74	0x3cb76e69	0.022391515
75	0xbd437e3d	-0.047727812
76	0x3d18f40c	0.037342116
77	0xbc3ccfbb	-0.011524136
78	0x3cd18866	0.025577735
79	0x3dd1d525	0.10245732
80	0x3dc1e862	0.09468152
81	0x3ca1ae61	0.01973647
82	0xbcba2897	-0.022724433
83	0xbd61529c	-0.055010423
84	0x3d82ab7c	0.06380364
85	0x3db36b93	0.087607525
86	0x3dcf7267	0.101292424
87	0xbd465adc	-0.048426494
88	0x3c1c50c3	0.0095407395
89	0x3d6feb9a	0.058574297
90	0x3dca29ef	0.098712794
91	0xbcd21c83	-0.025648361
92	0xbd8ad8ca	-0.067796305
93	0xbb9f4511	-0.0048605283
94	0x3cf1edea	0.029532392
95	0x3c2f41b2	0.010696815
96	0x3dd3810c	0.10327348
97	0x3d8dfc74	0.06932917
98	0x3d8a274a	0.06745775
99	0xbc6fa7ab	-0.0146273775
100	0x3d329f0c	0.04360871
101	0xbce52534	-0.027971841
102	0x3d98ecbe	0.0746703
103	0x3ccc3dc7	0.024931801
104	0x3de131a1	0.10995794
105	0xbca8d31e	-0.020608481
106	0x3c9c6da3	0.019095248
107	0x3d66c428	0.056339413
108	0x3d8d8f87	0.06912141
109	0xbd85f49e	-0.06540798
110	0x3bd51b68	0.006503511
111	0xbbeb4c0d	-0.007180697
112	0x3cc3e790	0.023914129
113	0x3dce5558	0.10074872
114	0xbc801c8f	-0.015638618
115	0xbda5924e	-0.08084546
116	0x3c24481e	0.01002696
117	0xbc1e0191	-0.009643928
118	0xbbf374d6	-0.0074296994
119	0xbd83c88d	-0.064347364
120	0x3de26e7b	0.11056229
121	0x3da635db	0.08115741
122	0xbd878b4e	-0.06618367
123	0xbd86de71	-0.06585396
124	0xbd5356ae	-0.051596336
125	0x3d527f59	0.05139098
126	0x3dc5bff8	0.09655756
127	0x3d2b3be4	0.041805163
128	0xbd98649e	-0.07441066
129	0xbdae8d64	-0.08523062
130	0xbcdac3d0	-0.026704699
131	0xbd9ce7fe	-0.076614365
132	0xbd8703ce	-0.065925226
133	0x3caccf6b	0.021094998
134	0x3dad54fc	0.08463475
135	0xbd4cdf15	-0.050017435
136	0x3cfadd32	0.030623052
137	0xbd800da2	-0.062526
138	0x3dc6ac2d	0.09700809
139	0x3d2080b2	0.039185233
140	0xbdbfc54b	-0.093638025
141	0x3cb7bc46	0.022428643
142	0x3d5d41fd	0.05401801
143	0xbd916c65	-0.07100753
144	0x3d39edad	0.04539268
145	0x3d37547f	0.044758316
146	0xbd0e9f21	-0.034819726
147	0x3de805ad	0.113292076
148	0xbd8df563	-0.069315694
149	0xbcc89bea	-0.024488408
150	0xbc9aa9ef	-0.018879859
151	0x3dc82e1e	0.09774421
152	0x3da8430c	0.08215913
153	0x3d5fd225	0.05464377
154	0xbc51d04e	-0.012806011
155	0xbd3b8d87	-0.045789268
156	0x3dbba7c7	0.0916286
157	0x3d95aa55	0.07307879
158	0xbdb5a82e	-0.08869968
159	0x3ddc2071	0.10748375
160	0xbd48ac62	-0.048992522
161	0x3dc56b9b	0.09639665
162	0x3d7d4395	0.06183203
163	0x3d3d2d02	0.0461855
164	0x3d2d27ed	0.042274404
165	0x3b13ff1d	0.002258248
166	0xbc08e76f	-0.008355959
167	0xbbde08c9	-0.0067759496
168	0x3b856662	0.004071043
169	0x3ddc917e	0.10769938
170	0x3d45c4d3	0.04828341
171	0x3dba8e46	0.09109168
172	0x3d324ef0	0.043532312
173	0xbd8e9d0a	-0.069635466
174	0x3d9148f5	0.070939936
175	0x3dc41a0e	0.09575282
176	0x3c98acd7	0.018637104
177	0x3d54e375	0.051974732
178	0x3cb8867e	0.022525068
179	0x3cbee1f3	0.0233011
180	0xbc3bdffd	-0.011466977
181	0xbd21b7c9	-0.03948191
182	0xbd1cd61c	-0.038290128
183	0xbbade262	-0.005306528
184	0x3da0c1f1	0.078494914
185	0x3d43e15f	0.047822352
186	0x3d3f3504	0.04668142
187	0xbdba0794	-0.09083477
188	0xbc6335c2	-0.013867797
189	0xbd10dd06	-0.035367034
190	0x3d00655f	0.031346675
191	0xbdbdc26a	-0.09265597
192	0x3d0e8d8a	0.03480295
193	0xbd95d030	-0.07315099
194	0x3d582c52	0.052776642
195	0x3d24328c	0.040087268
196	0xbba8fd49	-0.005157147
197	0xbd944e7c	-0.07241532
198	0xbda858b3	-0.08220043
199	0x3d714bea	0.058910288
200	0x3d8aab85	0.06770996
201	0xbdc506fa	-0.09620471
202	0xbd95af51	-0.073088296
203	0x3d32f4df	0.04369056
204	0x3c395864	0.011312578
205	0x3d0555eb	0.03255264
206	0xbc9b1e3e	-0.018935319
207	0xbdbd12c9	-0.092320986
208	0x3d7a3a2a	0.061090626
209	0xbd097524	-0.03355898
210	0x3dd85cc9	0.10564572
211	0xbceda714	-0.029010333
212	0xbceceb04	-0.028920658
213	0x3d7d3628	0.061819226
214	0x3d1e310b	0.03862099
215	0x3d75e964	0.06003703
216	0x3d85ff95	0.06542889
217	0x3d0180c4	0.03161694
218	0x3d829753	0.06376519
219	0xbd530020	-0.05151379
220	0x3bb0804c	0.005386388
221	0xbd6224c7	-0.055210855
222	0x3d882283	0.066472076
223	0x3dc03723	0.093855165
224	0x3c893c40	0.016752362
225	0xbd4ec2fc	-0.05047892
226	0xbdcc60d7	-0.09979408
227	0xbcd5f12e	-0.02611598
228	0x3db5f0f9	0.088838525
229	0x3b0bdf77	0.0021342912
230	0xbc858d1d	-0.01630264
231	0x3d5c215a	0.053742744
232	0xbdbd9bf1	-0.09258259
233	0xbcbc3aa0	-0.022977173
234	0x3ba18106	0.004928711
235	0xbd14073f	-0.036139723
236	0x3dc3b25a	0.09555502
237	0xbd9e2146	-0.0772119
238	0x3d39165f	0.04518735
239	0x3c56af6a	0.013103345
240	0x3cf7393e	0.030178662
241	0xbd8ba1fa	-0.06818004
242	0xbd6be5dc	-0.057592258
243	0x3b31b999	0.0027118681
244	0x3d18538d	0.037189055
245	0x3d45c7c6	0.048286222
246	0xbd8e8e87	-0.06960779
247	0xbd023030	-0.031784236
248	0x3d84b0ab	0.06479009
249	0x3dca29ca	0.09871252
250	0x3d2ddf48	0.042449266
251	0x3db5f8b3	0.08885326
252	0xbcb96002	-0.022628788
253	0xbcf2f924	-0.029659815
254	0x3dc37e8b	0.095456205
255	0xbd7d3deb	-0.061826628

bias f4 [10]
0	0xbd9ee87b	-0.07759186
1	0xbdbc2e04	-0.09188464
2	0xbcb9f653	-0.022700464
3	0xb9b6494d	-0.00034768358
4	0x3dcd932b	0.10037836
5	0xbcc43a71	-0.023953648
6	0x3da91570	0.08256042
7	0xbd93d804	-0.07218936
8	0xbdb5e6df	-0.08881926
9	0xbd3e5a9e	-0.046473138

weight f4 [10, 10, 4, 4]
0	0xbd650356	-0.055911385
1	0xbd10ac41	-0.035320524
2	0x3c77f4d2	0.015134053
3	0xbc92a7ae	-0.017902222
4	0xbd885a08	-0.06657797
5	0x3ce99268	0.028512195
6	0x3cc8a74e	0.02449384
7	0x3be1baed	0.0068887384
8	0xbd1d3b7f	-0.038386818
9	0xbd54b5e3	-0.051931273
10	0x3dae71b7	0.08517783
11	0x3d96c5fa	0.0736198
12	0x3da55306	0.08072476
13	0x3d33ea4c	0.043924615
14	0xbc95758b	-0.018244525
15	0x3b7233c0	0.0036957115
16	0xbc28a01d	-0.01029208
17	0x3b8d7c0b	0.0043177656
18	0x3d900d5a	0.070337966
19	0x3dab574d	0.08366261
20	0x3b955a86	0.0045579104
21	0xbd1c27ad	-0.038123775
22	0x3d3e5bb2	0.046474166
23	0xbd15da5a	-0.03658519
24	0x3c025696	0.007955214
25	0x3cf35b48	0.029706612
26	0xbc5fbcf9	-0.013655894
27	0x3d33e24e	0.043916993
28	0xbc66cdb0	-0.014087126
29	0x3c552b28	0.0130107775
30	0x3daf9d7d	0.085749604
31	0xbd121f83	-0.035674583
32	0xbd31afef	-0.043380674
33	0x3dab34d0	0.083596826
34	0x3c37acde	0.011210648
35	0x3b8a1c1a	0.0042147757
36	0xbc857706	-0.016292106
37	0x3d1a426c	0.037661
38	0x3d817d2c	0.06322703
39	0xbd063bca	-0.032771863
40	0xbd787092	-0.06065423
41	0xbd6d9447	-0.058002736
42	0xbd89f4de	-0.06736158
43	0xbd59fc13	-0.053218912
44	0xbc8136fb	-0.015773287
45	0x3d9918fa	0.07475467
46	0x3ce91215	0.028451005
47	0xbcd6fe87	-0.026244415
48	0x3ca43dc0	0.020048976
49	0x3ce80cc4	0.0283264
50	0x3d551d09	0.052029643
51	0x3db4c07e	0.088257775
52	0x3d183318	0.0371581
53	0xbcceddfd	-0.025252337
54	0xbd062a80	-0.032755375
55	0x3d24f896	0.040276133
56	0x3db55c57	0.08855503
57	0x3d06ed4a	0.03294114
58	0x3d714b47	0.05890968
59	0xbd68273f	-0.056678053
60	0x3cdc9c78	0.026930079
61	0x3dab1108	0.08352858
62	0x3db1eb2a	0.08687432
63	0x3ca1a9e3	0.019734329
64	0x3da9dcbe	0.08294056
65	0xbce66d6d	-0.02812835
66	0x3cf35361	0.029702844
67	0x3d97d313	0.07413306
68	0x3d0a561d	0.03377353
69	0xbd82c664	-0.06385496
70	0xbba15864	-0.004923867
71	0xbd6dcc1c	-0.058055982
72	0x3d9495e3	0.07255151
73	0x3b38c322	0.002819248
74	0x3db36161	0.08758808
75	0xbcc8d70f	-0.02451661
76	0xbc419f29	-0.011817732
77	0x3d4ce0f1	0.05001921
78	0x3cd1dc96	0.025617879
79	0xbcc79f70	-0.024368018
80	0x3d848a60	0.064717054
81	0xbc5f290a	-0.013620624
82	0x3ce777c5	0.028255353
83	0xbd0c591b	-0.034264665
84	0xbd80a5b0	-0.062816024
85	0x3d285feb	0.0411071
86	0xbcd09b45	-0.025464663
87	0xba040d6d	-0.0005037401
88	0x3d562375	0.05227991
89	0xbd4b4458	-0.049625725
90	0xbd20ff11	-0.03930575
91	0xbd807ae9	-0.06273443
92	0x3d3b4306	0.045718215
93	0xbcd30594	-0.025759496
94	0xbbabd428	-0.005243797
95	0xbd2592dc	-0.04042326
96	0x3d5e2abc	0.054239973
97	0xbd1d9470	-0.03847164
98	0x3cea703c	0.02861797
99	0xbd6b1f85	-0.057403106
100	0xbd1e8f8a	-0.03871111
101	0x3d1bdfaf	0.03805512
102	0x3d10cfc4	0.03535439
103	0xbd3b218f	-0.0456863
104	0xbd535f48	-0.05160454
105	0x3d2de7a4	0.042457238
106	0xbd226945	-0.039651174
107	0x3da461b3	0.08026447
108	0x3d7a2b1d	0.061076272
109	0x3d52c72f	0.051459488
110	0x3c127c52	0.008940773
111	0x3d3c8128	0.04602161
112	0xbd30db5a	-0.04317794
113	0x3d790c98	0.060803026
114	0xbd53d0a7	-0.05171266
115	0x3dac48cb	0.08412322
116	0x3cb7f32f	0.022454826
117	0x3cfa9cdc	0.030592375
118	0x3d3b8544	0.04578139
119	0xbd83cf2a	-0.06435998
120	0x3c6b7b17	0.014372609
121	0xbceb712c	-0.028740488
122	0xbbacdc33	-0.005275273
123	0xbd167d1a	-0.0367404
124	0x3d3be218	0.045869917
125	0xbcc7e151	-0.024399431
126	0x3d3ad310	0.04561144
127	0xbb93c005	-0.0045089745
128	0x3d2c8c0b	0.042125743
129	0x3c09ee44	0.008418623
130	0xbd74da94	-0.059778765
131	0xbd845abd	-0.064626195
132	0x3db19b92	0.08672251
133	0x3bee9b49	0.007281695
134	0x3da67f7b	0.08129784
135	0x3acf50f4	0.0015816973
136	0x3d1a835b	0.037722927
137	0x3c963152	0.018334065
138	0x3da9909f	0.082795374
139	0x3aff2cb0	0.0019468274
140	0x3bf72a9d	0.0075429217
141	0xbd704fd2	-0.058669873
142	0x3ce943b9	0.028474675
143	0xbaa2d3fb	-0.0012422794
144	0x3ba74cf3	0.0051056086
145	0x3c3330ac	0.010936897
146	0x3c902da3	0.017599886
147	0x3d37440b	0.044742625
148	0x3d9fafa9	0.077971764
149	0x3db2611d	0.08709929
150	0x3d10176b	0.035178583
151	0x3d973a43	0.073841594
152	0x3d86a489	0.06574351
153	0x3c983e0f	0.01858428
154	0xbd402865	-0.046913523
155	0x3d884399	0.06653518
156	0xbd09f56a	-0.03368131
157	0xbbc56dac	-0.006025037
158	0x3d952b63	0.07283666
159	0x3da6dc7a	0.08147521
160	0xbd80a25d	-0.06280968
161	0x3d2dd9bb	0.042443972
162	0x3d72ae72	0.059248395
163	0x3b5cece0	0.0033710524
164	0x3cbf0b24	0.023320742
165	0xbd54800b	-0.051879924
166	0xbb684a29	-0.0035444594
167	0xbda3cfc3	-0.07998612
168	0xbd38a368	-0.04507771
169	0x3ccf7b72	0.025327418
170	0x3cc1089e	0.02356368
171	0xbd32f039	-0.043686125
172	0xbd95413b	-0.07287832
173	0xbd1abaee	-0.037775926
174	0xbca837be	-0.020534392
175	0xbd073ed4	-0.033018902
176	0x3d057c9e	0.032589547
177	0xbd9228f2	-0.07136716
178	0x3d2afc8b	0.04174475
179	0x3c11faaa	0.008909861
180	0xbd9acaf4	-0.075582415
181	0xbd82da7d	-0.063893296
182	0x3cce4310	0.025178462
183	0xbd75dca1	-0.06002486
184	0x3d23045f	0.03979909
185	0xbcca8486	-0.024721395
186	0x3ce5c6c1	0.028048875
187	0x3d243a45	0.040094633
188	0x3cb174c4	0.021662124
189	0xbd0da5e7	-0.034582045
190	0xbd713f5d	-0.05889832
191	0x3d2bc8b9	0.04193947
192	0xbda67f4f	-0.08129751
193	0xbd742163	-0.059602153
194	0x3cd3ccae	0.025854435
195	0xbd9f35d9	-0.077739425
196	0xbd644293	-0.055727553
197	0xbd328f27	-0.043593552
198	0xbb06adf7	-0.0020550468
199	0xbdadd088	-0.0848704
200	0xbd6bba2a	-0.057550587
201	0xbd63830b	-0.055544894
202	0xbd10ec08	-0.035381347
203	0x3d81a87b	0.06330963
204	0xbd235def	-0.039884504
205	0xbdb4c1b5	-0.08826009
206	0x3cae44df	0.021273075
207	0xbdab1b7f	-0.08354854
208	0x3c1bbb3f	0.009505092
209	0xbd4142c0	-0.0471828
210	0x3c003e5c	0.007827368
211	0xbda90f97	-0.08254927
212	0x3c9c641c	0.019090705
213	0xbc2f801a	-0.010711694
214	0x3ca10a14	0.019658126
215	0xbd5acd16	-0.05341824
216	0x3d37bd7f	0.044858452
217	0x3c566047	0.013084478
218	0xbd0ac957	-0.03388342
219	0x3a385210	0.0007031271
220	0x3cfde1c2	0.030991439
221	0xbb9b2ce0	-0.004735574
222	0xbcc8d1cc	-0.024514101
223	0xbbee1ad3	-0.0072663813
224	0xbceeaf70	-0.02913639
225	0xbd1a6370	-0.037692487
226	0xbd87b0f1	-0.06625546
227	0x3d88ff31	0.06689299
228	0xbd863a6a	-0.0655411
229	0x3c316c3e	0.01082903
230	0xbd3e4a60	-0.04645765
231	0xbd006c93	-0.031353544
232	0xbd1500c6	-0.03637769
233	0xbda355a0	-0.07975316
234	0xbc7d7343	-0.015469375
235	0xbd3d9d54	-0.046292618
236	0x3c3a9d06	0.011389976
237	0x3d4e6a34	0.050394252
238	0xbc714dff	-0.014728068
239	0xbd7b0209	-0.061281238
240	0x3c6e4b42	0.01454431
241	0x3cc8299d	0.024433905
242	0xbd76cd56	-0.060254417
243	0x3d37e3bd	0.044894923
244	0xbcc5fc3b	-0.024168124
245	0xbd3b5468	-0.045734793
246	0xbda1520c	-0.07876977
247	0x3c861be6	0.016370725
248	0xbcf96eab	-0.030448278
249	0xbd76276e	-0.060096197
250	0x3d70c273	0.05877919
251	0xbc3668cc	-0.011133384
252	0xbd7ed413	-0.06221397
253	0x3c758acd	0.014986706
254	0x3d69ea39	0.057108138
255	0xbcfe1d80	-0.031019926

bias f4 [10]
0	0x3d041c05	0.032253284
1	0x3d80aa76	0.06282513
2	0x3d0eb321	0.0348388
3	0x3bc880fe	0.0061188927
4	0xbd96b44f	-0.0735861
5	0x3d79a02a	0.06094376
6	0xbc8665b2	-0.016405914
7	0x3d3f9b72	0.046779104
8	0x3d6830f1	0.0566873
9	0x3d88ffea	0.06689437

weight f4 [10, 10, 5, 5]
0	0x3d33b82c	0.04387681
1	0xbcc949a5	-0.02457125
2	0x3d74bf94	0.059753016
3	0xbd23bf54	-0.039977387
4	0xbd4d531c	-0.050128087
5	0xbc4cb14d	-0.012493444
6	0x3d1ff0ae	0.03904789
7	0xbb81e919	-0.003964555
8	0xbd07bb90	-0.033137858
9	0xba8472dd	-0.0010105033
10	0xbcd7d0b7	-0.02634464
11	0x3c60e3b4	0.013726164
12	0xbc0472f8	-0.008084051
13	0xbd2e7467	-0.04259148
14	0x3ca28dd9	0.019843029
15	0xb9ad1c1e	-0.0003301808
16	0x3d65d8b4	0.056114867
17	0xbd23c9ea	-0.039987482
18	0xbd3bb7ab	-0.045829456
19	0x3d1e6146	0.038666986
20	0x3cc8b8f7	0.02450226
21	0xbcfe3839	-0.031032668
22	0xbd55d8aa	-0.05220858
23	0x3d60276c	0.054725096
24	0x3d07f923	0.03319658
25	0x3d54e543	0.051976454
26	0xbd1e0a1a	-0.038583852
27	0xbd8480b9	-0.064698644
28	0xbc4cdb77	-0.012503496
29	0x3bfb5157	0.0076696086
30	0xbd40e797	-0.04709586
31	0x3ca9fde3	0.020750945
32	0xbd26ba48	-0.040704995
33	0xbd688416	-0.056766592
34	0x3c5953e1	0.013264627
35	0x3d0a95f3	0.03383441
36	0xbd801e29	-0.062557526
37	0x3b61539f	0.0034382117
38	0xbd94490a	-0.072404936
39	0xbd0cb24e	-0.034349732
40	0x3b6b0466	0.0035860776
41	0xbbe74cc1	-0.0070587103
42	0x3bba600a	0.0056877183
43	0x3ca10c4f	0.01965919
44	0xbd6e0851	-0.0581134
45	0xbc419a7d	-0.011816618
46	0x3d26a330	0.04068297
47	0xbd8f88c4	-0.07008508
48	0xbd2f7937	-0.04284021
49	0xbd79780e	-0.06090551
50	0x3d471acf	0.04860955
51	0x3d2cae47	0.04215839
52	0x3c34c754	0.011033852
53	0xbd076312	-0.033053465
54	0x3d0f3c5e	0.03496968
55	0x3d3086de	0.04309737
56	0x3d8bd509	0.068277426
57	0xbcbee8a8	-0.023304299
58	0x3d8f5644	0.06998876
59	0xbcebdb01	-0.028790953
60	0x3c2d8f90	0.01059331
61	0x3d1f1c5e	0.038845412
62	0x3d5187fb	0.05115507
63	0x3cced8ef	0.025249926
64	0xbcaf022b	-0.021363338
65	0x3cdbce79	0.026831852
66	0xbaed561c	-0.0018107328
67	0x3cd788af	0.026310293
68	0x3d84e455	0.064888634
69	0x3ab2730d	0.001361461
70	0xbd51bff6	-0.05120846
71	0xbc43c2b6	-0.011948278
72	0x3cec5939	0.028851138
73	0xbaf7fa13	-0.0018919132
74	0x3c4de509	0.012566813
75	0xbd459fbd	-0.04824804
76	0xbd119cab	-0.0355498
77	0xbd577b17	-0.052607622
78	0xbcd5c4cd	-0.026094818
79	0x3d605ec5	0.05477788
80	0x3c57ead8	0.01317855
81	0x3d79e594	0.06100996
82	0x3bb46261	0.0055048917
83	0x3d7f8e18	0.06239137
84	0xbd42cda9	-0.047559414
85	0x3b3e8ee5	0.002907687
86	0x3ccfa396	0.025346559
87	0x3b91fda7	0.0044552865
88	0x3d854421	0.06507135
89	0x3d41d819	0.047325227
90	0xbccead72	-0.02522919
91	0x3d84488d	0.064591505
92	0x3d87c4c5	0.06629328
93	0xbd206b92	-0.039165087
94	0xbc552a16	-0.013010522
95	0xbc8dd7c9	-0.017314808
96	0x3d6cb73a	0.057791926
97	0x3bf6873f	0.007523447
98	0xbd30551b	-0.043049913
99	0xbcae20d8	-0.021255895
100	0x3d09d4d6	0.03365024
101	0x3d32eb33	0.043681335
102	0xbd24af8f	-0.04020649
103	0xbc1f076d	-0.00970636
104	0x3cde7079	0.02715324
105	0x3c824655	0.015902678
106	0x3c235615	0.009969254
107	0x3bd378af	0.0064535956
108	0xbd190016	-0.037353598
109	0xbd4b675c	-0.049659118
110	0xbd5ff1c7	-0.054673936
111	0x3c04f471	0.00811492
112	0x3d0063b2	0.031345077
113	0x3bc5a429	0.0060315323
114	0x3ba27253	0.004957476
115	0xbd94bd56	-0.072626755
116	0xbcddc013	-0.027069127
117	0x3cc7bd9c	0.024382405
118	0x3d1e827f	0.03869867
119	0xbd136d35	-0.03599282
120	0x3c98076b	0.018558225
121	0xbcfdeee5	-0.030997703
122	0xbd5ee186	-0.054414295
123	0x3added46	0.0016931675
124	0xbd7cee66	-0.061750792
125	0x3d2e136a	0.042498983
126	0xbd31384c	-0.04326658
127	0x3bd11abb	0.0063813603
128	0xbd1466e1	-0.036230925
129	0x3c20fafd	0.009825465
130	0x3d1a9f7c	0.037749752
131	0xbcee8517	-0.029116197
132	0xbce5d074	-0.0280535
133	0xbc0518f0	-0.008123621
134	0x3d572ef8	0.052535027
135	0xbd354078	-0.044250935
136	0xbd2af01f	-0.041732904
137	0x3c34f4a8	0.011044659
138	0xbcd90443	-0.02649129
139	0xbc569eec	-0.013099413
140	0x3d07bfdc	0.033141956
141	0x3d3228b5	0.043495853
142	0xbbb8003c	-0.0056152623
143	0x3d837585	0.064188994
144	0x3d7345f4	0.059392884
145	0x3d4887d9	0.04895768
146	0x3cb9b496	0.022669118
147	0xbcafccb9	-0.021459924
148	0x3cd7c791	0.026340278
149	0x3d12f4b4	0.0358779
150	0xbc6c77db	-0.014432873
151	0xbd3a58f4	-0.04549499
152	0x3d711228	0.058855206
153	0x3c18130b	0.009281884
154	0xbcc62bab	-0.024190744
155	0x3b57e830	0.003294479
156	0xbbbcdc6b	-0.0057635806
157	0xbd09b5c8	-0.033620626
158	0x3cd122ae	0.025529232
159	0x3c215de1	0.009849043
160	0x3c1f137b	0.009709234
161	0x3d80c4df	0.0628755
162	0x3d0a5652	0.033773728
163	0x3c33bfbe	0.010971008
164	0x3cb7d411	0.022439988
165	0xbcd13c79	-0.02554153
166	0x3d6a8371	0.05725426
167	0xbce6eb70	-0.028188437
168	0xbd151220	-0.03639424
169	0x3c65be3d	0.014022407
170	0x3ca3a8d4	0.019977964
171	0x3cce8a58	0.025212452
172	0xbcc5d0d2	-0.024147425
173	0xbd311364	-0.043231383
174	0x3d44baea	0.048029818
175	0xbcba47e8	-0.022739366
176	0x3d3a43a9	0.045474682
177	0x3d0b1a0a	0.03396038
178	0xbc35e1db	-0.011101211
179	0x3ab6ffa2	0.0013961683
180	0xbbd9646c	-0.0066342857
181	0x3d739469	0.059467707
182	0xbd03a6eb	-0.032141607
183	0xbc4fe94e	-0.0126899015
184	0x3cea0e48	0.028571263
185	0x3cecb889	0.028896587
186	0xbd384408	-0.044986755
187	0xbd09f985	-0.033685226
188	0x3d525085	0.05134632
189	0x3cee4649	0.029086249
190	0xbc425668	-0.011861421
191	0xbc0cf884	-0.008604173
192	0xbd1daa94	-0.038492754
193	0x3d39a889	0.045326743
194	0xbb2ad399	-0.0026066063
195	0x3d419c24	0.047268048
196	0x3d7f5044	0.062332407
197	0x3c7095bb	0.014684136
198	0x3d87dc0d	0.06633768
199	0xbc512d39	-0.01276713
200	0xbcdf6917	-0.02727179
201	0x3d408a54	0.04700692
202	0x3d3d4afb	0.046214085
203	0xbd0cd931	-0.034386817
204	0x3d038caa	0.03211657
205	0x3d88a576	0.06672184
206	0x3c8273b8	0.01592432
207	0xbce487e7	-0.027896835
208	0xbd3ad66b	-0.04561464
209	0x3c218f93	0.009860891
210	0x3c997a13	0.018734967
211	0xbd3af72c	-0.045645878
212	0xbd5573fa	-0.052112557
213	0x3d40ac6e	0.04703944
214	0xbd22d89f	-0.039757367
215	0xbc4ff6bc	-0.012693103
216	0xbaf07de1	-0.0018348062
217	0xbba4c9df	-0.0050289477
218	0x3c93099a	0.017948914
219	0xbc9c1f98	-0.019058034
220	0x3d4d072e	0.050055675
221	0xbd3ec497	-0.0465742
222	0x3c19a381	0.009377361
223	0x3cdf4475	0.027254323
224	0x3beaddd8	0.007167559
225	0x3d02a46f	0.031895097
226	0xbd242321	-0.040072564
227	0xbc954b73	-0.018224454
228	0x3cf6e8ec	0.030140363
229	0xbd3d2d6c	-0.046185896
230	0x3d15775d	0.036490787
231	0xbd59200c	-0.053009078
232	0xbc8149b8	-0.015782222
233	0xbcc8a27a	-0.024491537
234	0xbcd302f3	-0.025758242
235	0x3d2718f9	0.0407953
236	0x3d50fa65	0.051020045
237	0xbca79c30	-0.020460218
238	0xbcd3839b	-0.02581959
239	0x3ca77482	0.020441297
240	0x3d6a019e	0.05713045
241	0x3d26a0a8	0.040680557
242	0xbd28359c	-0.04106675
243	0xbd345913	-0.04403026
244	0xbd31229b	-0.043245893
245	0xbbfdfc47	-0.007751021
246	0x3c36c8e5	0.011156295
247	0x3d58da9a	0.05294285
248	0x3d8436b7	0.064557485
249	0xbc80c4ba	-0.015718807
250	0x3cb655e5	0.022257755
251	0xbb14abe9	-0.0022685474
252	0x3d0fb6fe	0.035086624
253	0x3d3f5a2e	0.04671686
254	0xbc9196cf	-0.017772106
255	0x3c304b38	0.010760121

bias f4 [10]
0	0x3d5777ae	0.05260437
1	0xbd1d0f47	-0.038344648
2	0xbbc4cc01	-0.0060057645
3	0xbd243402	-0.04008866
4	0x3c34d95a	0.011038149
5	0xbd80b8c6	-0.06285243
6	0x3c2f3251	0.010693149
7	0x3c9b721a	0.018975306
8	0x3d1bc72e	0.03803175
9	0x3d190331	0.03735656

weight f4 [100, 810]
0	0x3d216ed8	0.03941235
1	0x3d228d4d	0.039685536
2	0x3d0ca6da	0.03433881
3	0x3d0055da	0.031331874
4	0x3c9246a5	0.017855952
5	0x3a93d1dd	0.0011277754
6	0xbc60f354	-0.013729889
7	0xbc9be1c8	-0.01902856
8	0xbc1047b4	-0.008806158
9	0xbc90bc03	-0.017667776
10	0x3cc18dca	0.02362718
11	0x3ce1a2c2	0.02754343
12	0x3bf51c65	0.0074801915
13	0xbca51100	-0.020149708
14	0x3b98aa3f	0.004658967
15	0x3c47cabe	0.012194334
16	0x3b5ab540	0.0033372194
17	0xb9933960	-0.00028080773
18	0x3cf0b100	0.029381275
19	0x3a71c396	0.0009222565
20	0x3cf84d01	0.030310156
21	0xbcc0c8b7	-0.023533208
22	0x3a8f8b8f	0.0010951626
23	0xbc8cff9d	-0.01721173
24	0xbcd6afaa	-0.02620681
25	0xbc390e45	-0.011294906
26	0x3d18b38b	0.0372806
27	0xbc1ca27e	-0.0095602255
28	0xbb3b41e9	-0.002857322
29	0x3d23344f	0.039844807
30	0x3d151645	0.03639819
31	0x3d250fa1	0.040298108
32	0x3ca85996	0.02055053
33	0x3d08acd9	0.033367965
34	0x3bf545ff	0.007485151
35	0xbbdb7c05	-0.006698134
36	0xbcb8277f	-0.02247977
37	0xbacac317	-0.0015469518
38	0xbc29f4aa	-0.010373274
39	0x3c0fb2c0	0.008770645
40	0xbc89832e	-0.016786184
41	0xbca706d6	-0.020389002
42	0xbc7bb426	-0.015362775
43	0xbb1bc3b8	-0.002376778
44	0x3d250862	0.040291198
45	0x3d12b3b0	0.035815895
46	0x3a7ef6c2	0.0009726101
47	0x3ca17b86	0.01971222
48	0x3bf52229	0.007480879
49	0xbb84b5c7	-0.00404999
50	0x3caca8a9	0.021076517
51	0x3cbf9092	0.023384366
52	0xbc91bde0	-0.017790735
53	0x3c194eab	0.009357135
54	0x3cd29cba	0.025709499
55	0xbbfe22d1	-0.0077556153
56	0x3c99383b	0.01870357
57	0x3cee0749	0.029056208
58	0x3c741ab3	0.014898944
59	0xbcae68f6	-0.021290284
60	0x3d0056ed	0.0313329
61	0xba1c8c67	-0.00059718493
62	0xbb74af75	-0.0037336026
63	0x3d197494	0.037464693
64	0x3cc5959a	0.024119187
65	0xbc75a57e	-0.01499307
66	0xbc7a6d65	-0.015284871
67	0xbcb68a02	-0.022282604
68	0x3c977310	0.018487483
69	0xbcadccb6	-0.021215778
70	0x3b83a9ab	0.0040180287
71	0xbc6b9474	-0.014378656
72	0x3c1dc4fc	0.009629484
73	0x3d0d277a	0.034461476
74	0x3d14e7b2	0.036353774
75	0x3ce2f5ea	0.027705152
76	0x3cd71234	0.026253797
77	0x3d245ffd	0.040130604
78	0x3b1f9a2e	0.0024353373
79	0x3ca2c0d4	0.019867338
80	0xbb4a79b1	-0.0030895288
81	0x3c4a8803	0.012361529
82	0xbbf28a4c	-0.00740174
83	0x3cb9ff5f	0.022704778
84	0x3cb3d501	0.021952154
85	0xbcd39800	-0.025829315
86	0xbbf85afe	-0.0075792065
87	0xbc4e15ff	-0.012578486
88	0x3cfc4c3b	0.030798068
89	0x3d00d388	0.031451732
90	0x3c4e36d5	0.012586315
91	0xbc563fee	-0.013076765
92	0xbcd32db8	-0.025778636
93	0x3c73541f	0.014851599
94	0xbbda96d3	-0.0066708117
95	0x3cad876a	0.021182735
96	0x3c4768be	0.012170969
97	0xbc510010	-0.012756363
98	0xbcbb5229	-0.022866325
99	0x3d14415c	0.036195144
100	0x3cd7800d	0.026306177
101	0xbc974ee8	-0.018470243
102	0x3c8d6529	0.017260151
103	0x3ce192d5	0.027535835
104	0x3cf3d908	0.029766575
105	0x3bfbc3fd	0.0076832757
106	0x3d071acd	0.032984544
107	0x3a32e380	0.0006824061
108	0x3c2faaf4	0.010721911
109	0x3cbb2a3c	0.022847287
110	0xbbcfd24f	-0.0063422094
111	0x3a0f34fb	0.0005462912
112	0x3d177c18	0.03698358
113	0x3c7e6807	0.015527732
114	0x3d08e34e	0.0334199
115	0xbbe2abf7	-0.0069174725
116	0xbccbf944	-0.024899133
117	0xba73671a	-0.00092850777
118	0x3ccafb33	0.024777984
119	0x3d2622d5	0.040560562
120	0xbba1afb6	-0.0049342765
121	0xbcc0502e	-0.023475733
122	0x3c811c94	0.015760697
123	0x3d1f09ee	0.03882783
124	0x3c786d45	0.015162771
125	0xbc83bbc3	-0.016080743
126	0xbc9df0c2	-0.019279841
127	0xbc98df4a	-0.01866116
128	0x3c5a9f49	0.013343641
129	0x3b45be70	0.0030173324
130	0xbaf94db0	-0.0019020345
131	0xbbc081e7	-0.0058748606
132	0x3c3ad65d	0.011403647
133	0x3b3985f9	0.0028308614
134	0x3bbfa501	0.0058485274
135	0x3cd6d6ed	0.026225531
136	0x3c7ad328	0.015309133
137	0x3cdfdb20	0.027326167
138	0x3ae3459d	0.0017339472
139	0x39df2059	0.00042557975
140	0x3c1648be	0.0091726165
141	0x3b494698	0.0030712243
142	0xbaa1fed5	-0.0012359271
143	0xbca9f7b5	-0.020747999
144	0xbbd45dd2	-0.006480911
145	0x3ad2789c	0.0016057673
146	0x3b59c728	0.0033230279
147	0x3ba216e9	0.0049465788
148	0xbc77b3b5	-0.015118529
149	0xbcd25d80	-0.02567935
150	0x3c64680e	0.013940824
151	0xbbd2ed89	-0.006437008
152	0xbbd777d3	-0.0065755635
153	0xbbc28539	-0.0059362915
154	0x3cae2ce8	0.021261647
155	0xbcdc825c	-0.026917629
156	0x3bb109a9	0.005402763
157	0x3b791d68	0.0038011912
158	0x3c86db96	0.016462129
159	0x3cc8a445	0.024492392
160	0x3ca6fee2	0.02038521
161	0x3c71f692	0.01476826
162	0x3cf6db98	0.030134007
163	0x3cc8027d	0.024415249
164	0xbc33dce2	-0.010977956
165	0x3cc23887	0.023708595
166	0xbce46613	-0.027880704
167	0x3c8bd24d	0.017068053
168	0x3c57121f	0.013126879
169	0xbc6a44b1	-0.014298604
170	0xbcb0753b	-0.021540275
171	0xbc82a4c5	-0.015947709
172	0xbd250856	-0.040291153
173	0xbb95d8a1	-0.0045729433
174	0xbc1b68c5	-0.009485428
175	0x3a8792b8	0.0010343408
176	0x3ca5f503	0.020258432
177	0x3ce61b2a	0.028089125
178	0xbb88c5d1	-0.004173972
179	0xbce15d7b	-0.027510395
180	0xbcb12db8	-0.021628246
181	0xbc3adaa9	-0.011404672
182	0xbb0e9a22	-0.002175935
183	0xbcc3c2f9	-0.023896681
184	0x3bab6028	0.0052299686
185	0x3cf27315	0.029595891
186	0x3bb82e4d	0.005620754
187	0xbc389095	-0.01126494
188	0xbb93e736	-0.0045136465
189	0xbcf099cb	-0.02937021
190	0xbc9d3f69	-0.019195275
191	0xbd15f268	-0.03660813
192	0xbc7cc891	-0.015428678
193	0x3c45cbb6	0.012072494
194	0xbce7e22a	-0.028306086
195	0x3c8376a8	0.01604779
196	0xbc8a403b	-0.01687633
197	0x3bca0a4f	0.0061657797
198	0xbca438db	-0.020046642
199	0x3c5de23c	0.013542708
200	0x3cb32311	0.021867307
201	0xbc063da1	-0.008193404
202	0x3c38045d	0.011231509
203	0xbbe1a98e	-0.0068866676
204	0x3c82f11c	0.01598411
205	0xbd12910c	-0.03578286
206	0xbc6868d5	-0.01418515
207	0x3cb051ec	0.021523438
208	0xbd09a793	-0.033607077
209	0xbb16da7e	-0.0023018415
210	0xbbeaa43e	-0.0071606925
211	0xbc4edbd4	-0.012625653
212	0xbd07fc29	-0.033199463
213	0x3bbbd1e4	0.005731808
214	0xbc1caada	-0.009562219
215	0xbbff79d5	-0.007796506
216	0xbcf70469	-0.03015347
217	0xbca0882e	-0.019596186
218	0xbcabe931	-0.020985218
219	0xbca6406f	-0.020294396
220	0xbc6820ee	-0.014168007
221	0xbd0e2c6a	-0.034710325
222	0x3c963104	0.01833392
223	0xbd1dbc4c	-0.038509652
224	0xbc9f85ed	-0.01947304
225	0xbc5520e9	-0.013008335
226	0xbcd523c1	-0.026018025
227	0x3c966106	0.018356811
228	0x3c9bae42	0.019003991
229	0x3cb7b4b3	0.022425031
230	0xbc87c851	-0.01657501
231	0xbce3b249	-0.027794974
232	0xbcba318a	-0.0227287
233	0xbb943739	-0.0045231846
234	0xbd0f97f4	-0.035057023
235	0x3ccc4424	0.024934836
236	0x3c4abb45	0.01237375
237	0xbd16b95e	-0.036797874
238	0xbd0db7a4	-0.03459896
239	0xbcc15d35	-0.023604015
240	0x3ce5616d	0.028000558
241	0xbc08cb68	-0.008349277
242	0xbd06a2aa	-0.032869972
243	0xbb141c7f	-0.0022599993
244	0x3c4aa019	0.012367272
245	0xbc8a567a	-0.016886938
246	0xbcbd7dcc	-0.023131274
247	0x3cd8316b	0.026390752
248	0x3c4f420f	0.012650027
249	0xbbda55bf	-0.0066630538
250	0x3b5adda8	0.0033396278
251	0x3c120bd7	0.008913956
252	0x3bfd8ecd	0.0077379704
253	0x3cb7327f	0.022362946
254	0x3c589fa7	0.013221658
255	0xbc8b2f69	-0.01699038

bias f4 [100]
0	0xbb99bb4a	-0.004691516
1	0xbba51dc3	-0.0050389483
2	0x3cd23274	0.025658824
3	0xbc88ac58	-0.016683742
4	0xbc805c2c	-0.015668951
5	0xbb2aaa52	-0.002604146
6	0x3ca628be	0.0202831
7	0x3bce4161	0.006294415
8	0x3c6b485e	0.014360515
9	0xbd1ff634	-0.039053157
10	0x3c5ffac2	0.013670625
11	0x3c1a2a92	0.009409564
12	0xbbae8acc	-0.0053266045
13	0xbbc85699	-0.006113839
14	0x3d03485f	0.03205144
15	0x3c90aca1	0.01766044
16	0xbcdd998a	-0.027050752
17	0x3d072c8a	0.03300146
18	0x3c85f701	0.016353132
19	0xbd1dba2c	-0.038507625
20	0xbc415135	-0.011799146
21	0x3c1c9b6c	0.00955854
22	0xbb6a3211	-0.0035735408
23	0x3ce28a3e	0.02765381
24	0x3d064641	0.032781843
25	0x3d0f2106	0.034943603
26	0xbadcf6a7	-0.0016858176
27	0x3cdb3366	0.026757907
28	0x3ca783b9	0.020448552
29	0x3cb53cd1	0.022123726
30	0x3cf12aa2	0.029439274
31	0xbccf810b	-0.025330087
32	0x3cce18e1	0.025158348
33	0xbccc5d0a	-0.024946708
34	0xbc59546d	-0.013264758
35	0x3d1d0423	0.038334023
36	0x3c11a99c	0.008890536
37	0x3d082591	0.03323895
38	0x3c6bd169	0.014393189
39	0xbd25e63e	-0.04050278
40	0xbd1fbee7	-0.039000418
41	0x3cbe6606	0.023242008
42	0x3cae84c5	0.021303544
43	0xbce2a8cb	-0.027668377
44	0x3b323bc4	0.0027196268
45	0x3b81283e	0.003941565
46	0x3d0a9cd5	0.033840973
47	0x3ca11d17	0.019667191
48	0x3a245a2e	0.00062695413
49	0xbb905e74	-0.004405791
50	0x3c19a93d	0.009378728
51	0xbcdd436c	-0.027009688
52	0xbc5832ee	-0.013195736
53	0xbc70f31c	-0.014706399
54	0xbcaf4e25	-0.021399567
55	0xbc939fb0	-0.01802048
56	0x3aabef12	0.0013117513
57	0xbc9a9f45	-0.018874774
58	0xbcc7ffc5	-0.024413953
59	0xbc1250d5	-0.008930405
60	0x3b8c1699	0.004275155
61	0x3d0f9b37	0.035060134
62	0xbcc7fd3c	-0.024412744
63	0xbd09f16e	-0.03367751
64	0xbc201015	-0.009769459
65	0x3cb73023	0.02236182
66	0x3b6c0988	0.0036016423
67	0xbce13331	-0.02749023
68	0x3cd82d76	0.026388865
69	0x3c35a413	0.011086482
70	0xbb8108cb	-0.003937816
71	0xbc76fd2f	-0.015075012
72	0xbc38858a	-0.011262307
73	0xbbb25679	-0.0054424373
74	0x3d171371	0.036883775
75	0xbcb10cac	-0.021612488
76	0x3c158488	0.009125836
77	0x3c90b2b8	0.017663345
78	0x3c3b2283	0.011421802
79	0xbb81ec25	-0.003964918
80	0x3c91678a	0.017749567
81	0x3c8bcee8	0.017066434
82	0xbbd226c6	-0.0064133136
83	0x3bd59c73	0.0065188943
84	0x3ba138a4	0.004920082
85	0x3cb8b8f3	0.022549128
86	0x3c9abd06	0.018888962
87	0x3b72bf10	0.0037040152
88	0xbb0ffc82	-0.0021970575
89	0xbc40784a	-0.011747429
90	0x3b83b785	0.00401968
91	0x3cc22f35	0.02370415
92	0xbc91343b	-0.0177251
93	0xbc2cd906	-0.010549789
94	0xbcb7fb46	-0.022458684
95	0xbb5aa113	-0.0033360168
96	0xbbb847e1	-0.005623803
97	0x3cc130b4	0.023582794
98	0xbcf4f0e2	-0.029900018
99	0x3cebf7ca	0.028804678

weight f4 [861, 100]
0	0xbd899ded	-0.06719575
1	0xbd8d7647	-0.06907325
2	0x3d3ac680	0.04559946
3	0x3c42c0aa	0.011886755
4	0xbba4a86f	-0.0050249617
5	0x3dac3adb	0.08409663
6	0x3c587ebf	0.013213812
7	0x3cf7b58f	0.030237941
8	0x3d24f208	0.04026988
9	0xbdb396ec	-0.087690204
10	0xbdb7c865	-0.08973769
11	0x3c9062ae	0.01762518
12	0x3d3a2f43	0.04545523
13	0x3d9bba0b	0.07603844
14	0x3d1fdc74	0.0390286
15	0xbd753bc8	-0.059871465
16	0x3d95d45a	0.073158935
17	0xbda5ea3a	-0.08101316
18	0xbd4939cc	-0.049127385
19	0xbc945b63	-0.018109983
20	0x39aebdbf	0.00033329238
21	0xbdad50cc	-0.084626764
22	0xbdb3703a	-0.0876164
23	0xbcb0e13a	-0.021591771
24	0xbd49dae3	-0.049281012
25	0xbcbd5172	-0.023110125
26	0x3db5ea7d	0.08882616
27	0x3d2efe67	0.042723086
28	0xbb33b445	-0.0027420681
29	0xbd55d572	-0.05220551
30	0x3cb45007	0.022010816
31	0xbc07f49e	-0.008298067
32	0xbd9117a0	-0.07084584
33	0x3d8c0842	0.068375126
34	0x3d75e47f	0.060032364
35	0x3d0e820a	0.034791984
36	0x3d99786e	0.07493673
37	0xbd47adf3	-0.048749875
38	0x3ca2489c	0.019810013
39	0x3db37843	0.087631725
40	0x3dd19423	0.10233333
41	0xbd3639e9	-0.04448882
42	0xbda3ca55	-0.07997576
43	0xbdb32b04	-0.08748439
44	0x3d58d054	0.052933052
45	0xbd663d43	-0.056210767
46	0xbb906212	-0.004406222
47	0x3d6d508a	0.057938136
48	0xbdcb1a32	-0.09917106
49	0x3bef4f7d	0.007303177
50	0x3d473076	0.0486302
51	0x3d2b6bc5	0.041850824
52	0xbc9af7e2	-0.018917028
53	0xbbf01fcd	-0.0073280097
54	0xbcf148cd	-0.02945366
55	0x3a72f6ba	0.00092683325
56	0xbda2b136	-0.079439566
57	0x3d245bdc	0.040126666
58	0xbc4283d1	-0.011872248
59	0xbd83b517	-0.064310245
60	0xbd4fc533	-0.050725173
61	0xbc454917	-0.012041352
62	0x3d1451a4	0.03621067
63	0xbd82e661	-0.063915975
64	0xbd242530	-0.040074527
65	0xbdc9e983	-0.09858992
66	0x3c05ddc2	0.008170547
67	0xbd30aa6b	-0.043131273
68	0x3d3f63ed	0.046726156
69	0x3dac2ab5	0.08406583
70	0xbd1e9083	-0.038712036
71	0xbd807b4a	-0.062735155
72	0x3d6f6dea	0.05845443
73	0x3d704835	0.058662612
74	0x3d429b3e	0.04751133
75	0xbd8e77d2	-0.06956448
76	0xbd87c6f0	-0.06629741
77	0x3d52a995	0.051431257
78	0xbd950d80	-0.072779655
79	0x3d369ed5	0.044585068
80	0x3d235773	0.03987832
81	0x3dd87a64	0.10570219
82	0xbd21f990	-0.039544642
83	0x3ca74571	0.020418854
84	0x3d1879be	0.037225477
85	0xbd4aaabb	-0.049479228
86	0x3ccfa467	0.025346948
87	0xbcb2167e	-0.02173924
88	0xbdd84b5c	-0.10561249
89	0xbca123f4	-0.019670464
90	0xbd723a9e	-0.059137933
91	0x3db0d8ba	0.08635087
92	0x3dc58812	0.09645094
93	0xbbfc2893	-0.0076952665
94	0xbd5a0ffd	-0.053237904
95	0xbdad2c18	-0.08455676
96	0xbd86e1d1	-0.0658604
97	0xbd7162de	-0.058932178
98	0x3d77f1c4	0.0605333
99	0xbd02799b	-0.031854253
100	0xbd00b8d2	-0.03142626
101	0xbdba353c	-0.09092185
102	0x3d59949b	0.053120237
103	0xbdccf7a5	-0.10008172
104	0xbdb1ce24	-0.08681896
105	0xbc917898	-0.017757699
106	0xbc4d92e3	-0.012547228
107	0x3d99c974	0.07509127
108	0xbce719b7	-0.028210504
109	0x3c2d80f9	0.0105898315
110	0x3d19f848	0.037590295
111	0xbd9d74f9	-0.076883264
112	0xbd0bfe96	-0.03417834
113	0x3daf5f20	0.085630655
114	0xbd90dd66	-0.070734784
115	0xbd028c8d	-0.03187232
116	0x3dcb72b7	0.099339895
117	0xbd465504	-0.04842092
118	0x3d17b3d4	0.03703673
119	0x3d4974ba	0.049183585
120	0xbd080371	-0.033206407
121	0x3d4ddef6	0.05026146
122	0xbda8e222	-0.082462564
123	0x3d6ae6cf	0.057349022
124	0x3d7ce857	0.061745014
125	0x3d9110b6	0.070832655
126	0xbd1d29dc	-0.03837
127	0x3d95d2ce	0.073155984
128	0xbd165c8e	-0.03670936
129	0x3d55dab6	0.052210532
130	0x3befba54	0.007315913
131	0x3dadffb8	0.0849604
132	0x3d984060	0.074341536
133	0x3da4051c	0.08008787
134	0x3d951595	0.07279507
135	0x3db3263e	0.087475285
136	0xbce8cdf5	-0.02841852
137	0xbdc68621	-0.09693552
138	0x3db0c42a	0.08631165
139	0x3cc02308	0.023454204
140	0xbd958d81	-0.0730238
141	0xbda3b28c	-0.079930395
142	0x3d9c1a7d	0.0762224
143	0xbca6e4d1	-0.02037278
144	0x3d5dc94a	0.054147042
145	0x3d45b361	0.048266772
146	0x3d00b0c1	0.031418566
147	0x3da2d2a0	0.0795033
148	0xbd272baf	-0.040813144
149	0xba6e4c53	-0.00090903527
150	0xbb320a86	-0.0027166917
151	0xbdba7a9f	-0.09105419
152	0x3b580de6	0.0032967268
153	0xbcd98994	-0.02655486
154	0x3c2760ce	0.010215951
155	0x3b10728b	0.002204093
156	0xbd2066e3	-0.03916062
157	0x3da0b80c	0.07847604
158	0xbdb76ab7	-0.08955901
159	0x3d253685	0.040335197
160	0xbd71b83e	-0.059013598
161	0x3d331ad9	0.043726776
162	0x3dd95faa	0.106139496
163	0x3d2250f9	0.039628003
164	0x3d838025	0.06420926
165	0x3c8db82f	0.01729974
166	0xbcb68ef9	-0.022284972
167	0xbc5a26bd	-0.0133149
168	0x3cf97c22	0.030454699
169	0x3d321c3b	0.043483954
170	0xbbe39deb	-0.0069463155
171	0x3dc3ff12	0.09570135
172	0x3d58bbf5	0.052913625
173	0xbd70389e	-0.058647744
174	0xbbed44bb	-0.0072408593
175	0x3da0d2f2	0.078527346
176	0x3d8f022c	0.06982836
177	0xbd8554fb	-0.06510349
178	0xbd0e2331	-0.03470153
179	0xbd91be3d	-0.07116363
180	0x3c80b3f0	0.0157108
181	0x3d3ae026	0.04562392
182	0x3da99be9	0.082816906
183	0xbc98697a	-0.018604983
184	0xbbfe1601	-0.007754088
185	0x3c1f9a69	0.009741404
186	0xbd8066ed	-0.062696315
187	0xbd87e2c0	-0.06635046
188	0xbda8c177	-0.082400255
189	0xbd396135	-0.04525872
190	0x3d766ebb	0.060164195
191	0x3da2e3cd	0.07953606
192	0xbcf341a1	-0.02969438
193	0x3c85484c	0.016269825
194	0x3c750c90	0.014956608
195	0xbd2b6154	-0.041840866
196	0xbd94229f	-0.07233166
197	0xbd78322c	-0.060594723
198	0x3d500d20	0.050793767
199	0x3dada809	0.08479316
200	0x3dbd8b15	0.092550434
201	0xbd1b227d	-0.037874687
202	0xbd6ff85a	-0.058586456
203	0x3d559525	0.05214419
204	0x3d19087c	0.037361607
205	0x3b245ed9	0.0025080948
206	0xbd6d6a23	-0.057962548
207	0x3d9b7345	0.07590345
208	0x3c828611	0.015933068
209	0x3ddb2357	0.107001
210	0x3d143f6a	0.03619329
211	0xbdd36d48	-0.10323578
212	0x3d9fe685	0.0780764
213	0xbd89503c	-0.067047566
214	0x3d9c788a	0.076401785
215	0xbd22d969	-0.03975812
216	0xbd99abbd	-0.075034596
217	0x3d23a5e8	0.039953142
218	0x3d037cfe	0.032101624
219	0x3cbe34ee	0.023218598
220	0x3db7a792	0.089675084
221	0x3d4e87b9	0.050422404
222	0xbdb1c81f	-0.08680748
223	0xbdc43164	-0.09579733
224	0x3d982170	0.07428253
225	0xbd752271	-0.0598473
226	0xbdb5d129	-0.08877785
227	0xbcb1814b	-0.021668097
228	0x3ce231f5	0.027611712
229	0xbc6b7ba2	-0.014372738
230	0xbd913bd1	-0.07091487
231	0x3cddf57b	0.027094593
232	0xbd9b7b4f	-0.075918786
233	0xbd28850f	-0.04114252
234	0x3ce8a306	0.028398048
235	0xb95d43bb	-0.00021101434
236	0x3d3cd731	0.04610366
237	0xbcca8e5b	-0.024726084
238	0xbd2fc002	-0.042907722
239	0xbcf3f278	-0.029778704
240	0x3dd05b47	0.1017366
241	0x3d6ede80	0.05831766
242	0x3db3ad73	0.08773317
243	0x3d7f13a9	0.06227461
244	0x3d98c90e	0.07460223
245	0x3d0f324e	0.034960084
246	0x3d99eb29	0.07515556
247	0xbcfad4fe	-0.03061914
248	0xbd84b3cc	-0.06479606
249	0x3d314714	0.043280676
250	0x3db05a02	0.08610918
251	0x3d312a5d	0.04325329
252	0xbd247d31	-0.040158454
253	0x3d9a2190	0.07525933
254	0x3d85a6ff	0.065259926
255	0xbdcaea5c	-0.09907982

bias f4 [861]
0	0x3daeb91e	0.08531402
1	0xbd745e4b	-0.059660237
2	0x3d2eeb5d	0.04270493
3	0x3d109fb6	0.035308562
4	0xbb0ffbc1	-0.0021970125
5	0x3d9c439a	0.076300815
6	0xbc9260c2	-0.017868403
7	0xbd3d53b2	-0.046222396
8	0xbd889a13	-0.06670012
9	0xbb92d180	-0.0044805408
10	0x3c9c1dad	0.01905712
11	0xbd8ac078	-0.06774992
12	0xbdbd7df3	-0.092525385
13	0xbba05ba3	-0.0048937364
14	0xbd83d421	-0.06436945
15	0x3db3cc7b	0.08779236
16	0x3dbe322d	0.09286914
17	0x3cb07d8d	0.021544242
18	0x3d698005	0.057006855
19	0x3db900be	0.09033345
20	0xbd5eff97	-0.05444297
21	0x3d98e3b7	0.07465308
22	0xbd8df6c4	-0.069318324
23	0xbd0b1cc2	-0.033962972
24	0xbc79c25d	-0.015244094
25	0x3da069a6	0.07832651
26	0xbc9f000b	-0.0194092
27	0x3dbfe3e9	0.09369642
28	0x3d99d867	0.075119786
29	0x3aea620a	0.0017882001
30	0x3b67ef18	0.0035390314
31	0xbc76114a	-0.0150187705
32	0xbd80ebf5	-0.06295005
33	0xbdb4bc2f	-0.08824956
34	0x3d0bdad3	0.034144234
35	0x3d834b41	0.06410838
36	0x3bd007cd	0.006348586
37	0xbd9a6d1f	-0.075403444
38	0x3d98ffd2	0.07470669
39	0xbd681b47	-0.05666664
40	0xbdbe5f22	-0.09295489
41	0x3d650e2a	0.05592171
42	0xba50111d	-0.00079371204
43	0xbd3af35d	-0.045642246
44	0xbdcf3cc9	-0.10119016
45	0xbd4bcd57	-0.049756374
46	0xbd50fdeb	-0.051023405
47	0xbd7b98f9	-0.061425183
48	0xbd7f0d87	-0.06226876
49	0x3d25a48b	0.040440124
50	0x3dc15fad	0.09442077
51	0xbcedb129	-0.02901514
52	0x3c9d4c33	0.019201374
53	0xbdaa8eaa	-0.08327992
54	0x3d8e59c3	0.069507144
55	0xbd794805	-0.0608597
56	0xbda72c63	-0.08162763
57	0x3cad81e7	0.021180106
58	0x3db5a9ac	0.08870253
59	0x3c149089	0.009067663
60	0xbd181f81	-0.03713942
61	0xbd46a0dc	-0.04849325
62	0x3da2856a	0.07935603
63	0xbd45c167	-0.048280146
64	0xbd6e41da	-0.05816827
65	0x3c004377	0.007828585
66	0x3d266bd9	0.040630195
67	0xbb2ca322	-0.0026342352
68	0xbc5e15d6	-0.013555011
69	0x3a065e31	0.000512573
70	0xbca1f7d2	-0.01977149
71	0x3dc31ce4	0.09526995
72	0xbd8d6f15	-0.06905953
73	0x3d178ca8	0.036999375
74	0x3d82698f	0.0636779
75	0xbd90c1ee	-0.07068239
76	0x3d23a57d	0.039952744
77	0xbd926b52	-0.07149376
78	0x3d873e74	0.06603709
79	0x3d84e7ad	0.06489501
80	0x3da93128	0.08261329
81	0xbdccb0b7	-0.09994643
82	0x3d5577df	0.05211627
83	0xbd758b86	-0.059947513
84	0x3caee159	0.021347689
85	0x3d8628fd	0.06550787
86	0x3d2f699a	0.04282532
87	0xbb2b25ba	-0.0026115016
88	0xbd56b949	-0.052422795
89	0x3d1d9633	0.03847332
90	0xbd8ec0df	-0.06970381
91	0xbc2486ca	-0.010041902
92	0xbd9bdfcd	-0.07611046
93	0xbd42871a	-0.047492124
94	0x3c8bf3b6	0.017083984
95	0xbd8d97d6	-0.06913726
96	0x3d6cfa55	0.057855923
97	0x3d1994d0	0.037495434
98	0x3db03e00	0.086055756
99	0xbd2d2f0f	-0.042281207
100	0xbd4ce6f5	-0.050024945
101	0x3cbce855	0.023060003
102	0x3da0de4b	0.07854899
103	0xbcb42e74	-0.021994807
104	0xbcab8c10	-0.02094081
105	0x3d142354	0.036166504
106	0x3c99f403	0.018793112
107	0xbdca258c	-0.09870443
108	0xbd23d22c	-0.039995357
109	0xbc21c267	-0.009873009
110	0x3d9efb21	0.07762743
111	0x3c5af114	0.013363142
112	0x3d9a9f98	0.07549971
113	0x3cab3779	0.020900475
114	0xbdab71da	-0.08371325
115	0x3c852e95	0.016257564
116	0x3db067d7	0.08613556
117	0xbdaf593d	-0.08561943
118	0xbd342255	-0.043978054
119	0xbcbf5eb7	-0.023360593
120	0xbdb0e239	-0.086368985
121	0xbd9846d6	-0.07435386
122	0xbd7ec8cb	-0.06220321
123	0xbd4f62e2	-0.05063141
124	0xbd1ffea0	-0.03906119
125	0xbdad77b8	-0.084701
126	0xbd959061	-0.07302929
127	0xbd94f03b	-0.07272383
128	0x3d9d0b46	0.07668166
129	0x3ced7a90	0.028989106
130	0x3ce7f9ab	0.028317293
131	0x3d520bdc	0.05128084
132	0x3d7ec110	0.062195837
133	0x3dba4484	0.090950996
134	0xbd1b8d32	-0.03797645
135	0x3d85eb31	0.06539
136	0xbd2d5404	-0.04231645
137	0xbd59b65e	-0.053152435
138	0xbdc75205	-0.09732441
139	0x3cade236	0.02122603
140	0x3db33a55	0.0875136
141	0xbd92f659	-0.07175893
142	0xbcb2001c	-0.021728568
143	0xbdcab020	-0.098968744
144	0x3d33d074	0.04389997
145	0xbd8276bf	-0.06370305
146	0x3c48ee66	0.01226387
147	0x3d9b5d8d	0.07586203
148	0xbd3857e9	-0.045005713
149	0xbda157a1	-0.07878042
150	0xbd016adf	-0.03159606
151	0x3d2a6ce9	0.04160777
152	0x3d9e3fc0	0.07727003
153	0xbdd2845e	-0.10279153
154	0xbc85ea05	-0.01634694
155	0xbdb68342	-0.08911754
156	0xbd3e291c	-0.046425924
157	0xbc7f29b3	-0.015573907
158	0xbd265235	-0.040605742
159	0x3cbf3aa2	0.023343388
160	0x3d63b379	0.05559108
161	0x3d824172	0.06360139
162	0x3a60f53b	0.0008581464
163	0xbd0cbf62	-0.034362204
164	0x39dda315	0.0004227391
165	0xbd555602	-0.052083977
166	0xbda1e54c	-0.07905063
167	0x3b5b6eb9	0.0033482744
168	0x3db507c3	0.08839371
169	0x3be078d1	0.00685034
170	0x3cfaee25	0.030631134
171	0xbb4ba9f7	-0.0031076649
172	0xbdbea3ab	-0.09308561
173	0x3cb9e2b1	0.022691103
174	0xbdb825e9	-0.08991606
175	0xbcea0d29	-0.028570728
176	0x3dbffdd3	0.09374585
177	0xbdb35bf5	-0.08757774
178	0xbd935907	-0.07194715
179	0xbc510882	-0.012758376
180	0x3dac79fd	0.08421705
181	0xbd742ef8	-0.059615105
182	0x3d65229f	0.05594122
183	0xbc4a0101	-0.012329341
184	0xbd75758e	-0.059926562
185	0xbd88bc06	-0.066764876
186	0x3c8d89c3	0.017277604
187	0x3d738e85	0.05946209
188	0x3d849337	0.064733915
189	0x3d8df84f	0.06932127
190	0xbd032fe7	-0.032028105
191	0x3ccd6197	0.025070949
192	0x3c30eb6a	0.010798315
193	0x3caab649	0.020838873
194	0x3da1df90	0.07903969
195	0x3d9f743a	0.0778584
196	0x3db27cf5	0.0871524
197	0xbca50ef8	-0.02014874
198	0xbcfbeac1	-0.030751588
199	0xbd28f987	-0.041253593
200	0xbd0abc4d	-0.033870984
201	0xbc11d0d1	-0.008899883
202	0x3c1d63c9	0.00960631
203	0x3db0e420	0.086372614
204	0x3befb137	0.007314827
205	0x3daeb789	0.085311
206	0x3dbd88c3	0.09254601
207	0x3cf6ba52	0.030118141
208	0xbd8af081	-0.06784154
209	0xbbdabd71	-0.006675415
210	0x3d9e4dc2	0.07729675
211	0x3d1e7a6e	0.038690977
212	0xbdadd4ea	-0.08487876
213	0xbdabea1d	-0.08394263
214	0xbc2100a6	-0.009826815
215	0xbd489ae3	-0.048975836
216	0xbc21f5f7	-0.009885303
217	0x3da09c93	0.07842364
218	0xba412140	-0.00073673204
219	0xbcea9111	-0.028633626
220	0x3c25828d	0.0101019265
221	0xbd9e3942	-0.07725765
222	0xbda52ce0	-0.080652
223	0xbd6b5afe	-0.057459824
224	0xbd1670c7	-0.036728647
225	0xbdab60af	-0.0836805
226	0x3cb25844	0.021770604
227	0xbd9b8867	-0.07594376
228	0xbc7514f2	-0.014958607
229	0x3d5ef26d	0.054430414
230	0xbd985455	-0.0743796
231	0xbb7df1c1	-0.0038748833
232	0x3c97f06b	0.018547257
233	0x3dc20405	0.09473423
234	0xbdb5b783	-0.08872893
235	0x3db66906	0.089067504
236	0xbd782514	-0.060582235
237	0xbd22fa54	-0.039789513
238	0x3cfdbee3	0.030974811
239	0xbd4bf4b3	-0.04979391
240	0xbd958163	-0.07300069
241	0xbd9fa1da	-0.077945426
242	0xbd65ab8a	-0.056071796
243	0x3ce75bb7	0.028241975
244	0x3db2fc20	0.08739495
245	0x3cf7001a	0.030151416
246	0xbcab506f	-0.020912377
247	0xbc783901	-0.01515031
248	0xbda64c01	-0.08119965
249	0x3dc36041	0.09539843
250	0xbd9f2aae	-0.077718124
251	0x3bcff53e	0.006346374
252	0x3bfba333	0.007679367
253	0xbdd76f14	-0.10519233
254	0xbd10333c	-0.03520511
255	0x3ca58def	0.02020928
