scripts/model_cnn.pt (torch_old, 402843 bytes, 12 tensors)

weight f4 [10, 3, 2, 2]
0	0x3e80a135	0.2512299
1	0xbe8fe28d	-0.28102532
2	0xbced7a13	-0.028988874
3	0x3e940abf	0.2891445
4	0xbdcef0c6	-0.10104518
5	0x3e6fefeb	0.23431365
6	0xbe657867	-0.22409211
7	0xbe0a9ae0	-0.13535643
8	0xbd934d6f	-0.07192504
9	0x3e85db50	0.26143885
10	0xbdf2ad8f	-0.1184951
11	0xbe0c9953	-0.13730364
12	0x3e544c7e	0.20732304
13	0xbd89d685	-0.067303695
14	0x3e8d5747	0.2760565
15	0xbe42cbf0	-0.19023108
16	0x3e6a78c1	0.22897626
17	0x3e73f851	0.23825194
18	0x3af72758	0.001885633
19	0x3e8386cd	0.25688782
20	0xbe3dcd23	-0.18535285
21	0x3dd3f550	0.10349524
22	0xbe49da06	-0.19712076
23	0x3daf5a16	0.085621044
24	0x3e0385b4	0.12843972
25	0xbe8a0521	-0.26957038
26	0xbe8af79d	-0.2714204
27	0x3e8ba704	0.2727586
28	0x3d6aa14a	0.057282723
29	0x3e856168	0.26050878
30	0x3e4ac23a	0.19800654
31	0xbe1fec1f	-0.15617417
32	0x3e8213c0	0.25405693
33	0xbe0c8464	-0.13722378
34	0x3e0ce46a	0.13759008
35	0x3d7cc3ba	0.061710097
36	0x3e6da6a9	0.23208107
37	0x3d8a8f75	0.067656435
38	0x3e22a0ab	0.15881602
39	0xbe94e3d6	-0.29080075
40	0xbcd75d25	-0.026289532
41	0xbdf8004a	-0.1210943
42	0xbda10fa0	-0.07864308
43	0xbd887b39	-0.06664128
44	0xbdfc61c9	-0.123233385
45	0x3c806be3	0.015676444
46	0xbe235825	-0.15951593
47	0xbc5df10c	-0.01354624
48	0x3e24b58e	0.16084883
49	0x3e7a36e9	0.24435009
50	0xbe4f64c1	-0.20253278
51	0x3d5cfed1	0.05395395
52	0x3cca60c9	0.024704354
53	0xbe8a395b	-0.26996884
54	0xbe0b3ae6	-0.13596687
55	0x3e1bfd29	0.15233292
56	0x3d86425b	0.06555625
57	0x3e8896c5	0.26677528
58	0xbe89be4e	-0.26903003
59	0xbddb0f37	-0.106962614
60	0x3e6650a6	0.22491702
61	0x3db3dc28	0.08782226
62	0xbd34a4ce	-0.044102482
63	0xbe87e1cc	-0.26539457
64	0xbcef4d71	-0.029211732
65	0xbe21bf94	-0.15795738
66	0xbe51854b	-0.20461003
67	0xbde8176b	-0.113325916
68	0xbe10ff10	-0.14159799
69	0x3d2ad8ae	0.041710548
70	0xbdcc2cdd	-0.099694945
71	0xbcca8852	-0.024723206
72	0xbcb5e3ff	-0.022203444
73	0xbe0c285a	-0.13687268
74	0x3e2165d9	0.15761508
75	0x3d2ca7f7	0.04215237
76	0xbe2ae458	-0.16688669
77	0x3e85dc5e	0.2614469
78	0xbe487ca4	-0.19578797
79	0x3e3eea35	0.1864403
80	0x3e2a0243	0.16602425
81	0x3d23268a	0.039831676
82	0x3e0817f9	0.13290395
83	0x3e502cdc	0.20329612
84	0xbd474f62	-0.04865969
85	0x3dc5629b	0.09637948
86	0x3d707004	0.058700576
87	0x3e5857ae	0.21127197
88	0xbe671d72	-0.22569826
89	0xbe5362fc	-0.20643228
90	0x3e3bed19	0.18352164
91	0xbb241f2a	-0.002504299
92	0xbe664fd2	-0.22491387
93	0x3e31ef72	0.17376497
94	0xbe883ef4	-0.2661053
95	0x3da296b1	0.07938898
96	0xbe333518	-0.17500722
97	0x3d1afe85	0.037840385
98	0x3e48470e	0.19558355
99	0xbe5626d8	-0.20913255
100	0xbdd88479	-0.10572142
101	0xbd91fe7c	-0.07128617
102	0x3e2d2f29	0.16912521
103	0x3d0ef167	0.034898188
104	0x3e487f8e	0.19579908
105	0xbe02a936	-0.12759861
106	0xbe3b90f0	-0.18317008
107	0xbe806298	-0.2507522
108	0xbbe16cc9	-0.0068794233
109	0x3ddc267c	0.10749528
110	0x3e93bbfd	0.2885436
111	0x3d55b594	0.05217512
112	0xbdece5da	-0.11567278
113	0x3c7ffaef	0.015623792
114	0x3da69a69	0.0813492
115	0x3e956f6e	0.29186577
116	0xbd21d705	-0.0395117
117	0x3e847c2b	0.25875983
118	0x3c1e75d5	0.009671648
119	0xbb2d8344	-0.0026475945

bias f4 [10]
0	0x3e75b0f3	0.23993282
1	0xbd04a2f5	-0.03238197
2	0x3e0ea478	0.13929927
3	0xbe716588	-0.23573887
4	0x3e601284	0.21882063
5	0x3d5b262f	0.05350321
6	0xbe8871d6	-0.2664935
7	0x3e6956df	0.22787045
8	0x3e0a0760	0.13479376
9	0x3e95887a	0.29205686

weight f4 [10, 10, 3, 3]
0	0x3db19f1e	0.08672927
1	0x3d8d63e1	0.06903816
2	0xbcdd51ef	-0.027016608
3	0xbd4395a2	-0.047750123
4	0x3d0dff93	0.034667563
5	0x3cd5f429	0.026117401
6	0x3d69fffb	0.057128888
7	0xbd7006e6	-0.05860033
8	0x3dd7f3bb	0.10544535
9	0xbcc26fa3	-0.023734873
10	0xbd7368c2	-0.059426077
11	0x3dbdd8e9	0.09269888
12	0x3cf28031	0.029602142
13	0xbd359145	-0.044327993
14	0x3d67f6b5	0.056631763
15	0xbda8d578	-0.08243841
16	0x3d32c4af	0.043644603
17	0xbc16c3f1	-0.0092019895
18	0xbdb6e4ef	-0.08930384
19	0xbc97b3bd	-0.018518323
20	0x3c6124d0	0.013741687
21	0x3d414b97	0.04719123
22	0xbc875382	-0.016519312
23	0xbdc10722	-0.094251886
24	0x3c708000	0.014678955
25	0x3d09ec70	0.03367275
26	0x3dd7bf00	0.10534477
27	0xbc1c599f	-0.009542852
28	0xbd85edbe	-0.06539486
29	0x3b0c96cf	0.0021452194
30	0x3c85d0d7	0.016334934
31	0x3dc36310	0.09540379
32	0x3d87b97b	0.066271745
33	0xbdb1f4ca	-0.08689268
34	0x3ce52576	0.027971964
35	0xbd723e0a	-0.059141196
36	0x3da9309d	0.082612254
37	0x3cbdaf77	0.023154957
38	0xbd22e43d	-0.039768446
39	0xbc6fb7f1	-0.014631257
40	0xbd71d7ac	-0.05904357
41	0x3d9a0a4c	0.07521495
42	0xbc865861	-0.016399564
43	0x3c8e92d1	0.017403992
44	0x3db1c87b	0.08680817
45	0xbbe91460	-0.0071130246
46	0x3c5da31e	0.01352766
47	0xbd1014e3	-0.03517617
48	0xbcea1040	-0.028572202
49	0x3d149979	0.036279175
50	0xbd1ea6e5	-0.03873338
51	0x3cb68c30	0.022283643
52	0xbd9ead81	-0.07747937
53	0x3da72333	0.081610106
54	0x3d260c64	0.04053916
55	0x3dcd6dec	0.100307316
56	0x3ccc4c38	0.024938688
57	0x3da014a0	0.07816434
58	0xbcd466f1	-0.025927993
59	0xbc6237c0	-0.013807237
60	0x3d9704fd	0.07373998
61	0xbc4a56f4	-0.012349833
62	0xbd07017f	-0.03296041
63	0x3dac87c0	0.0842433
64	0xbbaee135	-0.0053369054
65	0xbd2be329	-0.041964684
66	0xbd16f770	-0.03685707
67	0xbd416dc1	-0.04722381
68	0x3dbaebe2	0.09127022
69	0xbd93f4c4	-0.0722442
70	0xbd8d3080	-0.06894016
71	0x3d23b37b	0.039966088
72	0xbcef0043	-0.02917493
73	0xbd11b9a8	-0.035577446
74	0x3ccf3eb5	0.025298456
75	0xbdb65fa7	-0.08904963
76	0xbcba7647	-0.022761477
77	0x3af1c638	0.0018445915
78	0xbdb5f064	-0.088837415
79	0xbd55e976	-0.0522246
80	0xbd73cdac	-0.059522316
81	0xbd829b46	-0.06377272
82	0xbd8722f7	-0.06598466
83	0x3b1eef42	0.0024251495
84	0xbdb38b2a	-0.08766778
85	0xbc35ab45	-0.011088197
86	0x3dac3c9b	0.08409997
87	0x3d33c54b	0.043889325
88	0x3d9fea07	0.07808309
89	0xbd018e94	-0.031630114
90	0x3d4beb7f	0.049785133
91	0xbca1588d	-0.019695545
92	0xbb88cae6	-0.004174578
93	0x3d8051c3	0.06265595
94	0x3c8f755f	0.017512022
95	0x3d957438	0.072975576
96	0xbd96528f	-0.073399656
97	0xbcceb795	-0.025234023
98	0x3dd87e9b	0.10571023
99	0x3c6397e1	0.013891191
100	0xbdb68504	-0.089120895
101	0x3d202898	0.039101213
102	0xbce90db0	-0.02844891
103	0xbd70e8c3	-0.05881573
104	0x3db54db9	0.08852715
105	0xbd246fbf	-0.040145632
106	0x3cb4746d	0.022028172
107	0xbd360197	-0.04443511
108	0x3d96985c	0.07353279
109	0x3d7ca159	0.06167731
110	0x3d572ff5	0.05253597
111	0xbd875baf	-0.06609284
112	0x3d93b10a	0.07211502
113	0x3d6299cf	0.055322465
114	0x3d5044e1	0.050846938
115	0x3d4c567f	0.049887177
116	0x3dc9fadf	0.09862303
117	0x3dc7d3c3	0.09757187
118	0x3dbe7baf	0.093009345
119	0x3db10ed9	0.0864541
120	0x3db625d0	0.08893931
121	0xbd78ee05	-0.060773868
122	0x3d2d1b3a	0.042262293
123	0xbb555af3	-0.003255543
124	0xbdb8e487	-0.09027963
125	0x3cf03049	0.0293199
126	0x3c481248	0.01221139
127	0x3dd11ba3	0.102103494
128	0xbdb09f35	-0.08624116
129	0x3ddf1ac6	0.108937785
130	0x3c574bbc	0.013140615
131	0x3d5c3ba3	0.05376781
132	0x3d127039	0.035751555
133	0x3dc50ed0	0.09621966
134	0x3daf87b8	0.08570808
135	0x3c84bd75	0.016203621
136	0x3d8de79f	0.06928944
137	0xbcf9d762	-0.03049821
138	0xbd2f4281	-0.042788032
139	0x3d6e5b29	0.058192406
140	0xbdaf6a4f	-0.08565199
141	0xbd85a66e	-0.065258846
142	0x3b8fa9b7	0.0043842453
143	0x3dbab89d	0.091172434
144	0xbd888109	-0.066652365
145	0xbcec0419	-0.028810548
146	0xbdc95257	-0.09830158
147	0xbc365123	-0.011127743
148	0xbd287e12	-0.041135855
149	0x3dca1eb0	0.098691344
150	0xbcf50997	-0.0299118
151	0x3ddffd2e	0.10936962
152	0xbdc2edfe	-0.0951805
153	0xbdc6bc7e	-0.09703921
154	0xbd09f598	-0.033681482
155	0xbda7de03	-0.08196642
156	0x3db9d1f6	0.0907325
157	0xbc835354	-0.016030945
158	0xbd59ea69	-0.053202067
159	0xbce045f0	-0.027377099
160	0x3cfaf26d	0.030633176
161	0xbd6a79dc	-0.05724512
162	0x3db9166d	0.090374805
163	0x3d6f16d9	0.0583714
164	0xbd41eb96	-0.047343813
165	0x3d45d01b	0.048294168
166	0x3d061734	0.032736972
167	0x3d290297	0.041262235
168	0x3d5d5eff	0.054045673
169	0x3dd7a4e1	0.10529495
170	0xbd4e3956	-0.05034765
171	0x3d9e65f4	0.0773429
172	0x3d872531	0.065988906
173	0x3d818fe8	0.06326276
174	0x3db71fb6	0.08941595
175	0x3d8652d7	0.06558769
176	0xbdad0d1f	-0.08449768
177	0xbd500df6	-0.050794564
178	0xbcee0cc3	-0.02905882
179	0xbb2d1a18	-0.0026413258
180	0x3d2458d0	0.04012376
181	0xbd739790	-0.059470713
182	0xbdbf2241	-0.09332705
183	0xbd6fa2e9	-0.058504973
184	0x3d301fc7	0.042999055
185	0x3d82d2fd	0.06387899
186	0x3d8a56b2	0.06754817
187	0x3c8ef2c7	0.01744975
188	0xbddb3fbf	-0.10705518
189	0x3d928221	0.07153726
190	0x3c07b4c4	0.008282844
191	0x3ad38331	0.001613712
192	0x3bf74f8c	0.0075473245
193	0x3cf16014	0.029464759
194	0xbd47cda4	-0.0487801
195	0xbce51754	-0.027965225
196	0x3c0929f1	0.008371816
197	0xbcfc4475	-0.030794362
198	0xbce630b5	-0.028099397
199	0xbdaeb60c	-0.085308164
200	0xbcc23b5f	-0.023709951
201	0x3d8cceff	0.06875419
202	0x3cd6a2f2	0.026200745
203	0x3ce59504	0.028025158
204	0x3d70e236	0.05880948
205	0xbdc75325	-0.097326554
206	0xbc642984	-0.013925914
207	0x3d7b10d9	0.061295364
208	0xbb8c7469	-0.004286338
209	0x3bc70754	0.0060738716
210	0xbdad5be2	-0.08464791
211	0x3d0ca98e	0.034341387
212	0x3dce6ca9	0.10079319
213	0xbd01b5cc	-0.031667516
214	0xbdb2148d	-0.08695326
215	0x3dbcf8b3	0.09227123
216	0xbd9ef1c8	-0.0776096
217	0xbbc28ea6	-0.005937415
218	0x3d6736b3	0.05644865
219	0xbdaa39c3	-0.083117984
220	0xbd06f7ff	-0.03295135
221	0xbd7112b9	-0.058855746
222	0x3d7c2f57	0.061568584
223	0xbd335924	-0.043786183
224	0xbca8a777	-0.020587666
225	0xbdd8bd32	-0.10582961
226	0xbd544638	-0.05182478
227	0x3d7f5eae	0.062346153
228	0x3d963190	0.07333672
229	0x3dae0c07	0.08498388
230	0x3d3bf51f	0.045888063
231	0x3d8a4d38	0.067530096
232	0xbd92d7bf	-0.071700566
233	0x3dcf249e	0.10114406
234	0xbd442ef9	-0.04789636
235	0xbc704fdf	-0.01466748
236	0xbd702317	-0.058627214
237	0x3c4a2fc2	0.012340488
238	0x3d42b8a2	0.04753936
239	0x3db714d3	0.08939519
240	0xbdcb8ca9	-0.09938938
241	0xbd9f32e0	-0.077733755
242	0xbcff8230	-0.031190008
243	0xbd7748b7	-0.06037208
244	0xbb30f263	-0.0026999942
245	0xbcc0c1ab	-0.023529848
246	0x3db72614	0.0894281
247	0x3d964cc8	0.073388636
248	0xbdba526e	-0.090977535
249	0xbcbb6a63	-0.022877878
250	0xbc0245bd	-0.007951197
251	0x3cb3ae48	0.02193369
252	0xba22800e	-0.0006198891
253	0x3dae201e	0.085022196
254	0x3da4ebfd	0.08052824
255	0xbcbc927b	-0.023019066

bias f4 [10]
0	0x3d845923	0.06462314
1	0x3d80468b	0.06263455
2	0xbca52482	-0.02015901
3	0x3c468dd7	0.012118778
4	0xbcbeec64	-0.02330608
5	0x3d27cc15	0.040966112
6	0xbdc5a50f	-0.09650623
7	0x3bc7a5b7	0.006092753
8	0xbcc3d5fd	-0.023905749
9	0x3c87491b	0.016514352

weight f4 [10, 10, 4, 4]
0	0xbc793d58	-0.015212379
1	0x3b772a34	0.0037714364
2	0x3cee3b90	0.029081136
3	0xbc9e6175	-0.01933358
4	0xbd900c81	-0.07033635
5	0xbd416e36	-0.047224246
6	0x3d880b63	0.06642797
7	0x3cbad961	0.022808732
8	0xbd995dc8	-0.074885905
9	0x3d6fa6fe	0.058508866
10	0xbdabb199	-0.083834834
11	0xbccede2d	-0.025252426
12	0x3d228172	0.03967423
13	0x3d0a2d30	0.0337345
14	0xbd05e465	-0.032688517
15	0xbdaf93b2	-0.085730925
16	0x3d7cbacf	0.061701592
17	0x3c4a3503	0.012341741
18	0x3d3c3fe9	0.045959387
19	0x3d7633c5	0.060107965
20	0xbd1bba67	-0.038019564
21	0x3d615a89	0.05501798
22	0xbdad7e52	-0.08471359
23	0xbc58fda3	-0.013244065
24	0xbc1e3670	-0.009656534
25	0x3d722560	0.059117675
26	0x3c976430	0.01848039
27	0x3d27dd08	0.040982276
28	0xbd386689	-0.04501966
29	0x3d71b7c0	0.05901313
30	0x3d40d1e1	0.047075156
31	0x3cc33a9f	0.023831664
32	0xbd99b801	-0.07505799
33	0x3d62119b	0.05519257
34	0x3d25ac33	0.040447425
35	0x3d7c2bc2	0.06156517
36	0xbd319126	-0.043351315
37	0xbda6ee7e	-0.081509575
38	0xbb710576	-0.0036776937
39	0xbd2fecdd	-0.0429505
40	0x3c322653	0.010873395
41	0xbd2871c8	-0.041124135
42	0xbd093cca	-0.03350524
43	0xbd86dede	-0.06585477
44	0x3d493ecd	0.049132157
45	0x3d7a8880	0.061165333
46	0xbd539226	-0.05165305
47	0xbdb48f96	-0.08816449
48	0x3ce7323f	0.028222201
49	0x3ac9da91	0.0015400221
50	0xbd22b91a	-0.039727308
51	0x3c94ece0	0.018179357
52	0xbc7004c1	-0.014649571
53	0xbce5b0b8	-0.028038368
54	0x3d364ab1	0.044504825
55	0xbc257b74	-0.010100234
56	0x3cac83ce	0.021058943
57	0x3ad5d5b8	0.0016314304
58	0x3d02c7f0	0.031928957
59	0x3d8e71e1	0.069553144
60	0x3cac6f79	0.021049248
61	0xbd9a30a6	-0.0752881
62	0xbd611355	-0.054950077
63	0x3d5f539b	0.05452309
64	0xbd4fb0a1	-0.050705556
65	0x3c65ecac	0.014033478
66	0xbdae3a96	-0.08507268
67	0xbd6c0ac2	-0.057627447
68	0x3d460d41	0.048352484
69	0xbc8a848c	-0.016908906
70	0x3d4a7f2c	0.049437687
71	0xbd9d4cb7	-0.07680648
72	0xbd80ee35	-0.062954344
73	0xbd2d704a	-0.042343415
74	0x3c8a9022	0.016914431
75	0xbcbc8a38	-0.023015127
76	0x3d0daae6	0.03458681
77	0x3cd824b3	0.026384687
78	0xbd35de06	-0.04440119
79	0xb92387df	-0.00015595507
80	0x3d710813	0.05884559
81	0xbca9dcd2	-0.020735178
82	0x3d25b81d	0.040458787
83	0xbd0799b9	-0.033105586
84	0xbc8fa815	-0.017536202
85	0xbd2a2021	-0.041534547
86	0xbd8f2751	-0.06989921
87	0x3cc23357	0.023706121
88	0xbd2cd129	-0.04219166
89	0x3d40b46e	0.04704707
90	0x3d95c430	0.073128104
91	0xbd48f6df	-0.04906356
92	0xbc273580	-0.0102056265
93	0xbd79dc4f	-0.06100112
94	0x3d49bfc7	0.04925516
95	0x3cc539a1	0.024075331
96	0xbd9cf73e	-0.07664345
97	0x3d8d9ee8	0.069150746
98	0xbbf1c48c	-0.0073781665
99	0xbd89dbce	-0.067313775
100	0xbd1e15b6	-0.038594924
101	0xbca756bb	-0.020427098
102	0xbc8202f3	-0.015870547
103	0xbd9ab737	-0.07554477
104	0x3d215deb	0.039396208
105	0x3d670c32	0.056408115
106	0x3ce97f33	0.028503036
107	0xbd8ca007	-0.0686646
108	0x3d85b125	0.06527928
109	0xbd1058ad	-0.035240818
110	0xbbeca048	-0.0072212555
111	0xb986c69c	-0.00025706447
112	0x3cdd84c5	0.027040849
113	0x3d8715da	0.06595965
114	0xbd33e307	-0.043917682
115	0x3d823a74	0.06358805
116	0xbc41dda1	-0.011832626
117	0x3ca7908a	0.020454664
118	0x3d2c4bdf	0.042064544
119	0x3d855196	0.06509702
120	0xbd0d26e3	-0.034460913
121	0x3d238cc1	0.039929155
122	0x3b926c73	0.0044684946
123	0x3d1eee63	0.038801562
124	0x3d519502	0.051167496
125	0x3d790122	0.060792096
126	0xbd41750d	-0.04723077
127	0xbd78195c	-0.06057106
128	0xbda24b13	-0.079244755
129	0xbd275e80	-0.040861607
130	0x3d23c7bb	0.0399854
131	0xbcf567d9	-0.029956745
132	0xbcf02c7d	-0.029318089
133	0x3c8d0ff7	0.017219527
134	0xbd7ea653	-0.062170338
135	0x3cda1bea	0.026624639
136	0xbd902c90	-0.070397496
137	0x3ca3dcb3	0.020002699
138	0x3d7dbaf1	0.06194586
139	0xbd658a92	-0.056040354
140	0xbd9db7cf	-0.07701074
141	0xbd52e647	-0.05148914
142	0x3aba95bc	0.0014235298
143	0x3cf06130	0.029343218
144	0x3d6ef6b6	0.05834075
145	0xbda9041d	-0.08252738
146	0xbc17e1fb	-0.009270187
147	0xbcf0f493	-0.029413497
148	0x3b2ce4e0	0.0026381537
149	0xbdae0414	-0.084968716
150	0x3d3dd53e	0.04634594
151	0xbc75c184	-0.014999751
152	0x3d0f08eb	0.034920614
153	0xbd831e87	-0.06402307
154	0xbd710af1	-0.058848325
155	0xbd9d8ffc	-0.076934785
156	0xbd14dd67	-0.03634396
157	0xbd1a6bfd	-0.037700642
158	0x3d259301	0.040423397
159	0xbda7bc49	-0.081902094
160	0x3d92a340	0.07160044
161	0xbd159a97	-0.03652438
162	0xbca87e15	-0.020567933
163	0xbc80e983	-0.015736347
164	0x3d450ef4	0.048109964
165	0xbc9d6de2	-0.019217435
166	0xbd8d9b96	-0.06914441
167	0x3ccb12d2	0.024789248
168	0xbd9136e3	-0.07090547
169	0x3d7ea5df	0.062169906
170	0x3d5d231a	0.053988554
171	0xbc3b7e84	-0.011443738
172	0x3d0a9dcf	0.033841904
173	0xbb8397ff	-0.004015922
174	0x3c76f1bd	0.015072283
175	0xbcb0b73b	-0.021571746
176	0xbd26b971	-0.040704194
177	0x3d9d34a3	0.07676055
178	0x3c95f07f	0.018303154
179	0xbc689569	-0.014195778
180	0x3ac203f2	0.0014802201
181	0xbcb789ff	-0.022404669
182	0xbd72efb0	-0.059310615
183	0x3cb7069c	0.022342019
184	0xbd36141e	-0.04445278
185	0xbc8e1c77	-0.017347557
186	0x3d10a7cd	0.035316277
187	0xbc10b965	-0.008833264
188	0x3c4b416c	0.0124057345
189	0x3d3e3189	0.04643396
190	0xbd3a9dc8	-0.04556063
191	0x3dae4e7b	0.08511063
192	0x3c6ae65d	0.014337149
193	0x3d5346de	0.051581256
194	0x3b7efc59	0.0038907735
195	0xbc933fd9	-0.01797478
196	0x3c8158eb	0.01578947
197	0x3b23c20c	0.0024987487
198	0xbd455124	-0.048173085
199	0x3d91e333	0.07123413
200	0x3d172039	0.036895964
201	0xbc9493d3	-0.018136894
202	0xbc864c3e	-0.016393777
203	0x3d7bfc2e	0.061519794
204	0xbd2afda3	-0.041745793
205	0xbc41de9b	-0.011832858
206	0xbd64eefa	-0.05589197
207	0xbbe12df1	-0.0068719317
208	0xbc7e5d2c	-0.015525144
209	0x39e89a5a	0.0004436549
210	0x3c73565b	0.014852132
211	0xbc6cb2fd	-0.014446971
212	0xbc65640a	-0.014000902
213	0x3d2f2b68	0.042766005
214	0xbd35e1ca	-0.044404782
215	0x3b9416f4	0.004519338
216	0x3c9526e5	0.018207023
217	0xbd3fa034	-0.04678364
218	0x3c7e8543	0.015534702
219	0xbd548c7f	-0.0518918
220	0x3d66d5a4	0.056356087
221	0x3d702e03	0.05863763
222	0xbcca390c	-0.024685405
223	0x3d562a53	0.052286457
224	0x3d11ef1c	0.035628423
225	0x3d935cd3	0.07195439
226	0x3d152f69	0.036422167
227	0xb98841d9	-0.00025989002
228	0x3da67b12	0.081289425
229	0xbd766583	-0.060155403
230	0x3d189107	0.037247684
231	0x3db5a413	0.08869185
232	0x3cbc92f9	0.0230193
233	0x3bebb29d	0.007192923
234	0xbd8057c7	-0.06266742
235	0x3ccf84c2	0.025331859
236	0xbccd79f2	-0.025082562
237	0xbad3ccb0	-0.0016159024
238	0xbc33dc8a	-0.010977874
239	0xbd3ce102	-0.04611302
240	0xbbb8a07a	-0.0056343647
241	0x3cd8cf9a	0.02646618
242	0x3d36f4dd	0.044667114
243	0xbd3699fa	-0.044580437
244	0xbd84ee98	-0.06490821
245	0x3d9c29ff	0.076251976
246	0xbc948512	-0.01812986
247	0x3caba181	0.020951035
248	0xbc101e92	-0.008796351
249	0xbc1c82d5	-0.009552677
250	0x3d8cf355	0.068823494
251	0x3ccf09a8	0.02527316
252	0x3d2a17d3	0.041526627
253	0x3b6cf774	0.0036158236
254	0x3d7183a4	0.058963433
255	0x3d0ea465	0.034824748

bias f4 [10]
0	0xbda18a6a	-0.078877285
1	0x3db5256c	0.08845028
2	0x3d961c6b	0.07329639
3	0xbd00469a	-0.03131733
4	0xbd8f1dfa	-0.069881395
5	0x3d5e124e	0.054216675
6	0x3d98b9b1	0.07457293
7	0x3d9107bf	0.070815556
8	0xbd10e967	-0.03537884
9	0x3c1a5233	0.009419012

weight f4 [10, 10, 5, 5]
0	0xbce2ab17	-0.027669473
1	0xbd1fa8b1	-0.038979236
2	0xbd4f0f7a	-0.05055187
3	0xbcd3cf9a	-0.025855828
4	0x3c9c567c	0.019084208
5	0x3ab97530	0.0014149304
6	0x3bfc4154	0.0076982174
7	0x3bb92680	0.0056503415
8	0xbd45605e	-0.048187606
9	0xbd325c7a	-0.043545224
10	0x3ce8fae1	0.02843994
11	0x3d4a69a7	0.049417164
12	0x3c655700	0.013997793
13	0xb93d45f0	-0.00018050498
14	0xbc02ebb8	-0.00799077
15	0x3cfc0a29	0.030766563
16	0x3d88d2f6	0.066808626
17	0x3d095755	0.033530552
18	0x3ca14a06	0.019688617
19	0x3d7b1f85	0.061309356
20	0x3d8f00a6	0.069825456
21	0x3cf628f1	0.03004882
22	0xbc7cc02f	-0.0154266795
23	0x3d63be9f	0.055601712
24	0x3d417267	0.047228243
25	0xbcd91524	-0.026499338
26	0x3d33ba6c	0.043878958
27	0x3d697dfa	0.057004906
28	0xbca46e02	-0.020071987
29	0x3d8bc4a2	0.06824614
30	0x3c4b218d	0.012398136
31	0x3d7aef10	0.061263144
32	0xbc743cd4	-0.014907081
33	0x3d31b511	0.04338557
34	0x3cc58bcf	0.024114517
35	0xbb342c5f	-0.0027492268
36	0xbd1ac751	-0.03778774
37	0xbd3f26cd	-0.046667863
38	0x3d763ee9	0.06011859
39	0x3d3672de	0.04454314
40	0x3ca876d0	0.020564467
41	0xbd572a24	-0.052530423
42	0xbc13e94d	-0.009027791
43	0x3d8c364e	0.06846295
44	0x3d12686f	0.035744127
45	0xbcde048a	-0.027101774
46	0xbd0aa2b7	-0.033846583
47	0x3cfe2816	0.031024974
48	0xbc11bde3	-0.00889537
49	0x3d35d1dc	0.04438959
50	0x3d02d710	0.03194338
51	0x3d4086d3	0.04700358
52	0xbd1ec891	-0.038765494
53	0xbd367366	-0.044543646
54	0x3c987a6d	0.018613065
55	0xbc68c2a5	-0.014206563
56	0x3ca81a42	0.020520333
57	0xbcc7c0ff	-0.02438402
58	0xbcd02cc9	-0.02541198
59	0x3ca193c2	0.019723777
60	0xbd2912bd	-0.041277636
61	0xbcb50516	-0.022097152
62	0x3d06007a	0.0327153
63	0x3b26e792	0.0025467617
64	0x3d96b855	0.07359377
65	0xbd33a084	-0.04385425
66	0xbc89eed6	-0.016837519
67	0x3d2c6465	0.04208793
68	0x3c8e27a1	0.01735288
69	0x3d8f2d76	0.06991093
70	0xbd1d79bb	-0.03844617
71	0x3bdaf9de	0.0066826185
72	0xbd145183	-0.036210548
73	0xbbaa3a7a	-0.005194959
74	0x3d360476	0.044437848
75	0x3d511478	0.05104491
76	0x3c9f65de	0.019457754
77	0xbce7a87c	-0.028278582
78	0x3d762482	0.06009341
79	0xbcce33e2	-0.025171224
80	0xbbe5894f	-0.007004894
81	0xbcc8e466	-0.024522971
82	0x3d8d31ac	0.0689424
83	0xbb8525c0	-0.004063338
84	0x3d850931	0.06495894
85	0x3c814dcd	0.015784169
86	0xbd20900d	-0.039199878
87	0x3c69f427	0.014279402
88	0x3d945954	0.072436005
89	0x3d10c127	0.035340454
90	0xbd301029	-0.04298416
91	0xbbaabe1a	-0.00521065
92	0xbd10bbe9	-0.035335455
93	0x3d735a41	0.059412245
94	0xbcae7146	-0.021294247
95	0xbd3b7fe6	-0.04577627
96	0x3cedcd11	0.029028447
97	0xbc705360	-0.014668316
98	0xbce51474	-0.027963854
99	0x3d284087	0.041077163
100	0xbd5fefbd	-0.05467199
101	0x3d6d53f1	0.05794138
102	0x3c6b2e70	0.014354333
103	0x3cc46aa8	0.023976639
104	0xbb884e00	-0.004159689
105	0xbcd557e3	-0.026042884
106	0x3d50ec12	0.051006384
107	0xbcdd6727	-0.027026726
108	0x3d638e47	0.055555608
109	0xbd2f117b	-0.04274128
110	0xbd2e7be5	-0.042598624
111	0xbd331e11	-0.043729845
112	0xbd3b0497	-0.045658674
113	0x3cc1fc98	0.023680016
114	0xbcb32e07	-0.021872533
115	0xbd3ce8f1	-0.046120588
116	0xbd28c857	-0.041206684
117	0x3d6a84de	0.05725562
118	0x3ce72b47	0.028218878
119	0x3d4e6efa	0.050398804
120	0x3d1a2f11	0.037642542
121	0xbd6836f4	-0.056693032
122	0xbd6e01b1	-0.05810708
123	0xbb1c5e0d	-0.002385977
124	0xba019c1b	-0.0004944221
125	0x3d2384e5	0.03992166
126	0x3d47f09d	0.04881345
127	0xbd05610a	-0.032563247
128	0x3b9ae487	0.0047269496
129	0xbce74148	-0.02822937
130	0x3d81b0ed	0.06332574
131	0x3c3f654c	0.011681866
132	0x3c482733	0.012216377
133	0x3d660823	0.056160104
134	0x3ce55a08	0.027997032
135	0xbd1bada6	-0.0380074
136	0x3c95865e	0.018252548
137	0xbd595140	-0.053056
138	0x3b73a89e	0.003717936
139	0xbd56ef91	-0.052474562
140	0x3d5e3cd5	0.054257233
141	0xbcec7390	-0.028863698
142	0xbd2881c3	-0.041139375
143	0xbd47e5fb	-0.04880331
144	0x3d81ba48	0.063343585
145	0xbcb8c554	-0.02255503
146	0xba86659a	-0.0010253668
147	0xbc4e4cc1	-0.012591542
148	0xbd56daa3	-0.052454602
149	0x3d124163	0.03570689
150	0xbd383335	-0.04497071
151	0x3d0fec93	0.035137724
152	0x3d458acf	0.04822808
153	0x3d273adc	0.040827617
154	0xbb0fd875	-0.0021949087
155	0xbcb4c8f5	-0.02206848
156	0x3d354b4a	0.044261254
157	0xbbc7ee34	-0.006101394
158	0x3d6a8076	0.057251416
159	0xbccb24d6	-0.024797838
160	0xbc1d9d12	-0.009619968
161	0x3d00e110	0.031464636
162	0x3d6072b0	0.054796875
163	0x3d5febd7	0.054668274
164	0x3c40e37e	0.011772988
165	0xbd45920c	-0.048234984
166	0x3b62a36d	0.0034582273
167	0x3ce5f56b	0.028071126
168	0x3d081cba	0.03323052
169	0x3c9cf197	0.019158168
170	0xbd225f1c	-0.039641485
171	0x3cc27832	0.023738954
172	0xbca29051	-0.019844206
173	0xbc283e9e	-0.010268835
174	0x3c37ead5	0.011225422
175	0x3d7c4bb2	0.061595626
176	0x3bbc9a15	0.0057556727
177	0x3cdec176	0.027191859
178	0xbcb3657b	-0.021898976
179	0x3d594117	0.05304059
180	0xbd1f437b	-0.038882714
181	0x3c7f6237	0.015587381
182	0x3d92c79f	0.07166981
183	0x3c6b2024	0.014350925
184	0xbbb65ab6	-0.005565013
185	0x3d885741	0.06657267
186	0xbd121f93	-0.035674643
187	0x3d8136db	0.06309291
188	0xbc644288	-0.013931878
189	0x3d08354b	0.03325395
190	0x3d948165	0.072512425
191	0xbd0a61cc	-0.033784673
192	0x3d0f21f0	0.034944475
193	0xbce5c3ff	-0.02804756
194	0xbd36014d	-0.044434834
195	0x3d186adb	0.03721128
196	0x3c4617b1	0.012090609
197	0x3d91946e	0.07108389
198	0xbd25874f	-0.040412243
199	0xbcb881b2	-0.022522781
200	0x3d967551	0.07346595
201	0xbb6d3789	-0.0036196432
202	0xbd51ef93	-0.051253866
203	0xbb5af079	-0.0033407493
204	0x3d272773	0.040809106
205	0x3c6643bc	0.014054235
206	0xbd0007bd	-0.03125738
207	0xbca37c50	-0.019956738
208	0xbb97a7dd	-0.004628165
209	0xbcb75793	-0.022380626
210	0x3d720b70	0.05909294
211	0x3d88661b	0.066601
212	0xbd35f9d1	-0.044427697
213	0xbc97b2b1	-0.018517824
214	0xbbe12116	-0.006870399
215	0xbd16ca21	-0.03681386
216	0xbd384403	-0.044986736
217	0x3d7942a4	0.06085457
218	0x3cde7f65	0.027160356
219	0x3d875781	0.06608487
220	0x3d1dbf5b	0.03851257
221	0x3d8349e2	0.064105764
222	0xbbe1526c	-0.0068762805
223	0x3d46a01a	0.04849253
224	0xbcaf8f45	-0.02143062
225	0x3c887f27	0.016662193
226	0xbc15e992	-0.009149926
227	0x3d55c971	0.052194063
228	0x3d384451	0.044987027
229	0xbd1d6f53	-0.038436245
230	0x3cc1c596	0.023653787
231	0xbce9da51	-0.028546484
232	0xbbca8058	-0.0061798505
233	0x3c0f3f05	0.008743052
234	0x3d8e8c3b	0.069603406
235	0x3d47dca2	0.048794396
236	0x3c912b72	0.017720912
237	0x3d324aed	0.043528486
238	0x3d2fb3bd	0.04289602
239	0x3cade8bd	0.021229142
240	0xbd2612a9	-0.04054514
241	0xbbca6641	-0.0061767404
242	0x3d42ff71	0.04760689
243	0xbcaaf031	-0.020866485
244	0xbc722efa	-0.014781708
245	0x3cf84e27	0.030310703
246	0xbccd4a2e	-0.025059786
247	0xbcd8ed39	-0.026480304
248	0xbbd9811c	-0.0066377055
249	0x3cd2998c	0.025707982
250	0x3d6c1dd4	0.057645634
251	0x3d6d82a3	0.057985913
252	0x3c2f9f45	0.010719125
253	0x3d8dd28a	0.06924923
254	0x3ab4cea5	0.0013794495
255	0xbcb10779	-0.021610009

bias f4 [10]
0	0x3d391118	0.045182317
1	0x3d7ad8bc	0.06124185
2	0xbce7842d	-0.028261269
3	0x3b1f3840	0.0024295002
4	0x3c4a653d	0.012353239
5	0x3caa6738	0.020801172
6	0x3a8bf32a	0.0010677327
7	0x3c5d791b	0.013517643
8	0xbd1e8b2e	-0.03870695
9	0xbd1b9357	-0.03798231

weight f4 [100, 810]
0	0x3c5e01c1	0.013550223
1	0x3d0e4a88	0.034739047
2	0x3d1b6b3b	0.03794406
3	0x39b72156	0.00034929317
4	0xbbe17bf2	-0.0068812305
5	0x3b6473ae	0.003485899
6	0x3a9edc38	0.0012120074
7	0x3cf5dfed	0.030014003
8	0x3c93e2b1	0.01805243
9	0xbc01dd40	-0.007926285
10	0x3d385f61	0.045012835
11	0x3b060d68	0.0020454768
12	0x3c116914	0.00887515
13	0xbc3fa07e	-0.011695979
14	0xbc2ac115	-0.010422011
15	0x3b22c413	0.0024836108
16	0x3d3d93f2	0.04628367
17	0x3c97b41c	0.0185185
18	0x3d35f9a7	0.04442754
19	0x3d316c2d	0.043316055
20	0xbc887dc6	-0.016661536
21	0xbb419876	-0.0029540337
22	0x3c980c11	0.018560441
23	0x3ca0b6d9	0.019618439
24	0xba6a6786	-0.0008941818
25	0xbca6630f	-0.020310907
26	0x3cedc139	0.0290228
27	0x3b02b889	0.0019946417
28	0xbc11a80f	-0.008890166
29	0x3d12844f	0.03577071
30	0x3c73b3e7	0.014874435
31	0x3d2a7e39	0.04162428
32	0xbc4c1ff7	-0.012458793
33	0x3ca9aebe	0.020713206
34	0x3d08f92d	0.033440758
35	0xbc281477	-0.010258785
36	0x3cc0cc25	0.023534844
37	0x3d356694	0.04428728
38	0x3d1b396c	0.03789656
39	0x3c9e650f	0.019335298
40	0xbbbbb034	-0.005727792
41	0x3a8a8636	0.0010568562
42	0x3ccb256f	0.024798123
43	0xbc5995bf	-0.013280331
44	0x3d0d4835	0.03449269
45	0x3c83bb04	0.016080387
46	0xbc40c6e0	-0.0117661655
47	0xbcac83f6	-0.021059018
48	0x3b776fa2	0.0037755747
49	0x3d2e748c	0.042591617
50	0x3c7aafb1	0.015300677
51	0x3cea2192	0.02858046
52	0x3c16d3a9	0.009205737
53	0x3d3f9189	0.046769653
54	0x3a9c73f0	0.0011936408
55	0xbb9cec9f	-0.0047889496
56	0xbc224122	-0.009903224
57	0xbca035a3	-0.019556826
58	0xbc81aba6	-0.015828919
59	0x3c7cd76d	0.015432221
60	0xbc17e695	-0.009271284
61	0x3c854fc5	0.016273389
62	0xbaa0016d	-0.0012207456
63	0x3b9387ba	0.004502264
64	0x3cda4aac	0.026646934
65	0xbbff5b9b	-0.0077929026
66	0x3ae8abbd	0.0017751377
67	0xbc95a5d8	-0.018267557
68	0xbc6dd0cf	-0.014515116
69	0xbbae521e	-0.0053198477
70	0x3cc658e6	0.024212312
71	0x3b9abd6d	0.0047222883
72	0xbc2693b2	-0.010167049
73	0x3ccfd471	0.025369855
74	0x3d0ee9e7	0.034891035
75	0x3a104b1f	0.0005504358
76	0x3cf4bea9	0.02987607
77	0x3b35fdf8	0.0027769785
78	0x3c5f222b	0.013618986
79	0xbba92949	-0.0051623923
80	0x3b9be6d5	0.004757742
81	0x3cadd547	0.021219863
82	0x3d1e0ad1	0.038584534
83	0xbc731222	-0.014835866
84	0x3caf9144	0.021431573
85	0x3d2b12fc	0.04176615
86	0xbca6b5ca	-0.020350356
87	0x3d2a4640	0.041570902
88	0x3cc93888	0.024563089
89	0x3d0d7bd1	0.03454191
90	0x3d0cff68	0.034423262
91	0xbc69e533	-0.014275837
92	0x3c98acef	0.018637149
93	0x3c7ccee0	0.015430182
94	0x3cf9a02b	0.030471882
95	0x3c16dc9a	0.009207869
96	0x3ccb4533	0.02481327
97	0x3d123f97	0.035705175
98	0x3d2ab484	0.04167606
99	0xbcb75a68	-0.022381976
100	0x3b5fe6f3	0.0034164756
101	0x3bb8cb40	0.0056394637
102	0xbcc9d8dd	-0.024639541
103	0xbc083efb	-0.008315797
104	0x3d036ce7	0.03208628
105	0x3b6f171a	0.0036482275
106	0xbc918e4b	-0.017768046
107	0x3b854e2e	0.0040681576
108	0xbc9c8457	-0.019106073
109	0xbcb3aec5	-0.021933923
110	0x3cb06e35	0.021536926
111	0x3d0683b4	0.032840446
112	0x3c5e589d	0.013570932
113	0x3bedeaa2	0.0072606364
114	0xba80aabf	-0.0009816511
115	0x3d23214f	0.039826687
116	0x3c44a717	0.012002728
117	0x3ba62ddc	0.005071385
118	0x3cd60b49	0.026128428
119	0xbbad14f8	-0.0052820407
120	0xbbe6ebdc	-0.0070471596
121	0xbc32c4c5	-0.010911171
122	0x3d09803a	0.033569552
123	0x3cec45b0	0.028841823
124	0xbc252d73	-0.010081637
125	0x3c71f9f4	0.014769066
126	0x3d253360	0.0403322
127	0xbbc5a073	-0.00603109
128	0xbc81f6c3	-0.015864735
129	0xbc73ee89	-0.014888414
130	0x3cfd8ad4	0.030949987
131	0x3ce8208a	0.028335828
132	0xbb658a65	-0.0035025117
133	0x3cd9e778	0.02659963
134	0xbb9b3550	-0.00473658
135	0x3bf90e06	0.0076005487
136	0xba80a12a	-0.0009813656
137	0x3cbce0e4	0.023056455
138	0xbb1d0290	-0.0023957826
139	0x3d32b3ec	0.043628618
140	0x3c5a27ae	0.013315124
141	0x3be6bc96	0.007041524
142	0x3c445239	0.011982494
143	0x3c4c8cf7	0.0124847805
144	0xbc2f9be7	-0.010718322
145	0x3cda93eb	0.02668186
146	0xbc617fe6	-0.0137634035
147	0xbb09e01a	-0.0021038116
148	0xba771126	-0.00094248576
149	0x3ce889fc	0.028386109
150	0x3c3700a7	0.011169589
151	0xbc3a70ab	-0.011379401
152	0x3ced918d	0.029000068
153	0xbb8b5942	-0.0042525837
154	0x3d1aebf0	0.037822664
155	0x3b369c28	0.0027864072
156	0xbb794524	-0.0038035596
157	0xbc7dae65	-0.015483473
158	0xbcb2ca37	-0.02182494
159	0xbccd0255	-0.025025526
160	0x3c44116b	0.011967043
161	0x3ce005fa	0.0273466
162	0xbc414524	-0.01179627
163	0xbcdf92b0	-0.027291626
164	0xbcecf0f4	-0.02892349
165	0x3cfcb79e	0.030849274
166	0xbc9d0ba5	-0.019170592
167	0x3d01b5e1	0.031667594
168	0xbd024690	-0.031805575
169	0x3b39f1f0	0.0028372966
170	0x3d04ded5	0.03243907
171	0xbae79b80	-0.0017670244
172	0xba8c6a80	-0.0010712892
173	0x3d0e2df9	0.03471181
174	0x3b17edd0	0.0023182519
175	0x3bdf36c0	0.0068119466
176	0x3b6cffc0	0.003616318
177	0xbae33d00	-0.0017336905
178	0xbcbaecc2	-0.022817973
179	0x3c456bb4	0.012049604
180	0xbc4537a6	-0.012037193
181	0xbcc63d0d	-0.024199033
182	0xbc8bfa56	-0.017087143
183	0x3ba5a848	0.005055461
184	0xbcc83bff	-0.02444267
185	0x3c4da594	0.012551684
186	0x3cd7a9a6	0.026326012
187	0xbc27788c	-0.010221612
188	0x3bfa3870	0.0076361224
189	0xbc473c58	-0.012160383
190	0xbc0a57d3	-0.0084437905
191	0xbc259399	-0.010105991
192	0xbc3654d6	-0.011128625
193	0x3c6f7c98	0.014617108
194	0x3c0d6430	0.008629844
195	0xbc31774c	-0.010831665
196	0x3c168fa4	0.00918952
197	0xbca725ae	-0.02040371
198	0xbcfaabdb	-0.030599525
199	0xbcff3eec	-0.031157933
200	0x3cb86576	0.022509318
201	0x3ce3bfae	0.027801361
202	0xbc7696a8	-0.015050568
203	0x3cf5cde6	0.030005407
204	0x3bda5560	0.0066630095
205	0x3d009889	0.03139547
206	0x3cc26006	0.023727428
207	0xbcbe929a	-0.023263264
208	0x3cb08591	0.021548064
209	0xbced8682	-0.028994802
210	0x3c27577c	0.010213729
211	0x3cf88df6	0.03034113
212	0xbba43430	-0.005011104
213	0xbb9b823c	-0.0047457498
214	0x3c9f7502	0.019464973
215	0xbcbde075	-0.023178319
216	0x3cbd93a9	0.023141699
217	0x3c9daade	0.019246515
218	0x3cf8496a	0.030308444
219	0x3c98847c	0.018617861
220	0xbcbfede6	-0.023428869
221	0x3c5ebeb0	0.013595268
222	0x3ca71684	0.020396478
223	0xbb53b900	-0.0032306314
224	0xbd003e76	-0.031309567
225	0x3b325450	0.0027210899
226	0x3cfdf97e	0.031002756
227	0xbb6c5a40	-0.0036064535
228	0xbcb9da72	-0.02268717
229	0x3caf3d7a	0.021391619
230	0xbce70cf0	-0.028204411
231	0x3cbf289c	0.023334794
232	0xbd018e2f	-0.031629737
233	0xbc7d5c0a	-0.015463838
234	0x3cf9613a	0.030441869
235	0xbc6f9c68	-0.0146246925
236	0x3cbd0a66	0.023076247
237	0x3ca1c3c2	0.019746665
238	0xbc84fbfc	-0.016233437
239	0xbbeb6694	-0.007183859
240	0x3ccde772	0.025134776
241	0xbc946c02	-0.018117908
242	0x3cc8e86c	0.02452489
243	0x3b9422a8	0.004520733
244	0x3c3ad8a0	0.0114041865
245	0x3c88ce7a	0.016700018
246	0xbb5467b0	-0.0032410435
247	0x3cc9ff76	0.024657946
248	0xba289300	-0.0006430596
249	0xbbcde518	-0.0062834136
250	0xbd094898	-0.033516496
251	0x3b5c3f00	0.0033606887
252	0xbceca990	-0.028889447
253	0x3cdf455e	0.027254757
254	0x3cee70d6	0.029106539
255	0x3b8e4178	0.0043413006

bias f4 [100]
0	0xbc46a466	-0.012124157
1	0x3d12df4a	0.035857476
2	0x3cb740f8	0.022369847
3	0xbc753bc0	-0.014967859
4	0x3c89b771	0.016811104
5	0xbc303fd4	-0.010757405
6	0x3cbe43f4	0.023225762
7	0xbcf71464	-0.03016109
8	0x3cbb5a84	0.02287031
9	0x3c9d652e	0.019213285
10	0x3cf58b92	0.029973779
11	0xbc178643	-0.009248319
12	0x3b13833a	0.0022508637
13	0xbca6d2ce	-0.020364191
14	0xbc967870	-0.018367976
15	0xbbcf9d83	-0.0063359155
16	0x3a99d00d	0.0011734978
17	0x3b97a9e5	0.0046284073
18	0x3c9f15a4	0.019419499
19	0xbcb5d975	-0.022198418
20	0x3c523f5b	0.012832488
21	0x3c0a6e96	0.008449217
22	0x3c2eb577	0.010663382
23	0x3cc6cc5b	0.024267366
24	0x3b897f38	0.004196074
25	0xbd246ecb	-0.040144723
26	0x3c0c9db4	0.008582521
27	0xbce3dcea	-0.027815301
28	0x3d0bcb33	0.034129333
29	0xbc4c7f92	-0.012481587
30	0x3cc16a23	0.02361018
31	0x3c6c2cb8	0.014414959
32	0xbb7daa90	-0.00387064
33	0x3d01b014	0.03166206
34	0xbc6630f9	-0.014049762
35	0x3cde9d2d	0.027174557
36	0x3cbc1713	0.022960221
37	0xbb31fd2c	-0.002715896
38	0x3c4970d6	0.012294969
39	0x3cfe4644	0.031039365
40	0x3b13f9b7	0.0022579262
41	0x3b43cf7c	0.002987831
42	0x3ccd25c5	0.025042424
43	0x3caac662	0.02084655
44	0x3ca66fa4	0.020316906
45	0x3c554cbc	0.013018783
46	0xbd01a88a	-0.031654872
47	0x3cf3d9f6	0.029767018
48	0xbc8fda10	-0.017560035
49	0x3c9319db	0.017956665
50	0x3c9b9153	0.018990194
51	0x3ca71577	0.020395977
52	0x3cd77e5d	0.026305372
53	0xbcca933b	-0.024728408
54	0xbcc5ba53	-0.024136698
55	0xbd148a68	-0.036264807
56	0xbc629898	-0.0138303265
57	0x361279a0	2.182649e-06
58	0x3c68e939	0.014215761
59	0x3d227852	0.039665528
60	0x3abc9460	0.0014387481
61	0xbb1ba846	-0.0023751422
62	0xbc8f2419	-0.017473267
63	0xbc230097	-0.009948871
64	0xbc8a5f67	-0.016891195
65	0x3d2b62ea	0.04184238
66	0xbcb268b8	-0.02177845
67	0x3c444e89	0.011981615
68	0x3b0a4f6c	0.0021104468
69	0x3cdacc3e	0.026708718
70	0x3c175353	0.009236175
71	0xbc2d93ba	-0.010594303
72	0xbc7959ae	-0.015219135
73	0xbca2de4f	-0.019881396
74	0xbbf3166a	-0.0074184434
75	0xbb303b17	-0.002689069
76	0xbca3451e	-0.019930419
77	0x3c9d02a2	0.019166294
78	0xbcc16b6a	-0.02361079
79	0x3b3ffba0	0.0029294267
80	0x3d040b40	0.03223729
81	0x3bcd60e5	0.0062676542
82	0x3cbba146	0.02290405
83	0xbc8d329a	-0.017236043
84	0x3c26d87c	0.01018345
85	0x3c184757	0.0092943525
86	0xbbda0558	-0.006653469
87	0x3bd579a5	0.0065147453
88	0x3cf4232b	0.029801926
89	0xbced2dc5	-0.028952489
90	0xbbb22159	-0.0054361043
91	0x3cb953bd	0.022622937
92	0x3d46a872	0.048500486
93	0x3c9a5156	0.018837612
94	0x3cc2ccd8	0.023779318
95	0x3c910a3b	0.017705074
96	0x3c41f354	0.011837799
97	0xbccc6e46	-0.024954926
98	0xbb25b320	-0.0025283769
99	0x3c92e666	0.017932128

weight f4 [100, 100]
0	0xbd3f6b10	-0.046732962
1	0xbdda480b	-0.10658272
2	0x3caede9f	0.021346388
3	0x3c7331a8	0.014843382
4	0x3d50d0ab	0.05098025
5	0x3c99ddc2	0.0187825
6	0xbd2a9ddf	-0.041654464
7	0xbde6809b	-0.11254998
8	0x3d72ed4e	0.059308343
9	0xbdca7611	-0.09885801
10	0xbd6781f0	-0.056520402
11	0x3d402a0f	0.04691511
12	0xbd72119f	-0.059098836
13	0xbda27b2e	-0.07933651
14	0xbd77c60f	-0.060491618
15	0x3d63d541	0.055623297
16	0x3d86a095	0.06573597
17	0x3c881903	0.016613489
18	0xbd1025f1	-0.035192434
19	0x39d3ef4a	0.0004042334
20	0xbd8916ba	-0.06693788
21	0xbddb941d	-0.1072161
22	0x3c8e2120	0.01734978
23	0x3cf1e3ad	0.02952751
24	0x3db15733	0.0865921
25	0xbd0fb570	-0.03508514
26	0x3d49d98e	0.049279742
27	0x3d06068a	0.03272108
28	0x3d1cb483	0.038258087
29	0xbdbb0eda	-0.09133692
30	0xbd13ade2	-0.0360545
31	0xbcda90b8	-0.026680335
32	0xbcd58168	-0.026062682
33	0xbdd9dab1	-0.10637415
34	0x3c5fcdf5	0.013659944
35	0xbd7712bb	-0.060320597
36	0xbdcbd57e	-0.0995283
37	0x3d27611f	0.040864106
38	0xbd4db880	-0.05022478
39	0xbcdd27b9	-0.02699648
40	0xbd18f595	-0.03734358
41	0x3d9f9470	0.07791984
42	0x3d0b123a	0.03395293
43	0x3cdc75f7	0.026911719
44	0xbc472eec	-0.012157183
45	0xbd937b86	-0.072012946
46	0xbdaff025	-0.08590726
47	0xbd3604e5	-0.04443826
48	0xbc9c1b2b	-0.019055923
49	0x3d10f4c4	0.035389677
50	0x3d5ba96d	0.053628374
51	0xbd95ecf5	-0.073205866
52	0xbba83f47	-0.0051344964
53	0x3d5a0c72	0.053234525
54	0xbdd39032	-0.103302374
55	0xbd849c21	-0.06475092
56	0x3d16ea32	0.03684444
57	0xbc88c4a9	-0.016695337
58	0x3b675775	0.0035299931
59	0xbd39b8c5	-0.045342226
60	0xbcbaf388	-0.022821203
61	0xbdb9fffa	-0.09082027
62	0x3db34f4d	0.0875536
63	0xbb9c1f6d	-0.0047644884
64	0xbd5f63d1	-0.05453855
65	0x3c8d6ead	0.017264688
66	0x3cd9c544	0.026583321
67	0xbcca8ba5	-0.02472479
68	0x3d1e9825	0.038719315
69	0xbdad415b	-0.08459731
70	0x3aece5ca	0.0018073854
71	0x3d80d338	0.06290287
72	0xbd96050f	-0.073251836
73	0xbc2337dc	-0.009962048
74	0x3aa56c1a	0.0012620718
75	0x3d188379	0.037234757
76	0x3d80ae1c	0.06283209
77	0xbd2316f3	-0.039816808
78	0xbc076ee8	-0.008266188
79	0x3d31aee2	0.043379672
80	0xbcf93398	-0.03042011
81	0x3cd278bb	0.025692334
82	0xbd756675	-0.059912164
83	0xbdba61c3	-0.09100678
84	0x3db8b5a9	0.09019024
85	0xbdd7cb9c	-0.10536882
86	0x3d90aaca	0.070638254
87	0x3dbe78a0	0.09300351
88	0xbdd3e8ac	-0.10347113
89	0xbd2076a8	-0.03917566
90	0xbd6532a0	-0.055956483
91	0xbd898b5d	-0.067160346
92	0x3d4fa3f6	0.050693475
93	0xbda36492	-0.07978167
94	0x3d76c219	0.0602437
95	0x3ba06c4f	0.004895724
96	0x3ca8a218	0.020585105
97	0x3cafa2e8	0.021439984
98	0xbd7a10ed	-0.061051298
99	0xbcb6852c	-0.022280298
100	0xbd1b02f8	-0.037844628
101	0xbdb7cb26	-0.08974294
102	0xbd3ba3ed	-0.04581063
103	0xbd0fb714	-0.035086706
104	0xbbdf72bc	-0.0068190973
105	0x3cb3b43d	0.02193653
106	0x3cb8b6ec	0.022548161
107	0xbd027eb4	-0.031859115
108	0xbdc48e43	-0.09597447
109	0xbd8648a4	-0.06556824
110	0x3c3ac350	0.011399105
111	0x3dc8583f	0.097824566
112	0xbdbc91ea	-0.092075184
113	0x3dcf0581	0.10108472
114	0xbc11306b	-0.008861641
115	0x3d02faeb	0.031977575
116	0xbd008a83	-0.031382095
117	0xbd750984	-0.059823528
118	0x3ddf419c	0.10901186
119	0xbd881465	-0.06644515
120	0xbdaee4ac	-0.085397094
121	0x3d7198e7	0.05898371
122	0xbc789815	-0.015172978
123	0xbd77f516	-0.060536467
124	0xbcf80dd8	-0.030280039
125	0xbcc27570	-0.02373764
126	0xbdb7bc0a	-0.089714125
127	0x3d268442	0.040653475
128	0x3c60dfb7	0.013725213
129	0xbceaa553	-0.028643286
130	0x3dc9d330	0.09854734
131	0x3d6a4b10	0.05720049
132	0x3c846834	0.01616297
133	0x3db14dfa	0.08657451
134	0xbd97ac27	-0.07405882
135	0x3d0a1a6b	0.0337166
136	0x3c8cc336	0.017182928
137	0x3928b3ee	0.00016088758
138	0xbda7f18b	-0.082003675
139	0xbd63fd30	-0.05566138
140	0x3c52b1fa	0.012859816
141	0x3dc84bac	0.09780058
142	0xbd804652	-0.062634125
143	0xbdaf99c7	-0.085742526
144	0x3c94fe6e	0.018187728
145	0x3d9d46bf	0.07679509
146	0xbd8161ae	-0.06317459
147	0xbca032b5	-0.019555429
148	0x3d3d1b87	0.04616883
149	0xbd1bf6f7	-0.03807732
150	0x3c19f264	0.009396169
151	0xbc595164	-0.013264034
152	0xbd9c58ed	-0.07634149
153	0xbdac382a	-0.0840915
154	0xbc7dd690	-0.01549305
155	0xbd271e32	-0.04080028
156	0xbd8ad842	-0.06779529
157	0xbd6277c5	-0.055290002
158	0x3da5c7f3	0.08094778
159	0x3d30f540	0.04320264
160	0xbd20ca40	-0.03925538
161	0xbd070b2b	-0.032969635
162	0xbdb2e51f	-0.08735108
163	0xbbd309b9	-0.006440368
164	0x3c57ceb9	0.013171845
165	0xbda834ff	-0.08213233
166	0xbb096000	-0.0020961761
167	0xbcb1c0e7	-0.021698428
168	0x3dcd2686	0.100171134
169	0x3bb1f041	0.005430252
170	0xbd624e4b	-0.055250447
171	0x3da39469	0.07987291
172	0xbd504a7a	-0.050852276
173	0x3d43193f	0.0476315
174	0x3da4c016	0.0804445
175	0xbd0d88bd	-0.034554232
176	0xbd9dc8ae	-0.07704292
177	0xbbb4314e	-0.0054990416
178	0x3dca8a6b	0.098896824
179	0xbc240282	-0.0100103635
180	0xbd9e53d9	-0.077308364
181	0xbd01d881	-0.031700615
182	0x3dcf5eb2	0.101254836
183	0xbdabf972	-0.08397187
184	0xbd7b98b0	-0.06142491
185	0x3dd582bd	0.10425327
186	0x3c2a899c	0.010408785
187	0x3d3e1e78	0.046415776
188	0xbdac47c7	-0.08412128
189	0x3d9ca121	0.076479204
190	0xbd1d3287	-0.038378265
191	0xbd2affa5	-0.041747708
192	0x3d924777	0.07142537
193	0x3dd0698d	0.10176382
194	0xbc0b29a7	-0.008493817
195	0x3ceea2ff	0.029130457
196	0x3d83ca93	0.06435122
197	0xbc87deac	-0.01658567
198	0xbd92ebde	-0.07173894
199	0xbd66240c	-0.05618672
200	0xbdd224a3	-0.10260894
201	0x3d78e116	0.060761534
202	0x3d1e9cf2	0.038723893
203	0x3d58265a	0.05277095
204	0xbd845eb5	-0.064633764
205	0x3bee2bc1	0.0072683995
206	0x3db783ef	0.08960711
207	0x3dc0f2e8	0.09421331
208	0x3d823091	0.063569196
209	0xbd893d3b	-0.06701132
210	0xbdb5cc15	-0.08876816
211	0xbcbedff9	-0.023300158
212	0x3b920a39	0.004456785
213	0xbcfc10d6	-0.030769747
214	0x3d7392ce	0.059466176
215	0x3d87c93f	0.066301815
216	0xbbebcaf4	-0.0071958248
217	0x3cce2ccc	0.025167845
218	0x3db8f5b6	0.09031241
219	0xbd8656fb	-0.06559559
220	0xbd537e98	-0.0516344
221	0x3db4674b	0.08808764
222	0x3d9921a5	0.0747712
223	0xbc637fb4	-0.013885427
224	0xbd542a80	-0.051798344
225	0xbd25266a	-0.040319838
226	0x3b08a160	0.002084814
227	0xbc9ed54c	-0.019388817
228	0xbdb145ce	-0.08655892
229	0x3db607b6	0.088881895
230	0x3be7b8e6	0.007071602
231	0xbc8fca53	-0.01755253
232	0x3dbff949	0.09373719
233	0x3b7995c2	0.0038083647
234	0x3da93d4c	0.082636446
235	0x3d0e2c77	0.034710374
236	0xbd835c45	-0.064140834
237	0x3dc45cbb	0.095879994
238	0x3d5b4874	0.053535894
239	0xbdc84afb	-0.097799264
240	0xbc9c289c	-0.019062333
241	0xbdb939bd	-0.09044216
242	0x3c860362	0.016359035
243	0x3db1d191	0.0868255
244	0xbd17b93c	-0.037041888
245	0xbd01eae0	-0.031718135
246	0x3dbbf20f	0.091770284
247	0xbca97712	-0.02068666
248	0xbd11cbe9	-0.035594855
249	0xbd47f67d	-0.048819054
250	0xbce26f9e	-0.027641114
251	0xbd7f375e	-0.06230866
252	0xbd7ab343	-0.061206114
253	0x3c9f0154	0.019409813
254	0x3cba1c12	0.022718463
255	0xbd099fc5	-0.033599634

bias f4 [100]
0	0xbc97ced5	-0.018531242
1	0xbcf123d4	-0.02943603
2	0xbdac214c	-0.084047884
3	0xbdc382ee	-0.09546457
4	0x3d80b06a	0.06283648
5	0x3c3a7b56	0.011381945
6	0x3c1e7b4f	0.009672954
7	0x3c9b2170	0.018936843
8	0xbcdeca2f	-0.027196018
9	0xbdbaad94	-0.09115139
10	0x3da970ff	0.082735054
11	0xbd86768e	-0.06565581
12	0xbd6a12d6	-0.05714687
13	0xbd8fef35	-0.07028047
14	0xbd8b5cd6	-0.068048164
15	0xbdaca0af	-0.084290855
16	0x3d881367	0.06644326
17	0xbd9c95bb	-0.07645746
18	0xbd33037b	-0.04370449
19	0xbdd85547	-0.1056314
20	0xbda0515b	-0.07828017
21	0x3c43f68d	0.011960638
22	0x3c450bff	0.012026786
23	0x3d0b8bef	0.034068998
24	0x3cc63401	0.02419472
25	0xbdae6637	-0.0851559
26	0x3c3e58ff	0.011617898
27	0x3cb964a2	0.022630993
28	0xbd7084dc	-0.058720455
29	0xbcca1652	-0.024668846
30	0x3dafb80d	0.08580027
31	0xbd15cccc	-0.036572263
32	0x39d026d7	0.0003970179
33	0xbdc5b3d1	-0.09653438
34	0x3d85b397	0.06528395
35	0x3c8b4e04	0.017004974
36	0xbd82eadd	-0.06392453
37	0xbb839772	-0.0040158564
38	0xbceacc92	-0.028662
39	0x3dc0a2a2	0.0940602
40	0xbc52ad04	-0.012858633
41	0xbcfdffcf	-0.031005768
42	0x3d003710	0.03130251
43	0x3ca0bb0b	0.019620439
44	0xbd1b3b1a	-0.03789816
45	0xbdaed61a	-0.085369304
46	0x3be414bf	0.006960481
47	0x3d48472e	0.048896007
48	0xbdc598b4	-0.096482664
49	0xbbc7d1de	-0.006098016
50	0x3be088e1	0.0068522547
51	0xbdb666da	-0.08906336
52	0x3d166997	0.036721792
53	0xbd96e3d3	-0.07367673
54	0x3c95b53c	0.018274896
55	0x3d073f10	0.033019125
56	0xbd043c6d	-0.03228419
57	0x3d1e285a	0.0386127
58	0xbd7f5c00	-0.062343597
59	0xbde01015	-0.109405674
60	0xbd9af292	-0.07565798
61	0xbdc58661	-0.09644771
62	0x3d4d1170	0.050065458
63	0xbd89bb88	-0.06725222
64	0xbc8b59be	-0.017010566
65	0x388f6fa5	6.839567e-05
66	0x3ca08cac	0.019598328
67	0x3d7b22ff	0.06131267
68	0xbd6521f2	-0.055940576
69	0xbc0cc72f	-0.008592411
70	0xbdaaf5d4	-0.08347669
71	0x3d7dd539	0.061970923
72	0xbd88ace4	-0.06673601
73	0xbd80470c	-0.06263551
74	0x3d83aa29	0.0642894
75	0x3c16a8e8	0.009195544
76	0x3d0aa2af	0.033846553
77	0x3d0227a2	0.031776078
78	0xbb2ee1fe	-0.0026684995
79	0x3d80b964	0.062853605
80	0xbd090f29	-0.033461723
81	0x3d8b0484	0.06787971
82	0xbd665238	-0.056230754
83	0xbde3ea87	-0.11128717
84	0x3d5ee48d	0.05441718
85	0xbda24876	-0.07923977
86	0x3cf0d57b	0.02939867
87	0xbd0d5bfb	-0.034511548
88	0xbd838431	-0.06421698
89	0x3c3f3e23	0.011672529
90	0xbcb7f422	-0.022455279
91	0xbc3f6015	-0.011680623
92	0xbc94f937	-0.018185241
93	0xbdf2faeb	-0.11864265
94	0xbdb858fb	-0.09001347
95	0x3da34cd3	0.079736374
96	0x3d0a21f3	0.033723783
97	0x3cf8fa80	0.030392885
98	0xbd154df3	-0.03645129
99	0x3d567976	0.052361928
