scripts/model_baseline.pt (torch_old, 696539 bytes, 12 tensors)

weight f4 [10, 3, 2, 2]
0	0xbd36b142	-0.04460264
1	0x3d94b097	0.07260244
2	0x3e96dce8	0.29465413
3	0xbe825ac5	-0.25459877
4	0xbe579c33	-0.21055679
5	0xbd531c2d	-0.051540542
6	0xbe7e4adb	-0.24833243
7	0xbe2c4e8c	-0.16826838
8	0xbe8f039d	-0.27932444
9	0x3d36ace2	0.044598468
10	0xbdb8c723	-0.09022357
11	0x3d14ff41	0.03637624
12	0x3d2e19c1	0.04250503
13	0xbe6d4c8c	-0.23173732
14	0xbd802f3a	-0.06259008
15	0x3e1d0044	0.15332133
16	0xbe775915	-0.24155076
17	0x3e0e49e5	0.13895376
18	0xbe4c8326	-0.19971904
19	0x3df97c9f	0.12181973
20	0xbe8e527b	-0.27797303
21	0x3e659fe9	0.22424282
22	0xbc3c5989	-0.011495956
23	0xbdf4157c	-0.1191816
24	0x3e92c08e	0.28662533
25	0xbe09cc5d	-0.13456865
26	0x3e4b92c4	0.19880205
27	0xbc9c1677	-0.01905368
28	0xbe4d32f3	-0.20038967
29	0xbe3967e3	-0.18106036
30	0xbe3aa2be	-0.18226144
31	0xbd821113	-0.06350913
32	0x3e834502	0.25638586
33	0xbe795474	-0.24348623
34	0x3de52a41	0.111897
35	0x3e350951	0.17679335
36	0x3e2b9db9	0.16759385
37	0xbe878ed0	-0.26476145
38	0x3e2f530d	0.17121525
39	0xbdf3d660	-0.11906123
40	0xbe5e4729	-0.21706833
41	0x3e13d79c	0.14437717
42	0x3d4d688d	0.050148536
43	0x3c94068b	0.018069526
44	0xbe840616	-0.25785893
45	0x3c5b827a	0.013397807
46	0x3e8d07db	0.27545056
47	0xbe602dba	-0.21892443
48	0xbc8246d9	-0.015902923
49	0x3d90390a	0.07042129
50	0x3e8573a3	0.26064786
51	0x3cf8fedb	0.030394962
52	0x3d22584e	0.039634995
53	0xbce49c04	-0.027906425
54	0x3e6ab8ea	0.22922102
55	0xbd3a598f	-0.045495566
56	0x3e11d64f	0.14241908
57	0xbcc6b3eb	-0.024255713
58	0xbb6d0138	-0.0036164057
59	0x3d917724	0.071028024
60	0x3e1de1ba	0.15418139
61	0x3e8c24b3	0.2737175
62	0xbe954ba6	-0.29159278
63	0x3e7be071	0.24597336
64	0xbe0909c0	-0.13382626
65	0x3e2e0fd8	0.16998231
66	0xbe029c5c	-0.12754959
67	0x3e1aff92	0.15136555
68	0x3e41c1eb	0.1892163
69	0x3e691065	0.2276016
70	0xbe35f4f9	-0.17769231
71	0x3e17d7f7	0.14828478
72	0xbe67862f	-0.2260978
73	0xbca76524	-0.02043397
74	0x3e5b8b03	0.21439748
75	0x3c7b41ad	0.015335483
76	0xbe89befa	-0.26903516
77	0xbe82e5a0	-0.25565815
78	0x3e974ff8	0.295532
79	0x3d22f1d2	0.0397814
80	0x3e84e518	0.25956035
81	0xbe1694a1	-0.14705135
82	0xbe80b250	-0.25136042
83	0xbe8c13af	-0.27358767
84	0x3d8edd6d	0.06975827
85	0xbe6b94ce	-0.23005983
86	0x3e31e407	0.17372142
87	0xbe891d80	-0.2678032
88	0x3e6a3b3d	0.2287416
89	0x3e74b3e9	0.23896755
90	0xbe0b65b2	-0.13613012
91	0xbe570252	-0.20996979
92	0xbe8cef84	-0.27526486
93	0xbd93332e	-0.07187496
94	0xbe0769a5	-0.13223894
95	0xbe061f23	-0.13097815
96	0xbd3b8b0d	-0.045786906
97	0xbe5052fd	-0.20344158
98	0x3dfe70d4	0.12423864
99	0x3cb7d93a	0.022442449
100	0xbe831187	-0.2559931
101	0xbe83bf1b	-0.2573174
102	0x3e53d775	0.20687659
103	0x3dd05247	0.10171943
104	0xbe7175f6	-0.23580155
105	0x3d6d28c3	0.0579002
106	0x3deedd8c	0.116633505
107	0xbe8fd071	-0.28088716
108	0x3dbc909d	0.0920727
109	0xbe7d32c9	-0.24726404
110	0xbe098ab6	-0.1343182
111	0xbe3608b2	-0.17776754
112	0x3e898161	0.2685652
113	0xbe060096	-0.13086161
114	0xbe466c7f	-0.19377325
115	0xbcca9d73	-0.02473328
116	0x3e0c4466	0.13697967
117	0x3e2c1232	0.16803816
118	0xbe928143	-0.28614244
119	0xbdb1b461	-0.08676983

bias f4 [10]
0	0x3e249893	0.16073827
1	0xbe6d522c	-0.23175877
2	0x3da8137b	0.082068406
3	0x3e1d37ac	0.15353268
4	0xbe7c9c16	-0.24668917
5	0x3e362b78	0.1779002
6	0xbe4a5bcd	-0.19761582
7	0x3dc2c242	0.09509708
8	0xbe32de9a	-0.17467728
9	0xbe83ab53	-0.25716648

weight f4 [10, 10, 3, 3]
0	0x3de98e85	0.114041366
1	0x3d91434b	0.07092913
2	0x3d4401cb	0.047853272
3	0xbb871261	-0.004122064
4	0xbdb32e7f	-0.08749103
5	0x3dca9b35	0.09892885
6	0xbca0eeff	-0.019645212
7	0x3dc3ca7c	0.09560105
8	0x3c5b30b6	0.013378313
9	0xbd77e9e3	-0.060525786
10	0xbd2f2d86	-0.042768024
11	0xbd4117f7	-0.047141995
12	0x3dd99522	0.10624148
13	0x3ddc4a13	0.10756316
14	0xbdbc7858	-0.09202641
15	0x3d83efed	0.064422466
16	0xbc7de65e	-0.015496818
17	0x3c7e9be1	0.015540094
18	0xbd4afa7d	-0.04955529
19	0xbd48922f	-0.048967537
20	0xbc0dc681	-0.008653284
21	0xbdac184f	-0.08403074
22	0xbd32584b	-0.043541234
23	0xbd330abd	-0.043711413
24	0x3d2547ef	0.040351804
25	0x3dd1602d	0.10223422
26	0xbcb657d3	-0.022258675
27	0xbdc1051d	-0.094248034
28	0xbd24a59d	-0.040197004
29	0x3d26674e	0.040625863
30	0xbd0b0b68	-0.033946425
31	0x3da05659	0.078289695
32	0x3d24c1ff	0.04022407
33	0x3b7d21cd	0.0038624883
34	0xba7b82a5	-0.00095943577
35	0xbcc5143e	-0.024057504
36	0xbd72e2c7	-0.059298303
37	0x3dd58853	0.104263924
38	0xbd0908e0	-0.03345573
39	0x3c835fad	0.016036833
40	0xbcc25dd2	-0.023726378
41	0xbc2f1161	-0.010685296
42	0x3dc1b937	0.09459155
43	0xbca017d7	-0.019542618
44	0xbc8af0b3	-0.016960477
45	0x3d7c2eca	0.06156806
46	0x3dd0be40	0.10192537
47	0x3dd92f66	0.10604744
48	0x3ca1c8d0	0.019749075
49	0xbb94e08b	-0.004543369
50	0xbd7f6415	-0.062351305
51	0xbd944f73	-0.07241716
52	0x3dac9f12	0.08428778
53	0x3d4b9263	0.049700152
54	0xbd890c3c	-0.06691787
55	0xbda5aec2	-0.08089973
56	0xbdb22aab	-0.086995445
57	0xbd8437d7	-0.06455963
58	0x3d86c589	0.065806456
59	0xbc1a638d	-0.009423149
60	0x3d89c036	0.067261145
61	0xbd96fc42	-0.07372333
62	0xbd57de3e	-0.05270218
63	0x3dc10a2f	0.094257705
64	0x3c83dc06	0.016096126
65	0xbd43e248	-0.04782322
66	0x3dbc101f	0.09182762
67	0x3d1cd638	0.038290232
68	0xbdbfbd92	-0.093623295
69	0xbb434f10	-0.0029801764
70	0x3da8b660	0.0823791
71	0x3dc3400d	0.09533701
72	0x3d311d35	0.043240745
73	0xbd815355	-0.063147224
74	0x3c277ee2	0.010223122
75	0xbd5746e3	-0.052557837
76	0xbc939760	-0.018016517
77	0x3dc90742	0.098158374
78	0x3dd1c2c5	0.102422275
79	0x3da98562	0.08277394
80	0xbcb3d9d7	-0.02195446
81	0x3d2840d9	0.04107747
82	0xbdabf832	-0.08396949
83	0x3de4a188	0.11163622
84	0xbb19dcb7	-0.0023477504
85	0xbbf46418	-0.007458221
86	0x3db68870	0.08912742
87	0x3c9ef8e3	0.019405788
88	0xbd80f0a9	-0.06295902
89	0x3d83d625	0.06437329
90	0xbce70cd3	-0.028204357
91	0xbd13a654	-0.036047295
92	0x3cf1a175	0.029495934
93	0x3ae513fb	0.0017477268
94	0xbd91a736	-0.07111971
95	0xbd19c0b6	-0.0375373
96	0xbd9ad64d	-0.07560406
97	0x3b513f53	0.0031928613
98	0x3d8f8dbb	0.07009455
99	0xbb86407b	-0.004097042
100	0x3d8eb3b2	0.06967868
101	0xbcafd3af	-0.021463243
102	0x3d941758	0.07231015
103	0xbc398e5b	-0.011325444
104	0x3cf60120	0.030029833
105	0xbcab2a9a	-0.020894337
106	0x3dd30faa	0.10305722
107	0xbd7466f8	-0.05966851
108	0x3d4052d4	0.04695399
109	0x3cc992b7	0.024606092
110	0x3d42a91a	0.04752455
111	0x3dca76e8	0.09885961
112	0x3b43bc98	0.002986705
113	0x3cc5fb9a	0.024167825
114	0x3d389810	0.045066893
115	0x3d4bbc8d	0.049740363
116	0xbbcd983a	-0.0062742503
117	0xbce23480	-0.027612925
118	0x3dc38d40	0.09548426
119	0x3c8ebd97	0.017424388
120	0xbda4c5f0	-0.08045566
121	0xbd0f0b10	-0.03492266
122	0x3d94d1f7	0.0726661
123	0x3d0bf527	0.034169342
124	0xbd2b1f0d	-0.04177766
125	0xbd90483c	-0.070450276
126	0x3d2fd8f4	0.042931512
127	0x3d43f907	0.047844913
128	0x3bddcb33	0.006768608
129	0x3d2c301d	0.042038072
130	0x3d004725	0.03131785
131	0xbd96b2fc	-0.07358357
132	0x3d7acf5e	0.061232917
133	0xbd6907ba	-0.056892134
134	0xbd2c12ba	-0.042010047
135	0xbd7f8088	-0.062378436
136	0xbd749527	-0.059712555
137	0xbd81add0	-0.0633198
138	0x3d9dbae4	0.07701662
139	0x3d51d5db	0.05122934
140	0x3c0d2391	0.008614437
141	0x3da4e4d1	0.08051456
142	0x3de4ca8f	0.111714475
143	0x3db7b6d7	0.08970421
144	0xbc9f764b	-0.019465586
145	0x3d955d34	0.07293168
146	0xbd9ca2f7	-0.076482706
147	0xbc3b6dfb	-0.011439796
148	0x3d4096d4	0.04701884
149	0x3da01e05	0.07818226
150	0xbd1e1094	-0.03859003
151	0xbdc9ae42	-0.0984769
152	0xbdb5d2be	-0.088780865
153	0xbd13b1c6	-0.03605821
154	0x3c332902	0.01093507
155	0x3db0ea95	0.08638493
156	0x3dc2fc18	0.09520739
157	0x3d310d85	0.043225784
158	0xbb8b8544	-0.00425783
159	0xbda92000	-0.08258057
160	0x3d0152bd	0.031573046
161	0xbdbc300e	-0.09188853
162	0xbd5a74fa	-0.053334214
163	0x3d87ef11	0.06637395
164	0x3c4fabd4	0.012675244
165	0x3dca7b37	0.098867826
166	0x3d195691	0.03743607
167	0xbd857537	-0.065164976
168	0xbce5b16f	-0.028038708
169	0xbd777a6a	-0.060419478
170	0x3dd56c8c	0.10421094
171	0x3db2bc98	0.08727378
172	0xbdc33722	-0.09532
173	0x3dbe5039	0.09292645
174	0xbd4eb57c	-0.050466046
175	0xbaabec98	-0.0013116775
176	0x3dba0c08	0.09084326
177	0xbd76e806	-0.06027987
178	0xbda972df	-0.08273863
179	0xbd9e215a	-0.07721205
180	0xbd7066bd	-0.05869173
181	0x3d66c674	0.056341603
182	0xbd604e2e	-0.054762058
183	0x3dbb946d	0.09159169
184	0x3c6cd0af	0.014454051
185	0x3dc97e19	0.09838504
186	0x3dd33dae	0.10314499
187	0xbd8928f2	-0.06697263
188	0x3d8dd8d9	0.06926126
189	0xbd124891	-0.035713736
190	0xbba9c602	-0.005181075
191	0xbc31bc17	-0.010848067
192	0xbcb3a7e7	-0.021930648
193	0x3dafe7d6	0.08589141
194	0xbc632fad	-0.013866347
195	0x3c375bee	0.011191351
196	0x3db569d0	0.08858073
197	0x3d8d0ac3	0.06886818
198	0xbd5085b8	-0.050908774
199	0xbdc3d1f6	-0.09561531
200	0xbdb5fce5	-0.088861264
201	0xbc2f0210	-0.010681644
202	0x3ac69116	0.001514944
203	0xbda28594	-0.07935634
204	0x3d2a9786	0.04164841
205	0x3d975cc9	0.07390744
206	0xbd7b6052	-0.061371155
207	0x3dbee2c9	0.093205996
208	0xbdc3134f	-0.09525167
209	0xbd9ea19a	-0.07745667
210	0x3d92b395	0.07163159
211	0x3dc3ebc6	0.095664546
212	0xbd58f6ee	-0.052969866
213	0x3da03aa8	0.07823688
214	0xbc677212	-0.014126318
215	0xbdb45281	-0.08804799
216	0x3c3b98c8	0.01145
217	0x3d0fc083	0.035095703
218	0x3ba7cbf0	0.005120747
219	0x3d5657cb	0.05232982
220	0xbc903013	-0.017601049
221	0xbbefb3c0	-0.007315129
222	0x3ca564a0	0.020189583
223	0xbd0080e9	-0.03137294
224	0x3d137369	0.035998736
225	0xbd01dd8f	-0.031705435
226	0x3d0ae77c	0.033912167
227	0x3d670068	0.05639687
228	0x3d9eb09e	0.07748531
229	0x3caaa97e	0.020832773
230	0x3cf48905	0.029850492
231	0xbab436b8	-0.0013749218
232	0xbdc1d445	-0.09464315
233	0x3d2f156a	0.04274503
234	0xbd93cd0e	-0.072168455
235	0x3d022684	0.031775013
236	0xbca441cd	-0.020050908
237	0x3db850bd	0.089997746
238	0xbd1c7302	-0.038195617
239	0x3d53bc33	0.051693153
240	0xbda1b1a5	-0.07895211
241	0x3dbc24aa	0.091866806
242	0x3d531bb2	0.051540084
243	0x3da13b22	0.07872607
244	0x3d9355ee	0.07194124
245	0x3dac46d7	0.08411949
246	0x3b87fe5a	0.004150194
247	0x3d0b6fee	0.03404229
248	0x3d27d565	0.040974993
249	0x3dcf053c	0.1010842
250	0x3c9ea084	0.01936365
251	0xbcfc067c	-0.03076481
252	0xbdc2aebe	-0.09505986
253	0xbd97214b	-0.07379397
254	0x3ddf34c4	0.10898736
255	0xbce2654c	-0.027636193

bias f4 [10]
0	0x3da141a1	0.07873846
1	0xbd248554	-0.040166214
2	0x3d9f1410	0.077674985
3	0xbd7fb50e	-0.062428527
4	0xbd38a40d	-0.045078326
5	0xbdbeb684	-0.09312156
6	0xbddb5b54	-0.10710779
7	0x3daf558e	0.0856124
8	0xbd4c60cd	-0.049897004
9	0xbda5fde9	-0.0810507

weight f4 [10, 10, 4, 4]
0	0xb8b1767b	-8.4620864e-05
1	0xbc58fe46	-0.013244217
2	0xbc99369c	-0.018702798
3	0x3ba12d8a	0.0049187588
4	0x3d9b80c4	0.075929195
5	0xbc29f9e6	-0.010374522
6	0xb99e176b	-0.00030153556
7	0x3d2bf52e	0.04198187
8	0x3b90eff3	0.0044231354
9	0x3d7d12bd	0.06178545
10	0x3ca358bb	0.01993977
11	0xbcdb8312	-0.026795898
12	0x3d5e8469	0.054325495
13	0x3d8c2cfb	0.06844517
14	0x3ce13eff	0.02749586
15	0x3d83d03a	0.064362004
16	0xbd893006	-0.06698613
17	0x3d8037cb	0.06260642
18	0x3dade5a2	0.084910646
19	0xbd420732	-0.047370143
20	0x3d59ccf9	0.053173993
21	0xbd7054fb	-0.058674794
22	0xbd86f5f5	-0.06589881
23	0x3c8239cb	0.015896698
24	0xbce95168	-0.0284812
25	0x3da8a9e1	0.08235527
26	0x3d7ea72e	0.062171154
27	0x3d8991a8	0.06717235
28	0x3da8d387	0.08243471
29	0xbd81ece8	-0.063440144
30	0xbd88a601	-0.06672288
31	0xbd604da9	-0.054761562
32	0xbd7bdc93	-0.061489653
33	0x3c109a70	0.008825883
34	0x3d80f1ed	0.06296144
35	0x3cb167c9	0.021655934
36	0x3cacf118	0.021111056
37	0x3da637ef	0.08116137
38	0xbd89a9f1	-0.06721867
39	0xbd5a4570	-0.053288877
40	0xbb07028e	-0.0020600888
41	0x3b180ec9	0.0023202172
42	0x3cf3aa33	0.029744243
43	0xbd10fe24	-0.035398617
44	0xbcffca73	-0.031224465
45	0xbd0f6819	-0.035011385
46	0x3c9db35c	0.019250564
47	0x3b01f8dd	0.0019832172
48	0x3d9c0df2	0.07619847
49	0x3d6bfc17	0.05761346
50	0x3da6c5f6	0.08143227
51	0x3d8432bf	0.064549915
52	0x3d42812b	0.047486465
53	0x3d42913c	0.047501788
54	0xbd4ac32f	-0.049502548
55	0x3d15bc79	0.036556695
56	0x3db615f0	0.08890903
57	0xbcce4bdb	-0.025182655
58	0xbb4d833f	-0.0031358746
59	0xbc8ba368	-0.017045692
60	0xbbe1f3bd	-0.006895511
61	0xbb95bac5	-0.004569384
62	0xbd15b8f2	-0.03655333
63	0x3d17c882	0.037056454
64	0x3cbb34dc	0.022852354
65	0x3d2a60a2	0.041596062
66	0xbbbe48dc	-0.0058070254
67	0x3d8007c2	0.0625148
68	0xbd1d50bd	-0.038407076
69	0x3ce1002e	0.027465906
70	0x3d7618bc	0.060082182
71	0x3d94c6a0	0.07264447
72	0x3d2ffddb	0.042966705
73	0x3c5d47b0	0.013505861
74	0x3cf93186	0.030419122
75	0xbd47d69c	-0.04878865
76	0x3d82885d	0.063736655
77	0xbd89c35a	-0.067267135
78	0xbd079452	-0.033100434
79	0xbcc723da	-0.024309088
80	0x3d210a96	0.039316736
81	0x3d4629f1	0.048379842
82	0x3d958ebc	0.07302615
83	0xbc89b4cc	-0.016809843
84	0x3d8135d9	0.06309099
85	0xbd6e45b6	-0.05817195
86	0x3d824437	0.06360667
87	0x3dacf324	0.08444813
88	0x3da8ff2a	0.08251794
89	0xbcd7d687	-0.026347412
90	0xbd8506ad	-0.06495414
91	0x3c005c27	0.007834471
92	0xbcdda551	-0.027056368
93	0x3d7eaf0f	0.062178668
94	0xbcd37f8c	-0.025817655
95	0xbd4ba1b5	-0.049714763
96	0xbc891719	-0.016734647
97	0xbd0c226e	-0.034212522
98	0x3d957e0d	0.07299433
99	0x3dabc77d	0.08387659
100	0x3d441a67	0.04787674
101	0x3cc34ddb	0.023840835
102	0xbcff9b07	-0.031201852
103	0xbd8ae34e	-0.06781636
104	0xbd6e3d95	-0.058164198
105	0x3d518753	0.051154446
106	0xbbc6780e	-0.006056792
107	0x3c9fe03d	0.019516105
108	0x3d37d108	0.044877082
109	0x3c6e6fdb	0.014553036
110	0x3d2d5034	0.042312816
111	0x3c32ed22	0.010920795
112	0xbd3fc536	-0.046818934
113	0x3d489f79	0.04898021
114	0x3bc35104	0.0059605855
115	0x3ceb8e4d	0.028754378
116	0x3c547f09	0.012969741
117	0xbcf9b252	-0.030480538
118	0x3bdbcad8	0.0067075305
119	0xbd1fec10	-0.039043486
120	0x3d843208	0.06454855
121	0xbd270d58	-0.04078421
122	0x3d22092e	0.039559536
123	0xbd251c29	-0.04031006
124	0xbbdf18c9	-0.0068083745
125	0x3cfafca9	0.030638056
126	0x3cb2cc28	0.021825865
127	0x3d1b7bc4	0.03795983
128	0x3d94d0d6	0.07266395
129	0x3d589c12	0.052883215
130	0x3dace3fd	0.08441923
131	0x3da6a11d	0.08136199
132	0x3d86e62d	0.06586871
133	0xbc9aaa65	-0.018880079
134	0x3d57d363	0.05269183
135	0xbca5f3cb	-0.020257851
136	0xbd4747be	-0.048652403
137	0xbb292140	-0.0025807172
138	0xbd8012c0	-0.06253576
139	0xbc44e38c	-0.012017142
140	0x3d8409c3	0.064471744
141	0x3d844025	0.06457547
142	0x3c98ea32	0.01866636
143	0xbd01d9c3	-0.031701814
144	0xbc7051aa	-0.014667908
145	0x3c7a5e2a	0.0152812395
146	0x3d0684ef	0.03284162
147	0x3d5650a8	0.052323014
148	0x3daa2cd4	0.083093315
149	0xbd296662	-0.041357405
150	0x3cf35238	0.02970229
151	0x3d84652a	0.06464608
152	0xbd925c32	-0.07146491
153	0xbd25f5d6	-0.04051765
154	0xbd5a93d2	-0.05336363
155	0xbd897908	-0.06712538
156	0xbd508fbf	-0.050918337
157	0x3acfa8a9	0.0015843111
158	0x3d9ffe3b	0.078121625
159	0x3d557751	0.052115742
160	0xbcd8c8c7	-0.026462926
161	0x3d322237	0.04348966
162	0xbca16370	-0.019700736
163	0xbd1c3752	-0.038138695
164	0x3d55bc32	0.05218143
165	0x3b80f1ee	0.0039350903
166	0x3d745d02	0.05965901
167	0xbcb61285	-0.022225628
168	0xbca80bdc	-0.020513467
169	0xbd4b0c95	-0.049572546
170	0xbb2d99d8	-0.0026489403
171	0x3d86d072	0.065827265
172	0x3da8571d	0.082197405
173	0x3d6e3d73	0.05816407
174	0x3d4aae97	0.049482908
175	0x3c970992	0.01843718
176	0xbb439711	-0.0029844681
177	0x3dac4ec7	0.08413463
178	0x3ce340d8	0.02774088
179	0xbca42609	-0.020037668
180	0xbc4fada1	-0.012675674
181	0x3cec20ec	0.028824292
182	0x3d6582b4	0.05603285
183	0x3daa3109	0.08310134
184	0x3d0a05e6	0.03369703
185	0xbb576531	-0.0032866711
186	0xbd2dcf6c	-0.04243414
187	0x3d992242	0.07477237
188	0x3caebaf6	0.021329384
189	0x3d8bdfc2	0.06829788
190	0x3ca001c5	0.019532094
191	0xbd8578cf	-0.06517183
192	0x3ce9d2b3	0.028542852
193	0xbb9cf35a	-0.004789752
194	0x3d6db3a4	0.058032647
195	0x3d8d6181	0.06903363
196	0x3c5b5f6e	0.013389451
197	0x3c88dbe8	0.016706422
198	0xbcf22aa0	-0.02956134
199	0x3d39bda0	0.045346856
200	0x3be668a2	0.007031516
201	0xba9d5db9	-0.0012006081
202	0xbd89cf99	-0.06729049
203	0x3d0a6903	0.033791553
204	0x3cd55ebb	0.026046148
205	0x3d2546f7	0.04035088
206	0xbd529a0c	-0.05141644
207	0x3d12dd40	0.03585553
208	0xbcc1ee3e	-0.023673173
209	0x3c077306	0.00826717
210	0x3d75f693	0.060049605
211	0xbce9d1df	-0.028542457
212	0x3d0aa2a6	0.03384652
213	0xbd48ab1e	-0.048991315
214	0xbd15b800	-0.03655243
215	0x3c9ff8cc	0.019527815
216	0xbd0c6311	-0.034274165
217	0x3c8b0723	0.016971176
218	0x3c9340ae	0.017975178
219	0x3cc9d1cd	0.024636174
220	0x3d917872	0.07103051
221	0xbd64c3da	-0.05585084
222	0x3c11e34c	0.008904289
223	0xbd877d7a	-0.0661573
224	0x3d4cb608	0.049978286
225	0xbd652638	-0.05594465
226	0x3ca34a33	0.019932842
227	0x3d2af7a8	0.04174009
228	0xbce6cce4	-0.028173871
229	0x3d13de12	0.036100455
230	0xbd008c27	-0.03138366
231	0x3cfdcd64	0.030981727
232	0x3d43a94b	0.047768872
233	0x3d496247	0.04916599
234	0xbd12e68f	-0.03586441
235	0x3c4e51e6	0.012592768
236	0xbbe6a073	-0.00703817
237	0x3d6c44d9	0.057682846
238	0x3d9dd603	0.07706835
239	0xbd8126f0	-0.06306255
240	0x3d92d5d7	0.07169693
241	0x3d95997f	0.07304668
242	0x3c25869b	0.010102893
243	0xbd29611a	-0.04135237
244	0xbd1f7b19	-0.038935754
245	0x3daf5443	0.085609935
246	0xbd787cec	-0.06066601
247	0xbd36710b	-0.0445414
248	0xbd6caa5e	-0.057779662
249	0x3d848124	0.06469944
250	0x3dad9411	0.08475507
251	0xbd7045ba	-0.058660246
252	0x3bbd978c	0.005785888
253	0xbd807e9e	-0.0627415
254	0xbd8569fc	-0.065143555
255	0xbd844687	-0.064587645

bias f4 [10]
0	0xbd073c70	-0.033016622
1	0xbd2de2a5	-0.042452473
2	0xbd8d6a42	-0.06905033
3	0xbbacc125	-0.005272048
4	0xbd8d9a9a	-0.069142535
5	0xbd896118	-0.06707972
6	0xbc80b965	-0.015713403
7	0x3c07be7f	0.008285164
8	0xbd0cecf4	-0.034405664
9	0x3d3b8d78	0.045789212

weight f4 [10, 10, 5, 5]
0	0x3b2499f7	0.0025116184
1	0xbd136c88	-0.035992175
2	0xbd39a0d7	-0.045319404
3	0x3d50f997	0.051019277
4	0xbcceee92	-0.025260244
5	0x3d39f214	0.04539688
6	0xbcb95bf2	-0.02262685
7	0xbd1d05e6	-0.038335703
8	0x3d46ccb3	0.04853506
9	0x3d78f023	0.060775887
10	0xbd2318eb	-0.039818686
11	0x3ce41ce7	0.027845813
12	0x3d4f3462	0.050587066
13	0x3d227efe	0.03967189
14	0x3d7c0c94	0.061535433
15	0xbcb3f144	-0.02196563
16	0x3d49ff61	0.049315814
17	0x3d4225ee	0.047399454
18	0x3cbdb197	0.02315597
19	0x3d061e10	0.032743514
20	0x3cb4aaa5	0.022054026
21	0x3d4ec230	0.05047816
22	0x3d57b41e	0.052662008
23	0x3d229d87	0.03970101
24	0x3d7b3a1a	0.061334707
25	0x3c6823e0	0.0141687095
26	0xbd38631e	-0.0450164
27	0x3ca96e1a	0.020682383
28	0xbc7d82ba	-0.015473062
29	0x3d1fbb69	0.038997088
30	0xbc18f402	-0.00933552
31	0x3d27dd91	0.040982787
32	0x3d470004	0.048584
33	0xbcae95b8	-0.021311626
34	0xbd1797bf	-0.03700995
35	0x3d2da4fb	0.042393666
36	0x3c0e6645	0.008691375
37	0xbc15685e	-0.009119121
38	0x3c7e8da7	0.015536702
39	0xbca32638	-0.019915685
40	0x3c878c9d	0.016546542
41	0x3d928c82	0.07155706
42	0xbcaaaa15	-0.020833055
43	0x3d2137b6	0.03935977
44	0xbd13da3a	-0.03609679
45	0x3d18b8e0	0.037285686
46	0x3cf08f6d	0.029365266
47	0xbcdd7cbd	-0.027037019
48	0xbcc2a966	-0.023762416
49	0xbd0d969a	-0.034567453
50	0x3be1b3d3	0.006887892
51	0xbd2bc6d1	-0.041937653
52	0x3d09bf08	0.033629447
53	0xbbe4b773	-0.0069798767
54	0xbd8369d1	-0.06416667
55	0x3baf751c	0.0053545367
56	0x3ce21f25	0.027602741
57	0xbd268dd6	-0.04066261
58	0xbbb56356	-0.0055355234
59	0x3c89f4de	0.016840395
60	0xbd91d94a	-0.07121523
61	0xbcdf5dab	-0.027266344
62	0x3b824822	0.003975884
63	0xbca181db	-0.01971524
64	0xbb9e6aa1	-0.0048344885
65	0xbd40c00a	-0.047058143
66	0xbd3b1b4d	-0.045680333
67	0xbd4351ce	-0.047685437
68	0x3c139bb0	0.009009287
69	0xbc9c64b5	-0.01909099
70	0x3d28da44	0.04122378
71	0x3c05752d	0.008145613
72	0xbd39bb2d	-0.04534452
73	0xbbf5b464	-0.007498311
74	0xbd802d15	-0.06258599
75	0x3d9122d6	0.070867226
76	0x3d03da35	0.03219052
77	0x3d3d26db	0.046179634
78	0x3d716f04	0.058943763
79	0x3cc44f29	0.023963528
80	0xbd29352f	-0.041310485
81	0xbcc069f6	-0.023488026
82	0x3d89a763	0.067213796
83	0x3d1821b1	0.037141506
84	0x3c0431e3	0.008068535
85	0x3ca8081e	0.020511683
86	0x3d3077cf	0.04308301
87	0x3c73a5f3	0.014871108
88	0x3d291163	0.041276347
89	0x3d8d0e3c	0.068874806
90	0xbc7033a5	-0.0146607505
91	0x3d07c6b8	0.033148497
92	0x3d1ab778	0.037772626
93	0x3d2390fc	0.03993319
94	0xbd2b8006	-0.04187014
95	0xbd3cb497	-0.04607066
96	0x3d6a7825	0.057243485
97	0x3b224b38	0.0024764072
98	0x3d362d50	0.044476807
99	0x3d14604b	0.036224645
100	0xbc69c8a9	-0.0142690325
101	0x3bd8d7b3	0.00661751
102	0x3d2dcf1f	0.042433854
103	0x3d8b35fc	0.06797406
104	0xbd526eeb	-0.05137531
105	0xbd26b752	-0.04070217
106	0x3b0e6c2f	0.0021731963
107	0x3ca7320f	0.020409612
108	0x3cf32ad5	0.02968351
109	0x3d58b77f	0.05290937
110	0x3d48003d	0.048828352
111	0xbcccf516	-0.02501921
112	0x3cc229da	0.023701597
113	0x3d90346e	0.0704125
114	0xbce1e87e	-0.027576681
115	0x3ba719e2	0.005099521
116	0xbcb25e70	-0.021773547
117	0x3d86cbdd	0.065818526
118	0x3d59be0e	0.053159766
119	0xbcba9923	-0.0227781
120	0x3d619b6a	0.055079855
121	0x3bf5a5da	0.0074965777
122	0xbc7fb2ad	-0.0156065645
123	0x3cf308d5	0.029667297
124	0x3c1f602c	0.009727519
125	0xbd3a2234	-0.045442775
126	0x3c12908e	0.008945597
127	0xbc627c6d	-0.013823611
128	0x3ce7f49d	0.028314883
129	0xbd1c97e8	-0.038230807
130	0x3d0777ab	0.03307311
131	0xbcf00c7b	-0.029302826
132	0x3cb9ade6	0.022665929
133	0x3d3d96fb	0.046286564
134	0xbd8d6574	-0.06904116
135	0xbbb35dc3	-0.0054738238
136	0xbd0f2e2f	-0.034956153
137	0x3c93aeb1	0.018027635
138	0x3d1d6be8	0.038432986
139	0xbd7006b1	-0.05860013
140	0xbc1ce18e	-0.009575261
141	0xbb9b0c72	-0.004731708
142	0x3d473876	0.04863783
143	0xbc36b0eb	-0.011150579
144	0xbd862c5f	-0.06551432
145	0xbd877f08	-0.06616026
146	0xbd871ba9	-0.06597073
147	0xbca3d1ad	-0.019997442
148	0x3d5aa630	0.053381145
149	0xbc652ea8	-0.0139881745
150	0x3d238939	0.039925788
151	0xbcdcd66f	-0.026957719
152	0xbcf170d1	-0.02947274
153	0x3cc59386	0.024118196
154	0x3d4eadfd	0.050458897
155	0x3d3230f2	0.04350371
156	0x3d921059	0.07132024
157	0xbd035dc4	-0.032071844
158	0x3c59915a	0.013279283
159	0xbb40ca8f	-0.002941761
160	0xbd1b8991	-0.03797299
161	0x3d84aace	0.06477891
162	0xbb2475ca	-0.0025094622
163	0x3c95dd1c	0.01829391
164	0xbd5b27fa	-0.05350492
165	0x3c0d70b9	0.008632832
166	0xbcbfc281	-0.023408176
167	0x3d4e386c	0.050346777
168	0x3d57bc54	0.052669838
169	0x3d3fdca2	0.04684127
170	0xbd096611	-0.033544604
171	0xbcda3a44	-0.026639111
172	0x3d4d2c13	0.05009086
173	0x3d13a094	0.03604181
174	0x3d56948d	0.052387763
175	0x3d01180c	0.031517074
176	0x3d5754bf	0.052571055
177	0xbcd4d3e0	-0.025979936
178	0x3d3df2da	0.04637418
179	0xbd8c3b72	-0.06847276
180	0xbc098d9c	-0.008395579
181	0xbc1c7062	-0.0095482785
182	0xbd5a44ae	-0.053288154
183	0xbce60a2e	-0.028081026
184	0xbc2607e1	-0.010133714
185	0x3c45bd99	0.012069129
186	0xbd864d62	-0.06557728
187	0xbd44319c	-0.047898874
188	0x3d5aabe2	0.053386576
189	0xbd6f29ea	-0.05838958
190	0x3d4478f2	0.047966905
191	0xbd36a1fc	-0.044588074
192	0x3c9f81e9	0.019471126
193	0x3980d4c2	0.0002457258
194	0xbaffdbc6	-0.0019520454
195	0x3bc7856d	0.0060889036
196	0x3d3f52a7	0.046709683
197	0xbcf1d181	-0.029518845
198	0x3d2b47f9	0.041816685
199	0x3c422c13	0.011851328
200	0x3d4dc765	0.050238986
201	0x3c6d1932	0.014471339
202	0x3c7e942f	0.015538259
203	0x3c6a06a6	0.014283812
204	0x3d72799f	0.05919802
205	0x3d34a149	0.044099126
206	0x3d21c55f	0.03949487
207	0xbc933839	-0.017971145
208	0x3d82457e	0.06360911
209	0x3d03c54e	0.032170586
210	0x3ce6b17d	0.028160805
211	0x3a03fe87	0.0005035181
212	0x3d1cbd2c	0.038266346
213	0xbcfc9bee	-0.030836072
214	0x3d5c0328	0.053713948
215	0x3c436bb0	0.01192753
216	0xbcd27751	-0.02569166
217	0x3d1d01d1	0.03833181
218	0xbd140593	-0.03613813
219	0xbac136f0	-0.0014741104
220	0x3d77a64e	0.060461335
221	0x3d6828da	0.056679584
222	0xbcb6bc13	-0.022306478
223	0xbcc5c651	-0.024142416
224	0x3d652495	0.05594309
225	0x3d198e2a	0.037489094
226	0xbcf20888	-0.029545084
227	0x3ca58dc1	0.020209195
228	0x3d882dd0	0.06649363
229	0x3d657fe6	0.056030177
230	0x3d072a12	0.032999106
231	0xbcefe5e3	-0.029284423
232	0x3d3e1a5c	0.046411857
233	0xbd51ec3e	-0.05125069
234	0xbd5be60d	-0.05368619
235	0x3d6daf2c	0.058028385
236	0xbd14a21f	-0.036287423
237	0xbd2ac1da	-0.041688778
238	0xbcf1d4cb	-0.029520413
239	0xbc31cd35	-0.010852148
240	0xbcb580d9	-0.022156166
241	0xbba70b73	-0.0050978004
242	0x3a03074c	0.0004998341
243	0x3cf2134e	0.02955022
244	0x3bc6bb26	0.0060647903
245	0x3d2bfd14	0.0419894
246	0x3d5bac2b	0.05363099
247	0x3c74e78b	0.014947782
248	0x3d30e566	0.04318752
249	0x3d6e8149	0.058228765
250	0x3c3c9766	0.011510706
251	0x3d395066	0.04524269
252	0xbcec3014	-0.02883152
253	0xbcced605	-0.025248537
254	0x3d4eaf17	0.050459947
255	0xbb9fcdd4	-0.0048768315

bias f4 [10]
0	0xbb153d8e	-0.0022772285
1	0xbd6c1b1d	-0.057643045
2	0x3cfa51ae	0.030556526
3	0x3c11e02a	0.0089035425
4	0xbd4c983e	-0.049949877
5	0x3ceafa10	0.028683692
6	0x3d553e53	0.05206139
7	0xbd45dba4	-0.04830517
8	0xbc9ec3ce	-0.019380476
9	0x3c8d8884	0.01727701

weight f4 [100, 810]
0	0xbca0ef18	-0.019645259
1	0xb9dc4835	-0.00042015468
2	0x3b59f40e	0.003325704
3	0xbd1d3946	-0.0383847
4	0xbaf0335c	-0.0018325853
5	0xbb9862cd	-0.00465045
6	0xbd11fa27	-0.035638954
7	0xbd1e727e	-0.038683407
8	0xbcd5d3eb	-0.026102027
9	0x3c85623c	0.016282193
10	0x3c8a52e2	0.016885225
11	0x3ce95a1e	0.028485354
12	0x3c633756	0.013868174
13	0xbd0438d6	-0.032280765
14	0xbc17c8d7	-0.009264193
15	0xbc9b2a63	-0.01894111
16	0x3ce47aeb	0.027890643
17	0xbcfc9028	-0.030830458
18	0x3bd51977	0.00650328
19	0x3cb958fc	0.022625439
20	0xbb228364	-0.0024797553
21	0xbbd56339	-0.0065120724
22	0xbd295082	-0.041336544
23	0x3c3fc9e8	0.011705853
24	0xbc855cc3	-0.016279584
25	0x3ad8166d	0.0016486176
26	0x3c8204ec	0.015871488
27	0xbca381f5	-0.01995943
28	0x3c9c425f	0.019074617
29	0x3b0c82ea	0.0021440336
30	0xbcbc51ae	-0.022988167
31	0xbc020c2c	-0.007937472
32	0xbccee287	-0.025254501
33	0x3c27e05c	0.010246363
34	0xbd070236	-0.032961093
35	0xbcb2555f	-0.021769224
36	0xbb3ea3ed	-0.0029089407
37	0xbc0f5df3	-0.008750427
38	0xbcf31bbf	-0.029676316
39	0x3a2729d2	0.0006376776
40	0xba5b7b00	-0.00083725154
41	0xbc0f0958	-0.008730255
42	0xbcdc25c8	-0.026873484
43	0xbd1923fa	-0.037387826
44	0xbbb73776	-0.0055913283
45	0x3a77bf35	0.00094507943
46	0xbbb04146	-0.005378875
47	0xbc7b44bf	-0.015336215
48	0xbcc00f7f	-0.02344489
49	0x3c8afb83	0.016965633
50	0xbc78ca5a	-0.015184963
51	0x3cb0cef6	0.021583062
52	0x3c76e13b	0.015068348
53	0xbc701207	-0.014652736
54	0xbd246ff9	-0.040145848
55	0xbd24dac0	-0.04024768
56	0x3ca71aa7	0.020398451
57	0xbd155422	-0.03645719
58	0xbd0e98f4	-0.034813836
59	0xbba3f501	-0.005003572
60	0x3b09c0ce	0.0021019462
61	0x3c5c615e	0.0134509485
62	0x3c885f89	0.016647117
63	0x3cbc4933	0.022984123
64	0xbac26afb	-0.0014832908
65	0xbc834887	-0.016025795
66	0xbcd8dbda	-0.02647202
67	0xba3cd3a1	-0.0007203166
68	0xbd1053a5	-0.03523602
69	0xbcbe70f5	-0.023247221
70	0x3b9c71de	0.004774316
71	0x3ca82a7c	0.02052807
72	0xbadb2dce	-0.0016722025
73	0xbc8dee1c	-0.017325453
74	0xbd2863da	-0.04111085
75	0xbcbac01d	-0.022796685
76	0xbd060605	-0.032720584
77	0xbd0d2955	-0.034463245
78	0xbd1e8f77	-0.038711037
79	0xbd1a649e	-0.037693612
80	0xbd01a2e2	-0.031649478
81	0x3d02a799	0.031898115
82	0x3ce1322d	0.027489746
83	0xbca9f039	-0.02074443
84	0xbc1cb22d	-0.009563965
85	0x3ce950a2	0.028480832
86	0x3c89120a	0.016732235
87	0xbcf96cca	-0.030447382
88	0xbc372f4a	-0.011180708
89	0x3cf34280	0.029694796
90	0x3c348b72	0.0110195745
91	0xbc8653e3	-0.016397422
92	0x3cd78e0a	0.026312847
93	0x3cf712b5	0.030160287
94	0x3d06e98a	0.032937564
95	0x3c894bb6	0.016759735
96	0x3c41d364	0.011830185
97	0xbbf4ab27	-0.007466692
98	0xbc7e8af8	-0.015536062
99	0x3b9946b3	0.0046776175
100	0x3bffad2d	0.0078026266
101	0xbc61206e	-0.013740642
102	0xbcaea56e	-0.021319117
103	0x3ca4d27b	0.020119896
104	0xbc376f8c	-0.011196028
105	0x3d199a2a	0.037500538
106	0x3bb10d74	0.005403215
107	0xbc1762c1	-0.009239853
108	0x3cd2819d	0.02569657
109	0xbc96216a	-0.01832648
110	0x3d1d5d71	0.03841919
111	0x3d2212fd	0.03956889
112	0xbc8acdb8	-0.016943797
113	0x3bed05e1	0.007233367
114	0x3c2882a9	0.010285058
115	0xbbea5689	-0.007151429
116	0xbc05963a	-0.008153493
117	0x3b4c3404	0.0031158933
118	0x3cdfadbe	0.027304526
119	0x3c96a93f	0.01839125
120	0xbc97f91a	-0.018551398
121	0x3bf012f1	0.0073264767
122	0x3cf172bc	0.029473655
123	0x3d218fe7	0.039443877
124	0xbc85c406	-0.016328823
125	0x3d0a0ae9	0.03370181
126	0x3be084f7	0.006851788
127	0x3c8bdbd9	0.017072605
128	0x3c6b4ee6	0.014362073
129	0xbce63d1c	-0.028105311
130	0x3d2310a8	0.039810807
131	0x3d0e4f3f	0.034743544
132	0xbcee37be	-0.029079314
133	0x3cd95b2f	0.026532738
134	0xbc44a3c0	-0.012001932
135	0x3c00f452	0.0078707505
136	0xbcc8ba2f	-0.024502842
137	0xbc068dbf	-0.008212506
138	0x3c54a6c7	0.012979216
139	0x3babc73d	0.005242257
140	0x3d1cf5aa	0.03832022
141	0x3c8db7b4	0.01729951
142	0xbc9abc4a	-0.018888611
143	0xbb782cc0	-0.003786847
144	0xbcca024d	-0.0246593
145	0x3cba30ff	0.022728441
146	0xbc7bf2a8	-0.015377678
147	0xbc7b9aab	-0.0153567
148	0xbc0b9f2d	-0.008521837
149	0x3c948f13	0.01813463
150	0x3b68beac	0.003551404
151	0xbcc048fa	-0.023472298
152	0xbcafb43f	-0.021448253
153	0x3c02e914	0.0079901405
154	0xbb0ba72f	-0.0021309366
155	0xb9a66991	-0.0003174064
156	0xbcb277d4	-0.021785654
157	0xbbfd3d80	-0.0077282786
158	0x3cde3bee	0.027128186
159	0x3cf0bc6b	0.02938672
160	0xbce1836f	-0.027528493
161	0xb8398219	-4.42286e-05
162	0xbbbf0c69	-0.005830337
163	0xbc25f2f6	-0.010128727
164	0xbc2a77ca	-0.0104045365
165	0xbcedd9a1	-0.029034438
166	0xbc3fb894	-0.011701722
167	0x3c939bd6	0.018018644
168	0xbbdee8a8	-0.006802637
169	0xbc256007	-0.0100936955
170	0x3c6646a3	0.014054927
171	0x3b97c6a2	0.004631833
172	0x3b7e202a	0.0038776495
173	0xbc45cec7	-0.012073225
174	0xbc6da3b8	-0.014504366
175	0xbccbcfe5	-0.024879405
176	0xbc4268b8	-0.011865787
177	0xbd0cb536	-0.034352504
178	0xbc84355b	-0.016138723
179	0xbd0ac501	-0.033879284
180	0xbbde50e9	-0.0067845476
181	0xbb42aabd	-0.0029703819
182	0xbc3d4f0c	-0.011554491
183	0xbc287c99	-0.010283613
184	0x3c255356	0.01009067
185	0x3be3c59e	0.006951048
186	0x3c397155	0.011318524
187	0x3c70313b	0.014660175
188	0xbcbbeb9b	-0.022939494
189	0x3cb89b0a	0.022534866
190	0x3caa9b85	0.02082611
191	0x3bab35a5	0.005224901
192	0xbcf4a1db	-0.029862335
193	0xbd1e39f3	-0.038629483
194	0xbcea4375	-0.02859662
195	0xbc93dac2	-0.018048648
196	0xbaf676b7	-0.001880369
197	0x3cb85a31	0.022503944
198	0x3cd9695f	0.026539503
199	0xbc8febe0	-0.017568529
200	0x3c88efdc	0.016715936
201	0xbcee16b4	-0.02906356
202	0xbcda64e2	-0.026659433
203	0x3cc34c9f	0.023840247
204	0xbb244ccb	-0.0025070186
205	0x3c844ca6	0.01614983
206	0x3c8989fc	0.016789429
207	0xbce1b229	-0.027550774
208	0x3b72165d	0.00369396
209	0x3a0782b0	0.0005169315
210	0x3c398985	0.011324291
211	0xbd176ef6	-0.036971055
212	0x3c4f1b05	0.012640719
213	0x3b3b3aac	0.0028568907
214	0x3b96f088	0.0046063103
215	0x3c3a1678	0.011357896
216	0x3c9cea11	0.01915458
217	0x3bc9638e	0.006145901
218	0x3c9b3d89	0.01895024
219	0xbadd5f03	-0.0016889278
220	0x3ca01c38	0.019544706
221	0xbc16eb0e	-0.009211315
222	0xbbdcb111	-0.006734975
223	0x3ca8092c	0.020512186
224	0xbb5c64f9	-0.003362952
225	0xbc644611	-0.013932721
226	0xbceabf65	-0.028655717
227	0x3c320a45	0.010866706
228	0xbcc629a5	-0.02418978
229	0xbb550cfb	-0.0032508958
230	0xbc59bf71	-0.013290272
231	0x3ccfe4e5	0.0253777
232	0x3c9f8181	0.019470932
233	0x3c4bde5f	0.012443154
234	0xbc075388	-0.0082596615
235	0xbc121103	-0.008915189
236	0xbca1fe7e	-0.019774672
237	0xbc75e0c6	-0.015007203
238	0xbc854835	-0.016269783
239	0x3b3d0400	0.0028841496
240	0x3ca21c2d	0.019788826
241	0xbce849d3	-0.028355515
242	0x3ce7c71b	0.028293183
243	0x3b8cee59	0.004300874
244	0xbc54a386	-0.01297844
245	0xba648524	-0.0008717349
246	0xbc41625f	-0.011803239
247	0xbbdb58cc	-0.006693935
248	0xbb366426	-0.002783069
249	0x3bdf2686	0.0068100123
250	0xbd275a20	-0.040857434
251	0xbb0c1d11	-0.002137963
252	0xbcedf3b2	-0.029046867
253	0xbcb2da9b	-0.021832755
254	0x39b3eb79	0.0003431698
255	0x3cb38c8a	0.0219176

bias f4 [100]
0	0xbd19a197	-0.03750762
1	0x3cec9da0	0.028883755
2	0x3d0cf6db	0.034415107
3	0x3c9640d9	0.018341469
4	0x3c48ad8b	0.012248407
5	0xbceaefab	-0.028678736
6	0xbce71fda	-0.02821343
7	0xbce1949c	-0.027536683
8	0xbccf5c9d	-0.025312716
9	0x3b638624	0.0034717405
10	0x3ca6ad81	0.020346405
11	0x3cce29da	0.02516644
12	0x3bbb8f22	0.00572385
13	0xbcc3effd	-0.023918146
14	0xbd0b9bac	-0.034084007
15	0xbcefc96e	-0.029270854
16	0xbc1c45c1	-0.009538115
17	0x3cbd48da	0.023106027
18	0x3c45025c	0.012024488
19	0x3d21df21	0.039519433
20	0x3cb2cec7	0.021827115
21	0x3c912813	0.017719304
22	0xbcfd996c	-0.030956946
23	0xbc7ee650	-0.0155578405
24	0xbc2463b5	-0.010033538
25	0x3b3f1c03	0.0029160983
26	0xb8d35606	-0.00010077287
27	0xbcd937c7	-0.026515855
28	0x3c8f5c53	0.017500078
29	0x3b1c4747	0.0023846196
30	0x3ca3f0c0	0.02001226
31	0x3bdfe252	0.0068323994
32	0xbc75f94f	-0.015013053
33	0xbbee3b8a	-0.007270281
34	0xbb058960	-0.0020376071
35	0xbcd9e284	-0.026597269
36	0x3cd05d79	0.025435196
37	0xbccdcd10	-0.025122195
38	0xbcc1e0f7	-0.023666842
39	0x3d1b7441	0.037952665
40	0xbcfdd36c	-0.030984603
41	0xbd0efec6	-0.03491094
42	0xba87a6f5	-0.001034944
43	0x3b5b8e19	0.0033501445
44	0xbbb2c5dc	-0.0054557156
45	0xbb4838a1	-0.0030551332
46	0x3b66c627	0.0035213323
47	0x3ad8eaa5	0.0016549422
48	0xbd163510	-0.036671698
49	0x3b3a317e	0.0028410847
50	0xbd1f1219	-0.03883562
51	0xbc1f301e	-0.009716062
52	0x3ccfb9bd	0.025357122
53	0x3ca14b3c	0.019689195
54	0xbcfec7a0	-0.031101048
55	0x3cdf306f	0.027244775
56	0x3c0cb9b3	0.008589196
57	0x3c880a00	0.01660633
58	0xbc2d11f7	-0.010563365
59	0x3d0582d7	0.03259548
60	0xbb86139b	-0.0040916926
61	0x3c7f8e9a	0.015597964
62	0x3cfdd12c	0.03098353
63	0x3d07ac65	0.033123393
64	0xbb35b453	-0.002772589
65	0xbc431f80	-0.011909366
66	0x3b6bda5d	0.003598831
67	0x3cfd1a2e	0.030896273
68	0x3cf693b1	0.030099722
69	0x3d01ceec	0.031691477
70	0xbcd0a871	-0.025470944
71	0x3c599126	0.013279235
72	0xbb05b3c3	-0.0020401336
73	0x3cb935b4	0.022608615
74	0xbd21e36d	-0.03952353
75	0xbc6ad896	-0.014333865
76	0xbcae2da0	-0.02126199
77	0xbcc9cce0	-0.024633825
78	0x3bb708d1	0.005585768
79	0x3cd044a2	0.025423352
80	0x3c949e68	0.01814194
81	0xbc2ed37f	-0.010670542
82	0x3cb28099	0.021789836
83	0xbc8ef299	-0.017449664
84	0xbc8c0e25	-0.017096588
85	0x3d1ca53c	0.038243517
86	0xbbf5490f	-0.007485516
87	0x3cb34791	0.021884711
88	0xbcf0e246	-0.02940477
89	0xbd1b555c	-0.037923202
90	0x3d1fb171	0.03898758
91	0xbc173b75	-0.009230484
92	0xbcd14440	-0.02554524
93	0xbcfe75f2	-0.0310621
94	0x3cf680a9	0.030090647
95	0x3bf06a90	0.007336922
96	0x3b78f56b	0.0037988077
97	0x3bf32add	0.007420881
98	0x3c8b4c11	0.017004045
99	0xbb5ed7f4	-0.003400323

weight f4 [861, 100]
0	0xbd2bfc50	-0.04198867
1	0xbdac4b73	-0.08412828
2	0xbd68342f	-0.05669039
3	0xbd67bbfe	-0.056575768
4	0xbdb2f58b	-0.0873824
5	0x3c87c64c	0.016574048
6	0xbd993950	-0.074816346
7	0x3d44e0da	0.048065998
8	0x3daf9d0d	0.08574877
9	0xbd958523	-0.073007844
10	0x3d14afca	0.036300458
11	0xbdd66e2f	-0.104702346
12	0x3bda1e9f	0.0066564824
13	0x3c75da9b	0.015005733
14	0x3d8cfa34	0.0688366
15	0xbd99d2bd	-0.07510898
16	0x3da93f62	0.082640424
17	0x3d807129	0.062715836
18	0x3a7f25c2	0.00097331044
19	0x3d6c7135	0.05772515
20	0xbd6128e3	-0.054970633
21	0xbd1abcaf	-0.0377776
22	0xbda3c486	-0.07996468
23	0xbd391143	-0.045182478
24	0x3cec4056	0.028839272
25	0x3cd34498	0.025789544
26	0xbcef4a7c	-0.029210322
27	0x3da838e1	0.08213974
28	0x3dcb137c	0.09915826
29	0xbd266d4a	-0.04063157
30	0x3d907093	0.07052722
31	0xbd9a376b	-0.075301014
32	0x3d598d20	0.053113103
33	0xbc75b7b9	-0.014997416
34	0xbc50efe7	-0.01275251
35	0xbc9e0338	-0.019288644
36	0x3d9d7faa	0.076903656
37	0x3cf6bd27	0.030119492
38	0xbdd57d76	-0.104243204
39	0x3d7b513f	0.06135678
40	0xbdb2b719	-0.08726329
41	0xbd951f72	-0.07281388
42	0xbdad7341	-0.084692486
43	0xbca28cf9	-0.019842612
44	0x3d88ec7e	0.06685732
45	0xbd6ef60b	-0.058340114
46	0xbc764f19	-0.015033507
47	0x3d5b22e1	0.05350006
48	0xbcbf751c	-0.023371272
49	0x3d89789e	0.06712459
50	0xbd0fda92	-0.035120554
51	0xbdd9bb9e	-0.10631488
52	0xbd831345	-0.0640016
53	0x3d1692a2	0.036760934
54	0xbd99241c	-0.074775904
55	0x3db42744	0.08796552
56	0xbd4eeb0c	-0.050517127
57	0xbc3f61b1	-0.011681006
58	0x3d1fcf25	0.039015908
59	0x3cb64aa5	0.02225239
60	0xbbb741cb	-0.00559256
61	0xbd241457	-0.04005846
62	0xbdc6ae17	-0.09701174
63	0xbd48eb6b	-0.049052637
64	0xbcd1bb97	-0.025602145
65	0x3d3d319d	0.046189893
66	0x3b604de8	0.0034226123
67	0x3ae20e3f	0.0017246677
68	0xbcc69502	-0.024240974
69	0x3d50dc8e	0.050991587
70	0x3d463c66	0.048397444
71	0xbd399a83	-0.04531337
72	0x3d9fe13e	0.078066334
73	0x3ce2e00c	0.027694725
74	0xbd0c9436	-0.034321032
75	0x3ab87983	0.0014074299
76	0x3d918235	0.07104913
77	0x3cd2abaf	0.02571663
78	0xbda991ac	-0.08279738
79	0x3ae5b062	0.001752388
80	0x3da94cbe	0.082665905
81	0xbdd93d4a	-0.10607393
82	0x3c97a840	0.018512845
83	0x3dba06f6	0.09083359
84	0xbd859b78	-0.06523794
85	0xbc2d8732	-0.010591315
86	0x3d85e9a0	0.06538701
87	0xbcc9d200	-0.024636269
88	0xbdaa1302	-0.08304407
89	0x3dbc4814	0.09193435
90	0x3cdf75d6	0.027277868
91	0xbd83c6b2	-0.064343825
92	0x3c16071f	0.009156971
93	0xbd442d66	-0.047894858
94	0x3d79ca5d	0.060984004
95	0x3dada541	0.08478785
96	0x3caf128f	0.021371154
97	0x3d0a5de6	0.033780955
98	0xbdbbd2e5	-0.09171084
99	0x3d9a84eb	0.07544883
100	0xbc908ae7	-0.017644359
101	0x3d7485ce	0.05969792
102	0xbce2af54	-0.027671494
103	0x3d82a56d	0.06379209
104	0x3c118b47	0.008883304
105	0x3c38f85c	0.011289682
106	0xbd5c8ab2	-0.053843208
107	0x3c0082c6	0.007843679
108	0x3dda5c9e	0.106621966
109	0xbd003754	-0.031302765
110	0x3dcef76c	0.10105786
111	0x3d2f6940	0.042824984
112	0x3d2bf677	0.041983094
113	0x3d848583	0.06470778
114	0xbcb593b9	-0.022165166
115	0x3cd752dd	0.02628463
116	0xbd3e9e95	-0.046537954
117	0x3ca8b420	0.020593703
118	0x3db46f0c	0.08810243
119	0xbdbe1954	-0.09282175
120	0xbcc13f64	-0.023589797
121	0xbdc027d9	-0.093826
122	0xbd1cd074	-0.038284734
123	0x3c82950a	0.015940208
124	0x3d9653b8	0.07340187
125	0xbb60eae8	-0.0034319703
126	0xbba313d0	-0.004976727
127	0x3d8c11b2	0.068393126
128	0x3daea353	0.085272454
129	0xbd25689a	-0.04038296
130	0x3d4e3e1f	0.050352212
131	0xbd44bc8d	-0.04803138
132	0x3d9ab6e1	0.07554413
133	0xbcf51b7e	-0.029920336
134	0x3d9e7611	0.07737363
135	0x3db253a4	0.087073594
136	0x3dace269	0.08441622
137	0xbd23c4ec	-0.03998272
138	0x3d1dadba	0.038495757
139	0x3d3ffaef	0.04687017
140	0x3d657a98	0.056025118
141	0xbd844147	-0.06457763
142	0x3d07cb36	0.03315278
143	0xbd3a4380	-0.04547453
144	0x3da0067e	0.07813738
145	0xbd505ec0	-0.05087161
146	0xbb89e214	-0.004207859
147	0xbc38e69d	-0.011285451
148	0xbda7996a	-0.08183558
149	0xbd34ad90	-0.044110835
150	0xbcd3b882	-0.025844816
151	0xbc95d795	-0.018291274
152	0xbdae4d4c	-0.08510837
153	0x3caa2f9e	0.020774659
154	0x3b7c1638	0.0038465392
155	0xbcbbadc2	-0.022910003
156	0x3caf0d9e	0.021368798
157	0xbd8cff92	-0.06884684
158	0xbdb6ad0d	-0.089197256
159	0x3d3cc6f5	0.046088178
160	0x3d6210b8	0.055191725
161	0x3ca5acb0	0.020223945
162	0x3d88ef90	0.06686318
163	0xbdd0080d	-0.101577856
164	0xbdc7400c	-0.09729013
165	0x3d0ac14e	0.033875756
166	0x3c12cc4f	0.008959844
167	0xbd9fd171	-0.0780362
168	0x3db22d75	0.087000765
169	0xbcf64c91	-0.030065807
170	0xbdb83808	-0.08995062
171	0xbdb37c27	-0.087639146
172	0xbbbb8040	-0.0057220757
173	0xbd2ce04b	-0.04220609
174	0xbbedb0cb	-0.0072537414
175	0x3ca35d1a	0.019941855
176	0x3d24d737	0.040244307
177	0xbacddd5a	-0.0015706227
178	0xbd8e6c94	-0.069543034
179	0x3d9b1317	0.075720005
180	0xbd750ea2	-0.059828408
181	0x3cbf4bdd	0.023351604
182	0x3da3c72f	0.07996976
183	0xbd463a8b	-0.048395675
184	0xbda69298	-0.08133429
185	0xbd1d105c	-0.03834568
186	0x3db68c3b	0.089134656
187	0xbd9a405b	-0.07531806
188	0x3db5ab3e	0.088705525
189	0xbcb7d638	-0.022441015
190	0x3d82593a	0.06364675
191	0x3dc855c2	0.09781982
192	0xbd04f641	-0.03246141
193	0x3cbcf396	0.02306537
194	0x3cacef00	0.021110058
195	0x3ddba328	0.10724479
196	0xbd885621	-0.06657053
197	0x3daf7770	0.08567703
198	0xbbb7bd25	-0.0056072646
199	0x3dc150b7	0.09439223
200	0xbd49ddc9	-0.049283776
201	0x3d857062	0.06515576
202	0xbdc885e6	-0.09791164
203	0xbd95b7f0	-0.07310474
204	0xbd1aceac	-0.037794754
205	0x3c7350bf	0.014850794
206	0xbc9fd1b4	-0.019509174
207	0x3d34385c	0.04399906
208	0xbd6a3348	-0.05717781
209	0xbd1b62c6	-0.037935995
210	0x3dcee646	0.10102515
211	0xbd637e2a	-0.05554024
212	0x3d373d09	0.044735942
213	0xbd605ef0	-0.05477804
214	0xbc117317	-0.008877537
215	0xbdb891b9	-0.090121694
216	0x3c1b99d5	0.009497126
217	0xbd6d9277	-0.058001008
218	0x3cb52c97	0.022115989
219	0x3da16807	0.0788117
220	0x3c8ceeb0	0.017203659
221	0x3a60bfee	0.00085735216
222	0xbdb88f21	-0.09011675
223	0x3c40ed56	0.011775335
224	0x3da4659e	0.080271944
225	0x3ce56b01	0.028005125
226	0x3bcd372f	0.006262682
227	0xbd071770	-0.032981336
228	0x3d1c73e4	0.03819646
229	0xbd999e04	-0.07500842
230	0x3c24d53a	0.010060603
231	0xbdaa93a7	-0.08328944
232	0xbc137e69	-0.0090023065
233	0x3c415fd6	0.011802634
234	0xbd6b3178	-0.057420224
235	0xbda7a089	-0.081849165
236	0xbd8986f4	-0.067151934
237	0xb8e66b2f	-0.00010987219
238	0x3d2f41b2	0.04278726
239	0xbdb362a3	-0.08759048
240	0x3d83ec60	0.06441569
241	0xbd42e070	-0.04757732
242	0xbda7d107	-0.08194166
243	0xbb7c1a93	-0.0038467988
244	0xbd75015f	-0.05981576
245	0x3c5a23e5	0.013314222
246	0x3da58b02	0.08083154
247	0xbd9277b4	-0.07151738
248	0xbd9e5954	-0.07731882
249	0xbd8b9ec2	-0.0681739
250	0x3d9da28f	0.07697021
251	0xbd058891	-0.032600943
252	0xbdc1ff76	-0.094725534
253	0x3da8203a	0.08209272
254	0xbc3ec18e	-0.011642827
255	0x3dabb112	0.08383383

bias f4 [861]
0	0xbd8f30ee	-0.069917545
1	0x3d375a38	0.044763774
2	0x3d0cb2eb	0.034350317
3	0xbd98016c	-0.07422146
4	0xbdb908de	-0.090348944
5	0x3c96d81e	0.0184136
6	0xbc4e49d0	-0.01259084
7	0xbdc751ff	-0.097324364
8	0xbd882e03	-0.06649401
9	0x3ad19951	0.0015991126
10	0x3da59704	0.080854446
11	0x3dc26358	0.094916046
12	0x3cd6ab3a	0.026204694
13	0x3bd570e9	0.006513704
14	0x3d422d02	0.047406204
15	0x3d3ebc27	0.046566155
16	0xbbaec6be	-0.0053337505
17	0x3c7b6793	0.015344518
18	0x3d61adf8	0.05509755
19	0x3d2a1363	0.041522395
20	0xbdcbcb6d	-0.0995091
21	0x3d47e927	0.048806336
22	0xbd7365e6	-0.05942335
23	0x3d76520c	0.06013684
24	0x3abeb9e4	0.0014551249
25	0x3d9ff59f	0.078105204
26	0xbd9e44d7	-0.07727974
27	0x3d7dc129	0.06195179
28	0x3cc92787	0.02455498
29	0xbd5baf11	-0.053633753
30	0x3c806f50	0.015678078
31	0xbd245907	-0.040123966
32	0xbdcd9958	-0.100390136
33	0x3d97785f	0.07396006
34	0x3d94f1dd	0.07272694
35	0xbba890d5	-0.0051442184
36	0xbb18d484	-0.0023320029
37	0xbdd0d270	-0.10196388
38	0xbc7671a3	-0.015041742
39	0x3d388dcf	0.045057114
40	0xbdbc52d3	-0.09195485
41	0xbcdb04a6	-0.026735615
42	0x3cf146d6	0.029452723
43	0xbdb6fcb4	-0.08934918
44	0xbd8a394b	-0.06749209
45	0x3dba38e3	0.090928815
46	0xbdca0fd6	-0.09866302
47	0xbd9ae29f	-0.07562756
48	0x3ca80887	0.020511879
49	0x3d8ddb21	0.06926561
50	0xbda29ac6	-0.07939677
51	0xbb863382	-0.0040954957
52	0x3d278e90	0.040907443
53	0x3cfa76f3	0.030574298
54	0xbdab544f	-0.0836569
55	0x3c838dec	0.016058885
56	0xbc5874b6	-0.01321142
57	0x3b9e5d28	0.0048328824
58	0x3d208df2	0.03919787
59	0x3d66e4e4	0.05637063
60	0x3db5d504	0.0887852
61	0x3d64a64a	0.055822648
62	0xbd948fd8	-0.072539985
63	0xbd7084c8	-0.05872038
64	0xbdb6c0db	-0.08923503
65	0xbda1c276	-0.078984186
66	0xbd55283d	-0.052040327
67	0x3d02883f	0.031868216
68	0x3dba77a2	0.091048494
69	0x3d14bfb6	0.036315642
70	0xbcf8f2a6	-0.030389141
71	0xbd8e1595	-0.0693771
72	0x3c591401	0.013249398
73	0x3dab97b7	0.08378547
74	0xbd6de474	-0.058079198
75	0x3d7aaf61	0.06120241
76	0xbd1c659a	-0.038182832
77	0x3cfc9320	0.030831873
78	0x3db55620	0.08854318
79	0x3cb3906d	0.021919454
80	0xbcaaf3f1	-0.020868273
81	0xbd55eddb	-0.05222879
82	0xbd0a9f15	-0.03384312
83	0xbc72393c	-0.014784154
84	0xbdc2ab2a	-0.09505303
85	0x3d8ae8e7	0.06782704
86	0x3d9c42f5	0.076299585
87	0x3ceb8a8f	0.028752593
88	0xbdb092ff	-0.08621787
89	0xbda08e49	-0.07839639
90	0xbcdc20b8	-0.02687107
91	0x3dbdfbd9	0.09276552
92	0xbdad8ea3	-0.084744714
93	0x3d8f14f9	0.06986422
94	0x3c9e3e24	0.01931674
95	0xbca03228	-0.019555166
96	0x3d168c48	0.036754876
97	0x3dab3df9	0.0836143
98	0xbdc09df4	-0.09405127
99	0x3d9f8445	0.077889
100	0xbd9cb89d	-0.076524
101	0x3d968de8	0.07351285
102	0x3ce62436	0.028093439
103	0xbd83eff0	-0.06442249
104	0xbdc3c270	-0.095585704
105	0xbd0a1be7	-0.033718016
106	0xbda0d00b	-0.07852181
107	0x3d3a00c0	0.04541087
108	0x3dafbbe1	0.08580757
109	0x3c1685d8	0.009187184
110	0x3cd437b6	0.025905471
111	0xbd61bf42	-0.05511404
112	0x3db56842	0.08857776
113	0x3d3fe707	0.046851184
114	0x3c7714cf	0.015080645
115	0xbcc8a776	-0.024493914
116	0x3c689d17	0.014197609
117	0x3d75a6c5	0.059973497
118	0xbdc82845	-0.09773306
119	0x3c89e676	0.016833525
120	0xbd813972	-0.06309785
121	0x3cb95094	0.02262143
122	0xbcfa1dae	-0.03053173
123	0xbdb60856	-0.08888309
124	0xbd8912a5	-0.06693009
125	0xbc534bb3	-0.012896466
126	0x3db4ee8e	0.08834563
127	0xbda05f61	-0.07830692
128	0xbcc732a8	-0.024316147
129	0xbd26c337	-0.040713515
130	0x3d87a78d	0.06623755
131	0x3d91b4d5	0.07114569
132	0x3c7996b6	0.015233686
133	0x3ccc7e32	0.024962518
134	0xbd1d105b	-0.038345676
135	0x3d039728	0.032126576
136	0xbdb54eaf	-0.08852898
137	0x3d59b1f9	0.053148244
138	0x3d34a873	0.04410596
139	0xbd8b0d24	-0.06789616
140	0x3d999351	0.074988015
141	0x3d0ef5ac	0.03490226
142	0x3d13fbd1	0.036128823
143	0x3ab1c2de	0.0013562103
144	0x3d00d66a	0.03145448
145	0xbd538ece	-0.05164986
146	0xbd983921	-0.074327715
147	0xbd83ecee	-0.06441675
148	0xbd14a9cb	-0.03629474
149	0x3d853053	0.06503358
150	0xbda5d723	-0.08097675
151	0xbc59e0ef	-0.013298257
152	0x3d7ac583	0.061223518
153	0x3c94889b	0.018131545
154	0xbd978619	-0.07398624
155	0x3c55c8a7	0.0130483275
156	0xbdabec2d	-0.08394656
157	0xbd87cd4a	-0.06630953
158	0xbdb68803	-0.08912661
159	0xbc8d68b7	-0.017261846
160	0xbd5dbd62	-0.054135688
161	0xbc605ff2	-0.01369475
162	0x3d25291b	0.040322404
163	0x3dbf45ca	0.09339483
164	0xbd29b097	-0.041428175
165	0xbcc6f7a0	-0.024287999
166	0x3c7ebfc6	0.015548652
167	0x3d40b2f0	0.047045648
168	0xbd1dab1b	-0.038493257
169	0xbd0bdb0e	-0.034144454
170	0xbd12aec7	-0.035811212
171	0xbcdba104	-0.026810177
172	0xbc658821	-0.014009506
173	0xbd61e491	-0.05514962
174	0x3d45ba04	0.0482731
175	0xbae74b6f	-0.0017646382
176	0xbceebc46	-0.02914251
177	0x3d2d7de9	0.042356405
178	0x3c1f02ec	0.0097052865
179	0xbd986da0	-0.07442784
180	0xbcf1e70e	-0.02952912
181	0xbceaf9f3	-0.028683638
182	0xbdc1d2bf	-0.09464025
183	0xbdd05895	-0.10173146
184	0xbc15e8c8	-0.009149738
185	0xbd6fd1b2	-0.05854959
186	0xbda5702b	-0.08078035
187	0x3d771b2d	0.06032865
188	0x3d9d1f31	0.07671965
189	0xbc87d5dd	-0.01658147
190	0xbb41e361	-0.0029584991
191	0x3c9fce11	0.01950744
192	0x3d8c3c91	0.068474896
193	0xbdd0d2e4	-0.10196474
194	0x3d9f0e23	0.07766368
195	0x3d69544f	0.05696517
196	0x3dbb5edb	0.091489516
197	0xbd068c1a	-0.032848455
198	0x3d93ff12	0.07226385
199	0xbca7558a	-0.02042653
200	0xbd74f5af	-0.059804615
201	0x3d87693c	0.06611869
202	0xbd17ef94	-0.037093714
203	0x3d63fc2f	0.055660423
204	0x3d95a3db	0.073066436
205	0xbd8443e9	-0.06458265
206	0xbc7e4a4f	-0.015520646
207	0xbd4f9c09	-0.050685916
208	0xbd84317e	-0.064547524
209	0xbd750572	-0.059819646
210	0xbb86e530	-0.0041166767
211	0xbd2b1d09	-0.041775737
212	0x3dafdf6b	0.085875355
213	0x3d2bbf83	0.041930687
214	0x3d04446e	0.032291822
215	0xbd942f69	-0.07235605
216	0x3cab1fa8	0.020889118
217	0xbcda2b6d	-0.026632035
218	0xbcb3428c	-0.021882318
219	0x3c8030f7	0.015648348
220	0x3c9b60b0	0.018967003
221	0x3db11337	0.08646243
222	0x3d427754	0.04747708
223	0x3c206626	0.009789979
224	0xbca45be0	-0.02006334
225	0x3c967919	0.01836829
226	0xbca2996c	-0.019848548
227	0xbdc07d8a	-0.09398945
228	0xbc5c322e	-0.013439698
229	0x3db3511c	0.08755705
230	0x3a820b10	0.000992151
231	0xbd910aa5	-0.070821084
232	0x3c82146b	0.015878877
233	0xbc8c8213	-0.017151868
234	0x3ce55396	0.027993958
235	0xbdcd7c49	-0.10033471
236	0xbd8511f2	-0.064975634
237	0xbd0e0d2a	-0.034680523
238	0x3b9f99ab	0.0048706136
239	0xbc7ac022	-0.015304597
240	0x3d65142c	0.05592744
241	0xbd8ceff6	-0.068817064
242	0xbd130155	-0.035889942
243	0x3db65ac2	0.089040294
244	0xbd8a6d4f	-0.0675913
245	0x3d86780a	0.065658644
246	0x3d79ba0d	0.060968447
247	0x3c5ef726	0.0136087295
248	0xbd8590f8	-0.06521791
249	0x3cea5f4f	0.0286099
250	0xbb891616	-0.004183541
251	0x3c0a313e	0.008434592
252	0xbd4a7c7e	-0.04943513
253	0xbd9a395a	-0.0753047
254	0x3d3bbbe4	0.045833483
255	0x3c53eaa1	0.012934358
