scripts/model_cnn.pt (torch_old, 414963 bytes, 12 tensors)

weight f4 [10, 3, 2, 2]
0.28194252 0.012270628 0.28514227 -0.19616432 0.17568307 0.022929862 -0.020185323 -0.02810462
-0.12390184 0.05733274 0.18636572 0.27171305 0.20186087 -0.019631635 0.13392614 0.28539082
0.22932671 -0.195053 0.18112686 0.18267733 -0.15865204 -0.07183625 -0.25701025 -0.039728023
0.017910229 -0.2016059 0.104346104 0.12152509 0.21170026 0.044757284 0.19367453 -0.117547914
0.09565408 0.2416838 0.018163001 0.08478295 0.13402162 0.29609337 0.15586188 0.10301502
0.06396367 -0.22237271 0.27758044 -0.030844405 -0.034373287 0.015585751 -0.26468825 0.047504112
-0.1847883 -0.2185805 -0.22311813 -0.20953806 0.17737773 0.19236003 -0.25898972 0.1720201
0.13803466 0.18050568 0.29741034 -0.010384595 -0.2634095 -0.29695284 -0.15782584 -0.20169203
-0.17399397 -0.09418988 -0.23264195 -0.25540712 0.052994765 -0.01183863 -0.2599545 0.2615134
-0.23320615 -0.07103437 0.052899595 0.2801871 0.110510476 0.24846753 0.068539135 -0.050412018
0.27558455 -0.024444811 0.0035883381 0.26319256 -0.068987936 -0.27081183 -0.08286082 0.17674665
0.12095498 -0.21095431 0.08621889 0.10321572 -0.045106996 0.21897143 0.044244964 0.21238211
0.056658816 0.21762851 -0.2001954 -0.26749077 0.18782485 0.05857867 0.22581413 -0.110534996
-0.29493794 -0.15285565 -0.2504971 -0.18622695 0.23792525 0.0022839808 -0.19094291 -0.20965417
-0.023956886 0.14836636 0.19727476 -0.047619194 -0.27663842 0.039646998 0.114614844 -0.18391259
00000000: c55a 903e be0a 493c 2bfe 913e 4ddf 48be
00000010: 43e6 333e 68d7 bb3c b15b a5bc a93b e6bc
00000020: 3fc0 fdbd bcd5 6a3d a8d6 3e3e f91d 8b3e
00000030: 9eb4 4e3e 86d2 a0bc ef23 093e bf1e 923e
00000040: 9fd4 6a3e f9bb 47be 5279 393e c40f 3b3e
00000050: ae75 22be e21e 93bd d996 83be dab9 22bd
00000060: 79b8 923c c771 4ebe 69b3 d53d 25e2 f83d
00000070: f4c7 583e 6a53 373d 9e52 463e f6bc f0bd
00000080: 49e6 c33d f57b 773e 93ca 943c afa2 ad3d
00000090: f73c 093e 8d99 973e 429a 1f3e 8af9 d23d
000000a0: 62ff 823d acb5 63be 061f 8e3e 68ad fcbc
000000b0: 01cb 0cbd 615b 7f3c 3885 87be ac93 423d
000000c0: 2539 3dbe 91d3 5fbe 1479 64be 2591 56be
000000d0: 82a2 353e 07fa 443e 4d9a 84be 0926 303e
000000e0: f558 0d3e 7bd6 383e 2b46 983e 2624 2abc
000000f0: 9cdd 86be 340a 98be 199d 21be 5b88 4ebe
00000100: 7a2b 32be a0e6 c0bd b139 6ebe b9c4 82be
00000110: 0a11 593d d0f6 41bc c218 85be 16e5 853e
00000120: 98cd 6ebe 787a 91bd 3fad 583d af74 8f3e
00000130: 5153 e23d 466e 7e3e 3f5e 8c3d d57c 4ebd
00000140: 6b19 8d3e 7c40 c8bc 532a 6b3b 2dc1 863e
00000150: 8c49 8dbd d9a7 8abe efb2 a9bd 13fd 343e
00000160: 3fb7 f73d 6804 58be 8893 b03d c362 d33d
00000170: 1dc2 38bd 0c3a 603e 353a 353d b27a 593e
00000180: 1313 683d 02da 5e3e 0600 4dbe 8df4 88be
00000190: 2855 403e 30f0 6f3d d23b 673e 2c60 e2bd
000001a0: 1b02 97be 3186 1cbe 2841 80be 47b2 3ebe
000001b0: ada2 733e d7ae 153b 8a86 43be 95af 56be
000001c0: 3b41 c4bc 5aed 173e 6502 4a3e 580c 43bd
000001d0: 8da3 8dbe e464 223d 30bb ea3d 9553 3cbe

bias f4 [10]
-0.27214733 -0.039403725 0.18305264 0.18245392 0.036166463 0.18293762 0.10979581 -0.15048629
0.007948399 0.13625723
00000000: e556 8bbe cd65 21bd 2772 3b3e 33d5 3a3e
00000010: 4923 143d 0054 3b3e a0dc e03d 1419 1abe
00000020: 003a 023c 0487 0b3e

weight f4 [10, 10, 3, 3]
0.1098973 0.010467209 0.0075383945 -0.058532506 0.09066624 -0.031337216 0.030946441 -0.02622159
0.01735795 -0.05209093 -0.072896324 -0.08968689 0.11623299 -0.08098831 0.1165037 0.0023724632
0.046021063 -0.08374085 0.005862302 0.027048519 -0.077288345 0.085870914 -0.07045358 0.04333655
0.022197617 -0.07551683 0.03992811 0.043280683 0.056605674 0.05028808 0.089302786 0.0034424223
-0.08841496 -0.027230904 0.051718045 -0.07449157 0.019862507 0.059195705 -0.07276506 -0.050353557
0.076085076 -0.036596145 0.087678604 -0.02106783 0.0057759327 -0.066885255 -0.08508156 0.10033304
0.07033624 0.01008605 0.065809116 0.10906166 0.02999118 -0.07408159 -0.05636121 0.055118736
-0.08107024 0.09616595 -0.06967369 0.024420204 0.042316876 0.05042041 0.08848766 -0.035048515
0.07177374 -0.034942675 0.063657776 0.004045873 -0.08268964 -0.025033718 -0.034048047 -0.050635524
0.027353741 0.08613557 0.001005889 -0.048757672 0.031345308 0.059246644 0.04372748 -0.055055827
-0.0615629 -0.015095703 0.10196539 0.058380954 -0.02114258 -0.08522194 -0.0676811 -0.06337282
0.061100166 0.043160364 0.011990746 0.04481903 0.056801382 0.048303537 -0.001894661 -0.117256224
-0.018318005 -0.047301292 0.012110153 0.010303124 -0.0074877664 -0.007165901 0.002578381 -0.09127257
-0.035203133 -0.06460349 0.07458177 -0.0679077 -0.017353443 -0.057310887 -0.10832596 0.042540908
0.05171281 0.030055799 0.027828174 0.0001795364 -0.0557797 -0.0448852 0.025261471 -0.07354878
0.0036331941 0.07457395 0.036691744 -0.0060916953 0.0016354001 0.019943424 -0.019006502 -0.024750639
-0.046660043 0.03202601 0.086737074 -0.021107994 0.041400027 0.01653653 -0.029408807 -0.069958195
-0.043644603 -0.037350506 -0.06375679 0.06438271 -0.09701453 0.023822706 -0.10507967 -0.09990878
-0.098134086 0.040182684 -0.022055028 -0.01633928 -0.08237891 -0.04724829 0.025834903 -0.10694959
0.030995216 0.08838866 0.042487115 0.07610379 -0.09727189 -0.03197105 0.08783943 0.06004354
-0.107244715 -0.011567856 -0.0357995 -0.001347745 -0.06493178 -0.07277895 -0.0582526 -0.019132242
-0.10596678 -0.007017234 0.03347179 -0.10312637 0.07108404 -0.004497541 -0.047170233 -0.097866446
0.040340085 0.03709433 0.059874363 0.023522075 -0.039341863 -0.08402382 0.07131734 0.11391064
0.09879235 -0.06628582 0.054222293 0.074147806 0.11355127 0.034572937 -0.03884937 -0.050801173
0.058375314 -0.051482804 -0.03395169 -0.036528222 -0.058236644 0.047424242 0.05661804 -0.030463597
-0.061505135 -0.086468436 -0.013275777 0.09060976 0.08659443 -0.0004941103 0.00823312 0.0037285115
0.07527269 0.022405436 -0.030166797 0.042776037 -0.08904666 -0.022468397 -0.055193104 -0.014552679
0.03768888 0.017057035 -0.013342778 0.035776906 0.11133824 0.10924768 0.06382157 -0.032014556
-0.013515068 -0.028678115 0.059326924 0.0018278542 -0.032295693 0.08808997 0.088074625 0.076929465
-0.080524705 0.03900655 0.09023659 0.019615956 0.024218589 -0.014267078 0.10667024 -0.04330192
-0.05595005 0.097171836 0.10335555 0.07309658 -0.075116776 -0.031636626 -0.045560133 0.11718843
0.10981076 -0.040358048 -0.07857426 0.024262343 0.06167235 0.017068876 -0.006935682 0.07300383
00000000: d611 e13d a87e 2b3c a304 f73b c8bf 6fbd
00000010: 39af b93d 745b 00bd 6483 fd3c a9ce d6bc
00000020: 4232 8e3c 4d5d 55bd ab4a 95bd c3ad b7bd
00000030: 900b ee3d 33dd a5bd 7e99 ee3d 547b 1b3b
00000040: 9580 3c3d 5380 abbd 8e18 c03b db94 dd3c
00000050: 5a49 9ebd 17dd af3d f749 90bd ab81 313d
00000060: c7d7 b53c 91a8 9abd a88b 233d 1647 313d
00000070: 5adb 673d e0fa 4d3d 61e4 b63d 439a 613b
00000080: e712 b5bd 5813 dfbc 4dd6 533d 098f 98bd
00000090: b2b6 a23c 3277 723d d905 95bd 883f 4ebd
000000a0: 7ed2 9b3d d7e5 15bd d790 b33d 7196 acbc
000000b0: 0944 bd3b 23fb 88bd 3e3f aebd 697b cd3d
000000c0: 720c 903d f63f 253c eec6 863d b85b df3d
000000d0: 10b0 f53c 17b8 97bd 03db 66bd 2fc4 613d
000000e0: 2708 a6bd a7f2 c43d 14b1 8ebd e10c c83c
000000f0: 7654 2d3d a285 4e3d 0539 b53d 088f 0fbd
00000100: 1cfe 923d 0d20 0fbd 025f 823d 3e93 843b
00000110: 3059 a9bd 8313 cdbc f775 0bbd 3267 4fbd
00000120: f414 e03c d967 b03d 09d8 833a 20b6 47bd
00000130: f063 003d 9cac 723d 961b 333d 3882 61bd
00000140: 6129 7cbd f853 77bc 3bd3 d03d de20 6f3d
00000150: 3433 adbc d788 aebd 639c 8abd 9cc9 81bd
00000160: 2b44 7a3d ecc8 303d d574 443c 2994 373d
00000170: 91a8 683d eed9 453d 4656 f8ba 0824 f0bd
00000180: a40f 96bc 00bf 41bd aa69 463c 6fce 283c
00000190: f05b f5bb efcf eabb 0efa 283b 1ded babd
000001a0: 2931 10bd d64e 84bd 54be 983d 3113 8bbd
000001b0: cf28 8ebc d2be 6abd 00da ddbd 603f 2e3d
000001c0: d0d0 533d 9437 f63c e9f7 e33c ef41 3c39
000001d0: 4179 64bd 8bd9 37bd 25f1 ce3c bea0 96bd
000001e0: e21a 6e3b 3aba 983d 154a 163d d89c c7bb
000001f0: ec5a d63a 6460 a33c 86b3 9bbc dac1 cabc
00000200: 9a1e 3fbd b52d 033d 35a3 b13d acea acbc
00000210: 1393 293d 9e77 873c bdea f0bc 3e46 8fbd
00000220: afc4 32bd d8fc 18bd eb92 82bd 15db 833d
00000230: 8eaf c6bd d627 c33c 0334 d7bd f99c ccbd
00000240: 86fa c8bd 9996 243d bfac b4bc f4d9 85bc
00000250: 46b6 a8bd 6c87 41bd b8a3 d33c 6308 dbbd
00000260: aee9 fd3c 1d05 b53d f806 2e3d 4edc 9b3d
00000270: 7c36 c7bd 13f4 02bd 29e5 b33d 37f0 753d
00000280: 1ea3 dbbd 1b87 3dbc 7fa2 12bd d1a6 b0ba
00000290: f4fa 84bd 210d 95bd 479a 6ebd 38bb 9cbc
000002a0: 1c05 d9bd d3f0 e5bb b719 093d eb33 d3bd
000002b0: 8294 913d 1c60 93bb 9335 41bd 346e c8bd
000002c0: a53b 253d 39f0 173d d23e 753d 5eb1 c03c
000002d0: ef24 21bd ae14 acbd d30e 923d fb49 e93d
000002e0: a553 ca3d dcc0 87bd 3218 5e3d ceda 973d
000002f0: 918d e83d 5a9c 0d3d 8420 1fbd e414 50bd
00000300: f41a 6f3d a2df 52bd ed10 0bbd 9e9e 15bd
00000310: 8c89 6ebd ec3f 423d 51e8 673d cb8e f9bc
00000320: cfec 7bbd 5d16 b1bd a582 59bc 9c91 b93d
00000330: 6c58 b13d 2e87 01ba 35e4 063c 0b5a 743b
00000340: 9128 9a3d 9b8b b73c 5c20 f7bc ed35 2f3d
00000350: 185e b6bd a50f b8bc 2a12 62bd 5c6e 6ebc
00000360: a85f 1a3d 32bb 8b3c ab9b 5abc ce8a 123d
00000370: 4e05 e43d 3fbd df3d e2b4 823d b221 03bd
00000380: 4e6e 5dbc 5eee eabc ca00 733d 9c94 ef3a
00000390: 7d48 04bd 8468 b43d 7860 b43d 328d 9d3d
000003a0: 23ea a4bd 55c5 1f3d f6cd b83d a4b1 a03c
000003b0: 1066 c63c 76c0 69bc ed75 da3d 5b5d 31bd
000003c0: e12b 65bd 0702 c73d 13ac d33d a9b3 953d
000003d0: d3d6 99bd 6895 01bd 439d 3abd 7d00 f03d
000003e0: 77e4 e03d 7b4e 25bd 8beb a0bd d2c1 c63c
000003f0: 259c 7c3d 07d4 8b3c b844 e3bb 0883 953d

bias f4 [10]
0.06991724 0.035639606 -0.08197556 -0.068070635 -0.07189216 -0.012409686 0.019430269 0.057150412
0.110189825 0.10411391
00000000: c530 8f3d d6fa 113d cde2 a7bd 9e68 8bbd
00000010: 323c 93bd ff51 4bbc 3a2c 9f3c 8d16 6a3d
00000020: 34ab e13d ac39 d53d

weight f4 [10, 10, 4, 4]
-0.04681908 -0.059486788 -0.05673372 -0.006765552 0.078943916 0.025571264 -0.02954977 -0.057173267
0.0039796615 -0.027812656 -0.06479696 -0.028163454 -0.021243233 0.063903905 0.03929644 0.036770605
-0.08711554 -0.0020269009 0.066912085 -0.021097587 -0.0147195505 0.051552344 0.057749543 -0.018853197
0.069056794 0.03864056 -0.019076018 0.06477314 -0.08574385 0.04598535 0.05643094 -0.0040913345
0.058811963 -0.0065015876 0.058557708 -0.009515363 -0.017398017 -0.06304922 0.071945176 0.06953393
0.033635374 -0.024797382 0.06927081 -0.021415006 -0.08240701 -0.009901512 -0.0792444 0.066223726
-0.07869553 -0.057186723 -0.056647763 -0.029251106 -0.04265922 -0.074565284 -0.03137799 -0.082574114
0.01727859 -0.035491496 0.05043827 -0.060106616 0.03699613 0.07700321 0.037894495 -0.03341253
-0.029217176 0.057391472 0.062475096 -0.008641005 0.06986623 0.015224788 -0.054809798 -0.039816946
0.039136223 -0.05771503 0.034674592 -0.054570638 -0.016732443 -0.082800545 0.013323225 0.016065435
0.0631865 -0.0342485 0.06798132 0.0060445066 -0.051624153 0.055652745 0.04879701 0.056494877
-0.035634976 -0.008335741 0.012913852 0.027610632 -0.05437679 0.07754107 -0.07946475 -0.019523248
-0.06634618 0.06899873 -0.0498503 -0.02491888 0.028136035 -0.060155086 0.05225714 -0.030442161
-0.02472095 -0.07978977 0.0386781 0.02916996 -0.07359938 -0.0565569 0.049743958 -0.08448614
-0.024835449 0.06412851 0.0655557 0.0793487 0.030803004 0.041483376 -0.006720551 -0.053081557
-0.047528677 -0.05453337 0.058873154 -0.06577328 0.07001513 0.017193167 0.0655655 0.032922186
-0.06014972 0.016244013 0.00069398567 -0.07378174 0.08063601 -0.053854283 0.029311392 0.07156318
-0.027648782 0.07353138 -0.08410209 -0.065947294 -0.042817898 -0.04338818 -0.0054056006 -0.03533468
0.0042383764 -0.04124583 -0.021291826 -0.021926723 0.009167859 -0.021685576 0.07066948 -0.002675425
-0.014717277 0.026267625 -0.058164366 0.012975706 -0.081319295 -0.029961593 -0.01361363 0.006021557
0.034965973 0.012297681 0.082976244 -0.018333722 0.022772336 -0.041167147 -0.009255641 0.030626435
0.057240255 0.04034841 0.0448456 0.0062299017 -0.045682523 0.016783634 0.010520461 0.00021031025
0.0055342703 0.02532264 0.011675949 -0.008381872 0.016176483 0.064257845 0.044074025 0.07223863
-0.009575136 -0.06029046 0.04088524 0.010364304 -0.011145763 -0.0144100385 -0.074246846 0.07180477
0.06630829 -0.02562527 -0.005351338 0.0136929145 0.089227125 -0.026192484 0.014414515 0.027931795
0.010950629 -0.060212765 -0.0479121 -0.06487072 -0.05294086 -0.05898784 -0.047559828 -0.024143532
-0.033335604 -0.0542384 -0.006161109 -0.028658975 0.04309297 0.053586826 -0.037034422 0.03873548
-0.020591998 -0.0021286893 -0.0003160527 -0.0019299341 0.04994506 -0.03362131 0.06403592 0.019948635
-0.018047044 0.017062303 0.0011319519 -0.008917395 0.0741883 -0.022103988 0.016614234 -0.06726187
-0.06813816 0.080195665 0.063787214 0.018418621 0.026943784 0.015733864 0.0074860654 0.0652364
-0.054869954 -0.037157983 0.0702762 -0.024439415 -0.0029632573 0.01636003 0.02774547 -0.06405766
0.07008411 -0.045387756 -0.0619165 0.045367517 -0.038937803 0.055605356 -0.022075195 0.08431924
00000000: 5dc5 3fbd 6ba8 73bd 9e61 68bd 90b1 ddbb
00000010: 59ad a13d d47a d13c 5c12 f2bc 842e 6abd
00000020: d267 823b 5ed7 e3bc 45b4 84bd 0bb7 e6bc
00000030: 4a06 aebc 0de0 823d 4ef5 203d c69c 163d
00000040: a269 b2bd c1d5 04bb 3409 893d d9d4 acbc
00000050: 452a 71bc 8d28 533d c98a 6c3d 0572 9abc
00000060: a66d 8d3d 9045 1e3d 4f45 9cbc c8a7 843d
00000070: 799a afbd 225b 3c3d 2124 673d 9a10 86bb
00000080: d0e4 703d 450b d5bb 35da 6f3d 53e6 1bbc
00000090: 4986 8ebc f31f 81bd fe57 933d ce67 8e3d
000000a0: 3fc5 093d e123 cbbc dbdd 8d3d 866e afbc
000000b0: 02c5 a8bd f439 22bc e34a a2bd 4ea0 873d
000000c0: 1f2b a1bd a03c 6abd 7c07 68bd 04a0 efbc
000000d0: 6fbb 2ebd afb5 98bd 3586 00bd 9e1c a9bd
000000e0: d48b 8d3c 885f 11bd 5c98 4e3d 5b32 76bd
000000f0: 4189 173d dcb3 9d3d 4237 1b3d 94db 08bd
00000100: dc58 efbc 5213 6b3d e3e5 7f3d 0093 0dbc
00000110: 0716 8f3d 6471 793c 3d80 60bd 1817 23bd
00000120: 4e4d 203d 9866 6cbd f206 0e3d 7685 5fbd
00000130: 7a12 89bc 5593 a9bd a849 5a3c a99b 833c
00000140: ec67 813d 2848 0cbd ca39 8b3d ff10 c63b
00000150: d973 53bd 22f4 633d 60df 473d 2c67 673d
00000160: fbf5 11bd a292 08bc 9f94 533c b12f e23c
00000170: 32ba 5ebd dacd 9e3d 6abe a2bd 38ef 9fbc
00000180: 82e0 87bd 354f 8d3d d42f 4cbd ae22 ccbc
00000190: 8b7d e63c 2e65 76bd 950b 563d d761 f9bc
000001a0: 9783 cabc d268 a3bd ed6c 1e3d d7f5 ee3c
000001b0: 46bb 96bd 35a8 67bd 52c0 4b3d 1207 adbd
000001c0: b673 cbbc cf55 833d 1142 863d 9281 a23d
000001d0: 9556 fc3c 79ea 293d 1138 dcbb 0c6c 59bd
000001e0: 6ead 42bd 625e 5fbd fa24 713d 24b4 86bd
000001f0: 1864 8f3d afd8 8c3c 3447 863d 6ad9 063d
00000200: 8e5f 76bd 2a12 853c 97ec 353a e21a 97bd
00000210: 7e24 a53d 4f96 5cbd 721e f03c b78f 923d
00000220: b37f e2bc 9f97 963d b73d acbd 600f 87bd
00000230: d261 2fbd ceb7 31bd 7721 b1bb 19bb 10bd
00000240: 14e2 8a3b 63f1 28bd 326c aebc ac9f b3bc
00000250: ca34 163c f3a5 b1bc 29bb 903d 2f56 2fbb
00000260: bc20 71bc 342f d73c c23d 6ebd 0e98 543c
00000270: bb8a a6bd 0472 f5bc b40b 5fbc 7b50 c53b
00000280: 7b38 0f3d 367c 493c 73ef a93d 9a30 96bc
00000290: 0d8d ba3c e29e 28bd f9a4 17bc 4ae4 fa3c
000002a0: c274 6a3d 6044 253d 05b0 373d 3424 cc3b
000002b0: 991d 3bbd d57d 893c 035e 2c3c ba86 5c39
000002c0: d358 b53b 6d71 cf3c 7b4c 3f3c 1f54 09bc
000002d0: 8b84 843c 9e99 833d f786 343d d9f1 933d
000002e0: 08e1 1cbc 21f3 76bd 4877 273d 0bcf 293c
000002f0: b89c 36bc 1518 6cbc bb0e 98bd 610e 933d
00000300: a4cc 873d 16ec d1bc 475a afbb 3f58 603c
00000310: b6bc b63d 9f91 d6bc dc2a 6c3c 38d1 e43c
00000320: 446a 333c a9a1 76bd 7a3f 44bd f1da 84bd
00000330: 84d8 58bd 3c9d 71bd 18ce 42bd a8c8 c5bc
00000340: ea8a 08bd 1629 5ebd 21e3 c9bb 3ac6 eabc
00000350: 4182 303d dc7d 5b3d 68b1 17bd 18a9 1e3d
00000360: 8db0 a8bc 7b81 0bbb e0b3 a5b9 d8f5 fcba
00000370: 3193 4c3d 80b6 09bd 4425 833d 526b a33c
00000380: 65d7 93bc 3ec6 8b3c 015e 943a 441a 12bc
00000390: 09f0 973d 6c13 b5bc 931a 883c 97c0 89bd
000003a0: 058c 8bbd a03d a43d dfa2 823d a6e2 963c
000003b0: 36b9 dc3c 4ee4 803c ab4d f53b a99a 853d
000003c0: 51bf 60bd f832 18bd f8ec 8f3d 2b35 c8bc
000003d0: 3533 42bb 7805 863c 784a e33c aa30 83bd
000003e0: 4288 8f3d 83e8 39bd 289c 7dbd 4ad3 393d
000003f0: 3f7d 1fbd 71c2 633d 0ad7 b4bc 91af ac3d

bias f4 [10]
-0.00619176 0.076579966 -0.044196315 0.08211177 0.071102984 0.0035384272 0.0011289385 0.05796942
-0.054524433 -0.06345349
00000000: 3fe4 cabb f5d5 9c3d 3207 35bd 372a a83d
00000010: 719e 913d f5e4 673b e4f8 933a 5871 6d3d
00000020: 0355 5fbd e7f3 81bd

weight f4 [10, 10, 5, 5]
0.021632772 -0.04175422 0.0068136924 0.02074209 -0.0654353 0.012266506 -0.00081368996 -0.015252149
0.044316348 -0.037055425 -0.035113785 -0.052219972 -0.052269865 -0.037926707 0.036316592 0.042242505
0.01857547 -0.044521876 0.04331017 -0.03713553 0.002239226 -0.044463713 -0.0046006474 -0.036923226
0.0058672694 0.021245047 0.073570296 0.027590774 -0.04025154 -0.029502127 0.021121904 -0.04306917
-0.014577514 0.063798584 0.02142853 0.050655246 -0.018396564 -0.009145661 -0.034265406 0.009235127
0.055035654 0.067410894 0.061806817 0.012849142 -0.024116235 0.03452465 0.026967505 0.06595659
0.07437246 0.044756636 0.06266903 -0.047015745 0.07482226 0.025909334 0.011229537 0.057782296
0.062911175 0.053613454 0.03034138 0.07206676 0.0113270935 0.0367517 0.001534985 0.0040634586
-0.03422224 0.0093777515 0.023798924 -0.03166282 -0.046921074 0.011315283 -0.016494181 0.038432352
-0.020276213 0.075729825 0.044666417 0.060409382 -0.023671446 0.027722836 0.07574937 0.012248638
0.06551792 0.036392532 0.03773565 -0.03653766 0.036524735 0.027587082 -0.005165694 -0.04512236
-0.03245383 -0.009594861 0.0012500411 0.007318194 0.050407834 -0.047167312 -0.036900174 -0.040556494
0.03390859 0.023243858 0.03485305 -0.013137909 0.033907387 0.033596046 0.040862434 -0.037157435
-0.045984544 0.075412095 -0.043959163 0.0244792 -0.0042295638 -0.0027733939 0.045298 0.07256009
0.07275011 0.046443082 0.04787145 0.025532259 0.03107739 0.0342948 0.022368548 0.03611658
-0.03750893 -0.0076825754 -0.010535476 0.06425184 0.06368531 0.07128916 0.07639566 0.06294317
-0.018141946 0.07252913 0.06438605 0.058279958 -0.01625319 0.018135881 0.045998044 -0.009101347
-0.043629542 0.021532916 -0.01858577 -0.034570593 -0.0049989396 0.02579787 0.020278115 -0.04209016
-0.031443913 0.077414595 0.036587697 0.075008936 0.06760085 0.032092385 0.00055757654 -0.021802308
0.05337036 0.06431548 -0.02962442 -0.0097025065 0.012396841 -0.04697467 0.020716935 0.057922203
0.05128217 -0.042273857 -0.025218979 0.06065239 -0.0061439835 0.030139495 0.04528129 0.00070275867
0.012872119 -0.021848924 -0.027431231 -0.011887115 0.044568997 0.029127225 -0.012441825 -0.04258064
-0.017744716 -0.042757545 0.022775436 -0.042338878 -0.009006148 0.042721827 -0.019737657 0.025974898
-0.00633462 0.0010456969 0.039634693 0.002070308 0.06130927 0.05005067 0.076157 -0.0036685665
0.05385571 -0.01928447 0.06132668 0.07466267 -0.035652835 -0.036893927 -0.009035128 0.035825547
0.037154783 0.015266069 0.05065459 0.015030845 0.008067709 0.035960555 -0.03330868 -0.002464212
-0.023601364 0.029385557 0.0595408 -0.02481559 -0.044567123 0.005940479 0.046818845 0.022371246
0.027200464 -0.0072204075 -0.005801256 -0.029128067 -0.025383756 -0.031701885 -0.029250816 -0.046883263
0.027534233 -0.031247217 0.007530331 -0.0195056 0.038905524 -0.019656502 -0.006868068 -0.04223864
-0.0018224587 0.029730212 0.0056601036 -0.0037478693 0.057416856 -0.01585394 -0.0149696 -0.038314313
0.05979756 -0.027268445 0.056118947 -0.0089941835 0.02085626 -0.03639866 0.062042143 0.0020134067
-0.036203217 0.045879528 0.0635346 0.057123322 0.051921893 -0.046208788 -0.021805467 -0.041983113
00000000: 3637 b13c 7906 2bbd 6545 df3b 51eb a93c
00000010: f102 86bd 75f9 483c cf4d 55ba 26e4 79bc
00000020: 0f85 353d 6ec7 17bd 79d3 0fbd 9ce4 55bd
00000030: ed18 56bd 0959 1bbd b5c0 143d 7a06 2d3d
00000040: 962b 983c 925c 36bd 0166 313d 6d1b 18bd
00000050: fabf 123b 951f 36bd 07c1 96bb cf3c 17bd
00000060: 3942 c03b 180a ae3c 06ac 963d 0c06 e23c
00000070: ccde 24bd 72ae f1bc d807 ad3c 4c69 30bd
00000080: 86d6 6ebc d5a8 823d e28a af3c e07b 4f3d
00000090: 64b4 96bc afd7 15bc e259 0cbd ee4e 173c
000000a0: 116d 613d b90e 8a3d 2529 7d3d 3585 523c
000000b0: 698f c5bc b869 0d3d f5ea dc3c 4014 873d
000000c0: 9750 983d bc52 373d 9f58 803d 9593 40bd
000000d0: 6a3c 993d d03f d43c 18fc 373c 21ad 6c3d
000000e0: 93d7 803d c899 5b3d 7c8e f83c bd97 933d
000000f0: 4695 393c f388 163d 8d31 c93a c326 853b
00000100: 9f2c 0cbd 24a5 193c f6f5 c23c e0b0 01bd
00000110: 5030 40bd bd63 393c ce1e 87bc 3e6b 1d3d
00000120: 4d1a a6bc 3d18 9b3d 22f4 363d d46f 773d
00000130: 9fea c1bc 001b e33c 7c22 9b3d 83ae 483c
00000140: 422e 863d 5610 153d b290 1a3d 83a8 15bd
00000150: f69a 153d 4efe e13c fb44 a9bb 39d2 38bd
00000160: 4fee 04bd c433 1dbc 6bd8 a33a 76cd ef3b
00000170: 7278 4e3d 8332 41bd a324 17bd 911e 26bd
00000180: bce3 0a3d e769 be3c 12c2 0e3d 6240 57bc
00000190: 79e2 0a3d 029c 093d 5e5f 273d 6532 18bd
000001a0: 4a5a 3cbd a871 9a3d 860e 34bd 9a88 c83c
000001b0: 2798 8abb d4c1 35bb 658a 393d 629a 943d
000001c0: 02fe 943d 1a3b 3e3d db14 443d 0729 d13c
000001d0: 0396 fe3c b478 0c3d 3f3e b73c fbee 133d
000001e0: f7a2 19bd 1dbe fbbb fd9c 2cbc 7896 833d
000001f0: 726d 823d 0d00 923d 5475 9c3d 59e8 803d
00000200: 6b9e 94bc 278a 943d d5dc 833d f7b6 6e3d
00000210: 6925 85bc b391 943c 7268 3c3d d11d 15bc
00000220: e4b4 32bd cc65 b03c 2f41 98bc e599 0dbd
00000230: 25ce a3bb 0e56 d33c 4a1e a63c bb66 2cbd
00000240: 55cb 00bd 8b8b 9e3d fbdc 153d 499e 993d
00000250: 5072 8a3d 4e73 033d 542a 123a c19a b2bc
00000260: e19a 5a3d d6b7 833d e9ae f2bc 43f7 1ebc
00000270: 1f1c 4b3c 8368 40bd 90b6 a93c d53f 6d3d
00000280: 410d 523d 5a27 2dbd 0898 cebc a46e 783d
00000290: 7853 c9bb 1ae7 f63c e078 393d 5639 383a
000002a0: 95e5 523c 84fc b2bc 76b7 e0bc 2dc2 42bc
000002b0: fb8d 363d 389c ee3c ccd8 4bbc 0a69 2ebd
000002c0: 5e5d 91bc 8922 2fbd 8d93 ba3c 886b 2dbd
000002d0: 868e 13bc 15fd 2e3d deb0 a1bc 4fc9 d43c
000002e0: a592 cfbb c40f 893a fd57 223d 01ae 073b
000002f0: 6e1f 7b3d ee01 4d3d 34f8 9b3d 556c 70bb
00000300: ce97 5c3d 77fa 9dbc af31 7b3d bee8 983d
00000310: b508 12bd 161e 17bd 1308 14bc cfbd 123d
00000320: 9d2f 183d 891e 7a3c 307b 4f3d ef43 763c
00000330: 6d2e 043c 604b 133d af6e 08bd 9e7e 21bb
00000340: a657 c1bc fbb9 f03c 0ee1 733d 104a cbbc
00000350: 048c 36bd 5aa8 c23b 1ec5 3f3d e743 b73c
00000360: 82d3 de3c 2b99 ecbb 7618 bebb fc9d eebc
00000370: 98f1 cfbc d6d9 01bd 689f efbc aa08 40bd
00000380: 798f e13c 2afa ffbc ffc0 f63b 35ca 9fbc
00000390: 665b 1f3d ac06 a1bc 880d e1bb 6d02 2dbd
000003a0: 91df eeba c68c f33c 6478 b93b d09e 75bb
000003b0: f02d 6b3d 1fe0 81bc 0e43 75bc 78ef 1cbd
000003c0: 49ee 743d 1362 dfbc fbdc 653d 575c 13bc
000003d0: bfda aa3c c316 15bd e71f 7e3d 5cf3 033b
000003e0: d349 14bd 2cec 3b3d 6e1e 823d 25fa 693d
000003f0: 0dac 543d 6d45 3dbd 61a1 b2bc 7cf6 2bbd

bias f4 [10]
0.012018134 0.07222686 0.011435504 -0.04548659 0.00822971 -0.003768621 0.0591292 0.03607481
0.07173427 0.01471538
00000000: b5e7 443c adeb 933d fb5b 3b3c 2650 3abd
00000010: e8d5 063c f8fa 76bb 7631 723d 2ec3 133d
00000020: 6be9 923d c718 713c

weight f4 [100, 810]
0.016089885 -0.012610091 0.037065454 0.041651808 0.022824293 0.026242865 0.0068886895 -0.0001366877
0.05178346 0.030674692 0.0049620364 -0.01188537 0.027161568 0.013598272 -0.012280294 0.046704493
0.028803797 0.013890643 0.026010375 -0.013838288 0.022509608 0.050320692 0.03914957 0.019243078
-0.01129989 0.0063842335 0.033531945 0.03318852 -0.00027420337 0.03279762 0.00901763 0.027844982
0.024703568 0.012223924 0.042434555 -0.010445186 0.004299695 0.012351421 -0.0144723635 -0.0055262274
0.0064662956 0.015389286 0.018268965 -0.0046130004 0.031537496 -0.016257815 0.0015751587 -0.0052777687
0.0043483423 -0.010324111 -0.00047460312 0.041039266 0.033998195 0.012936729 -0.0045879316 -0.010343032
0.027028207 0.0061376174 0.023759214 0.0031758405 0.025242494 0.03709338 -0.01603227 -0.010617662
0.051022135 0.046244964 0.042221542 -0.01567837 0.04065564 0.041878637 0.033069625 0.02108462
-0.0113373315 0.007948769 -0.010968832 0.03559766 0.03108739 0.038438175 -0.010355781 0.034682825
0.021416696 -0.007918167 0.00058073754 -0.0026667358 0.041161876 -0.001361813 0.0062746857 0.00801438
0.022697741 0.03165164 0.026364928 0.02493996 0.01954746 -0.014675414 -0.01182699 -0.0071626315
0.013116362 -0.0011076151 0.038419787 0.024960512 0.0456436 0.020719865 -0.0046905223 0.04929456
0.050203476 -0.009711679 0.004040907 0.016068095 0.022282703 0.009924758 0.015315266 0.047611184
-0.010283524 -0.008307405 0.04760747 0.053556085 0.0056507317 0.022866111 0.038175154 0.022067612
-0.010531336 0.027392771 0.04646625 0.0060875793 -0.002803324 -0.007025849 0.01978792 0.012947486
0.0488757 0.025541604 0.018438183 -0.010859554 0.028140137 0.040801734 -0.004559839 0.019296175
0.021886192 -0.0004355515 0.017178288 0.044715893 0.004590784 0.025208037 0.021094028 0.02896364
0.0242619 0.011281029 0.0045757648 0.036822125 0.02048425 0.0044487445 0.051229563 0.01710362
0.03488005 0.0033847818 0.032105193 0.0031542047 -0.009678772 -0.006082548 0.0102230515 0.01821346
0.0152382925 0.017826535 0.0004870033 0.0018692842 0.0020145415 0.038496997 0.046563085 0.014101115
0.042228393 0.00885225 0.006447362 0.05247062 0.0022363914 0.043521516 0.049184136 0.03250069
-0.012901539 0.042125884 0.001030309 -0.002956998 -0.0047249044 -0.0043625818 3.5676123e-05 -0.0027553367
0.037885386 0.045247823 0.02204818 0.03350182 -0.0038191865 0.023489283 0.038879875 0.022343324
9.317934e-05 0.036222555 0.012997647 0.0245667 0.0027062667 0.055623416 0.007806124 -0.013646218
0.04684407 0.03869873 0.028282741 0.055334058 0.04628258 0.03733191 0.047078025 0.05594135
0.0073629217 0.052429914 0.03844818 0.042583123 0.03590803 0.028990945 0.0042722113 0.05413741
0.029931184 0.042462736 0.02893678 -0.011918212 0.046435345 0.014144631 0.017750893 0.025890727
0.010186218 0.0055290977 -0.0016654159 0.007847602 -0.0021112058 0.011668174 0.05090298 0.021110078
0.004708916 0.0036020733 0.054347366 0.0062228073 0.030931396 0.029702047 0.05133629 -0.00042025538
0.0083003985 0.013936884 0.046570856 -0.0140157845 0.0057660635 0.015162827 0.033241026 0.043685883
0.028290115 0.028015865 -0.010216811 0.025668215 0.009551247 -0.002543923 0.014663678 0.023120936
00000000: efce 833c 8e9a 4ebc f2d1 173d 169b 2a3d
00000010: 03fa ba3c 47fb d63c 84ba e13b d353 0fb9
00000020: e51a 543d 7e49 fb3c 9498 a23b dbba 42bc
00000030: f081 de3c 49cb 5e3c 4933 49bc 364d 3f3d
00000040: f1f5 eb3c 9495 633c b613 d53c fdb9 62bc
00000050: 1266 b83c 121d 4e3d 4d5b 203d a9a3 9d3c
00000060: 2c23 39bc d532 d13b cb58 093d b0f0 073d
00000070: f4c2 8fb9 cc56 063d aebe 133c 291b e43c
00000080: 235f ca3c da46 483c dbcf 2d3d 4922 2bbc
00000090: 75e4 8c3b 9d5d 4a3c 7e1d 6dbc 5b15 b5bb
000000a0: 38e3 d33b 5823 7c3c cca8 953c a728 97bb
000000b0: 762d 013d 1c2f 85bc 8e75 ce3a 22f1 acbb
000000c0: 8a7c 8e3b 7626 29bc 27d4 f8b9 ca18 283d
000000d0: b141 0b3d 93f4 533c 5c56 96bb d275 29bc
000000e0: 426a dd3c 111e c93b afa2 c23c c321 503b
000000f0: 59c9 ce3c 3aef 173d 1b56 83bc b4f5 2dbc
00000100: 96fc 503d 5c6b 3d3d 7ff0 2c3d ed6f 80bc
00000110: 8786 263d ef88 2b3d 0474 073d a7b9 ac3c
00000120: 37c0 39bc 8e3b 023c 9eb6 33bc dace 113d
00000130: fbaa fe3c 5971 1d3d 4bab 29bc 940f 0e3d
00000140: 1172 af3c 33bb 01bc a33c 183a 67c4 2ebb
00000150: 5b99 283d dd7e b2ba e19b cd3b bf4e 033c
00000160: 9df0 b93c 26a5 013d 43fb d73c e34e cc3c
00000170: ff21 a03c 2671 70bc fec5 41bc 82b4 eabb
00000180: 02e6 563c 652d 91ba 115e 1d3d fd79 cc3c
00000190: c9f4 3a3d b5bc a93c f4b2 99bb 18e9 493d
000001a0: 29a2 4d3d bc1d 1fbc 9669 843b 3da1 833c
000001b0: 378a b63c 749b 223c e2ec 7a3c f203 433d
000001c0: 3a7c 28bc c81b 08bc 0d00 433d a05d 5b3d
000001d0: c629 b93b b651 bb3c 8d5d 1c3d 23c7 b43c
000001e0: a08b 2cbc ce66 e03c 6553 3e3d 517a c73b
000001f0: f9b7 37bb 1839 e6bb 471a a23c b121 543c
00000200: e331 483d a03c d13c ac0b 973c 45ec 31bc
00000210: 2586 e63c b81f 273d b46a 95bb 0313 9e3c
00000220: ac4a b33c bc5a e4b9 7bb9 8c3c 0328 373d
00000230: 4a6e 963b 1681 ce3c 62cd ac3c 2845 ed3c
00000240: e4c0 c63c 11d4 383c 4cf0 953b ccd2 163d
00000250: 96ce a73c c6c6 913b 17d6 513d e41c 8c3c
00000260: 62de 0e3d 37d3 5d3b bc80 033d c6b6 4e3b
00000270: b693 1ebc 1c50 c7bb 967e 273c 6534 953c
00000280: 08aa 793c f408 923c 7a54 ff39 c502 f53a
00000290: 6606 043b 07af 1d3d efb8 3e3d 5d08 673c
000002a0: aef7 2c3d 0709 113c 6444 d33b 6feb 563d
000002b0: 6c90 123b 9e43 323d 4e75 493d 721f 053d
000002c0: fa60 53bc 318c 2c3d 6f0b 873a 32ca 41bb
000002d0: 5fd3 9abb fdf3 8ebb f2a2 1538 e192 34bb
000002e0: b52d 1b3d c855 393d 639e b43c 3439 093d
000002f0: 514b 7abb 996c c03c 8140 1f3d 5909 b73c
00000300: 4769 c338 1a5e 143d 15f4 543c 1b40 c93c
00000310: 9f5b 313b 61d5 633d 84ca ff3b 6394 5fbc
00000320: 91df 3f3d 8f82 1e3d 35b1 e73c f7a5 623d
00000330: cd92 3d3d 58e9 183d e3d4 403d c222 653d
00000340: aa44 f13b c0c0 563d d77b 1d3d a46b 2e3d
00000350: 4c14 133d 6b7e ed3c e8fd 8b3b 30bf 5d3d
00000360: 3e32 f53c 68ed 2d3d d30c ed3c 9b44 43bc
00000370: fd32 3e3d e2be 673c 526a 913c ca18 d43c
00000380: 18e4 263c 6f2d b53b 164a daba 3a93 003c
00000390: 285c 0abb de2b 3f3c a57f 503d 0bef ac3c
000003a0: 404d 9a3b c310 6c3b 589b 5e3d b1e8 cb3b
000003b0: d763 fd3c b551 f33c 0046 523d b955 dcb9
000003c0: 65fe 073c 8757 643c 15c1 3e3d 76a2 65bc
000003d0: 3ff1 bc3b 826d 783c be27 083d f8ef 323d
000003e0: acc0 e73c 8781 e53c 6964 27bc 2646 d23c
000003f0: d57c 1c3c f2b7 26bb ec3f 703c 1e68 bd3c

bias f4 [100]
0.019572463 -0.032138385 0.012226395 0.03132927 0.00975329 0.026244372 0.015397514 0.018771125
-0.014316899 -0.01501563 0.019339541 0.049188457 -0.020455597 -0.002480142 -0.015461971 -0.022568192
0.017948747 -0.01490085 0.025842166 0.015106143 0.05018626 0.026552435 -0.023805529 0.008976962
-0.023790173 -0.033196308 0.04856087 0.011222206 0.039248172 0.038895383 0.016667686 0.044017836
0.01635838 0.006701247 0.014513848 -0.009600427 0.0012195182 0.009204251 0.046862476 -0.014692652
0.005782662 0.018332249 -0.027331918 0.026355494 -0.021166809 0.037252303 0.018961972 -0.013824974
0.027973417 -0.004642784 0.026422104 0.013044037 -0.009865717 0.010209473 0.042155832 0.03095697
-0.015185326 0.008991575 -0.028495632 -0.013935637 0.043711103 -0.040207174 0.04491185 -0.036198065
-0.0017109214 -0.030688621 0.012032506 -0.013844328 0.030603977 -0.0064527337 0.026675263 0.017388048
0.02124233 -0.0081325015 0.010409749 -0.025240755 0.0049117426 0.049464088 -0.0037680252 -0.027059196
0.007376181 0.015627474 -0.028757384 -0.023850748 0.005827601 -0.0070996215 -0.005838476 -0.038077988
-0.03579026 -0.034416344 -0.0066424925 0.041492995 0.037432145 -0.015975855 0.0449279 -0.008177573
-0.0138059 -0.027063094 -0.03458768 0.02437406
00000000: 6e56 a03c 8aa3 03bd 3851 483c 1f53 003d
00000010: 43cc 1f3c 70fe d63c db45 7c3c e7c5 993c
00000020: 6d91 6abc 1e04 76bc f56d 9e3c d679 493d
00000030: 7f92 a7bc e189 22bb 3554 7dbc eee0 b8bc
00000040: 4009 933c b222 74bc f3b2 d33c c27f 773c
00000050: 1c90 4d3d 7e84 d93c d003 c3bc 1c14 133c
00000060: 9ce3 c2bc daf8 07bd c3e7 463d 58dd 373c
00000070: b1c2 203d c450 1f3d ac8a 883c 0c4c 343d
00000080: 0202 863c 2296 db3b 7ecb 6d3c 1c4b 1dbc
00000090: 3ed8 9f3a 6dcd 163c def2 3f3d 73b9 70bc
000000a0: 7c7c bd3b 832d 963c 30e7 dfbc 7ae7 d73c
000000b0: 0466 adbc df95 183d 2356 9b3c 2582 62bc
000000c0: 8228 e53c 7f22 98bb 2b73 d83c a8b6 553c
000000d0: d1a3 21bc a245 273c 98ab 2c3d 7999 fd3c
000000e0: e0cb 78bc 6651 133c ac6f e9bc 4c52 64bc
000000f0: 6a0a 333d 47b0 24bd 7df5 373d 6c44 14bd
00000100: ff40 e0ba b466 fbbc fd23 453c 52d3 62bc
00000110: 31b5 fa3c 7471 d3bb 1586 da3c 6171 8e3c
00000120: 6504 ae3c 2f3e 05bc a78d 2a3c b3c5 cebc
00000130: aff2 a03b db9a 4a3d f9f0 76bb 3fab ddbc
00000140: e4b3 f13b 3005 803c 9b94 ebbc a562 c3bc
00000150: 76f5 be3b f1a3 e8bb b050 bfbb aaf7 1bbd
00000160: cf98 12bd 27f8 0cbd 44a9 d9bb 8ff4 293d
00000170: 7352 193d ccdf 82bc 5106 383d 3afb 05bc
00000180: 2432 62bc 6cb3 ddbc d0ab 0dbd 1cac c73c

weight f4 [130, 100]
-0.1183228 0.059137292 0.024707487 -0.059809785 0.07420919 -0.014317765 0.057836007 -0.011739443
-0.070861965 -0.013604427 -0.027950287 -0.060565226 -0.015279838 0.051589616 0.017650198 -0.03621367
0.029201696 -0.03352513 0.0030570216 0.0038480305 0.023745306 -0.035755657 -0.07510451 -0.053772315
0.054264136 0.059522137 -0.027382014 -0.029353632 -0.05016139 0.05661558 -0.08990274 0.05879177
-0.037323494 -0.07876249 -0.090720035 0.031225167 -0.04292274 -0.088317096 -0.06265746 -0.10353602
-0.042324234 0.07191562 0.0919375 -0.016355515 0.05756143 0.0041467366 -0.0014566624 0.09103704
0.0075732945 0.016486676 0.084593475 0.061544277 0.022459267 0.006574587 -0.0069911857 0.0071179536
-0.0647127 -8.2358914e-05 0.019701023 0.025529526 0.06980356 -0.016826285 0.06423231 -0.0795562
0.06888465 0.03431297 0.010117254 0.08601399 -0.0048141605 -0.07295493 -0.01857005 -0.0087057855
0.051176995 -0.07700254 0.05396974 0.07977174 -0.053468544 0.06515605 0.047534388 -0.040770363
-0.008346158 -0.023606542 0.018445639 -0.08773565 -0.018570172 -0.08189588 0.060627878 0.046559334
0.09305507 -0.10282165 -0.011575736 0.042098857 0.045248777 -0.014882755 -0.019118054 0.08784533
0.07318158 -0.05186186 0.043938853 0.043758783 0.018415272 0.08417726 -0.024325507 -0.04899409
0.09178601 -0.07423197 0.07491838 -0.09961047 0.087983675 0.000127109 -0.035425186 -0.07409299
0.067929484 -0.057208624 0.03200907 -0.047220554 0.047001153 0.0406631 -0.107254386 -0.10589786
-0.01115403 0.07702001 -0.06175944 -0.11533961 0.08571725 0.03216545 -0.08373359 -0.089761145
-0.035469126 -0.045304693 0.0048202174 -0.0034052753 -0.01821153 0.058378804 -0.037691917 -0.010706618
-0.07552567 -0.1002685 0.015162535 0.05224962 -0.017479204 -0.065986834 -0.03413123 -0.036017653
0.013619548 -0.09981022 -0.036654968 -0.047338378 -0.040194403 0.049894687 0.05725641 0.053546287
-0.008186189 -0.02419821 -0.107816726 0.04831373 -0.04613358 -0.049126305 -0.006495418 -0.009997785
0.05653376 0.021739015 -0.037207972 -0.014682209 0.035805203 0.012280799 -0.00031258876 0.05495121
-0.046207592 -0.0706726 0.07567194 0.011179125 0.06804337 0.07478427 0.0037427994 -0.09595171
0.039782796 -0.025057372 0.034093354 -0.10281286 0.0016765931 -0.079878 -0.0948204 -0.006910108
-0.03522075 -0.051931582 -0.108775005 0.088307455 0.050843507 -0.09933805 -0.037889957 0.06186255
-0.113341965 0.07074803 0.07580782 0.008453526 0.085311376 -0.058261637 -0.07867895 -0.050089225
-0.007931868 0.026749931 0.03997969 0.059701204 -0.06075561 0.054924287 -0.052484937 -0.079072736
0.022030428 -0.03401496 0.08330127 -0.08747893 -0.00785416 0.011280021 -0.049868695 -0.014575523
-0.058082264 -0.04467062 0.07993026 -0.01809095 -0.017045267 -0.043094322 0.06995512 -0.08303627
-0.0064855986 -0.087426804 -0.06621846 -0.086277395 -0.055740077 -0.05085338 -0.11364644 -0.08735754
0.0049349456 -0.015862014 0.08863589 0.055741392 -0.03184309 0.01618183 -0.0015311717 -0.09604408
0.02035233 -0.0040449323 0.04331591 -0.008269045 -0.099757835 -0.10926976 -0.046874538 -0.09901941
-0.011695509 0.034252703 -0.013284208 0.0055888146 -0.098054126 0.028461907 0.061212067 0.023332648
00000000: 3953 f2bd f239 723d 5b67 ca3c 1bfb 74bd
00000010: fdfa 973d 0f95 6abc 73e5 6c3d cb56 40bc
00000020: 1420 91bd 1ae5 5ebc 00f8 e4bc 3e13 78bd
00000030: 4958 7abc a24f 533d 2697 903c c954 14bd
00000040: 6538 ef3c a651 09bd 5058 483b 3d2f 7c3b
00000050: 8485 c23c 8674 12bd 65d0 99bd 5c40 5cbd
00000060: 1244 5e3d 7ccd 733d 3f50 e0bc 0777 f0bc
00000070: 0876 4dbd bde5 673d ee1e b8bd a4cf 703d
00000080: 85e0 18bd 3a4e a1bd 6dcb b9bd eccb ff3c
00000090: c1cf 2fbd 98df b4bd 8e52 80bd b10a d4bd
000000a0: 2d5c 2dbd 7f48 933d ba49 bc3d 00fc 85bc
000000b0: 89c5 6b3d 59e1 873b 7bed beba a171 ba3d
000000c0: 6629 f83b 110f 873c 583f ad3d da15 7c3d
000000d0: 7ffc b73c a26f d73b 5116 e5bb b93d e93b
000000e0: 1888 84bd 1bb8 acb8 0a64 a13c 4c23 d13c
000000f0: 2bf5 8e3d 47d7 89bc 3b8c 833d 5cee a2bd
00000100: 6513 8d3d c28b 0c3d d7c2 253c 1a28 b03d
00000110: 1bc0 9dbb 6569 95bd 3820 98bc b6a2 0ebc
00000120: f89e 513d 82b3 9dbd 600f 5d3d 5e5f a33d
00000130: d501 5bbd 8970 853d 6bb3 423d d3fe 26bd
00000140: 53be 08bc 8262 c1bc 4f1b 973c c0ae b3bd
00000150: 7920 98bc 07b9 a7bd f054 783d 00b5 3e3d
00000160: a893 be3d 2894 d2bd 28a8 3dbc da6f 2c3d
00000170: c856 393d ccd6 73bc 779d 9cbc 41e8 b33d
00000180: 39e0 953d 1a6d 54bd 3af9 333d 693c 333d
00000190: a0db 963c 2165 ac3d 4946 c7bc 07ae 48bd
000001a0: 4efa bb3d ee06 98bd cf6e 993d 9300 ccbd
000001b0: c930 b43d 9048 0539 001a 11bd 11be 97bd
000001c0: 9d1e 8b3d 9753 6abd f11b 033d 576a 41bd
000001d0: 4884 403d 5a8e 263d 30a8 dbbd fae0 d8bd
000001e0: 65bf 36bc abbc 9d3d 77f7 7cbd 2c37 ecbd
000001f0: 878c af3d ebbf 033d 847c abbd b1d4 b7bd
00000200: 1348 11bd 6a91 39bd eaf2 9d3b 0a2b 5fbb
00000210: 5930 95bc 9d1e 6f3d d762 1abd d06a 2fbc
00000220: 34ad 9abd 9259 cdbd 486c 783c b303 563d
00000230: 8c30 8fbc 1b24 87bd 30cd 0bbd 3f87 13bd
00000240: 8624 5f3c 4d69 ccbd 8523 16bd e3e5 41bd
00000250: e3a2 24bd 5f5e 4c3d b385 6a3d 5a53 5b3d
00000260: 5e1f 06bc 533b c6bc 04cf dcbd 9ee4 453d
00000270: 91f6 3cbd aa38 49bd 84d7 d4bb c0cd 23bc
00000280: f28f 673d 0516 b23c 6367 18bd a68d 70bc
00000290: 7aa8 123d 6835 493c f4e2 a3b9 8514 613d
000002a0: 2c44 3dbd ccbc 90bd e4f9 9a3d a628 373c
000002b0: 535a 8b3d 7f28 993d c149 753b 5582 c4bd
000002c0: 49f3 223d 1e45 cdbc 79a5 0b3d 8c8f d2bd
000002d0: 21c1 db3a 1497 a3bd 3331 c2bd 306e e2bb
000002e0: a243 10bd 36b6 54bd 6ec5 debd 8ada b43d
000002f0: 4841 503d bf71 cbbd 8032 1bbd 9663 7d3d
00000300: d51f e8bd 58e4 903d 2141 9b3d a880 0a3c
00000310: bbb7 ae3d c1a3 6ebd 6e22 a1bd 5c2a 4dbd
00000320: aaf4 01bc ac22 db3c bec1 233d 4089 743d
00000330: e0da 78bd 4af8 603d 72fa 56bd e3f0 a1bd
00000340: 2879 b43c 4553 0bbd db99 aa3d 2728 b3bd
00000350: bcae 00bc d6cf 383c 1e43 4cbd 2dce 6ebc
00000360: abe7 6dbd 8af8 36bd 7ab2 a33d 7933 94bc
00000370: 84a2 8bbc ac83 30bd a144 8f3d ec0e aabd
00000380: 2585 d4bb d30c b3bd 8b9d 87bd 34b2 b0bd
00000390: b54f 64bd a24b 50bd 77bf e8bd 83e8 b2bd
000003a0: 53b5 a13b 0ef1 81bc bc86 b53d 1651 643d
000003b0: e66d 02bd c28f 843c 99b1 c8ba c2b2 c4bd
000003c0: eeb9 a63c 5a8b 84bb 066c 313d e37a 07bc
000003d0: d64d ccbd d3c8 dfbd 84ff 3fbd b0ca cabd
000003e0: 859e 3fbc 904c 0c3d 02a6 59bc 6022 b73b
000003f0: 9ad0 c8bd f228 e93c 81b9 7a3d 1c24 bf3c

bias f4 [130]
-0.071846046 -0.05541939 -0.09294439 0.0717207 -0.06284129 -0.014309266 -0.10219031 -0.051271774
0.010717174 -0.071806945 0.073195525 0.0445263 -0.09406102 0.021498052 -0.06116594 0.014800581
0.014688398 -0.016389279 -0.04334313 -0.016566344 -0.045415696 0.059243638 0.034755167 -0.08634182
0.037034456 -0.021506619 -0.047436617 -0.109373376 -0.027795743 -0.10901547 -0.01836465 0.060726058
0.020633075 -0.104278415 0.02325522 0.017505337 0.008090055 0.07946047 -0.065302745 -0.1026529
-0.004213958 0.021347847 -0.03368557 -0.06157222 0.012188753 -0.051299512 0.020825783 -0.08936264
0.07102654 -0.049039625 -0.028294263 -0.009923072 -0.09254637 -0.095373 -0.10957815 0.07406228
0.0760607 -0.0011393051 -0.09646984 -0.04065899 0.067771114 0.012529461 -0.023854187 0.008963184
-0.048678882 -0.06325262 0.06270335 0.06394137 0.06019598 0.08097145 -0.10672114 -0.10331701
0.01842468 -0.099318534 -0.07019278 -0.071548074 -0.08198723 -0.068693586 0.07452562 -0.0070531806
-0.06585518 0.016181182 -0.06474902 -0.04408659 0.054899175 -0.064128056 0.022128688 -0.021497099
-0.058520574 -0.021416673 0.055181727 -0.040334877 0.015689537 0.065774195 0.03621549 -0.03870261
-0.11172902 -0.028830986 -0.11021217 -0.07579299 -0.011411463 0.027719682 0.006410159 -0.020025935
-0.07905323 -0.085958086 -0.04579482 0.036712237 -0.08353682 -0.030864881 -0.024038745 -0.07645092
0.047544036 -0.092826776 -0.03559162 -0.107338056 -0.02015035 0.06581769 -0.106947534 -0.0102768475
0.024270637 -0.108087644 0.06365589 -0.03479137 0.040382665 -0.0008975332 0.040095747 -0.026316358
-0.115973115 -0.022924116
00000000: 0524 93bd 71ff 62bd a159 bebd 4de2 923d
00000010: efb2 80bd 6971 6abc 2749 d1bd 5a02 52bd
00000020: 1697 2f3c 850f 93bd 89e7 953d 3661 363d
00000030: 10a3 c0bd af1c b03c 2389 7abd 237e 723c
00000040: 9ba7 703c cf42 86bc 9188 31bd 24b6 87bc
00000050: cf05 3abd 75a9 723d 6f5b 0e3d fbd3 b0bd
00000060: 71b1 173d a62e b0bc e64c 42bd 26ff dfbd
00000070: e6b3 e3bc 8143 dfbd 7671 96bc e3bb 783d
00000080: b206 a93c ec8f d5bd bb81 be3c 5a67 8f3c
00000090: 268c 043c 2cbc a23d 72bd 85bd af3b d2bd
000000a0: 3e15 8abb aee1 ae3c e1f9 09bd 2733 7cbd
000000b0: 56b3 473c 701f 52bd d59a aa3c c303 b7bd
000000c0: 5d76 913d c6dd 48bd 5fc9 e7bc 6194 22bc
000000d0: f488 bdbd eb52 c3bd 826a e0bd f7ad 973d
000000e0: b6c5 9b3d bc54 95ba fb91 c5bd 0b8a 26bd
000000f0: 95cb 8a3d 5e48 4d3c db69 c3bc 52da 123c
00000100: 8263 47bd 978a 81bd 9d6a 803d b1f3 823d
00000110: 0f90 763d 5cd4 a53d 9d90 dabd de97 d3bd
00000120: 5bef 963c 8467 cbbd 3bc1 8fbd cc87 92bd
00000130: ece8 a7bd 39af 8cbd e3a0 983d 5e1e e7bb
00000140: 15df 86bd 668e 843c 229b 84bd 2494 34bd
00000150: f5dd 603d 9255 83bd 3947 b53c af1a b0bc
00000160: 45b3 6fbd 0572 afbc 3c06 623d 2f36 25bd
00000170: 5887 803c 9fb4 863d b256 143d a186 1ebd
00000180: 2fd2 e4bd f62e ecbc ebb6 e1bd 5b39 9bbd
00000190: 25f7 3abc 6314 e33c 500c d23b 6e0d a4bc
000001a0: a9e6 a1bd cb0a b0bd 5993 3bbd 925f 163d
000001b0: 5a15 abbd 59d8 fcbc e7ec c4bc 4d92 9cbd
000001c0: 89bd 423d f71b bebd 85c8 11bd 0ed4 dbbd
000001d0: 5912 a5bc 6dcb 863d 4f07 dbbd 3960 28bc
000001e0: 37d3 c63c 0e5d ddbd 055e 823d 6581 0ebd
000001f0: 4b68 253d 6f48 6bba 703b 243d 6795 d7bc
00000200: 5083 edbd 5bcb bbbc
