scripts/model_cnn.pt (torch_old, 483647 bytes, 12 tensors)

weight f4 [10, 3, 2, 2]
-0.24916068 -0.16105354 -0.057398397 -0.05371264 -0.28872296 0.074595734 0.23840325 0.18058193
-0.12374112 -0.10672931 -0.18892175 0.17779523 -0.051319405 0.0498614 0.18933174 0.093845695
-0.05198009 0.26294845 -0.13746643 -0.13812214 0.045247983 0.11288376 0.32475716 0.08946648
0.12412252 -0.2747671 0.17223915 -0.035722237 -0.052324146 0.024664586 0.005488238 0.073151745
0.10629087 0.25718725 -0.0029685334 0.11303923 -0.013591243 0.06782685 -0.14404762 -0.14311527
-0.18250638 -0.24755764 -0.27699262 0.22809055 -0.17818546 -0.061853394 0.24789837 -0.14496937
-0.048544317 0.23626558 0.1747061 -0.19415593 0.08965387 0.12398839 0.03991021 0.17120889
-0.23934385 -0.040456604 0.109594785 0.072363436 -0.14062704 -0.14491959 0.12916379 0.18337198
-0.109514385 0.028206104 -0.005225404 0.25947446 -0.19460094 -0.11704474 0.0057549546 0.24514118
0.17608507 0.20737225 0.060701814 0.08570276 -0.09914248 0.101912506 0.015990717 -0.023438321
-0.2861036 0.1566277 -0.18633868 0.17814194 -0.12279699 -0.022660855 -0.1589336 0.16498579
-0.12962212 0.0936825 0.22105391 -0.2030037 -0.03665944 0.15621488 -0.060604405 0.25781858
0.12708531 0.10540908 0.18417545 0.16033836 -0.12567952 0.022586666 -0.16407564 0.28511512
-0.11103195 0.2904983 0.1325114 -0.0945205 0.015556153 -0.17894189 -0.07835459 -0.06991336
-0.13592495 0.28536648 0.07242777 0.08251055 -0.102078415 0.06682707 0.012762349 0.16788505
00000000: fa23 7fbe 38eb 24be 951a 6bbd c901 5cbd
00000010: 7fd3 93be a6c5 983d fb1f 743e 78ea 383e
00000020: fc6b fdbd e594 dabd b474 41be f40f 363e
00000030: 4c34 52bd 783b 4c3d 2ee0 413e 2c32 c03d
00000040: 13e9 54bd 2ea1 863e 00c4 0cbe e46f 0dbe
00000050: f355 393d 9a2f e73d 9246 a63e 343a b73d
00000060: f333 fe3d 46ae 8cbe 765f 303e 7b51 12bd
00000070: d851 56bd 630d ca3c add6 b33b 95d0 953d
00000080: 07af d93d 0cae 833e ba8b 42bb 1d81 e73d
00000090: cead 5ebc cee8 8a3d 3881 13be cf8c 12be
000000a0: f4e2 3abe c07f 7dbe fad1 8dbe 9290 693e
000000b0: 4076 36be fc59 7dbd 12d9 7d3e da72 14be
000000c0: 68d6 46bd 9bef 713e 28e6 323e d0d0 46be
000000d0: 739c b73d a0ed fd3d e378 233d 6251 2f3e
000000e0: 8e16 75be d3b5 25bd 3b73 e03d 4833 943d
000000f0: 8900 10be cd65 14be 8343 043e ddc5 3b3e
00000100: 1449 e0bd 7d10 e73c de39 abbb d6d9 843e
00000110: 7845 47be 27b5 efbd 0f94 bc3b 4a06 7b3e
00000120: a54f 343e 6459 543e 77a2 783d ee84 af3d
00000130: 360b cbbd 81b7 d03d f7fe 823c b901 c0bc
00000140: 2c7c 92be 0363 203e 91cf 3ebe d76a 363e
00000150: fd7c fbbd 42a3 b9bc 7dbf 22be 09f2 283e
00000160: a9bb 04be 9cdc bf3d f55b 623e 34e0 4fbe
00000170: 3528 16bd cbf6 1f3e 533c 78bd cc00 843e
00000180: a722 023e b7e0 d73d 7d98 3c3e bd2f 243e
00000190: 22b2 00be ac07 b93c 7203 28be 9cfa 913e
000001a0: b864 e3bd 31bc 943e 12b1 073e f793 c1bd
000001b0: 3cdf 7e3c 8b3c 37be 5f78 a0bd bc2e 8fbd
000001c0: e92f 0bbe 8e1b 923e 0355 943d 4bfb a83d
000001d0: 7d0e d1bd a2dc 883d 2c19 513c 0fea 2b3e

bias f4 [10]
0.06657632 -0.2838347 -0.23977901 0.03390654 0.12906285 0.1664704 -0.26666927 0.22328152
-0.11509098 0.041694228
00000000: 2a59 883d c852 91be a188 75be 96e1 0a3d
00000010: 0d29 043e 3777 2a3e e088 88be e9a3 643e
00000020: d2b4 ebbd 91c7 2a3d

weight f4 [10, 10, 3, 3]
-0.003874988 0.09576003 0.01125042 -0.07820051 0.093083374 -0.0066133016 -0.03135418 0.0016683985
0.09905876 0.07308021 0.08047427 -0.0011256221 0.04034673 -0.032003913 -0.06873468 -0.021262549
-0.09185952 0.078748815 -0.022155046 0.062107194 0.09362172 0.08175184 0.10432256 0.037390243
0.033912078 0.0297469 0.013478964 -0.055980086 0.0971682 0.03897891 0.021430746 -0.08302799
0.10215681 0.03180234 0.101792425 0.06468189 -0.08031271 -0.019373536 -0.05480041 -0.022709057
-0.027495624 -0.059013363 0.08444497 0.06683876 -0.10001067 -0.033847712 -0.09168728 -0.043052368
0.027531328 0.04220197 -0.021268103 0.026574992 -0.064297035 -0.004952337 0.07397206 -0.08237083
0.04158011 0.09446293 -0.09092183 0.009176454 -0.104209 -0.052151095 0.006570738 -0.061345518
-0.035947178 0.045647625 0.015704082 -0.07413924 0.010109445 -0.018053232 -0.049959827 0.07585043
-0.08826706 -0.027653981 0.106751174 -0.029579133 0.08158401 -0.09119377 0.101662725 -0.06336975
-0.010256571 -0.055478208 -0.06487558 0.106312186 -0.054700207 0.045605376 -0.04131169 0.032652713
0.023356035 -0.075961225 0.005284529 0.01923555 -0.02639195 0.08152851 -0.054615036 0.03504445
-0.023758035 0.014548048 0.074713245 0.043817576 -0.06510864 0.07770025 0.07659938 0.037398458
-0.06649867 -0.06472505 0.083853126 0.06826317 -0.0055283443 0.007590055 -0.03499807 0.08595757
0.058766536 0.08792507 0.08709806 -0.009934695 -0.050921623 -0.076439954 0.0018540927 -0.015723886
0.04686731 -0.03262627 -0.05344389 -0.043389622 -0.014808926 0.088788584 -0.077046305 0.047622852
0.10457219 -0.022023877 0.08138517 0.044466496 -0.027302315 -0.08955127 -0.035808016 -0.052738838
0.04618324 0.1020361 0.06522787 -0.038710184 -0.025740061 0.07910052 -0.062226623 -0.032153416
0.09955509 0.08146083 -0.098449446 -0.09260856 0.05211964 0.080336876 0.070319936 0.089667186
-0.04232224 0.032607596 -0.048381556 -0.015867349 -0.09066646 -0.086614184 -0.062657274 0.109098926
0.0062596756 0.069639266 -0.018941455 0.06339599 0.055807192 -0.008539019 0.09574475 0.060919352
-0.04280872 0.0129514765 -0.0971395 0.04308088 -0.041803617 0.02424992 -0.0049859374 -0.07023822
0.06918737 -0.056387775 -0.09113026 -0.007286348 -0.041306164 0.073746145 -0.012345747 -0.079796076
0.010903737 0.10395646 0.097563334 0.07393098 -0.042418297 0.008348132 0.09227669 -0.08857393
0.010017796 9.572097e-06 -0.0093570445 -0.03516338 -0.044018768 0.03835147 -0.06441042 0.10139144
0.02988021 0.10390698 0.078688495 -0.07607247 -0.044154923 0.06412358 -0.09869786 0.10744645
0.07519912 -0.04671369 0.066674545 0.09365946 -0.073610134 0.02511631 0.025157707 0.085425116
-0.016001776 0.057960127 -0.054113075 -0.06700599 0.08389224 -0.05204275 0.043422386 0.053436592
0.08407892 -0.05323394 0.0066911527 0.09536053 -0.021514107 0.10840907 -0.034590688 -0.084337756
-0.06706821 0.06657029 -0.07662219 0.065018415 0.08640074 -0.059048966 -0.095401675 0.07124173
0.09290122 -0.061396636 -0.09443513 0.1077359 -0.086300045 -0.098004095 0.04589703 -0.08893181
0.06255334 -0.020982286 -0.05925711 -0.03711649 -0.056715894 0.037030227 -0.018326527 -0.094861425
00000000: 83f3 7dbb d61d c43d ae53 383c 9727 a0bd
00000010: 7fa2 be3d 65b4 d8bb 3e6d 00bd 2aae da3a
00000020: 52df ca3d 14ab 953d b2cf a43d 9c89 93ba
00000030: 9d42 253d 8916 03bd c5c4 8cbd cc2e aebc
00000040: d820 bcbd 0f47 a13d 807e b5bc 1d64 7e3d
00000050: bfbc bf3d 826d a73d 11a7 d53d 8326 193d
00000060: 64e7 0a3d c5af f33c dfd6 5c3c 604b 65bd
00000070: 1f00 c73d 59a8 1f3d 888f af3c 940a aabd
00000080: 9737 d13d 2c43 023d 8c78 d03d f077 843d
00000090: fd7a a4bd 40b5 9ebc 6576 60bd 5808 babc
000000a0: 813e e1bc ffb7 71bd 7cf1 ac3d c3e2 883d
000000b0: 65d2 ccbd e6a3 0abd 8ac6 bbbd ae57 30bd
000000c0: 6189 e13c f9db 2c3d 723a aebc ccb3 d93c
000000d0: 2aae 83bd 3747 a2bb aa7e 973d 0ab2 a8bd
000000e0: e84f 2a3d c875 c13d 3935 babd d658 163c
000000f0: 876b d5bd 639c 55bd 584f d73b 7045 7bbd
00000100: 593d 13bd 01f9 3a3d d9a5 803c 50d6 97bd
00000110: 16a2 253c 5fe4 93bc ada2 4cbd 7857 9b3d
00000120: 5cc5 b4bd 9a8a e2bc 5ca0 da3d f04f f2bc
00000130: 8415 a73d cdc3 babd 8c34 d03d 00c8 81bd
00000140: 2d0b 28bc 1e3d 63bd 7ddd 84bd 34ba d93d
00000150: 530d 60bd b4cc 3a3d 7236 29bd dabe 053d
00000160: 2855 bf3c 8f91 9bbd d829 ad3b df93 9d3c
00000170: ee33 d8bc 6bf8 a63d 04b4 5fbd c58a 0f3d
00000180: 36a0 c2bc f05a 6e3c 4203 993d 0f7a 333d
00000190: ae57 85bd 4f21 9f3d 23e0 9c3d 202f 193d
000001a0: 7430 88bd 918e 84bd 30bb ab3d 90cd 8b3d
000001b0: 1d27 b5bb ffb5 f83b 235a 0fbd 860a b03d
000001c0: 2eb5 703d 0f12 b43d 7860 b23d 22c5 22bc
000001d0: 3193 50bd 8d8c 9cbd 0705 f33a 61cf 80bc
000001e0: f0f7 3f3d 20a3 05bd fbe7 5abd 51b9 31bd
000001f0: 23a1 72bc cad6 b53d 74ca 9dbd 2e10 433d
00000200: f229 d63d 6b6b b4bc 45ad a63d 8022 363d
00000210: 1ba9 dfbc a866 b7bd 6dab 12bd ae04 58bd
00000220: a32a 3d3d 4ef8 d03d 3196 853d 928e 1ebd
00000230: d2dc d2bc 74ff a13d 58e1 7ebd 4db3 03bd
00000240: 8ae3 cb3d f0d4 a63d dd9f c9bd 8fa9 bdbd
00000250: 677b 553d a987 a43d e603 903d 6ea3 b73d
00000260: 165a 2dbd 8b8f 053d bd2b 46bd 3efc 81bc
00000270: 56af b9bd c762 b1bd 7552 80bd 426f df3d
00000280: f71d cd3b 089f 8e3d 1c2b 9bbc c2d5 813d
00000290: 1596 643d 3ee7 0bbc d315 c43d 9286 793d
000002a0: 3258 2fbd 6e32 543c 13f1 c6bd 9475 303d
000002b0: 453a 2bbd c5a7 c63c 1361 a3bb 0ed9 8fbd
000002c0: 1cb2 8d3d def6 66bd 80a2 babd 51c2 eebb
000002d0: a730 29bd 3808 973d d145 4abc 206c a3bd
000002e0: 96a5 323c 20e7 d43d 49cf c73d 2069 973d
000002f0: cfbe 2dbd 9ac6 083c 90fb bc3d 4066 b5bd
00000300: af21 243c d897 2037 4a4e 19bc 7a07 10bd
00000310: 064d 34bd 6e16 1d3d 9ce9 83bd 51a6 cf3d
00000320: 58c7 f43c 2fcd d43d 6f27 a13d e2cb 9bbd
00000330: cbdb 34bd 3953 833d 1b22 cabd e20c dc3d
00000340: ff01 9a3d db56 3fbd aa8c 883d 88d0 bf3d
00000350: e9c0 96bd b8c0 cd3c 8917 ce3c 5df3 ae3d
00000360: 2816 83bc 9967 6d3d aca5 5dbd 703a 89bd
00000370: b2cf ab3d c72a 55bd acdb 313d 54e0 5a3d
00000380: 9231 ac3d d50b 5abd 7541 db3b 624c c33d
00000390: 5a3e b0bc 9305 de3d f7ae 0dbd 46b9 acbd
000003a0: 0f5b 89bd 0156 883d 18ec 9cbd 6028 853d
000003b0: dff2 b03d 54dd 71bd f461 c3bd 2fe7 913d
000003c0: ff42 be3d 0a7b 7bbd 3567 c1bd a4a4 dc3d
000003d0: 14be b0bd 5fb6 c8bd 86fe 3b3d e121 b6bd
000003e0: f71b 803d 0be3 abbc 95b7 72bd 7607 18bd
000003f0: ed4e 68bd 02ad 173d 8321 96bc b546 c2bd

bias f4 [10]
0.014092533 0.022583235 -0.0022874791 -0.09348138 -0.015838962 -0.020073084 -0.09539249 -0.0033792676
-0.02133816 -0.1027616
00000000: 5ee4 663c 7a00 b93c 88e9 15bb 2a73 bfbd
00000010: b6c0 81bc 4f70 a4bc 235d c3bd b476 5dbb
00000020: 5dcd aebc ac74 d2bd

weight f4 [10, 10, 4, 4]
-0.076071195 0.008431768 -0.06577055 -0.07952592 0.050957732 0.057735823 -0.018908093 0.072386585
-0.031193493 -0.06568415 -0.07588057 0.031251304 -0.029326042 0.034476176 0.0058838464 0.051147003
0.07273196 0.06537281 0.051575076 0.056655843 0.062496144 -0.030144323 -0.048610214 -0.073575884
-0.07738158 0.0038549942 0.023750946 0.02928498 0.032301098 -0.019210294 0.015777534 0.031040445
-0.019946842 -0.058182653 -0.07146793 -0.06219156 0.03944188 -0.06701358 -0.070320755 0.07531984
-0.05052054 0.042793956 0.02808974 0.028710939 -0.056587767 -0.076003455 -0.07763908 -0.07194879
0.018188799 0.023413379 -0.04131222 -0.03798089 0.038192328 0.05284029 0.062321723 0.035220444
0.058667015 0.050955873 0.017161217 -0.0020632346 0.023955323 -0.061692353 0.068697125 0.04479461
-0.060385738 -0.07049031 0.0059303357 -0.07451486 -0.07563569 0.06521402 0.032265693 -0.029651713
0.04441362 -0.07915785 -0.047184132 -0.04795954 0.04248235 -0.02113245 0.053785082 -0.010670256
-0.018779466 0.074041 -0.060967777 0.020392692 0.031069458 0.0052738953 0.018147722 -0.051067073
0.006268287 -0.063075416 0.031471543 0.024417363 0.0683312 0.045056894 0.055928245 0.050140426
-0.06586334 0.04025896 -0.03691634 -0.052306138 -0.059507556 -0.06920637 -0.0026946648 0.004306406
0.008204661 0.00025407225 0.068552606 -0.043029595 -0.050512988 -0.047808047 0.06209416 -0.061040383
0.011486656 -0.06132153 -0.031299237 0.028889896 0.005668879 -0.028754052 -0.05206999 -0.07260047
-0.02022603 -0.085419774 -0.07154372 -0.05840994 0.053004663 0.07424908 0.02282541 -0.036281385
-0.053577673 0.05927297 -0.024681116 -0.023361234 -0.06938941 -0.009334645 -0.073658176 -0.078506626
0.026654435 -0.050801005 -0.018768063 0.009000893 0.053121965 -0.067174196 0.07094356 -0.041289184
-0.032671973 0.033418845 -0.021569792 -0.0056328997 0.03541786 0.007731006 0.00937329 -0.034809962
0.06730202 -0.004359404 -0.049132235 0.050011072 0.051674567 0.017328627 -0.013429118 0.011102887
-0.006473703 -0.023287542 -0.052801505 0.030872285 -0.05376139 0.020734599 0.06663124 0.011238639
0.042647447 -0.03713379 0.055725556 -0.011598174 0.0799531 0.036942657 0.006214482 -0.010363527
0.07292035 0.068539985 -0.047997974 -0.057904284 0.07176672 -0.062104832 0.011213344 -0.005615849
0.0137831075 -0.07417793 0.0012766698 -0.010692397 0.053894155 0.028115561 0.029560678 -0.070382446
-0.0037932089 0.0629315 -0.05761393 -0.024795298 0.027278583 0.0626274 0.01355401 0.07778318
0.071922645 0.0017327525 0.041919112 0.058267586 -0.032479364 0.014119962 -0.019267082 0.056564923
-0.012054809 0.045067735 0.018319832 -0.06838924 -0.053405438 -0.0186229 -0.07229515 -0.071340926
-0.023746716 -0.012612269 0.07129874 -0.034393456 -0.030761091 0.044121318 -0.059485804 -0.007790662
0.045950398 0.019033143 -0.03340394 0.05726155 -0.07927083 -0.024447411 -0.035083544 -0.010383216
-0.05949122 0.07112862 0.017444246 -0.044834595 0.00026621943 0.056877263 0.016604915 -0.017374322
0.055037785 0.068690196 -0.018608626 -0.06918919 -0.057728406 0.06157335 -0.031806905 -0.031638708
0.025274172 -0.04367864 -0.024488894 -0.08088526 0.015423185 0.02375978 -0.05593835 -0.039831884
00000000: 37cb 9bbd 6625 0a3c b6b2 86bd 7cde a2bd
00000010: 0eb9 503d 667c 6c3d 25e5 9abc 6b3f 943d
00000020: 7f89 ffbc 6985 86bd 4667 9bbd 5e01 003d
00000030: 2b3d f0bc e436 0d3d 48cd c03b 857f 513d
00000040: 7ef4 943d 2ee2 853d 6340 533d f50f 683d
00000050: f5fb 7f3d 3af1 f6bc 811b 47bd f4ae 96bd
00000060: 3c7a 9ebd 12a4 7c3b 5891 c23c 0ee7 ef3c
00000070: 284e 043d e85e 9dbc e33f 813c 8848 fe3c
00000080: 8f67 a3bc ef50 6ebd c75d 92bd 94bc 7ebd
00000090: cf8d 213d 6a3e 89bd 5404 90bd 4a41 9a3d
000000a0: a0ee 4ebd b748 2f3d 741c e63c 3433 eb3c
000000b0: 93c8 67bd b3a7 9bbd 3d01 9fbd e359 93bd
000000c0: ad00 953c 6acd bf3c 0137 29bd da91 1bbd
000000d0: 8f6f 1c3d 0f6f 583d 1045 7f3d 5043 103d
000000e0: d34c 703d 1bb7 503d ae95 8c3c 5537 07bb
000000f0: f43d c43c 1fb1 7cbd 14b1 8c3d 8e7a 373d
00000100: 0957 77bd 395d 90bd 4353 c23b 3f9b 98bd
00000110: e2e6 9abd ee8e 853d 0829 043d 26e8 f2bc
00000120: 0eeb 353d 831d a2bd 2644 41bd 3971 44bd
00000130: f901 2e3d f61d adbc bf4d 5c3d 4cd2 2ebc
00000140: 65d7 99bc cfa2 973d 59b9 79bd 930e a73c
00000150: 6085 fe3c a4d0 ac3b 88aa 943c b52b 51bd
00000160: 3466 cd3b af2d 81bd 4ee8 003d ec06 c83c
00000170: 3af1 8b3d 948d 383d 0415 653d 0c60 4d3d
00000180: 5ce3 86bd 94e6 243d 9735 17bd f63e 56bd
00000190: 32be 73bd 12bc 8dbd f998 30bb c01c 8d3b
000001a0: d86c 063c 0035 8539 4f65 8c3d cd3f 30bd
000001b0: b5e6 4ebd 5fd2 43bd 7256 7e3d 7b05 7abd
000001c0: 8732 3c3c 492c 7bbd a133 00bd 81aa ec3c
000001d0: 01c2 b93b 9e8d ebbc 5847 55bd 8eaf 94bd
000001e0: 0fb1 a5bc 90f0 aebd 8485 92bd 433f 6fbd
000001f0: 6b1b 593d e70f 983d 5bfc ba3c ca9b 14bd
00000200: 4374 5bbd 37c8 723d 0d30 cabc 0f60 bfbc
00000210: 091c 8ebd 57f0 18bc 19da 96bd 15c8 a0bd
00000220: 675a da3c b714 50bd 7bbf 99bc 7b78 133c
00000230: 6b96 593d a092 89bd db4a 913d d91e 29bd
00000240: 0cd3 05bd 33e2 083d 22b3 b0bc 3094 b8bb
00000250: 5112 113d 6154 fd3b 6e92 193c e494 0ebd
00000260: a4d5 893d 55d9 8ebb e23e 49bd 69d8 4c3d
00000270: b6a8 533d c4f4 8d3c ce05 5cbc e2e8 353c
00000280: 5b21 d4bb 84c5 bebc 6446 58bd e0e7 fc3c
00000290: e734 5cbd 9bdb a93c f675 883d 4522 383c
000002a0: 17af 2e3d 9a19 18bd 7b40 643d 4506 3ebc
000002b0: 73be a33d 2f51 173d daa2 cb3b c8cb 29bc
000002c0: 4457 953d b15e 8c3d 8699 44bd 0b2d 6dbd
000002d0: 6efa 923d a361 7ebd 2cb8 373c 2805 b8bb
000002e0: 8bd2 613c 99ea 97bd ee55 a73a 2a2f 2fbc
000002f0: 1ec0 5c3d 9b52 e63c 3c29 f23c ac24 90bd
00000300: 7c97 78bb 3be2 803d 96fc 6bbd 821f cbbc
00000310: 5677 df3c cb42 803d a311 5e3c ca4c 9f3d
00000320: 2e4c 933d 871d e33a 60b3 2b3d fea9 6e3d
00000330: 1509 05bd 6a57 673c 00d6 9dbc 9fb0 673d
00000340: 8981 45bc f298 383d 7913 963c a80f 8cbd
00000350: a9bf 5abd 0d8f 98bc 7b0f 94bd 311b 92bd
00000360: 7988 c2bc b1a3 4ebc 1305 923d 27e0 0cbd
00000370: affe fbbc 8eb8 343d 63a7 73bd cf48 ffbb
00000380: 7c36 3c3d 65eb 9b3c 92d2 08bd 168b 6a3d
00000390: bf58 a2bd f045 c8bc c3b3 0fbd 5d1e 2abc
000003a0: 11ad 73bd e2ab 913d 3ce7 8e3c 7ba4 37bd
000003b0: 5e93 8b39 22f8 683d 0807 883c 9854 8ebc
000003c0: 4d6f 613d 72ad 8c3d 1e71 98bc 10b3 8dbd
000003d0: 9f74 6cbd 5634 7c3d f547 02bd 9797 01bd
000003e0: c80b cf3c 60e8 32bd ef9c c8bc 2ca7 a5bd
000003f0: 87b1 7c3c dfa3 c23c 9c1f 65bd c226 23bd

bias f4 [10]
0.019282406 0.049306538 -0.013599449 -0.018517599 0.07206076 0.0056941397 0.022175452 0.010176198
-0.017175803 0.0032771637
00000000: 23f6 9d3c a7f5 493d 39d0 5ebc 38b2 97bc
00000010: 9794 933d e895 ba3b 4ba9 b53c 11ba 263c
00000020: 45b4 8cbc afc5 563b

weight f4 [10, 10, 5, 5]
0.025376463 0.01534322 -0.04088652 -0.050696526 0.007862522 0.032689393 0.037749093 -0.04014478
0.0035524892 -0.04998329 -0.03496523 -0.06548284 -0.065602764 0.044873964 -0.024559585 -0.012215044
0.05375683 0.0182666 0.01988705 -0.05494974 -0.048699837 0.055799555 -0.028618997 0.03472884
0.02316045 -0.019532794 -0.006107267 0.017113797 0.052088436 0.036150966 -0.050747886 -0.050857402
-0.016968165 -0.020768343 0.03523829 -0.037328508 0.029929906 -0.058476925 0.023750355 -0.038302444
-0.013492574 0.02355394 0.03497905 0.017102335 -0.02171657 -0.0012193448 -0.035130538 0.054918535
0.037447564 0.019233141 0.043056764 0.02645676 0.035545714 -0.029803576 -0.02009322 -0.017975237
-0.031302698 -0.022703398 0.035473444 -0.05279143 0.06073879 -0.010670768 0.061682884 0.040963493
-0.01959238 -0.028205091 -0.016501997 -0.048262797 -0.020566449 -0.042280506 -0.033648312 0.02339853
0.012660381 -0.027379341 -0.021015607 -0.050640713 0.044448134 0.03580868 -0.015425327 -0.04891953
0.05372136 0.058854777 0.009017314 0.025292339 -0.017717369 -0.032590352 0.05016938 -0.03591579
0.024203941 -0.03252727 0.054328036 0.04141511 -0.025372323 -0.0038054294 0.023633387 -0.009827389
-0.03229931 -0.042115904 -0.010995361 -0.027081747 0.04296737 -0.020870036 0.030893033 -0.013723639
0.039206345 0.026880503 0.019202411 0.020083025 -0.009384016 -0.049839858 0.019546637 -0.026935618
0.060090683 -0.050450746 0.0012180156 0.004107726 0.047910657 0.01624225 0.027443938 -0.057400305
0.015596066 0.016084816 0.024012743 0.013467217 -0.04870819 -0.023161378 -0.007901615 0.014750952
-0.0042204554 -0.0043824804 0.032467123 0.03950076 0.058781248 0.059001718 0.037498757 0.055225268
0.059376996 0.014927684 0.047947455 0.022663832 0.043742687 0.023751196 -0.04422237 -0.03432468
0.05270957 0.058900137 0.028263861 -0.03956298 0.012293499 -0.018122988 -0.011225534 -0.008211323
0.0055482 0.04698135 0.056895364 0.047782164 -0.03146983 -0.0023820975 -0.049461983 -0.03658464
-0.033780597 -0.0022610575 0.046007235 -0.04988454 0.05403105 0.06219105 -0.01847861 0.035567503
0.03975891 0.0238218 -0.018502727 -0.01564994 0.04536662 -0.039408877 -0.010787354 -0.011590317
-9.740701e-05 0.035702027 -0.05546767 0.050282385 -0.018378831 -0.017392758 0.06616907 0.058095433
0.048966408 0.05121749 0.033001132 -0.025716351 -0.02459909 0.017434156 0.026028754 0.012919282
0.052838158 -0.006180951 -1.6955863e-05 0.02570457 -0.04532545 -0.0037493298 -0.04212016 -0.03584315
0.020500956 0.0029741467 -0.0059381267 0.057526298 0.0025758534 -0.010057561 -0.021046065 0.053469185
0.05873409 0.001984714 -0.0018205176 0.0027565279 -0.00016420221 -0.0031481422 -0.0042753923 -0.023499968
8.444836e-05 -0.02706776 0.016121179 -0.03176114 -0.04503373 0.007113137 0.026583627 0.021941626
0.033548005 -0.019606018 0.004375451 -0.021015367 0.0074536195 -0.009324315 0.03165196 0.02774727
0.05800284 0.028141886 0.06763277 0.06222464 0.054001957 -0.04347069 0.024303831 -0.03465352
-0.013493038 -0.046975788 -0.038453214 -0.04440921 0.007642237 0.04624934 0.05097994 0.06585484
-0.038394637 0.025605699 0.047096625 0.0014124623 -0.04397626 0.02025361 -0.008353877 -0.06504592
00000000: 4de2 cf3c 2162 7b3c a078 27bd 29a7 4fbd
00000010: cfd1 003c 50e5 053d cb9e 1a3d da6e 24bd
00000020: e1d0 683b 47bb 4cbd b337 0fbd de1b 86bd
00000030: be5a 86bd c3cd 373d 2f31 c9bc 9c21 48bc
00000040: 1f30 5c3d d6a3 953c 2bea a23c fb12 61bd
00000050: 7b79 47bd 138e 643d 6372 eabc d43f 0e3d
00000060: fcba bd3c 3d03 a0bc 781f c8bb 3c32 8c3c
00000070: af5a 553d 0913 143d 04dd 4fbd da4f 50bd
00000080: d200 8bbc 5f22 aabc 0656 103d c7e5 18bd
00000090: 902f f53c 8085 6fbd 1b90 c23c 06e3 1cbd
000000a0: f50f 5dbc 31f4 c03c 3146 0f3d 321a 8c3c
000000b0: f3e6 b1bc 6cd2 9fba 0ae5 0fbd 42f2 603d
000000c0: 9e62 193d d28e 9d3c 4a5c 303d d9bb d83c
000000d0: 6298 113d a126 f4bc 899a a4bc ce40 93bc
000000e0: 4237 00bd 7afc b9bc 9a4c 113d d43b 58bd
000000f0: 3dc9 783d 72d4 2ebc 31a7 7c3d 56c9 273d
00000100: 3380 a0bc 5d0e e7bc 322f 87bc 36af 45bd
00000110: f87a a8bc 532e 2dbd d0d2 09bd 46ae bf3c
00000120: 7d6d 4f3c a44a e0bc ec28 acbc a36c 4fbd
00000130: 3f0f 363d 1fac 123d 83ba 7cbc d85f 48bd
00000140: ee0a 5c3d b511 713d 5bbd 133c e131 cf3c
00000150: 0424 91bc 767d 05bd 687e 4d3d 6f1c 13bd
00000160: 5847 c63c 513b 05bd 1387 5e3d e4a2 293d
00000170: 9ed9 cfbc 8364 79bb ce9a c13c 0f03 21bc
00000180: 484c 04bd ba81 2cbd e325 34bc 8ada ddbc
00000190: 8efe 2f3d a3f7 aabc 6313 fd3c 1dd9 60bc
000001a0: d596 203d 8034 dc3c 604e 9d3c 2885 a43c
000001b0: 6abf 19bc e124 4cbd 4520 a03c 16a8 dcbc
000001c0: a621 763d 71a5 4ebd d2a5 9f3a 1a9a 863b
000001d0: f73d 443d 780e 853c 1cd2 e03c 951c 6bbd
000001e0: a486 7f3c 4ec4 833c 5fb6 c43c 9aa5 5c3c
000001f0: 3d82 47bd eebc bdbc c775 01bc faad 713c
00000200: bf4b 8abb e99a 8fbb 3ffc 043d 8dcb 213d
00000210: 9bc4 703d c9ab 713d 4c98 193d e433 623d
00000220: 4b35 733d 3f93 743c 8d64 443d 80a9 b93c
00000230: 882b 333d de91 c23c 8422 35bd 0998 0cbd
00000240: fde5 573d 4541 713d 9d89 e73c cb0c 22bd
00000250: ac6a 493c a976 94bc 4deb 37bc c988 06bc
00000260: adcd b53b 846f 403d 1d0b 693d 3bb7 433d
00000270: 82e6 00bd f71c 1cbb a698 4abd c7d9 15bd
00000280: 865d 0abd 402e 14bb 1572 3c3d bb53 4cbd
00000290: aa4f 5d3d 0bbc 7e3d 7460 97bc 3baf 113d
000002a0: 3dda 223d ef25 c33c 0893 97bc 4e34 80bc
000002b0: 59d2 393d 346b 21bd 71bd 30bc 50e5 3dbc
000002c0: fe46 ccb8 4a3c 123d 1132 63bd e7f4 4d3d
000002d0: 348f 96bc 427b 8ebc a683 873d 7af5 6d3d
000002e0: 0091 483d 6ec9 513d 322c 073d 19ab d2bc
000002f0: 0884 c9bc 13d2 8e3c 413a d53c 65ab 533c
00000300: d36c 583d 9389 cabb 703c 8eb7 6492 d23c
00000310: 2ea7 39bd 51b7 75bb 3086 2cbd 44d0 12bd
00000320: 9ff1 a73c e7e9 423b 9e94 c2bb b2a0 6b3d
00000330: a6cf 283b 78c8 24bc cc68 acbc 8102 5b3d
00000340: 2893 703d fa11 023b 6f9e eeba dda6 343b
00000350: b22d 2cb9 1051 4ebb 9718 8cbb 0183 c0bc
00000360: de19 b138 35bd ddbc 9010 843c f817 02bd
00000370: 4a75 38bd 5115 e93b e8c5 d93c edbe b33c
00000380: a269 093d cd9c a0bc f15f 8f3b 6b28 acbc
00000390: 7e3d f43b 03c5 18bc 7ca5 013d 3e4e e33c
000003a0: 6394 6d3d d089 e63c 0d83 8a3d 44df 7e3d
000003b0: 2831 5d3d 520e 32bd d418 c73c d9f0 0dbd
000003c0: e711 5dbc af69 40bd 1e81 1dbd 6fe6 35bd
000003d0: bb6b fa3b f36f 3d3d 57d0 503d e7de 863d
000003e0: b243 1dbd 0bc3 d13c 64e8 403d 5f22 b93a
000003f0: 7320 34bd e6ea a53c b3de 08bc cc36 85bd

bias f4 [10]
0.01591567 0.044540107 -0.050591197 -0.036472216 -0.044903655 0.03593849 -0.019810218 -0.044817846
0.0014018306 0.040415324
00000000: 9461 823c b06f 363d b738 4fbd e463 15bd
00000010: e5ec 37bd 3d34 133d 0a49 a2bc eb92 37bd
00000020: a1bd b73a 8a8a 253d

weight f4 [100, 810]
0.029433753 -0.03137717 -0.026813583 0.010475162 0.007793851 0.015603665 -0.024099488 -0.021179773
-0.020970017 0.030049313 0.027435038 -0.02668749 0.028977428 -0.020652192 -0.00071590766 -0.015622536
-0.02140685 0.020945512 0.032389905 0.008333929 -0.0020809919 0.021485053 0.015690781 0.024045985
0.016438294 -0.009028006 -0.026406867 -0.004134048 -0.026840687 -0.0057728123 -0.0198896 0.021026585
0.010747623 -0.026887793 -0.0077473465 -0.0032777078 -0.027744036 0.0043492876 0.007440746 -0.024625018
-0.017678868 0.024558768 -0.03161027 -0.012741048 -0.0034113117 0.008744348 -0.0028014332 -0.0051365737
-0.010712942 0.025378235 -0.016864805 0.013703916 0.020560823 0.025030922 0.011650868 -0.013205545
-0.032327186 0.020978533 0.020450715 0.011886656 -0.013216386 0.00032640249 -0.029895512 -0.0069066007
0.02041594 -0.030887797 -0.020199481 0.0040442795 -0.029450057 -0.02057658 -0.0041686166 -0.024235763
-0.017817091 -0.03128371 0.024253387 0.021113478 0.019966684 -0.021424323 -0.007807892 0.017328635
-0.008653991 -0.027667254 -0.011818251 -0.015310854 0.027358662 0.01674926 0.031213406 -0.0253271
-0.00617549 -0.008083228 -0.027444402 0.0042231046 0.01737114 -0.0031056628 -0.019804224 0.018148791
-0.0039017107 0.007073339 -0.026705606 -0.029763337 -0.01683196 -0.019440321 0.016746547 -0.017856292
-0.032941617 -0.009042952 0.012664903 -0.02164511 0.033532534 0.00029453263 0.020668931 0.018622622
-0.01746693 0.033178095 0.005660679 0.0066332445 -0.0069125686 0.0154633 -0.0092921425 -0.0151158385
0.0072552413 -0.029146455 0.007185992 -0.021905664 -0.022212628 0.008553144 0.0050354004 0.031472918
-0.023775928 -0.012256201 -0.027187038 0.009983301 -0.030159477 -0.027329128 -0.024373397 -0.028940653
0.014869042 0.005458396 -0.020266758 0.017149065 -0.016026676 0.018643454 -0.017027656 -0.0014730729
-0.014756558 0.0031467564 0.010438368 -0.030582914 0.010764718 0.016097564 -0.02881294 -0.014327755
0.011874463 -0.016434327 -0.0023589581 -0.025928568 -0.023332993 0.011871491 0.0008765459 -0.03159688
-0.017248115 0.016223859 -0.028725252 0.0028731339 0.033503745 -0.0010689124 0.03413901 0.013995159
-0.0025018975 0.0021821037 -0.022263061 -0.016891431 0.024047703 -0.021142889 -0.011477925 0.014237471
0.0026400909 0.013452619 0.0050589703 -0.012673276 0.019854449 -0.0072728284 0.019099515 0.0056576654
-0.01552882 -0.025774878 -0.017597657 -0.010588076 -0.003690239 -0.003104996 0.028491478 -0.034126513
0.0005848333 -0.020375816 -0.005070595 -0.0006731227 -0.017202923 0.021621913 -0.009980893 0.004708614
-0.019976735 -0.016740784 -0.027670778 0.014476657 0.033045027 0.010914363 -0.0123456195 -0.007767519
-0.0076845177 0.01514069 0.027893882 0.0038178265 -0.020315066 0.029065121 0.006773144 0.02866773
-0.021763671 -0.002837129 0.026354983 0.021820564 -0.032193985 -0.013945257 -0.034690324 0.030730043
0.014700342 0.02835637 0.0011436567 -0.025804004 0.006059166 0.0030751564 0.01637844 0.008746773
-0.028001396 0.024747621 -0.011631196 0.027619902 0.02513973 0.016400918 0.026011791 0.028990235
-0.012725549 -0.024021968 0.0040861852 -0.012857322 -0.03173605 0.028825384 -0.030832378 -0.00895337
0.023705844 -0.025640596 -0.008394428 -0.022524789 0.006238926 -0.028785743 0.031048898 -0.033677623
00000000: 0e1f f13c 5985 00bd 29a8 dbbc 04a0 2b3c
00000010: 9063 ff3b 84a6 7f3c 4a6c c5bc 3481 adbc
00000020: 50c9 abbc fa29 f63c 72bf e03c b99f dabc
00000030: 1262 ed3c c92e a9bc c0ab 3bba aaf5 7fbc
00000040: 6b5d afbc ec95 ab3c 47ab 043d 088b 083c
00000050: 4061 08bb 6c01 b03c f489 803c 16fc c43c
00000060: 9aa9 863c 34ea 13bc 3753 d8bc e876 87bb
00000070: 00e1 dbbc dc29 bdbb 84ef a2bc f23f ac3c
00000080: cc16 303c ca43 dcbc 74dd fdbb d0ce 56bb
00000090: 7647 e3bc 7884 8e3b 80d1 f33b 68ba c9bc
000000a0: 46d3 90bc 782f c93c c579 01bd d4bf 50bc
000000b0: 5090 5fbb 7444 0f3c 4098 37bb b450 a8bb
000000c0: 5685 2fbc 04e6 cf3c 0f28 8abc 6486 603c
000000d0: 2c6f a83c a60d cd3c 48e3 3e3c 125c 58bc
000000e0: 8369 04bd 2cdb ab3c 4288 a73c 40c0 423c
000000f0: 8a89 58bc 0021 ab39 6fe7 f4bc c450 e2bb
00000100: 543f a73c 6808 fdbc 6279 a5bc e085 843b
00000110: 3f41 f1bc 3790 a8bc e498 88bb 148a c6bc
00000120: 26f5 91bc 5923 00bd 0aaf c63c 2cf6 ac3c
00000130: 2c91 a33c 1082 afbc 58d9 ffbb c8f4 8d3c
00000140: 78c9 0dbc 70a6 e2bc 56a1 41bc 60da 7abc
00000150: 461f e03c be35 893c 42b3 ff3c c77a cfbc
00000160: c45b cabb 846f 04bc 15d3 e0bc f861 8a3b
00000170: ec4d 8e3c 6088 4bbb 783c a2bc c6ac 943c
00000180: d8b3 7fbb 78c7 e73b b7c5 dabc 3ed2 f3bc
00000190: 2ee3 89bc 4f41 9fbc 0e30 893c 5c47 92bc
000001a0: caed 06bd e428 14bc 7480 4f3c 1651 b1bc
000001b0: 6959 093d 806b 9a39 e451 a93c 788e 983c
000001c0: cf16 8fbc c1e5 073d 387d b93b b05b d93b
000001d0: d482 e2bb c859 7d3c 123e 18bc 6ca8 77bc
000001e0: 60bd ed3b 8cc4 eebc 7878 eb3b 8273 b3bc
000001f0: 42f7 b5bc 7c22 0c3c 0000 a53b bfe9 003d
00000200: bcc5 c2bc 3cce 48bc 5ab7 debc 0091 233c
00000210: 0211 f7bc 56e1 dfbc b8aa c7bc f314 edbc
00000220: 489d 733c 58dc b23b 7906 a6bc 327c 8c3c
00000230: 604a 83bc 28ba 983c 957d 8bbc 2014 c1ba
00000240: 7ec5 71bc d039 4e3b b005 2b3c 0589 fabc
00000250: 805e 303c 0adf 833c 1d09 ecbc f6be 6abc
00000260: 1c8d 423c 48a1 86bc c098 1abb 2668 d4bc
00000270: d524 bfbc a480 423c 00c8 653a bb6b 01bd
00000280: eb4b 8dbc e6e7 843c 3851 ebbc 304b 3c3b
00000290: 393b 093d c01a 8cba 59d5 0b3d f44b 653c
000002a0: e0f6 23bb a001 0f3b 0661 b6bc e65f 8abc
000002b0: b0ff c43c da33 adbc e80d 3cbc 4844 693c
000002c0: 6005 2d3b 6068 5c3c b8c5 a53b 92a3 4fbc
000002d0: cca5 a23c e850 eebb 9676 9c3c f063 b93b
000002e0: 986c 7ebc d625 d3bc f628 90bc 9c79 2dbc
000002f0: f0d7 71bb 307d 4bbb f666 e93c 3ec8 0bbd
00000300: 804f 193a 2feb a6bc 3c27 a6bb 8074 30ba
00000310: 25ed 8cbc 7020 b13c e686 23bc b84a 9a3b
00000320: 40a6 a3bc f823 89bc d4ad e2bc 802f 6d3c
00000330: 395a 073d 28d2 323c 4845 4abc ac86 febb
00000340: 68ce fbbb a810 783c b681 e43c 8034 7a3b
00000350: c86b a6bc fa19 ee3c 40f1 dd3b 96d8 ea3c
00000360: ba49 b2bc 20ef 39bb 68e6 d73c 0ac1 b23c
00000370: d7dd 03bd a67a 64bc 7117 0ebd 92bd fb3c
00000380: b4d9 703c 9e4b e83c c0e6 953a eb62 d3bc
00000390: f88b c63b 9088 493b 142c 863c a04e 0f3c
000003a0: 2f63 e5bc 86bb ca3c c690 3ebc 2243 e23c
000003b0: d6f1 cd3c 385b 863c ae16 d53c ee7c ed3c
000003c0: d27e 50bc b8c9 c4bc 68e5 853b 84a7 52bc
000003d0: a9fd 01bd 3623 ec3c 2f94 fcbc 28b1 12bc
000003e0: c232 c23c 3a0c d2bc c888 09bc e885 b8bc
000003f0: e86f cc3b 14d0 ebbc 425a fe3c 8cf1 09bd

bias f4 [100]
0.009882148 -0.034728695 -0.014610607 0.01818718 0.016231434 0.028322779 -0.025591273 0.031686045
0.0011078188 0.031562593 -0.011392749 -0.012512237 0.011023152 0.009584629 0.027931409 0.03631808
0.03790818 0.001437017 0.0082242545 -0.025121536 0.02661573 -0.013747599 -0.0019659726 -0.03050439
0.0014011338 0.0412847 0.029167702 0.011660557 0.008116814 -0.024312008 -0.015826307 -0.0023779273
-0.000599457 0.0128274225 -0.004110478 0.0007094328 0.011290112 -0.02092067 -0.006756695 0.03617057
-0.01477417 0.02479833 -0.034603797 -0.0151445 -0.024372905 -0.002504798 0.014962184 -0.00065171346
-0.02393226 0.01809204 -0.013681993 0.020676866 0.024324024 0.024845582 -0.0055157617 0.008380004
-0.0065626334 0.0015942322 -0.016308006 0.035652854 -0.007433695 -0.034878403 0.0033552737 -0.008914606
0.0482267 -0.018246643 -0.0033122264 0.012572571 0.01238855 -0.034609675 0.004666732 0.009009475
-0.012456966 0.042318203 -0.028197518 0.0053830813 -0.032490235 0.0024912867 0.016258113 0.04465491
0.030801702 0.0073063984 -0.025778793 0.011235646 0.025778856 -0.008993748 -0.017847346 0.016094534
-0.000103774626 0.024201704 -0.02975594 -0.010659785 -0.022714766 0.009054797 0.036930718 0.03513197
-0.01977398 0.035768665 0.046257846 0.04677826
00000000: bce8 213c ad3f 0ebd 5461 6fbc 48fd 943c
00000010: c9f7 843c 2c05 e83c caa4 d1bc 3ac9 013d
00000020: 3b34 913a c747 013d a7a8 3abc 2000 4dbc
00000030: 739a 343c d908 1d3c 69d0 e43c 44c2 143d
00000040: 9c45 1b3d 4a5a bc3a 06bf 063c aecb cdbc
00000050: 3b09 da3c 9c3d 61bc 8cd7 00bb 58e4 f9bc
00000060: 40a6 b73a 251a 293d 1bf1 ee3c ec0b 3f3c
00000070: 63fc 043c fa29 c7bc 2ca6 81bc 00d7 1bbb
00000080: e124 1dba 1c2a 523c 30b1 86bb 3bf9 393a
00000090: 29fa 383c d361 abbc 4467 ddbb 9727 143d
000000a0: 5c0f 72bc de25 cb3c b6bc 0dbd a320 78bc
000000b0: b0a9 c7bc 8927 24bb f323 753c c0d7 2aba
000000c0: 960d c4bc c235 943c 702a 60bc 8862 a93c
000000d0: 2d43 c73c f688 cb3c 90bd b4bb 494c 093c
000000e0: 5c0b d7bb 8ef5 d03a 5e98 85bc ba08 123d
000000f0: 5a96 f3bb a8dc 0ebd 27e4 5b3b 910e 12bc
00000100: 5c89 453d fc79 95bc f011 59bb 2ffd 4d3c
00000110: 58f9 4a3c e0c2 0dbd 63eb 983b 7a9c 133c
00000120: 4d18 4cbc da55 2d3d 7bfe e6bc 8f64 b03b
00000130: 7b14 05bd db44 233b bc2f 853c 11e8 363d
00000140: da53 fc3c 836a ef3b 0c2e d3bc b715 383c
00000150: 2e2e d33c 835a 13bc 9934 92bc afd8 833c
00000160: 94a1 d9b8 a742 c63c bbc2 f3bc 61a6 2ebc
00000170: 5114 babc 925a 143c aa44 173d 8ae6 0f3d
00000180: 0bfd a1bc 2a82 123d de78 3d3d 909a 3f3d

weight f4 [300, 100]
-0.021422341 -0.08749869 -0.052674115 -0.05299857 0.08166958 0.04826494 0.039506175 0.08206752
-0.037479952 0.070478 0.08970436 -0.02037257 0.05125589 0.081461206 0.0036042335 -0.021148844
-0.057251878 -0.007647412 0.07082093 -0.049682364 -0.017746078 -0.07282945 0.052644137 -0.06535429
-0.086072974 -0.08510828 -0.031517603 -0.088242285 -0.07603204 0.05842357 0.0099037 -0.01899837
-0.050807986 0.00985332 0.065949954 -0.048888996 -0.10073984 -0.020614922 0.035071142 -0.061736558
-0.04382713 0.003138373 -0.026298031 -0.00021127556 -0.09586873 -0.066951275 -0.08094715 0.025322177
0.06909362 0.08953511 -0.034367837 -0.013343031 0.027805265 0.08780309 0.011574243 0.047685284
0.040815078 -0.0154600935 -0.014274892 0.045343623 -0.030914284 0.022779115 -0.00033788334 0.08228419
-0.051747378 -0.034576252 -0.034737848 0.0411245 -0.07932722 0.029398434 -0.07029294 0.030993693
-0.088082395 -0.055986375 -0.04633297 0.08621942 -0.01125697 -0.022225149 -0.100145414 -0.08667114
0.01361821 -0.056794703 0.019259073 0.025298804 0.09263508 -0.09464571 0.0356626 -0.06498304
-0.021523876 -0.04375202 -0.08969082 -0.028655995 0.08770548 0.08003796 0.015348687 0.018957136
0.017048681 -0.09870873 -0.014184302 -0.093955934 0.09733879 -0.03410268 -0.062384192 -0.014715093
0.007682525 0.028235095 -0.09548042 -0.049432945 0.06043437 0.002882585 -0.07112019 -0.09772574
0.08348455 -0.033694837 -0.057952445 -0.04730885 0.085345455 0.063964434 0.09271969 0.03495677
-0.025905635 0.07675759 0.097092375 0.0496533 -0.079112075 -0.04037872 0.027960224 0.008309051
-0.0822837 0.020885587 0.08963748 -0.08123386 0.08714822 0.07395286 0.025757233 0.08224982
-0.04122182 0.05390245 0.040056042 0.07096907 -0.04731905 0.0881521 0.051578708 0.077963986
-0.10033802 -0.0110908365 0.061252654 0.010137893 0.06015306 0.05295561 0.00039820338 -0.0033273366
0.021393036 0.04347322 -0.05017519 0.037612844 0.052501567 -0.07189313 -0.06080193 -0.0021076924
0.071202084 -0.0697432 -0.008648101 0.026792133 -0.09753239 0.011437379 0.018896744 -0.034933157
-0.018540766 -0.03241793 0.0056009 0.020551875 -0.10081114 -0.08446275 0.054348767 0.063877195
-0.025881808 -0.08202626 0.074838124 0.094274096 -0.08918875 -0.053962275 -0.05145515 -0.06445946
0.014097194 -0.04789235 -0.027074657 -0.09158373 -0.009325796 -0.09135313 0.009952862 0.040393144
0.08676394 -0.07946081 -0.085672036 0.013189104 -0.045563977 0.0238252 -0.046476576 0.01369721
-0.081619576 -0.0049704164 0.026788907 0.021461142 0.0025828152 0.03374841 -0.054187905 -0.05042663
0.07384439 0.035792 -0.010098896 -0.06449703 -0.10054691 0.008525612 -0.018430006 0.043242883
-0.07306284 -0.040401872 0.048964903 -0.015858324 0.07954761 0.09769518 0.077612735 0.058932073
0.024071407 -0.00020825531 0.031011477 -0.008641623 -0.013121603 0.014953114 -0.08650695 -0.07619679
0.018937865 0.017606014 -0.043150283 0.06833632 -0.067664534 0.014295401 0.020560265 -0.08264209
-0.000102341364 -0.090574816 -0.07291724 -0.08691233 -0.036752213 -0.0142764505 0.016902177 0.06810134
0.068399735 0.08610304 0.089865975 0.06950418 -0.05382343 -8.487883e-05 -0.020704549 -0.06627773
00000000: e87d afbc 8332 b3bd d0c0 57bd 0715 59bd
00000010: 6142 a73d 75b1 453d 3ad1 213d 0413 a83d
00000020: 9484 19bd c556 903d ebb6 b73d 60e4 a6bc
00000030: b2f1 513d 22d5 a63d 0135 6c3b 5740 adbc
00000040: f280 6abd 2497 fabb 900a 913d bc7f 4bbd
00000050: 3960 91bc 9b27 95bd 61a1 573d 78d8 85bd
00000060: 0747 b0bd 404d aebd 9a18 01bd 5fb8 b4bd
00000070: b0b6 9bbd 8e4d 6f3d 2143 223c 78a2 9bbc
00000080: 091c 50bd d26f 213c c510 873d d43f 48bd
00000090: b050 cebd a0e0 a8bc c2a6 0f3d 79df 7cbd
000000a0: 1484 33bd 29ad 4d3b f86e d7bc da89 5db9
000000b0: d356 c4bd c01d 89bd 9fc7 a5bd 7470 cf3c
000000c0: f580 8d3d 2f5e b73d 4ac5 0cbd ba9c 5abc
000000d0: dec7 e33c 1bd2 b33d e5a1 3d3c a551 433d
000000e0: b62d 273d 554c 7dbc 3de1 69bc 3cba 393d
000000f0: f43f fdbc 449b ba3c ef25 b1b9 9d84 a83d
00000100: 0ff5 53bd d49f 0dbd 4649 0ebd 2a72 283d
00000110: 4f76 a2bd fcd4 f03c bff5 8fbd 7ce6 fd3c
00000120: 8b64 b4bd f851 65bd a4c7 3dbd cf93 b03d
00000130: 286f 38bc 8411 b6bc 0a19 cdbd a380 b1bd
00000140: ea1e 5f3c 90a1 68bd 34c5 9d3c 703f cf3c
00000150: 76b7 bd3d 9cd5 c1bd f212 123d d415 85bd
00000160: d752 b0bc 5135 33bd d2af b7bd fabf eabc
00000170: ee9e b33d f1ea a33d 0f79 7b3c ff4b 9b3c
00000180: ada9 8b3c cd27 cabd 4665 68bc f86b c0bd
00000190: 8f59 c73d 40af 0bbd 9186 7fbd 9317 71bc
000001a0: b1bd fb3b 494d e73c 3d8b c3bd 337a 4abd
000001b0: 088a 773d c0e9 3c3b 76a7 91bd 6f24 c8bd
000001c0: f3f9 aa3d 9903 0abd 8b5f 6dbd edc6 41bd
000001d0: 99c9 ae3d c9ff 823d d2e3 bd3d d42e 0f3d
000001e0: 0e38 d4bc 1533 9d3d 5ed8 c63d 4261 4b3d
000001f0: 8305 a2bd 2864 25bd d70c e53c b022 083c
00000200: 5b84 a8bd 4018 ab3c db93 b73d f05d a6bd
00000210: c47a b23d 9974 973d d500 d33c 9872 a83d
00000220: 36d8 28bd d1c8 5c3d ce11 243d 3b58 913d
00000230: 9fd1 41bd 1789 b43d 3244 533d 95ab 9f3d
00000240: 057e cdbd 57b6 35bc 10e4 7a3d 6819 263c
00000250: 0e63 763d fbe7 583d f4c5 d039 720f 5abb
00000260: 7340 af3c fa10 323d 8084 4dbd ed0f 1a3d
00000270: e20b 573d b53c 93bd 720b 79bd 3621 0abb
00000280: 66d2 913d 86d5 8ebd c4b0 0dbc 2d7b db3c
00000290: 10bf c7bd d863 3b3c 58cd 9a3c 1216 0fbd
000002a0: cee2 97bc aac8 04bd c187 b73b 685c a83c
000002b0: 1276 cebd cefa acbd d09c 5e3d 0cd2 823d
000002c0: 1606 d4bc 62fd a7bd bb44 993d c712 c13d
000002d0: 97a8 b6bd 8c07 5dbd a3c2 52bd 5203 84bd
000002e0: ebf7 663c c52a 44bd accb ddbc 4090 bbbd
000002f0: 39cb 18bc 5a17 bbbd 5411 233c 4873 253d
00000300: 4bb1 b13d 59bc a2bd d274 afbd 1d17 583c
00000310: 4ba1 3abd 112d c33c 395e 3ebd 436a 603c
00000320: 2a28 a7bd e0de a2bb 6974 db3c 47cf af3c
00000330: 7344 293b c63b 0a3d 23f4 5dbd 278c 4ebd
00000340: ba3b 973d a29a 123d d775 25bc 0517 84bd
00000350: 8aeb cdbd 02af 0b3c 86fa 96bc 731f 313d
00000360: f8a1 95bd 6f7c 25bd 6c8f 483d 51e9 81bc
00000370: dbe9 a23d 6914 c83d 6df3 9e3d c262 713d
00000380: 6631 c53c 1c5f 5ab9 c80b fe3c 9895 0dbc
00000390: fefb 56bc e8fd 743c 8e2a b1bd 100d 9cbd
000003a0: 9523 9b3c 7d3a 903c 5abe 30bd eaf3 8b3d
000003b0: b493 8abd 4237 6a3c 006e a83c 4240 a9bd
000003c0: 1aa0 d6b8 4a7f b9bd a255 95bd 17ff b1bd
000003d0: 7d89 16bd c6e7 69bc 6f76 8a3c b778 8b3d
000003e0: 2915 8c3d ca56 b03d a70b b83d 3558 8e3d
000003f0: f575 5cbd fa00 b2b8 969c a9bc 9ebc 87bd

bias f4 [300]
0.03737966 -0.08696174 -0.091068044 -0.008796556 0.019770566 0.07395258 -0.079774454 -0.082423516
-0.084367685 0.055353753 -0.09798405 -0.029304871 -0.007918736 0.031058308 -0.032053098 0.0463233
-0.0813601 -0.065997265 0.07850466 0.08115775 -0.008694247 0.024700623 0.0038178363 -0.0785562
-0.009833041 0.08358962 -0.07771332 0.04836006 0.021780986 0.079651475 -0.02482672 0.078075215
0.057671163 -0.0028629457 0.016917843 0.015106994 -0.07032769 0.07721635 0.052898575 -0.053872384
0.014840465 0.06547087 -0.057446837 -0.04167568 0.054510914 -0.098509125 0.10454845 0.06313002
0.09687436 0.07922638 -0.0031569584 -0.021756116 -0.108727336 -0.060596358 0.06317688 -0.09939981
0.09538122 0.080212325 -0.095357 -0.012909697 -0.113084786 0.07001025 0.08140314 0.058735248
-0.060231205 -0.06249285 0.06722825 0.10037342 -0.02470438 0.043909762 -0.06728359 -0.10053842
-0.107555926 0.012114128 0.07566392 -0.031618174 -0.021033227 0.055522487 -0.002126913 0.028922845
0.06378905 -0.0044504395 0.017622158 -0.038188096 -0.0072502266 0.1060512 -0.039402824 0.06815346
0.098203726 -0.07443601 0.06931303 -0.0795567 -0.09871528 -0.09830843 -0.012301884 0.03315709
0.050652377 -0.03544764 -0.017243098 -0.100483395 0.06967089 -0.05916467 -0.087339565 0.01716097
-0.0051519834 0.0556421 0.0161973 -0.071094215 0.046663087 0.008136932 -0.011332294 -0.0756908
-0.04940587 -0.063529514 0.06378702 -0.07284652 0.026164686 -0.05366537 -0.017758079 0.027487172
-0.07253703 0.013610646 -0.051881127 -0.049604394 -0.074769996 0.011910978 0.057603788 -0.058065183
0.018472718 -0.0910046 0.082436174 0.09579641 0.023056233 -0.04352691 -0.09758861 -0.10658524
-0.030052435 -0.06552779 -0.036224008 -0.06811209 0.03468633 0.01638074 -0.09668449 0.029672235
-0.056596905 -0.07704207 0.032557674 -0.023920352 0.031233987 0.04148453 -0.08543195 -0.02426803
0.08783009 -0.018307948 0.02420539 -0.076160535 -0.08227989 0.096644305 0.026015768 0.082122535
-0.07475096 -0.0019064588 0.10198559 -0.062150076 -0.056225207 -0.075328976 -0.09871904 0.07258331
0.017800692 -0.087597184 0.008373932 -0.01651945 -0.081599765 0.00052052276 0.006505878 0.09816818
-0.03250959 0.029004397 -0.06356636 -0.0157703 0.041044373 0.0040123574 -0.018659504 -0.007336836
0.048627775 -0.041288503 -0.035429187 -0.043015793 -0.0647062 0.040585004 -0.092468075 0.06445374
-0.016458303 0.072736196 0.07398788 0.014537115 -0.08421 -0.047082298 0.0544055 -0.038974423
-0.071236834 -0.0034060737 0.003744852 -0.063162 0.017872024 0.10622655 0.07308508 -0.0017029656
-0.096513055 -0.018363532 -0.030094797 -0.03509475 0.05031273 0.041876037 0.06834895 0.08735193
0.029682677 -0.004975933 -0.017418588 -0.015200466 0.075251125 0.09550701 0.02019285 -0.09688049
-0.059218742 -0.02972175 -0.08789422 -0.048315074 -0.07680123 -0.011153851 -0.11176266 -0.098596625
0.0062432955 -0.09416325 -0.07740617 0.10350662 -0.013213645 0.0919937 -0.06542233 -0.040840134
0.05268314 0.051155053 -0.06788418 -0.053503156 -0.024003385 -0.105946824 0.06317505 0.004916469
0.055620335 -0.021105982 0.040699985 0.017668195 -0.018675543 0.07558776 0.08275079 0.05140709
00000000: 6a1b 193d ff18 b2bd e281 babd 6e1f 10bc
00000010: e2f5 a13c 7374 973d ca60 a3bd a9cd a8bd
00000020: f7c8 acbd 9eba 623d ddab c8bd c510 f0bc
00000030: 96bd 01bc fe6d fe3c 1c4a 03bd 80bd 3d3d
00000040: 20a0 a6bd 9329 87bd 0dc7 a03d 0936 a63d
00000050: 5172 0ebc f658 ca3c aa34 7a3b 13e2 a0bd
00000060: c31a 21bc 0931 ab3d 2928 9fbd 3315 463d
00000070: 0a6e b23c 5020 a33d 6861 cbbc e6e5 9f3d
00000080: 9938 6c3d 42a0 3bbb 4a97 8a3c 5383 773c
00000090: f707 90bd 9b23 9e3d 2dac 583d 4aa9 5cbd
000000a0: 6c25 733c 9715 863d 604d 6bbd 1eb4 2abd
000000b0: d646 5f3d 27bf c9bd 7f1d d63d 504a 813d
000000c0: 1166 c63d 7141 a23d f9e4 4ebb e239 b2bc
000000d0: 70ac debd e333 78bd e162 813d 2192 cbbd
000000e0: 3b57 c33d 5c46 a43d 884a c3bd 3283 53bc
000000f0: ff98 e7bd 8961 8f3d b1b6 a63d 5f94 703d
00000100: ffb4 76bd 81f8 7fbd f7ae 893d 9490 cd3d
00000110: d760 cabc b9da 333d fbcb 89bd 16e7 cdbd
00000120: 4846 dcbd 567a 463c aff5 9a3d 0f82 01bd
00000130: e04d acbc 8c6b 633d ae63 0bbb 9aef ec3c
00000140: d5a3 823d fed4 91bb 585c 903c 1f6b 1cbd
00000150: 4f93 edbb 5f31 d93d db64 21bd 0b94 8b3d
00000160: 091f c93d e871 98bd fdf3 8d3d a0ee a2bd
00000170: 3d2b cabd ee55 c9bd d78d 49bc bbcf 073d
00000180: de78 4f3d 8b31 11bd 6641 8dbc 3dca cdbd
00000190: 9daf 8e3d a756 72bd 16df b2bd 2a95 8c3c
000001a0: f8d1 a8bb f8e8 633d 33b0 843c d899 91bd
000001b0: cb21 3f3d c450 053c 16ab 39bc c703 9bbd
000001c0: cf5d 4abd c31b 82bd c5a2 823d 8e30 95bd
000001d0: 5357 d63c 38d0 5bbd 6479 91bc c72c e13c
000001e0: 4b8e 94bd 30ff 5e3c 4e81 54bd fa2d 4bbd
000001f0: 0321 99bd 4326 433c f3f1 6b3d c2d5 6dbd
00000200: 1954 973c 9f60 babd 4cd4 a83d e930 c43d
00000210: 6de0 bc3c 4649 32bd 8adc c7bd 5d49 dabd
00000220: 8630 f6bc 6f33 86bd a05f 14bd 5a7e 8bbd
00000230: 4113 0e3d e730 863c 8502 c6bd 3013 f33c
00000240: 28d2 67bd 3cc8 9dbd 325b 053d 9df4 c3bc
00000250: 6bde ff3c afeb 293d f2f6 aebd bfcd c6bc
00000260: 43e0 b33d 8dfa 95bc 624a c63c 0efa 9bbd
00000270: 5c82 a8bd 73ed c53d 051f d53c dc2f a83d
00000280: 0817 99bd 24e2 f9ba d2dd d03d 1491 7ebd
00000290: 674c 66bd 1446 9abd 352d cabd 8fa6 943d
000002a0: c2d2 913c 2766 b3bd d132 093c cc53 87bc
000002b0: c71d a7bd b173 083a 432f d53b 660c c93d
000002c0: c728 05bd a19a ed3c 142f 82bd b730 81bc
000002d0: 251e 283d 187a 833b d1db 98bc d769 f0bb
000002e0: eb2d 473d 221e 29bd 321e 11bd 5431 30bd
000002f0: af84 84bd 763c 263d e75f bdbd 5300 843d
00000300: 90d3 86bc b7f6 943d f586 973d 142d 6e3c
00000310: 4b76 acbd 5ed9 40bd 4dd8 5e3d a5a3 1fbd
00000320: 9ee4 91bd 6f38 5fbb 316c 753b 145b 81bd
00000330: 5a68 923c 4e8d d93d a1ad 953d 0b36 dfba
00000340: a3a8 c5bd 1e6f 96bc 5d89 f6bc 83bf 0fbd
00000350: b914 4e3d 3586 2b3d 89fa 8b3d 92e5 b23d
00000360: 1629 f33c 270d a3bb 6db1 8ebc 600b 79bc
00000370: 431d 9a3d 2e99 c33d 7a6b a53c 4769 c6bd
00000380: 5a8f 72bd 077b f3bc e301 b4bd 07e6 45bd
00000390: f749 9dbd a4be 36bc d2e3 e4bd 07ed c9bd
000003a0: 8f94 cc3b a9d8 c0bd 2087 9ebd 47fb d33d
000003b0: 0b7e 58bc 3167 bc3d 24fc 85bd fc47 27bd
000003c0: 47ca 573d f687 513d dc06 8bbd 2026 5bbd
000003d0: bfa2 c4bc a6fa d8bd ec61 813d 551a a13b
000003e0: 26d2 633d 74e6 acbc 07b5 263d e4bc 903c
000003f0: 74fd 98bc c1cd 9a3d 3f79 a93d 3e90 523d
