scripts/model_baseline.pt (torch_old, 696539 bytes, 12 tensors)

weight f4 [10, 3, 2, 2]
00000000: 55e5 163e e88f 38be 0628 773e 6e86 2cbe
00000010: a052 283e 36d7 8dbe 92e6 3e3e 39e1 923e
00000020: 1f91 7cbe bf3b 93be 61dc c1bb 7f85 0dbe
00000030: 450b f13d 2b95 49bd e1e7 4abe 5c59 86be
00000040: 67b0 96be d6e0 9b3d 94ed ae3d 5b09 91be
00000050: 9688 973e 9fe7 343e 0758 5f3e c163 703e
00000060: 02fa 59be a7d2 8d3e 87f6 843e 7838 6cbe
00000070: 9d9e 16be 9996 843c d628 0e3e 7f64 1e3d
00000080: ec36 1e3e d7c6 903d ab1e 8ebe d766 4f3c
00000090: 429a 233e 9682 17be 1b4c f23d 357f 8e3e
000000a0: da72 143e 7b97 103e 1046 2ebe e69b d1bd
000000b0: 7da8 89be 5a1b 00bd 9a29 0bbe 0cd8 e23d
000000c0: c9ca 0a3d 79b3 03be 58d8 653e 1acb 4ebd
000000d0: dbb9 8f3e 1aa8 62be e412 3ebd 16c3 8d3e
000000e0: 9b21 063e ce55 1e3e 0fa1 29be 258e 4f3e
000000f0: 3f2f 0ebd b1b1 d8bb 1eb2 13be 0d53 90bc
00000100: 15ec 17be 5592 4b3e 51e8 dcbd d711 e5bd
00000110: b7c7 0cbd 9e1c 49be 1b37 24be aaaa a13d
00000120: 80ba a13d ccac 333d 95e2 29be 421a 23b9
00000130: dcf4 80be e5b4 6c3e ba52 5abe 120b da3c
00000140: 1acf 293d 35b8 6e3e 89f7 b63d 01d7 473c
00000150: 7f5f 3dbe ecc5 453b 4435 8fbe 8c16 143d
00000160: d8c1 733e 93cb de3d 316e ac3d 4791 8b3e
00000170: 09a7 953e eb68 39be bc08 2cbd 540a 443b
00000180: bd64 2fbe 0b0d b8bd 66af c63d 5ae0 b7bd
00000190: 38fa 1abd f7f0 123e 9ef0 3fbe c7ba 57be
000001a0: 739a f2bd ee07 f63d 347a 03be eecf 8fbd
000001b0: 4b66 4c3e bba0 fd3d 9390 43be fe46 283e
000001c0: 7ec3 243e cd36 42be 22fe e9bd 1e6d 90be
000001d0: 06d8 7f3e 4d74 543d d36e 56be e51d 89be
0.1473592 -0.18023646 0.24136361 -0.16848156 0.16437769 -0.27703255 0.18642643 0.28687456
-0.24664734 -0.2875652 -0.005916164 -0.13820456 0.117697276 -0.049214523 -0.19815017 -0.2624005
-0.2943146 0.076112434 0.08541408 -0.2832745 0.29596394 0.17666481 0.21810924 0.23475553
-0.21286777 0.27699777 0.25969335 -0.23068416 -0.14708944 0.016185092 0.13882765 0.03867006
0.15450639 0.07069176 -0.27757773 0.012658796 0.15976813 -0.14795908 0.11830922 0.27831426
0.14496937 0.14120285 -0.17018914 -0.102348134 -0.2688636 -0.031276084 -0.13590088 0.11076364
0.033884797 -0.12861432 0.2244581 -0.05048666 0.28071484 -0.22134438 -0.046404734 0.276879
0.13098757 0.1546242 -0.16565345 0.20269068 -0.034713026 -0.0066129793 -0.14423415 -0.017617727
-0.14836152 0.1988004 -0.10786498 -0.11185043 -0.03437015 -0.19639823 -0.16036646 0.0789388
0.078969 0.043865964 -0.1659034 -0.00015554673 -0.25186813 0.23115881 -0.2132062 0.026616607
0.041457273 0.23312457 0.08933932 0.012197257 -0.1849346 0.0030177785 -0.27970326 0.036154315
0.23804414 0.108786725 0.08419455 0.27259275 0.29229 -0.1810643 -0.042000517 0.0029913383
-0.17128272 -0.08986863 0.09701423 -0.089783385 -0.037836283 0.14349733 -0.18744132 -0.21067344
-0.11845865 0.12013231 -0.12839586 -0.07022081 0.19960897 0.123841725 -0.1909812 0.16433331
0.160902 -0.18966217 -0.11425425 -0.2820825 0.2498475 0.051868726 -0.20940714 -0.2678062

bias f4 [10]
00000000: 7004 b4bb 1399 7bbe 37f4 063e 10d6 36bd
00000010: 2932 80bd cd1d 0cbc a05d 61be 9540 e4bc
00000020: 33d4 e73d fbb8 6f3e
-0.005493693 -0.24570112 0.13179098 -0.04463774 -0.06259567 -0.008552027 -0.22008371 -0.027862826
0.11319771 0.23410408

weight f4 [10, 10, 3, 3]
00000000: 7bfc aabd 3c59 d23d 7097 3abd ff62 43bd
00000010: 5aaf 163c 9d16 0abd cdb2 df3d c13e a9bd
00000020: 1fa8 29bd cd29 92bc 8a32 383c d444 933d
00000030: 9692 b4bc fc8f 30bc 4f88 653d 8afa c0bd
00000040: b086 41bd b9c2 bf3d 88fd b33d 6324 cc3d
00000050: ee27 b3bd 54dd 653d 486e b83c 7e11 383d
00000060: 66f3 973d a86c 7a3c 7669 c5bd dec9 bebd
00000070: a168 ae3d 7bbc b1bd 2fe8 ae3d a154 983d
00000080: 30a0 23bb 850f 96bc 980e 683d 1f4e 9fbc
00000090: f6ee 67bd 22cd dd3b ae28 c4bd 56dc b2bd
000000a0: 9c7c a53d 6f01 b53d 3839 82bd d48d f9bc
000000b0: c8c2 b2bd dd3b c1bd eb10 ca3c c51c 913d
000000c0: e806 d03c ebd5 963c b878 723d cf21 c5bd
000000d0: dc8a 72bc 1162 eb3c 3ee6 823c 1901 27bc
000000e0: cdb3 8ebc b64b 233d 3c4a 7dbc 0323 b2bc
000000f0: ae35 c5bb db87 c8bd 7d20 913d 4189 b8bd
00000100: 8901 793d 76c7 efbb 9655 843d 7ea1 cfbc
00000110: a768 853d 85f4 52bc ce7f 6a3d 2a88 4ebd
00000120: 6ec2 99bd 3934 e43d 5a53 64bd 1350 12bd
00000130: da80 a53b 753f 473d 18b7 a3bd f5ee c13d
00000140: 68f9 8cbd 994f 4bbd 2c0f bf3d cced 4c3d
00000150: 6702 1ebd 41e7 82bd cf75 c83c 3ba0 da3d
00000160: ecf3 893d 2d78 d83d 0027 b03d 97cd d43d
00000170: 54a1 b63c 3076 433d e872 c73c 1af5 443d
00000180: 2331 b1bd 948f b13d e4b6 91bc 8500 9b3d
00000190: c4cf b93d 99bc 503b 771a a5bd 28c3 1cbd
000001a0: 9441 a43c eb02 abbd e77d a33d d6e1 11bd
000001b0: 1092 a8bd 6344 c43d 3d18 a2bd fc1d a73d
000001c0: 3a51 0a3d 89a9 33bd c55e 363d e042 8b3d
000001d0: 4c82 8b3d 1484 98bd 61ec 793d 6c22 84bd
000001e0: b24d 9c3c c49c 64bd 5f5f a1bd 05de 993d
000001f0: 3ec8 a0bd 5f3b e93c 318b ad3d 1d6a d4bc
00000200: 2ca4 053d 4dae 9bbc 0a5c 1cbd 08af 53bd
00000210: 4bcf 49bd 7a84 7bbd 2333 c83d c9c7 2cbc
00000220: 1eda 513d 9bb1 08bd 5835 0abd 20fb 81bd
00000230: b9d2 113d 2c9e 56bc e4ee 8b3d 4f47 7ebd
00000240: 33a2 543d 0b67 bebd 84e6 80bc f6a3 623a
00000250: 4cc2 a1bd a14f 86bc 8671 9fbd b980 89bd
00000260: f78e 72bd bb7c e43d 31ad 373d 0b2f 95bd
00000270: f8e7 bb3d 4a78 693c a052 453c 7aca 2ebd
00000280: fa7b 8c3d 0ec2 b5bd b23c 92bd 70b0 00bd
00000290: c9e7 1fbd 8c7e d53d 0dae d8bc 3237 583d
000002a0: 1065 8dbc 556b 0cbd 3f70 c03c 677b 8e3d
000002b0: b884 48bd 8b60 8d3d 2ad7 873d 8498 d03d
000002c0: e670 183d bb65 6abd 5e9f e03d 85f9 783d
000002d0: 9222 03bc 1a5a 2f3d 000e ce3d 9ba3 d63c
000002e0: 07b6 133d e4d9 54bd 8be4 103d 246d 7e3b
000002f0: 1e2d 273d 718f c53a 81ee b93d ffd9 c63d
00000300: 1912 413d 1146 673d 00ed 68bd da22 7f3c
00000310: 7a75 22bc 8a7b f8bc fa9f 62bd db8f 263c
00000320: 9922 523d 4227 ebbc c46b aebd 2ac8 663c
00000330: c141 1c3a 1681 d73c faca 9cbd 1132 b6bd
00000340: 96b3 343d 8871 3ebd 8f7f 203d 35ae db3c
00000350: b2e7 443c f839 3d3d ccff 89bd e468 c5bc
00000360: 752b 82bc 5379 b53d 3dbf b4bd f520 453d
00000370: 3354 103d ec6c 8cbd f62d 40bd 25d5 9fbd
00000380: 39cb 663d ca35 b9bd 050b 8d3d 98b6 9cbb
00000390: 67d2 d43d 74e4 413d 35e7 803d 4790 64bb
000003a0: 3037 333c ed0e babd 5245 ffbc 2533 813d
000003b0: 4e45 b53d 6ea9 013d 87cb e73d 6d5e 77bd
000003c0: e57e d83d a9bd fabc 82bc 92bd 9510 9e3d
000003d0: 0f10 99bc bda7 9a3d 9dec e9bc 7760 85bd
000003e0: 1c84 4d3d 8ecd 5b3d 0f51 963d b94e 1ebd
000003f0: 403b 4abd e402 a03d aa83 6e3c 828d 123d
-0.08348938 0.10270926 -0.04555458 -0.047701832 0.0091970805 -0.033712972 0.109227754 -0.082639225
-0.0414201 -0.017842198 0.011242518 0.07190862 -0.022042554 -0.010776516 0.056038197 -0.094227865
-0.04724759 0.09363312 0.087885916 0.09967878 -0.0874785 0.056119278 0.022513524 0.044938557
0.074194714 0.015284695 -0.09639256 -0.09315847 0.0851605 -0.08678528 0.08540379 0.07438017
-0.0024967305 -0.018317947 0.056654543 -0.01944643 -0.056624375 0.0067688385 -0.095780715 -0.08733432
0.08080408 0.08838164 -0.0635857 -0.030463137 -0.08728558 -0.09435246 0.02466627 0.070855655
0.025393918 0.01841255 0.059197158 -0.09625589 -0.0148036145 0.028733285 0.015978929 -0.010193133
-0.01741972 0.039867125 -0.015459593 -0.02174521 -0.006018362 -0.097915374 0.07086275 -0.09010554
0.06079248 -0.007317479 0.06461637 -0.02534556 0.065141015 -0.012875681 0.05725079 -0.050422825
-0.07507788 0.11142773 -0.055743553 -0.035720896 0.0050507607 0.0486445 -0.07993907 0.094694056
-0.06883508 -0.049636457 0.09329066 0.05003147 -0.03857651 -0.063917644 0.024470238 0.10675093
0.067359775 0.10569797 0.08601189 0.10390776 0.022293724 0.047720134 0.024346784 0.04808531
-0.0865195 0.086699635 -0.017787404 0.075684585 0.09072831 0.0031850694 -0.080616884 -0.038272053
0.020050801 -0.08350166 0.07982998 -0.035615765 -0.08230984 0.09583356 -0.07914779 0.08160016
0.03376887 -0.043862853 0.044523973 0.06799865 0.068119615 -0.07447067 0.061016444 -0.06451878
0.019080017 -0.055813566 -0.07879519 0.0751305 -0.07850693 0.028470693 0.08473814 -0.025929505
0.03262727 -0.019004012 -0.038173713 -0.051680595 -0.049269956 -0.061405636 0.097753786 -0.010545679
0.051233403 -0.033372503 -0.03374228 -0.063467264 0.03560135 -0.013099235 0.06832674 -0.062079724
0.051912498 -0.09296998 -0.015734918 0.0008645648 -0.07898387 -0.016395392 -0.07785325 -0.06714005
-0.059218373 0.11156603 0.044842903 -0.07284363 0.09175104 0.014249871 0.012043625 -0.042673565
0.06859584 -0.088749036 -0.07140483 -0.031418264 -0.039039407 0.104245275 -0.026450181 0.052787013
-0.017260104 -0.034282047 0.023491023 0.06957131 -0.048954695 0.0690318 0.06632836 0.1018534
0.037217043 -0.057225924 0.10967897 0.060784835 -0.008003848 0.042810537 0.10061264 0.02620106
0.036062267 -0.05196561 0.035374206 0.0038822377 0.04081451 0.0015072656 0.09078694 0.09709548
0.0471364 0.056463305 -0.056866646 0.015572274 -0.009915704 -0.030332346 -0.055328347 0.010166134
0.051302526 -0.028705243 -0.085166484 0.014085809 0.0005960726 0.02630667 -0.07655902 -0.08896268
0.04411658 -0.04649499 0.03918415 0.026816467 0.012018131 0.04619786 -0.067382425 -0.024097867
-0.015889863 0.088610314 -0.08825538 0.048127133 0.03523655 -0.06856713 -0.04691883 -0.07804326
0.056346152 -0.090434626 0.068868674 -0.004782509 0.103916936 0.04733701 0.06294099 -0.0034876035
0.010938451 -0.09084878 -0.031160984 0.06308583 0.088511094 0.03165572 0.11318117 -0.060392786
0.10571078 -0.030608015 -0.07164861 0.077180065 -0.018684415 0.07551525 -0.028555209 -0.0651254
0.050174817 0.05366283 0.073396794 -0.038649295 -0.04937291 0.07813051 0.014557758 0.035779484

bias f4 [10]
00000000: 3a5d 19bd ae86 ad3d f39e e93d bfec 8abd
00000010: 2cb1 983c 1e9f a8bb 95b6 9f3d 66ed 75bb
00000020: daf1 d43d c520 c73d
-0.037442423 0.08472954 0.1140727 -0.06783437 0.01863917 -0.0051459214 0.07798497 -0.0037525534
0.10397692 0.09723047

weight f4 [10, 10, 4, 4]
00000000: 8606 dfbc 18c3 503d 15a2 373d 0095 843d
00000010: cf99 20bd e9a8 033c 62f2 9e3c e150 d23c
00000020: 3468 b33c e7bb 443d c411 813d 8f71 a43d
00000030: 2f60 16bd 5e2d e43c cb65 dcbb 58a1 a73d
00000040: c566 5cbc d166 28bd 3f32 29bd fabd 5bbd
00000050: 3877 a6bb f445 903b a67b bf3c 8af7 d5bc
00000060: 24b1 463d f396 08bb eacc 32bd e379 493c
00000070: 3bc9 0cbd d9e3 a0bc fc2c 84bc 2905 873d
00000080: 142a 393b 6716 31bd 452a 08bd 4d38 95bc
00000090: f7fe 2b3c b9c7 823d a9c8 89bd f94d 973d
000000a0: 61f7 1dbd 36c4 5ebb 2ed5 28bd 4d22 79bc
000000b0: fce7 1c3d eee8 023c 63ce 6d3c 82f5 203c
000000c0: d478 433c 989d 36bd b064 43bd f288 953d
000000d0: 27e0 7b3d d753 52bd fe1a 17bd 4f1b f6bc
000000e0: 7288 863c c120 bd3c 1b2f 073d fac7 e9bc
000000f0: 2e0f 5a3d d65e 92bd 849d 1a3d 046e 863d
00000100: 58b8 23bd a365 ac3d 00b6 7dbc 4f8c 363d
00000110: 7432 0c3d 9685 863d 5677 82bd 8b47 493d
00000120: 81f7 ad3d 6317 2bbd b5cc 0f3d fe45 5a3d
00000130: 1e40 f8bc de25 42bd 1126 71bc 2ab4 593c
00000140: 1b4b 28bd a089 37bd 8308 5f3d 861f 293c
00000150: 2ab2 febc 1adf 2abd 430c 1ebc 070f 4ebd
00000160: 98d1 a43d 1a83 2a3d 70d1 59bd 9acc 293d
00000170: 5917 2ebd 0aef 58bd 8a81 a53d 380b 23ba
00000180: 9201 d33c f700 36bc 81ec 7dbd 6339 9a3d
00000190: 9873 c7bc cc64 8b3d fff0 ccbc 5f12 5ebc
000001a0: 74e7 d5bc ccb6 6d3d 3407 a53d 18ca 3abd
000001b0: 03a4 09bb 0b10 1cbd a91b 90bd 2690 e23c
000001c0: 48f3 ff3c 751d be3a 49e5 883d 994b 2cbd
000001d0: 13ca 4bbc 98c9 af3d 3e92 a13c 8e53 a1ba
000001e0: 5400 183d fee7 0abd 74e4 4c3d 7dfd b03d
000001f0: 4638 2bbb b938 86bc 432b 933d fb80 113d
00000200: 7a1b 81bd 168a 75bd e0b6 8c3d ecb6 99bc
00000210: 2b0c 813d 4096 fc3c 0b9a 8b3c da39 bfbc
00000220: d38f 9d3d 86ec e0bc 483a d73c 7153 943d
00000230: e823 023d 336f ab3d 3a6e 22bd 6d01 233d
00000240: 517f 01bd 19fb e03c cf4f 74bb 73b7 883d
00000250: 33e5 74bd 5708 173d 2ee6 083d 096b cfbc
00000260: 86b1 82bd 6f3d 8b3d 9913 30bd 4cf3 2f3d
00000270: 6b9d 733d 5598 42bd 78d0 503d c8ce 0f3c
00000280: 40dc 963d dc6c db3c 29fd 23bb 7521 6bbd
00000290: 2de9 25bd ab62 1c3c 1aba a33d 3c8b ffbc
000002a0: 495d 933c 6e46 833d 7652 883c ce52 c9bb
000002b0: e3f5 9ebc 237d b7bc bcaa 82bd 9eda 40bd
000002c0: 340a 193d 3435 4c3c 41f6 78bd ea1a 18bd
000002d0: 47e4 f43b a7cb 9d3d 9fde 69bc 2850 733d
000002e0: 11d4 313d 85d4 ee3c 345b 873c a329 8e3d
000002f0: 3521 f1bc 1edb 8bbd b8c5 803d f46b 443c
00000300: 6e84 203b b4ad 2b3d 8f07 303d ed68 873d
00000310: 2a5e 293d 9a54 d7bc 7e78 963d b217 1cbd
00000320: 47ce 9cbc 8d10 813d 9a50 073d c01b 6ebb
00000330: 1c37 01bd 8aa1 763d d994 5ebd e754 8abd
00000340: da34 93bd 7cc6 c9bc 14c2 84bd 8c65 2abd
00000350: 4789 29bd 8bb8 0f3d 0905 88bd 6915 6d3d
00000360: c796 2e3d 6f3d 733c 9dd2 1d3d 14db da3b
00000370: 9a89 1d3d 74b2 893d b175 8fbd a43e 873d
00000380: 9ffb 0e3d 630a 6f3d dffd 8f3d fad2 26bd
00000390: 1ce7 cf3b aa92 64bd c11b 383d d6f2 78bd
000003a0: 525d 58bd df3e af3d 39fe 31bd f84f ad3d
000003b0: 4a1f 3f3d 2d34 953d 834b 803d 9fc3 ac3d
000003c0: 1f2f d7bb 69d7 85bd 47b1 5bbd 6cee 79bd
000003d0: 0f4c 40ba 0285 88bd 1c3c 77bd b559 2a3c
000003e0: 6a2d de3c 4483 653d bb25 ce3c a17d 813b
000003f0: d0c8 033d 27d4 67bc a791 b13c 1364 7cbd
-0.02722479 0.050967306 0.044832308 0.06473732 -0.039209183 0.008035877 0.019402687 0.025673332
0.021900274 0.04803076 0.06302217 0.08029472 -0.03671282 0.027853664 -0.006726002 0.08185071
-0.013452237 -0.04111368 -0.041307684 -0.053647973 -0.00508013 0.0044028703 0.02337439 -0.026119012
0.04850878 -0.0020841926 -0.043652453 0.012297126 -0.034371596 -0.019639896 -0.016134731 0.06592781
0.002825384 -0.043234255 -0.033243436 -0.018215323 0.0104978 0.0638575 -0.06727726 0.07387919
-0.038565997 -0.0033991463 -0.04121893 -0.015205932 0.038307175 0.007990105 0.014514538 0.009824159
0.011930663 -0.044583887 -0.047703445 0.07301511 0.061493065 -0.051349487 -0.036890976 -0.030042319
0.016422484 0.023086907 0.033003908 -0.028537739 0.053237133 -0.07146995 0.037747875 0.065639526
-0.039970726 0.08417823 -0.015485287 0.044567402 0.034227803 0.06568448 -0.06370418 0.049140494
0.08494473 -0.04177035 0.035107333 0.053289406 -0.030304011 -0.047399394 -0.014718548 0.013287583
-0.04108725 -0.044808984 0.054451477 0.010322457 -0.031090815 -0.041716672 -0.009646478 -0.0503073
0.08047789 0.041628934 -0.05317825 0.04145489 -0.042502735 -0.05296234 0.08081348 -0.0006219628
0.025757585 -0.0111086285 -0.061993126 0.07530477 -0.024347112 0.06806335 -0.02501726 -0.013554185
-0.026111342 0.058035657 0.080580145 -0.045602888 -0.00210023 -0.038101237 -0.07036526 0.027656626
0.031243935 0.0014504628 0.06684358 -0.042064283 -0.012438315 0.08583373 0.019723054 -0.0012308226
0.037109688 -0.03391265 0.050022557 0.08642099 -0.002612607 -0.01638447 0.07185986 0.035523396
-0.06304069 -0.059946142 0.06870818 -0.018763982 0.06301149 0.030833364 0.017041227 -0.023343015
0.07693448 -0.027456533 0.026272908 0.07242478 0.031772524 0.08370819 -0.0396559 0.03979628
-0.03161556 0.027463483 -0.0037279015 0.06675615 -0.059788894 0.036873188 0.03342264 -0.025319593
-0.06381516 0.06798827 -0.04298744 0.042956635 0.059476297 -0.047508556 0.05098006 0.008777328
0.07366228 0.026785307 -0.0025022721 -0.057404954 -0.040505577 0.009545009 0.079944804 -0.031194322
0.017988818 0.06409918 0.016640883 -0.0061439043 -0.019404357 -0.022398537 -0.06380221 -0.04708349
0.037363246 0.0124638565 -0.06078172 -0.037135042 0.007473502 0.07704859 -0.014274268 0.059402615
0.043415133 0.029154072 0.016522981 0.06941535 -0.02943478 -0.06828903 0.06287712 0.011988629
0.0024492997 0.041913703 0.04297596 0.0661181 0.041349567 -0.026285458 0.07347201 -0.038108535
-0.01914133 0.06301985 0.033035852 -0.0036332458 -0.031546697 0.06021265 -0.05434117 -0.06754475
-0.07187815 -0.024630778 -0.0648233 -0.04160075 -0.041390684 0.035088103 -0.066415854 0.057881746
0.04262426 0.01484619 0.038530935 0.006678948 0.038461305 0.0672349 -0.0700487 0.066037446
0.034907933 0.058359515 0.07030844 -0.040728547 0.006344689 -0.055803932 0.044948343 -0.06077846
-0.052823372 0.085569136 -0.043455336 0.084625185 0.0466607 0.07285342 0.06264403 0.08435749
-0.0065668966 -0.06535227 -0.05363586 -0.061018392 -0.00073355524 -0.06665994 -0.06036006 0.010397364
0.027121264 0.056033388 0.025164476 0.0039517437 0.03217393 -0.014149702 0.021675898 -0.061618876

bias f4 [10]
00000000: 3700 ffbc 167f c73b d28c ae3c 5dd3 83bd
00000010: 6e7b 72bd bfb8 a83d dbfe 9c3d 180e 7a3d
00000020: 82e3 853d 3771 933d
-0.031128032 0.006088148 0.021307383 -0.06436799 -0.059199743 0.082383625 0.07665797 0.061048597
0.06537534 0.071993284

weight f4 [10, 10, 5, 5]
00000000: 37e7 913d 62d2 28bd 0109 59bc 7d0f f9bc
00000010: 59d8 6c3d 5cec f4ba 5745 a4bc 0629 d83c
00000020: 5f9c 9d3c 2c21 e9bc a496 7b3d 80df ab3c
00000030: c3d2 a33c 316c 0f3d 35a6 793d ce68 32bc
00000040: 9fe0 803d 0d2e 773d cbe1 15bd f28f 743d
00000050: 7863 7c3c f7cb 8d3d d0a3 32bc 6710 753d
00000060: 1345 fabc 1cee d23c 12fb 2bbd 078d e9ba
00000070: d62b 373c f137 513b 1c3f 8c3d ac28 853c
00000080: f532 73ba bd34 cfbb cab0 363d 2ddb 103d
00000090: 9182 4d3d 734c 583d e8a8 6c3d 88cf c03c
000000a0: 866b 5b3d 69fb 673c 7ff9 86bc ccda 25bd
000000b0: 6fc4 12bd 1d51 5c3c 1eef a0bc 0ef6 0bbd
000000c0: e493 3e3c 5c52 5b3c 160e 11bd b0b0 f63b
000000d0: 71eb 0b3d 7e5c 9ebc 46f5 0f3d 1849 92ba
000000e0: 6233 d9bc 975f a23c 8a72 753b e87b 09bd
000000f0: 9396 ce3b cdb1 c4bc fe72 653d a590 50bc
00000100: 094f 243d 9cf9 163b 6c3d 773d 777e 6d3d
00000110: f0d0 f93a 834b 393d 3dea ffba 98e6 b03c
00000120: 9837 18bc 6b38 6c3d 98b8 8e3c 7a95 3a3c
00000130: 903f 7b3d d1af 95bc 9bf3 08bd f6a3 34bd
00000140: 32e6 22ba 1664 94bc 8a4e 2e3d 9a31 5a3d
00000150: 82d0 5f3c 1233 1fbd d08d c83c 6877 513d
00000160: 6b4e be3c 2937 e03b 71df 8d3b 4f09 edbc
00000170: de03 193d 582b 213d 21a0 3e3d 49a8 2bbc
00000180: be45 933b bfd2 683d b2d0 50bd 705c 05bd
00000190: d654 123d 6d7e 013d 60af 0abd dac8 113c
000001a0: 5c38 dd3c bd1d 2c3d 3240 23bd 7cad 49bc
000001b0: 5a47 bfbc eb38 3bbc 76b3 f33c c6fa 24bb
000001c0: f78d f13b 2e5b 223d ab7c dd3c ad1d 44bd
000001d0: 2df3 ddbc 4a39 8c3d babc d1bc 5b78 f5bb
000001e0: 6fc8 273d 128e 143d 9294 38bd 981f 823c
000001f0: a4c2 553d 7531 b03c 5da3 9bbb 99e4 dc3c
00000200: e20b 563d f874 673d 1c27 4dbb ac6e 303d
00000210: 85c0 013d 65e7 5ebc ea6b 933d 9e72 4e3d
00000220: e719 473d fc9c 843d c8ff e8bc 355e 8b3d
00000230: 65d0 6fbc b33c adbb 3eef 723c 1e81 3e3d
00000240: 54ba 34bb 77d0 a13c 3fe0 b23c ff1f 8f3c
00000250: 4d02 35bd c050 853d b241 54bc da7a bfbc
00000260: 2f50 18bd c710 32bc 15a7 3a3d c5ed 0e3c
00000270: 97a7 0f3d 32f0 c53c 60f2 503d 7457 2439
00000280: c695 00bd 369f 783d d2e3 e23b 2664 123d
00000290: 8cef 26bc 6cf3 813d e06f 1ebd c163 583d
000002a0: 5cf3 a43c aae7 a43c 7f61 5c3d 8cf1 363d
000002b0: 2f1f 113d a7e3 81bc d697 06bd 7410 a2bc
000002c0: 1794 b93c 4d50 293d 8ba3 133d 7bde 28bd
000002d0: d9c0 2c3d 22d1 1c3d 1b2e 363d 9e78 653d
000002e0: 13c0 24bd 4a83 983c dc62 883d aed3 4439
000002f0: 86bd ecbc 60bd 05bd ba67 9a36 a5cb 48bd
00000300: a8d0 30bd 875f 273d 0a81 4abc d46c 57bd
00000310: 90f1 7d3d 4129 48bd d746 b6bc 0ade c4bc
00000320: 38a3 0ebd c3be 55bd 2cb5 b5bb 4afd 9abc
00000330: 70f7 80bc 45b5 d03c bb41 e9bc 900c f7bc
00000340: 9451 6a3d 2347 813c d933 133d 3d8c 96bb
00000350: 0931 553d dd1b 9fbc 7d27 7b3b 4b4d 2dbd
00000360: 9c29 adbb e571 3f3d c936 713d 07fe 2dbd
00000370: c896 a03c d415 2dbd beda 583d 2d75 b63c
00000380: a928 5fbc 3b61 ec3c 329f 00bd 1931 5639
00000390: 2f34 3abd d208 cc3c 56e3 8b3b f2ce 16bc
000003a0: e890 92bb b306 393d dd60 833d 44d4 903d
000003b0: f1c5 d93c e278 2e3c 53d2 1d3d af27 59bd
000003c0: adc3 c83c 6fb2 4abc dd32 5e3d 6efc 723d
000003d0: 5baa 1abd 24e8 523d 5f4b 633d 3c6f 173d
000003e0: 2500 293c e098 2abd 42e8 d9bc d0e0 c8bc
000003f0: 0bc4 35bb 34d1 dabc 532e 53bd 9cef 40bb
0.07124179 -0.04121626 -0.013246776 -0.030402893 0.057823513 -0.0018686163 -0.020052595 0.026386749
0.019239603 -0.0284582 0.06142296 0.020980597 0.01999796 0.03501529 0.060949523 -0.010889245
0.06292843 0.06034665 -0.036592286 0.05970759 0.015404575 0.06923669 -0.010903314 0.059830096
-0.030550515 0.025748305 -0.041987486 -0.0017818519 0.011179885 0.0031924213 0.06847975 0.016254745
-0.00092773075 -0.0063234256 0.044602193 0.035365272 0.050173346 0.052807283 0.05777827 0.023536459
0.05356934 0.014159062 -0.01647639 -0.040491864 -0.035831865 0.013447073 -0.01964527 -0.034170203
0.01163194 0.013386335 -0.035413824 0.007528387 0.03416008 -0.019331213 0.03514602 -0.00111607
-0.026513759 0.019820971 0.0037452304 -0.03356543 0.006304571 -0.024010563 0.05601787 -0.012729798
0.040114436 0.0023036962 0.06036131 0.057981934 0.0019059461 0.04523803 -0.0019524765 0.02159433
-0.009290598 0.057670992 0.017422006 0.011388177 0.061339915 -0.018272312 -0.033435445 -0.044101678
-0.00062141113 -0.018114131 0.04255537 0.05326996 0.013660552 -0.038867064 0.024481684 0.051139265
0.023230752 0.006842513 0.004329615 -0.028935103 0.037357204 0.039347976 0.04653943 -0.010477134
0.004494398 0.056841608 -0.050980277 -0.03255886 0.035725437 0.03161471 -0.033858657 0.008897984
0.027004413 0.042020548 -0.039856143 -0.012309428 -0.023349453 -0.0114271445 0.02974866 -0.0025173887
0.00737166 0.039637737 0.027036985 -0.047879864 -0.027093494 0.068468645 -0.025602687 -0.007491154
0.040962633 0.0362683 -0.045063563 0.015884206 0.052187577 0.021507958 -0.004749699 0.026964473
0.052257426 0.056508034 -0.0031303829 0.043074295 0.03167774 -0.013604973 0.07198317 0.050402276
0.048608687 0.06475255 -0.028442279 0.06805078 -0.0146370875 -0.005286777 0.014827548 0.046509854
-0.002757688 0.019752724 0.021835444 0.017471312 -0.044191647 0.065095425 -0.012955116 -0.02337401
-0.037185844 -0.010868258 0.045569498 0.008723681 0.035071936 0.024162386 0.051012397 0.00015672838
-0.031392835 0.06069871 0.006924131 0.03574004 -0.010188948 0.06345257 -0.03868091 0.052829508
0.020135574 0.020129997 0.053803917 0.04466395 0.03543013 -0.015855623 -0.032859646 -0.019783236
0.022653623 0.041336346 0.03604464 -0.0412278 0.0421761 0.038285382 0.044477563 0.056023233
-0.04022224 0.018617291 0.06659481 0.00018770873 -0.028898966 -0.032651305 4.601633e-06 -0.049022336
-0.04316774 0.040862586 -0.012359867 -0.05259402 0.06199795 -0.048867468 -0.022250576 -0.024031658
-0.034823626 -0.052183878 -0.005545279 -0.018919606 -0.015742987 0.025477061 -0.028473726 -0.030157357
0.057206705 0.015780991 0.035938118 -0.0045943544 0.052048717 -0.019422466 0.0038323097 -0.04231004
-0.0052845012 0.046739478 0.058890138 -0.042478587 0.019603148 -0.042257145 0.052942984 0.02227267
-0.013620534 0.028854957 -0.03140182 0.0002042692 -0.045459922 0.02490655 0.004269044 -0.009204613
-0.0044728406 0.045172404 0.064149596 0.070717365 0.026583644 0.010648938 0.03853066 -0.05301636
0.024507368 -0.012371643 0.054247726 0.059322767 -0.03776012 0.051490918 0.0554918 0.036971316
0.010314976 -0.0416497 -0.026600007 -0.024521261 -0.002773526 -0.026711084 -0.05155785 -0.0029439693

bias f4 [10]
00000000: 999f 5d3d 783d d53c 54f0 553d b82a 623d
00000010: 687b 1ebd 55ec c1bc 0149 f23c 42e8 61bd
00000020: c0ff 263c acfc 25bd
0.054107282 0.026030287 0.052231148 0.05521652 -0.038691908 -0.023672262 0.029575827 -0.05515314
0.0101928115 -0.04052417

weight f4 [100, 810]
00000000: c3cb 9e3c eff2 b0bb f506 d33c 9d15 2b3d
00000010: 4198 aabc 1aae c6bc 87a6 9f3b 4281 d7bc
00000020: 095f ccbc 8ed6 293c 1ef9 2bbc e5df d63b
00000030: 2337 0cbc 8cd0 eb3c d8be 79bc f68c 28bc
00000040: e9d3 023d 7bc9 dcbc cee2 173d e380 e53c
00000050: 32e6 303c 0aa1 7fbc 26b7 abbc 22c6 d5bc
00000060: 0910 99bc 4fc2 883c 15cd f53c 554d 503c
00000070: b450 ea3c dfd9 2bbc 9fe1 d63c 8604 5c3b
00000080: 89ca 6dbc 352d c63c c08c dabb 3793 fe3c
00000090: aeb6 87bc 62f5 283c 01d4 013d d4c8 93bc
000000a0: e318 cabc d71a 033c e6d3 163d 89b4 9ebc
000000b0: 235a c63c b623 b83c 36ff 0cbc 37c7 663b
000000c0: 3f0d 79ba d461 383c 17cf cd3c 5461 c73c
000000d0: ea8a f53c 1fbe 933b 76f2 973c 332b 96bc
000000e0: d620 fb3c 7868 673c 5ab3 313b 5d16 2cbc
000000f0: dfe4 68bc bf90 853c 3bd5 13bc 228f c1bc
00000100: 1e93 3bbb 78bf 8238 1ceb 573c 1bb6 8c3c
00000110: 24da e23c 5c7c d73c 9d76 a3bc 26d6 d9bb
00000120: 9751 a3bc fafa 023d fc73 213d 96a4 25bc
00000130: 3530 233d ee65 2e3b d825 f4bb b8cb 1e3d
00000140: 5baa a03c fe33 183d 4833 42bb ce84 223a
00000150: f3b1 c7bb 06f7 973a 20f6 023d d863 233d
00000160: 6caa ad3c 6467 4b3c c7eb 5e3c e27d 4e3c
00000170: 805c 073d 62fb 263d e781 b53b ec0a fe3b
00000180: 778f 0a3d 9ab2 9fbc 2d0e 0e3d 6253 c43c
00000190: c265 0d3d a4b8 253d ebae ab3b 5821 ccbc
000001a0: 1bc7 9ebc 03fb 38bc d648 4b3c 6ea1 76bb
000001b0: af06 3f3c 5ede 683c 09be a6bc db78 e53c
000001c0: 2ae4 6abc 6760 d93c 9154 81bc 2116 bf3c
000001d0: 11d1 bb3b 6e5a 3ebb 7947 843c c86a 583c
000001e0: df62 b2bc 77d5 edbb 2969 a53c e989 1a3d
000001f0: 6047 ad3c beb9 f93b 2884 6e3c 00da 173c
00000200: b05e 1d3d 2f8c 70bc 5225 7b3c c311 e6bc
00000210: d5d8 5bbc ae1f b9bc a780 cfbc b0d2 8fbc
00000220: 5821 403b 4f45 013d 6964 0ebc f9d1 173d
00000230: 2b5b 043c bedd aebc de4d 253d 1326 cf3c
00000240: f206 653b 42a6 acbc 8b34 c03c 0806 dc3b
00000250: b314 6cbc 373c 203d 7041 d03c f775 853c
00000260: b1f0 7d3c ddc7 45bc 4578 6a3c d8f8 c03c
00000270: d3be 013c f474 5d3c a918 b2bc eecb ddbc
00000280: d850 923c dbd0 1b3d a8d9 3dbc 462e 1f3d
00000290: 53b2 b13c f849 dbbc da75 dcbc ddca db3c
000002a0: fce0 eb3c ef08 8f3c 6e0c 243c 6cf9 0a3d
000002b0: fc2c 183d 6dde 72bc 2947 763c c212 32bc
000002c0: 3c66 393b 9d21 aabc 89ad d43c 8a74 49bc
000002d0: 295b 983c 6080 bc3c 7716 c7bc 96f3 003d
000002e0: 722d e2bc b1f0 883c 4159 b9bc daad b03c
000002f0: acb8 a23c af7c 973c 2dee 9b3b 07bd 5fbb
00000300: c943 5a3c 6768 db3a 079e a33c 0dc6 26bc
00000310: db67 e4b9 0f90 ae3c 0c7c de3c c0b2 c2bc
00000320: cd70 c93c 013a e13c 9bae 98bc 1c9c 64bc
00000330: c1b2 9bbc 7c46 38bc 980b 6c3c 9831 473c
00000340: c29e ac3b eca4 5d3b ec62 ab3b 625d 323b
00000350: 44d0 3ebb 5454 d8bc e28c adba 6517 973c
00000360: 2d47 77bc 04d4 9ebb e6fd afbb 4454 1cbc
00000370: f41d 943a d14b 1a3b 9323 0a3d b6c5 b33c
00000380: d50e 86bc 07c4 643a c8b5 0c3d c357 8c3c
00000390: 00c1 423c 16b4 f13c 9e09 753c 1e9e 093d
000003a0: 7765 5a3c a744 c63c e66f 913c 4949 fb3c
000003b0: 59cb f33a 1307 1c3d 5863 123d 2b8a e6bc
000003c0: ece0 aabc 7c9e e33c ae5f 47bc 48f5 8f3c
000003d0: 620a cfbc ec88 af3b 0879 0e3b 3af7 7c3b
000003e0: c015 243c 042b 2fbb da31 cebc b3bd a7bc
000003f0: 7932 f23b 8792 d6ba cb6b d7bb 48c1 3b3c
0.01938427 -0.0054000537 0.025760153 0.04176866 -0.020824553 -0.02425294 0.0048721465 -0.026306752
-0.02494766 0.010366095 -0.010496406 0.006557452 -0.0085580675 0.028785966 -0.015243255 -0.010287514
0.031940375 -0.026951542 0.037081532 0.02801556 0.01079707 -0.01560236 -0.020961355 -0.026095454
-0.018684404 0.016694216 0.030005017 0.01271375 0.028602935 -0.010488956 0.026230631 0.0033572032
-0.01451362 0.024191478 -0.0066696107 0.031076057 -0.0165666 0.01031241 0.031696323 -0.018040098
-0.02467007 0.008002005 0.036823176 -0.019373195 0.024212902 0.022477966 -0.008605769 0.0035213956
-0.000950057 0.011253793 0.025123162 0.024338402 0.029973466 0.004508748 0.018548232 -0.018331146
0.030655306 0.014124028 0.0027114959 -0.010503379 -0.014214723 0.016304372 -0.009023006 -0.023627821
-0.0028621624 6.234547e-05 0.013178613 0.017176678 0.027691908 0.026304416 -0.01995402 -0.006647843
-0.019936366 0.03197763 0.039417252 -0.010110041 0.039840896 0.0026611048 -0.0074508004 0.0387685
0.019612482 0.03715896 -0.0029632617 0.0006199599 -0.0060942112 0.0011594004 0.031973004 0.03989014
0.021199428 0.012414787 0.013606018 0.012603255 0.0330472 0.04076708 0.005539167 0.007752767
0.033828225 -0.019494344 0.034681488 0.023965541 0.034520872 0.04045929 0.0052393577 -0.024918243
-0.01938205 -0.011290315 0.012407502 -0.003763284 0.011659308 0.014213173 -0.020354288 0.02801173
-0.014336625 0.026535226 -0.015787395 0.023325982 0.0057317098 -0.00290456 0.016147362 0.013209052
-0.021775661 -0.007258113 0.020191746 0.037729178 0.021152198 0.007621019 0.014557876 0.009268284
0.03842038 -0.01468186 0.015328722 -0.028084641 -0.013418396 -0.022598114 -0.0253299 -0.017556518
0.002931675 0.03156024 -0.008690932 0.03706548 0.008078377 -0.02134597 0.040357463 0.02528671
0.0034946767 -0.021075372 0.023462554 0.006714586 -0.014409232 0.039119925 0.025421828 0.016291602
0.01549928 -0.012071577 0.014310901 0.023556158 0.007919031 0.013516653 -0.021740275 -0.02707478
0.017860815 0.038040977 -0.011587538 0.03886249 0.021691477 -0.02676867 -0.026911665 0.026830131
0.028793804 0.017460315 0.010012729 0.033929273 0.037152275 -0.014823538 0.015031614 -0.01086873
0.0028289696 -0.020767981 0.025961654 -0.0122958515 0.018598156 0.023010433 -0.024302704 0.0314823
-0.02760956 0.016716333 -0.022625567 0.021567274 0.019863449 0.018492071 0.0047586174 -0.0034139769
0.013321825 0.0016739488 0.019972814 -0.010179055 -0.00043564927 0.021308927 0.02715876 -0.023766875
0.02458992 0.027493479 -0.018637946 -0.013953235 -0.019006135 -0.011247274 0.014407061 0.01215782
0.005267949 0.0033820225 0.0052302983 0.0027216305 -0.0029115835 -0.026407398 -0.0013240839 0.018443773
-0.015092653 -0.0048470516 -0.005370843 -0.009541575 0.0011300431 0.0023543725 0.033725332 0.021944862
-0.016364494 0.000872672 0.034353048 0.017131692 0.011886835 0.029504817 0.014955906 0.033598058
0.013329855 0.024202658 0.017753553 0.030674594 0.0018600031 0.038092684 0.035739273 -0.028142055
-0.020859204 0.027785532 -0.012168808 0.017573014 -0.025273506 0.0053568985 0.002173962 0.0038599507
0.010014951 -0.002672852 -0.025170255 -0.020476198 0.0073912707 -0.0016370573 -0.006574129 0.011459656

bias f4 [100]
00000000: e87a 2a39 cf7c 6bbb 7ef4 1ebd 1355 ddbc
00000010: 24a9 093d d341 5cbb 6cc3 b2bc bf48 b4bc
00000020: be5b 4abc 6ea9 f8ba 6c69 42bc 3065 0cbd
00000030: b7d7 063d 0076 d73c 3595 9fbc 1343 743c
00000040: 42e2 d03b 77b6 39bb 1c88 853b fc1a dcbc
00000050: b0b5 cdbc 3b29 5d3c 0588 3bbc e16d be3c
00000060: 6e87 4d3c 5914 08bd b336 8039 aaaf ee3c
00000070: 83be 17bc 2768 423c 7af1 9f3c 7bf3 463c
00000080: 2db7 8ebc e063 a23c 3d53 843c 4e6e f13c
00000090: a979 633c f3e2 153b 5173 85bc 458e d1bc
000000a0: 8311 ffbb cd68 a73c ac77 033c 3130 d93b
000000b0: 47cf bbbc 1fc2 b0ba 2a2c a43c e4fd ee3c
000000c0: 5f39 3e3c 07f4 f7bc 25a8 763c 7bdc 283c
000000d0: b24b ccbc ff4a c3bc f28c ccbb 3574 b43c
000000e0: d813 e03c 0576 3d3c e7ec 043b 9b4a 5ebc
000000f0: a149 bd3c 29c5 a33b 680b 8d3c cc78 0cbc
00000100: 9fde 01ba 2c50 f33c 5e2d 0c3d f4ce 763c
00000110: 648b 613b 8fba ae3b c711 fd3b 53a3 0bbd
00000120: 114d 90bc bebf 9d3b f9cc 66bc d53b 6d3b
00000130: c932 9bbc 5b95 f03c c276 283c 9504 c73b
00000140: 98c0 293c 4803 0a3d a73f 18bd de50 e5bc
00000150: bb09 89bc 0b10 76bc cf13 13bd 2aaf 0f3d
00000160: 2f10 90bc 6cff 88bb c55b 8fbc 9ba5 f33c
00000170: 16d9 143c 8725 f43c e8e2 113c 35de ed3c
00000180: 471c 9abc 4324 163c ab71 dabc c7ef 133b
0.0001625825 -0.0035932546 -0.038807385 -0.027018106 0.03360857 -0.003360857 -0.0218217 -0.022007344
-0.012350975 -0.0018971392 -0.011865955 -0.034276187 0.032920565 0.026301384 -0.019480327 0.01490857
0.0063746283 -0.0028337517 0.0040750634 -0.026868336 -0.02511105 0.0134986 -0.011446004 0.023245754
0.012544496 -0.03322253 0.00024454817 0.029136498 -0.00926173 0.011865652 0.019524325 0.012143011
-0.01742133 0.019823015 0.016152972 0.029471543 0.0138839865 0.0022870868 -0.016290339 -0.025580535
-0.00778407 0.020435715 0.0080241375 0.0066280593 -0.022925986 -0.0013485587 0.02004059 0.029173799
0.011610358 -0.030267728 0.015054737 0.010306473 -0.024938438 -0.023839472 -0.006242388 0.022028068
0.027353212 0.011563783 0.0020282806 -0.013567592 0.023106398 0.0049978686 0.017217353 -0.008573722
-0.00049541326 0.029701315 0.034222953 0.01506399 0.0034415359 0.005332298 0.0077230665 -0.034091305
-0.017614873 0.004814117 -0.014086955 0.0036198993 -0.018945115 0.029368093 0.01028222 0.0060735443
0.010360859 0.033694535 -0.03717008 -0.027992662 -0.016728273 -0.015018473 -0.035907563 0.03507916
-0.017585842 -0.0041808393 -0.017499814 0.029742053 0.00908496 0.02980305 0.008904196 0.02903662
-0.018812312 0.009163919 -0.02666553 0.0022573338

weight f4 [861, 100]
00000000: ca24 2c3d ef1a b23d de83 32bc c4d6 ccbc
00000010: 80b7 79bd 590d 533d 16d6 e6bc e534 a7bd
00000020: 3135 dabc ef55 2e3d 267d 8abd dabb 17bc
00000030: d522 933d 702e 503c f015 873d 511e 873d
00000040: e83b 37bd 0784 7ebd fb9f 76bd e46d b0bd
00000050: d3ed 21bd 3c66 88bd cd03 763c ea76 b9bb
00000060: eb85 a43d f8a2 ad3d 732f 6bbc 2708 833d
00000070: 0ffe 143d 79e3 d13d 1371 2abd 33b1 6f3d
00000080: acd1 14bd 4ab5 9bbd 8a36 d1bd 5ef6 683d
00000090: 894f 993d c7c7 07bd 774c 473d 2bdc 95bd
000000a0: 5732 7c3d 1932 033d e1f3 9dbd a30f 89bd
000000b0: 63d3 c23c 3d75 adbd 8ebe ad3c 64f6 edbc
000000c0: 8d5c 6abd 7731 85bc 0d98 aa3d 96ef 8abc
000000d0: 61ea a5bc fd1f debc f79a 9fbd 52dc 3cbd
000000e0: ed98 823d 8d84 55bc 572f babd 42d0 843d
000000f0: 60f9 343d a7eb bd3d 9d3d 58bd 337a 86bd
00000100: 7d7b 5d3d 08f2 033c bd0e 06bd 7c7f f73c
00000110: beb3 9bbd e6f4 e53c 38b5 cb3d 2d2d 6bbd
00000120: 903c 9c3c 6801 983d acb3 6d3c b0d2 87bc
00000130: 09c2 63bc 2d8d 753d ba3d d3bd 2db1 81bd
00000140: 7400 29bd 16c1 5c3d 0f0c b63c dd42 983d
00000150: 7d58 ed3c 0cca 383d f894 94bb c0fb 2ebd
00000160: f0cb 3dbd eac1 97bc 0d80 96bd 42d8 babc
00000170: 12f4 72bc b384 82bc 66f9 aa3d 7a66 50bd
00000180: 46c8 933d bfc3 aabd 3286 9b3d fb42 0b3d
00000190: 7bf9 b0bd d77c d1bd 7f58 af3d fd34 94bd
000001a0: 0236 a5bd 14e6 a73d a661 0a3d be55 9c3d
000001b0: 8bbc b33b 8700 c33d 3cfe 903c 0890 713b
000001c0: 16ee d73c f7ce 113d 884a 433d 4272 743d
000001d0: 64c9 d73c db85 2fbc ed9c ab3d 9b57 6f3d
000001e0: 4e47 47bd 13d5 3e3d 718b 3cbd af51 6e3c
000001f0: 9288 1f3b 6a73 9b3c 0c23 e0bc 8f2b b7bd
00000200: 9c40 803c 554b 1bbd bece 213d a63b 97bc
00000210: 1540 203d 56b8 54bd 84bc 8cbd 1efd aabd
00000220: 9ab4 043c dea8 833d bed6 b2bc 4bb4 12bd
00000230: 8bf0 d03d cf27 2d3d e70c e8bc 8165 3abd
00000240: 9959 063d a41d cc3d 1193 f0bb ff70 613d
00000250: c135 b6bd d29b 973b af4a 27bd 5cc4 c2bc
00000260: 69aa 7bbd 57f5 b0bd 0815 3f3d 46f9 a4bd
00000270: 6515 c9bc 429b 153c 2dc0 08bd 56bd 4cbd
00000280: 3b92 be3b c676 c8bc b27c 28bc bcc4 d93d
00000290: 5a3a 653c 21be a9bd 4b19 d3bd d53f 87bc
000002a0: 227f a5bd 9001 7abb bb72 24bc 3e58 ecbc
000002b0: a355 d83c 9615 9fbd 3eac ca3d ddc4 de3c
000002c0: dc95 f7bc 19a3 09bb b2d4 9c3d d1a9 d73c
000002d0: 1fd0 4e3d cd7a 8dbd ac0d c93b 5335 b53d
000002e0: cbac d73c 3fb7 6c3d f86e 643d ced4 6bbb
000002f0: b3cc b03b e2cd c2bc 73ca 19bd efaf cebd
00000300: fd6f 143b 084d 533d c80c 66bd 3b56 bebd
00000310: 2f88 67bc d91e 29bd 61dd 9dbd e345 a3bd
00000320: 87e5 dbbc 0d05 f33c 508e aa3d be80 98bc
00000330: ca30 9bbd 896a 8f3d 6620 7ebc b05a c83d
00000340: daff b03c 1bc0 803d 252d adbb 65f0 843d
00000350: 4d64 07bd 6e6a c9bc c552 363d d955 d23d
00000360: 09fc b53d 4c82 92bd 6368 463d 7e4d 74bd
00000370: 9b30 f2bc d139 87bd b076 f53c f86c b7bd
00000380: e620 b03d 4b93 a4bd 8ae4 d43d 0719 503d
00000390: 5084 963d cc9f 1b3d 1370 d9bc 325d 23bd
000003a0: 6d91 9b3d 2f33 bc3d 7994 873d 0abb 5dbd
000003b0: fce9 ae3d 766e 883d a7dd 893b 77bb 97bc
000003c0: 9ca3 c23d cc45 323d b5d7 293c 5981 2e3d
000003d0: 2d9e 4abd f9ca 56bd 5875 3c3c c878 c83d
000003e0: a6b1 bfbc 702f 11bd 6874 75bd c6a3 2ebd
000003f0: 3cf5 fb3c 7b4c 0fbd 7f3d b5bd 1cf9 2abc
0.042027272 0.086965434 -0.010895697 -0.025004752 -0.060966015 0.0515264 -0.028178256 -0.08164386
-0.026636692 0.04256242 -0.067621514 -0.009261096 0.07184378 0.012706384 0.06595981 0.06597579
-0.044734865 -0.06213763 -0.060211163 -0.0861471 -0.039533447 -0.06660125 0.015015555 -0.0056599276
0.08033355 0.084783494 -0.0143545745 0.06398039 0.0363751 0.10248465 -0.041611742 0.0585186
-0.03633277 -0.076029375 -0.102154806 0.05687558 0.07485873 -0.033149507 0.048656907 -0.07317384
0.061571445 0.0320302 -0.07712532 -0.066924356 0.023782438 -0.08469627 0.021209028 -0.029048152
-0.05721717 -0.016258938 0.08329783 -0.016959947 -0.020253362 -0.027114863 -0.07793229 -0.04610855
0.063768245 -0.013032091 -0.090910606 0.064850345 0.044183135 0.09273463 -0.052793134 -0.065662764
0.054072846 0.00805331 -0.0327289 0.030212156 -0.076026425 0.028070878 0.09946674 -0.05741613
0.019071847 0.07422143 0.014508169 -0.016579956 -0.013901242 0.05994909 -0.10314508 -0.06332622
-0.041260198 0.05389508 0.022222547 0.07434628 0.028972859 0.045114562 -0.00453436 -0.042720556
-0.046337068 -0.018525083 -0.073486425 -0.022808198 -0.014828699 -0.015932417 0.0834835 -0.05087898
0.072159335 -0.08338117 0.07593955 0.033999424 -0.086413346 -0.102288894 0.08561801 -0.07236669
-0.08066942 0.08198181 0.03378453 0.076335415 0.0054851226 0.09521585 0.017699353 0.003685953
0.026358645 0.035597768 0.0476785 0.059679277 0.026341148 -0.010713066 0.083795406 0.058433156
-0.048651986 0.046589922 -0.04603142 0.014545842 0.0024342877 0.018975932 -0.027360462 -0.08943855
0.015655808 -0.03791364 0.039503805 -0.01846106 0.039123613 -0.05193361 -0.06871894 -0.083490595
0.008099699 0.06428693 -0.021830913 -0.035816472 0.1020213 0.042274293 -0.028326465 -0.045506958
0.03280029 0.09966591 -0.0073417504 0.055039402 -0.088969715 0.0046267295 -0.04084271 -0.023775272
-0.061441813 -0.08640545 0.046650916 -0.08055358 -0.024546335 0.009131255 -0.033386398 -0.049985252
0.005815772 -0.024470698 -0.010283636 0.10633227 0.013990963 -0.08288217 -0.103075586 -0.01650993
-0.08080889 -0.0038147904 -0.0100371195 -0.02885067 0.026408022 -0.07767789 0.09896134 0.027193481
-0.030222826 -0.0021001755 0.07657756 0.026326092 0.05049145 -0.06908188 0.006135663 0.088480614
0.026327511 0.057791945 0.05576989 -0.0035984996 0.005395496 -0.023779813 -0.037546586 -0.100921504
0.0022649758 0.051587135 -0.056164533 -0.09293791 -0.01413159 -0.041289184 -0.0770824 -0.07972314
-0.026842846 0.029665494 0.08327925 -0.018616077 -0.07577665 0.07002742 -0.015510654 0.09782922
0.021606375 0.06286641 -0.0052849227 0.06491164 -0.03305464 -0.024586882 0.04451253 0.102702804
0.088859625 -0.071537584 0.048439395 -0.059644215 -0.029564193 -0.066028245 0.029963821 -0.08956331
0.08600025 -0.080359064 0.10395153 0.050805118 0.07349455 0.03799419 -0.026542699 -0.0398838
0.07596097 0.0918945 0.06620116 -0.054133452 0.08540723 0.06661694 0.004207331 -0.018522007
0.09503862 0.043523595 0.01036637 0.042603824 -0.049467254 -0.052439664 0.011502586 0.09788662
-0.023400139 -0.03544563 -0.059925467 -0.042636655 0.030756585 -0.034985047 -0.0884962 -0.010435369

bias f4 [861]
00000000: e30d 49bd 7c5c 673d e6b8 773d 6592 953d
00000010: e511 443d afaa 95bc 82a5 613c 1173 e03b
00000020: fe9b 423b db14 59bd 9ede 20bd e1dd c0bd
00000030: 31e9 cbbd 49c5 e8bb 3317 64bd 242c e7bb
00000040: 356d 033c 9e85 a13d 6fb1 513d a37b 74bd
00000050: ba20 103d 469c 223d 1bb2 713d a04d 53bd
00000060: b452 e1bb 6742 f63c 8162 46bd 7079 c3bc
00000070: a065 c0bb 44d3 25bd 03c4 893d 515d 68bd
00000080: 38af 0cbd 51c1 b63d 182b b03d b79d a13d
00000090: 811a a2bd ed16 b5bc 07df 72bd 6dc8 743d
000000a0: abe0 c13d e6b1 a6bd 8691 d8bc 030f 713d
000000b0: 9d67 1c3d 4641 93bd f298 3ebd f4ae c8bd
000000c0: b392 8c3c b7b4 7d3b abdb 84bd 40b7 8a3d
000000d0: 6606 1c3d 9c94 553b d425 223d 9057 96bd
000000e0: d306 b73d d74d 62bd b530 893b d52e 913d
000000f0: cdaf 653d a2a3 dc3c 7b46 143c 57f0 8cbd
00000100: c969 88bd 4312 ce3b 0279 2fbd 5d2e c6bd
00000110: e7d6 bc3d ea5f d83c e97e debc 1453 263d
00000120: cc78 4bbd b5e5 5e3d fd24 803d 6999 c4bd
00000130: face 2dbd 3b41 793d 4c37 7cbd 9dca 41bd
00000140: 4187 193d 86fc f3bc 6346 253d 4675 0b3c
00000150: b63e 9e3c 37ee 12bd ceff 92bd d754 04bd
00000160: ea63 9a3d 8832 b13d e652 943c 5d87 a33d
00000170: 3b04 573b cea9 94bd d571 8c3d 8022 993d
00000180: 490a d3bb bc58 e03c 7ad4 c1bd 7f21 093d
00000190: ba06 b33d eb9c fbbb fc57 623d 48df 423d
000001a0: 8d27 c23c 13c2 9c3c b8bc 0dbd 5d15 b73d
000001b0: 81e4 bfbd b998 8ebb 57c5 62bb ae20 673c
000001c0: 28ce 333d afb8 e83b b591 8c3d e080 aebc
000001d0: ca80 1dbd adf0 f7bc 5184 c3bd 2aa8 13bd
000001e0: 3ff2 a63d 6bb5 c4bd 188d d5bd 7238 763c
000001f0: 3fec a03d 3c9c a3bd 0fd9 61bc 6952 c8bc
00000200: dee9 51bd 5012 c1bd ae18 b93d 9535 9a3c
00000210: 58b6 bfbd 6dbb 41bd 0818 a2bc c0b1 bb3d
00000220: f2d2 7ebb 0b36 cd3c 4f22 b8bd 4048 673d
00000230: 07c3 003d 8fa1 c0bd 8bbf 823b 0728 0bbd
00000240: e1dc e4bc 6d36 d43c a42c 1b3d 900f 8cbc
00000250: d5e9 f6bc 4536 3e3d c347 9bbc 2fb7 e2bc
00000260: c3b2 2cbd 7407 583b c4e8 9f3c 8420 a3bc
00000270: 6572 993d a75d 3abd c698 79bc 756b 38bd
00000280: 31de 273d 43a9 91bd 51f0 afbd a0c9 bc3b
00000290: 69ab 8f3d 7d86 233d 3ae2 dbbc 0cd8 a03d
000002a0: 8a72 e13b 6b46 903b a1fc 563c 31a9 a03d
000002b0: 3d15 87bd 398e c03c 893c 30bd 60b2 99bd
000002c0: edc6 443d 74ea a23d 58e3 a5bd f85f 623d
000002d0: 7805 103d 135f a6bb dfdd 21bd 00d5 d0bd
000002e0: af3b dc3c 4e35 5bbd 0fef 4e3d 8050 15bc
000002f0: 8374 6dbd 4115 55bd ef24 593d 6758 233d
00000300: 3137 2ebd 3797 973c c5ed 78bd f0e3 83bd
00000310: 3788 b73d 90e1 75bd a8a7 89bd 0b90 4c3c
00000320: 243c a7bb c6da 09bd 5d9f 8c3b 517e 3f3c
00000330: e636 893d 1978 ca3c 9f01 9f3d e8c5 093c
00000340: d3ed 63bd dfd2 dd3c 77b5 8dbc 3029 cdbd
00000350: 8ac5 d5bd 661b ff3c 6f83 8f3d c40d 903c
00000360: 409d 873d 672f acbc bfdf 0cbd 1ba0 263d
00000370: 89f5 bd3c a921 7f3c 4d2e 523b 1876 10bd
00000380: 392d 4e3d 94da 91bd c61b ec3c de85 8f3c
00000390: bf4a aebd 5159 4e3d 30ed bcbc b1d4 9d3b
000003a0: e627 943d e78e d1bd 056c c0bc a9a3 573c
000003b0: 3f31 8a3d 3e41 593d 3828 4abd 003f 7bbd
000003c0: ddff dcbb 22f7 ff3c 2f58 b6bd 1fee 91bd
000003d0: 411f 97bd b960 c93c 0fc5 4e3b a84d c23d
000003e0: 0682 bc3d af6e acbd 5a95 50bd ec7e bc3b
000003f0: 1ae9 713d 0ff6 7ebd d62a 703d af9d 5a3d
-0.04908551 0.056484684 0.060479067 0.07303313 0.047868628 -0.018269865 0.01377237 0.0068496545
0.002969503 -0.052998405 -0.039274804 -0.0941732 -0.09956587 -0.0071035963 -0.055686187 -0.0070548225
0.008021642 0.078868136 0.051194604 -0.05968822 0.03518746 0.039699815 0.059007745 -0.0515877
-0.006876314 0.03006096 -0.048433784 -0.023861617 -0.0058714896 -0.04048468 0.067268394 -0.05672962
-0.03434679 0.08923591 0.086019695 0.0789141 -0.079152115 -0.022105658 -0.059294727 0.059761453
0.0946668 -0.081394 -0.026436578 0.058852207 0.03818475 -0.07190184 -0.04653258 -0.09798995
0.017159795 0.003871245 -0.06487211 0.067732334 0.03809204 0.0032589799 0.039586857 -0.0734092
0.089368485 -0.055250015 0.0041867145 0.070890106 0.05607586 0.026933495 0.009050007 -0.06881779
-0.06660802 0.006288798 -0.04284001 -0.09676812 0.09220677 0.026412923 -0.027160125 0.040606573
-0.049675748 0.054418284 0.06257055 -0.09599573 -0.042433716 0.060853224 -0.061576173 -0.047312368
0.037482504 -0.029783498 0.04035033 0.008511847 0.019317012 -0.03587171 -0.07177697 -0.032307472
0.07538588 0.08652216 0.018105935 0.07984803 0.0032808918 -0.0725895 0.06857649 0.074772835
-0.006440435 0.027386062 -0.09464355 0.03347921 0.08741517 -0.007678618 0.05525969 0.04757622
0.0237005 0.01913551 -0.034603804 0.089396216 -0.093697555 -0.004351702 -0.0034602487 0.014106913
0.043897778 0.007102094 0.06863729 -0.021301687 -0.0384529 -0.03026613 -0.09546722 -0.036049046
0.081516735 -0.09604915 -0.10427302 0.015028106 0.0785756 -0.07988784 -0.013784661 -0.024453359
-0.051248424 -0.09427321 0.090379104 0.018824378 -0.09360951 -0.047297884 -0.01978685 0.091647625
-0.0038883057 0.025050184 -0.08990919 0.056465387 0.031435993 -0.09405815 0.003990119 -0.03397372
-0.027937355 0.025904858 0.03788437 -0.017097265 -0.030140797 0.046438474 -0.018955117 -0.02767524
-0.042162668 0.0032963427 0.019520171 -0.019912966 0.07492522 -0.04549947 -0.015234178 -0.045024354
0.040983383 -0.07112362 -0.085907586 0.0057613403 0.07015116 0.03992318 -0.026841272 0.07853708
0.006880109 0.0044029257 0.013121755 0.07844771 -0.06595848 0.023505317 -0.04302648 -0.075047255
0.048041273 0.07954875 -0.08100003 0.055267304 0.035161465 -0.0050772517 -0.039518233 -0.101968765
0.026883928 -0.053517632 0.050520953 -0.009113431 -0.057972442 -0.052022222 0.05301374 0.03987923
-0.042533103 0.018504722 -0.06077363 -0.0643996 0.08961528 -0.060029566 -0.06721431 0.012485514
-0.005103605 -0.033655904 0.0042914585 0.011687831 0.06699924 0.02471547 0.07763981 0.008409001
-0.05564673 0.02707809 -0.017298443 -0.100176215 -0.10438068 0.031140994 0.07007491 0.017584689
0.0662179 -0.021018697 -0.03439307 0.040680032 0.02318837 0.01557199 0.0032071054 -0.035268873
0.050336096 -0.071217686 0.028821837 0.017519888 -0.085103504 0.050378148 -0.023062319 0.0048166146
0.072341725 -0.102323346 -0.023489008 0.013161578 0.06747674 0.053040735 -0.04935476 -0.06133938
-0.0067443685 0.031245772 -0.089035384 -0.07125496 -0.07379008 0.024582254 0.0031550562 0.09487468
0.092044875 -0.08419549 -0.050923683 0.005752435 0.059060194 -0.06224638 0.0586346 0.053373035
