scripts/model_cnn.pt (torch_old, 398776 bytes, 20 tensors)

weight f4 [10, 3, 2, 2]
000000 42 66 57 3e c6 1b 2d be 0b 7a 8e be a8 ca c0 3d
       0.21035102 -0.16905126 -0.27827486 0.094136536
000010 9c aa 6a 3e 6e 1a 4e be 0f 7d 80 be fe 8e 32 bc
       0.22916645 -0.2012727 -0.25095412 -0.01089835
000020 f0 06 e7 3d d9 2e 1e 3e 62 05 82 3d 2e f9 1c be
       0.1128062 0.15447558 0.06348683 -0.1532943
000030 75 57 0f b9 28 7a bf bd 96 32 47 bd 5b f3 b4 3d
       -0.00013670123 -0.09349471 -0.048632227 0.08835479
000040 fb 49 e3 be df 20 ad 3d b1 25 5d 3c 9a 3c 0a 3f
       -0.4439238 0.08453535 0.013497756 0.5399872
000050 f2 47 32 3d 05 9b 29 be b2 15 37 3d 68 be 8c 3d
       0.043525644 -0.16563042 0.044698425 0.068722546
000060 59 0b cc bd 13 37 17 be 60 e4 04 be d0 98 89 3d
       -0.09963102 -0.14767103 -0.12977743 0.067186
000070 9d a6 b0 3e 5d 0a a2 be 43 a0 7a bc d5 ba 84 3e
       0.34502116 -0.31648532 -0.015296998 0.25923792
000080 d0 4a 6f 3d 04 ba 9a 3b 57 73 26 be cc 5e 0f 3d
       0.058420956 0.004721882 -0.16254936 0.035002515
000090 16 e2 ae be 55 dd 9d 3d 38 3e d2 3e 9a 38 c9 ba
       -0.34156865 0.07708231 0.41063094 -0.0015351952
0000a0 6b 2c 1c be 93 51 24 3e 73 3e 09 be c1 b0 33 3e
       -0.15251319 0.16046743 -0.13402729 0.17547895
0000b0 81 f7 03 bf 94 9f 95 3d 61 b7 90 3e ce c6 0d 3d
       -0.51549536 0.07305828 0.28264907 0.034613423
0000c0 85 99 b9 bd bf 36 8c bd 46 f9 54 3e 2c d8 f4 bd
       -0.09062485 -0.068463795 0.20798215 -0.11955294
0000d0 b8 49 11 39 52 c3 5f bd 48 b8 da bb 84 6e 1d 3e
       0.0001385574 -0.05462963 -0.0066748 0.1537419
0000e0 22 ef d2 be 89 35 9c 3e 7d 0d 38 be 6e c1 aa bd
       -0.4119807 0.30509594 -0.17973895 -0.08337675
0000f0 2a cf 54 bd c7 71 ab 3e eb fe 95 3d fe 3a 5a be
       -0.05195538 0.33485243 0.07324012 -0.21311566
000100 9e 9a 78 3d 26 b4 dc 3d ba 73 b5 3e 66 78 cd bd
       0.06069433 0.10776548 0.35439855 -0.1003273
000110 68 e6 dc bb de 90 43 be e8 a9 2b 3e bd d1 0b bd
       -0.0067413338 -0.19098231 0.16764033 -0.03413557
000120 a5 ab e3 3d 8f 26 87 3b 5c d3 35 3c 3e fe 1f be
       0.11116723 0.0041244696 0.011097755 -0.1562433
000130 6d 50 99 3d ce 17 5c 3d 42 4c 28 be 32 02 63 3e
       0.07486043 0.05373364 -0.1643534 0.22168806
000140 95 12 64 be b4 2f 9f 3e 29 bb 69 3e 5c 68 c6 3d
       -0.22272713 0.31091082 0.22825302 0.09687874
000150 2c 25 02 be c9 55 03 be 43 7b c9 bb e5 4a 9f be
       -0.12709492 -0.12825693 -0.006148727 -0.31111827
000160 ac 1e 2a be 70 07 8a 3e c4 df 1e 3e 65 a8 48 3d
       -0.16613263 0.269588 0.15515047 0.04898872
000170 09 58 8c 3b e3 48 e2 3e a3 4b 30 be f8 d4 c6 be
       0.0042829555 0.44196233 -0.17216353 -0.38834357
000180 01 31 5b 3c df 84 c7 3e b0 28 22 be 15 ce c0 be
       0.013378383 0.3896856 -0.15835834 -0.37657228
000190 8e 1d d0 bd 87 c5 32 3c ea c2 3f bd e6 8d a5 3d
       -0.10161887 0.010911352 -0.046816744 0.080837056
0001a0 fc 48 de 3c ca 76 93 3c 46 47 3f 3d 6c ea 00 be
       0.027134411 0.018000979 0.04669883 -0.12589425
0001b0 e6 cc a2 bd 19 b5 07 3e 5d 88 d0 3e 87 cf 8a 3e
       -0.079492375 0.13252677 0.40729037 0.27111456
0001c0 8b 6e a7 3e b2 05 88 bd 26 2e 13 bd 9f cc 91 3d
       0.32701525 -0.06641711 -0.035932682 0.071191065
0001d0 3c 7e 55 3d 04 89 04 bd fd 42 17 be 64 71 51 be
       0.05212234 -0.03235723 -0.14771648 -0.20453411

bias f4 [10]
000000 89 0c a7 be a2 f1 97 bc 62 d1 86 be ec dc 16 be
       -0.3262675 -0.018547837 -0.2633162 -0.14732713
000010 c8 87 71 be 32 40 d0 be 68 16 88 3c c6 f5 80 3d
       -0.23586953 -0.40673977 0.016612247 0.062968776
000020 73 85 e6 bd 19 5d 08 be
       -0.11255922 -0.13316764

weight f4 [10, 10, 3, 3]
000000 31 a8 c5 3d 56 01 34 3e da 34 31 3e db 5e 24 3e
       0.096512206 0.17578635 0.17305318 0.1605181
000010 03 25 15 3d 4e 74 e4 bd 64 3d 2e bb 0d 7a 3f 3e
       0.03641225 -0.11154996 -0.0026586885 0.18698902
000020 01 e6 c8 3d ea 88 31 be 39 00 6d be 50 de 2e be
       0.09809495 -0.17337385 -0.23144616 -0.17076993
000030 df d5 26 be 7e db 39 bd 67 2c ea bd 7c f8 7f 3c
       -0.16292523 -0.04537534 -0.1143425 0.015623208
000040 67 a9 7b bd e8 8f 3f 3c 52 9b d4 bd e3 33 00 be
       -0.06144085 0.011692025 -0.103811875 -0.12519793
000050 dc 3d 0f be 71 a0 5c be 24 3d 86 be 81 5a 85 be
       -0.13988441 -0.21545579 -0.26218522 -0.26045612
000060 f7 ef a1 be b1 76 54 be 0d 80 9b be b5 15 c7 bd
       -0.3162839 -0.20748402 -0.30371132 -0.09720937
000070 55 0b ad be da 40 e8 bd fb 03 86 3e 02 af 7a 3e
       -0.33797708 -0.113404945 0.26174912 0.24480823
000080 0d 2f 01 3e ab 6a 8c bd 34 3f 8b 3e 01 c4 18 3e
       0.12615605 -0.06856283 0.27196658 0.1491852
000090 44 93 bf 3d 5a 91 25 3e a4 a3 2b 3e c8 40 ad 3d
       0.093542606 0.16168728 0.16761643 0.08459622
0000a0 fd c9 6a 3e bc 6e 58 3d 01 cb 87 bd 45 a7 fc 3d
       0.22928615 0.05283998 -0.06630517 0.12336592
0000b0 6d 02 0d be 99 f0 1b 3e c7 4f 7d 3e f4 b5 17 3e
       -0.13770457 0.152285 0.24737464 0.14815503
0000c0 72 ef f5 bd 2b 7f ed bd 96 85 9c bd 44 6b e3 bc
       -0.12008561 -0.11596521 -0.07642667 -0.02776111
0000d0 5f 5f a3 3d 3b a5 14 bd 93 dc 72 3e d8 d3 ac 3a
       0.07977175 -0.03629039 0.23716955 0.0013185693
0000e0 51 56 3c 3e 55 40 c8 3d 9f 73 6f bd fe 37 c8 3c
       0.18392302 0.09777895 -0.058459874 0.024440762
0000f0 44 14 7d bd 8c 73 8c bd 3b 85 85 bd 3a 0f ef 3b
       -0.061786905 -0.06857976 -0.06519552 0.0072955163
000100 fb ab f8 3c 1b b1 2a bd f5 78 56 be cb 68 11 3d
       0.030355444 -0.041672807 -0.20944579 0.03550033
000110 20 19 64 be 9d 13 68 3c 87 7f 93 3e 99 1c f8 3c
       -0.2227521 0.014164832 0.28808233 0.030287074
000120 d0 48 11 be 46 d1 27 bc 5d 10 ab bd 54 d9 68 be
       -0.14187932 -0.010242766 -0.083527304 -0.22739154
000130 a1 11 22 be 39 a3 07 be e2 2b d8 3c ab b6 26 bd
       -0.15827037 -0.13245858 0.026388112 -0.04070155
000140 00 37 f4 3d 26 c2 17 3e 54 3e 0a 3e 1c 77 2b 3e
       0.11924553 0.14820156 0.13500339 0.16744655
000150 95 bd 0e 3e 1e 24 61 3e 88 00 cf 3d 2e db 81 be
       0.13939507 0.21986434 0.10107523 -0.25362533
000160 3d 97 b2 bd a9 5a 0c be a5 84 41 be 32 f3 d0 bd
       -0.08720253 -0.13706459 -0.18898256 -0.10202636
000170 ec b7 97 bb 6a 25 3e be b8 ac 45 bd 71 39 a2 bd
       -0.0046300795 -0.1856896 -0.04826042 -0.07921112
000180 e5 12 9b bd 2a f2 2d 3b 50 6a 07 be df fd cf bd
       -0.07571963 0.0026542046 -0.13224149 -0.10155844
000190 22 70 5a 3e 4e 54 65 3e cf a4 8e 3b 39 56 71 3c
       0.21331838 0.22395441 0.004353143 0.01473003
0001a0 a4 80 80 3e 08 d6 1c be ac a2 fa bd 34 0f 53 3d
       0.25098145 -0.15316021 -0.122380584 0.05152817
0001b0 d6 d4 02 be 2d cd d8 bd b5 c6 ea bc 6b d6 a6 bd
       -0.12776503 -0.10586009 -0.028659204 -0.08146366
0001c0 8b 94 4e be b7 0c 5a 3d 01 37 b0 be 8e fd 72 be
       -0.20173852 0.053234782 -0.34416965 -0.23729536
0001d0 36 d8 59 be 3a 71 ea 3d 44 69 22 3c e4 e1 13 3d
       -0.21273884 0.114473775 0.009912793 0.036104098
0001e0 3f 2d 3c 3d 50 d0 8c 3e 03 03 12 3d 2b 2f 1e bc
       0.045941588 0.2750268 0.035647403 -0.0096548
0001f0 14 fd 64 3e f0 c5 0f 3e 77 c7 e4 3d 39 80 9f bd
       0.22362167 0.14040351 0.111708574 -0.077881284
000200 dc 87 dd 3d 1f 9e 08 3e 3d 10 23 3e 45 3e 7e bb
       0.10816929 0.13341568 0.15924163 -0.003879444
000210 dc b2 f6 3b 8b 51 b1 3d fb e7 bf bd 23 ec 1c be
       0.007528646 0.08658131 -0.09370419 -0.15324454
000220 2e 1d 8d bd a8 89 c9 3c 34 6e 76 3d 15 61 6a bd
       -0.06890331 0.024601772 0.06016369 -0.05722149
000230 a2 f1 45 be c0 a9 e6 bc 17 b9 38 3d bb dc d6 bc
       -0.19330457 -0.028157115 0.04509839 -0.0262283
000240 1e 69 3c be 88 28 e9 3c 84 b5 11 3e b7 06 4c bb
       -0.18399474 0.02846171 0.14229399 -0.0031131932
000250 2d fc a8 3d 64 6c 85 3e e3 2e 35 be 2d fd e0 3d
       0.08251224 0.26059258 -0.17693667 0.109857894
000260 5b 53 63 3e c5 4a c1 bb fd 47 d2 3d 86 be a0 ba
       0.22199766 -0.005898806 0.10267637 -0.0012263812
000270 5e 20 17 3e 3f 16 21 3e cd a3 75 3d a8 9e 39 be
       0.14758441 0.15731142 0.059970666 -0.18126929
000280 1b c5 53 3d c1 e1 2a be 3c 96 ea bb 98 5f cb 3c
       0.051701646 -0.16687681 -0.0071590226 0.024825856
000290 3d c2 bc 3d e1 ee 7a 3d 9b e8 85 3e 09 4a 64 3d
       0.092167355 0.06126297 0.26154026 0.055734668
0002a0 a5 22 ce bd e0 c5 9d bd 45 2e 51 3e 5a f0 68 3c
       -0.10065202 -0.07703757 0.20427807 0.0142174605
0002b0 9a c4 94 bd 3a c5 b6 bd 88 93 d4 bb 4b ca 46 bd
       -0.07264061 -0.08924337 -0.0064873137 -0.048532765
0002c0 09 c1 9d bd e2 4e db bc 64 2e be bd 41 2a 0f be
       -0.07702834 -0.026771013 -0.09286192 -0.13980962
0002d0 ff 42 77 bd 73 3e ac bd 1a af 9c 3c a2 ac 06 bd
       -0.060366627 -0.08410349 0.019126464 -0.03287948
0002e0 ac e7 44 be 9c 71 7c be a1 f7 38 3d 17 21 97 bd
       -0.19229001 -0.24652714 0.045158032 -0.07379358
0002f0 33 89 ef bd 44 e6 a3 bd 75 ef c5 bd 4a 73 03 bc
       -0.116960905 -0.08002904 -0.096648134 -0.0080230925
000300 9c 4c eb bd 1b 8a d5 3c f2 05 d8 3b 28 15 85 bd
       -0.114892215 0.02606683 0.0065925056 -0.06498176
000310 40 5f 9f be e9 7a 11 bc d0 07 a2 bd b6 74 fa 3d
       -0.31127357 -0.008879402 -0.07911646 0.12229292
000320 0f 08 92 3c a6 94 7b bd 9b 15 e2 bc c4 81 bf bc
       0.017826108 -0.06142106 -0.027598193 -0.023377307
000330 37 4e db bd 9b 13 b6 bd c7 f5 28 be a6 c6 0b bd
       -0.10708278 -0.08890458 -0.16500007 -0.034124993
000340 39 e7 17 3b b6 1c b9 bd 53 e6 c5 3d 82 e9 1e 3c
       0.002317859 -0.09038679 0.096630715 0.009699227
000350 fc 82 1e 3d 25 39 a1 3d 57 f6 03 3e f0 fb 09 bc
       0.038699135 0.078722276 0.1288694 -0.008421883
000360 8a b2 b6 bc 2c 09 22 be f2 2e 15 bd 92 9e 09 3d
       -0.022301931 -0.15823811 -0.036421724 0.03359849
000370 1c 6c 06 be 87 0f b3 bd ec d3 b4 bd 68 22 24 3e
       -0.13127178 -0.08743196 -0.088294834 0.1602875
000380 d9 34 90 bd 05 bf 99 bd 11 db 95 3c ed 5e 37 be
       -0.0704133 -0.07507137 0.018292936 -0.17907305
000390 c2 b2 24 bc 22 28 12 be 3b 19 2a be 0d 30 58 bd
       -0.010052385 -0.14273122 -0.16611187 -0.0527802
0003a0 fa 34 84 bd e4 a6 aa 3c 3c c7 96 bd 8a 7d 2e be
       -0.06455417 0.020831533 -0.0736222 -0.17040077
0003b0 9d 7c ae 3c 8c 67 d2 bc 84 7b 58 3c e5 47 56 bd
       0.021299655 -0.02568414 0.013213042 -0.052314658
0003c0 4a 37 ef bd c3 06 3a be 7d 91 19 3d 3c dc 87 bc
       -0.116804674 -0.18166642 0.037492264 -0.016584508
0003d0 93 c3 b2 bd 51 af a4 3b 87 78 97 bc 76 8d a7 bd
       -0.08728709 0.005025782 -0.01849009 -0.081812784
0003e0 71 a4 dc bd 62 df ca bd 1c aa c1 bd e9 dc 38 be
       -0.10773552 -0.09905888 -0.09456274 -0.1805302
0003f0 9f 77 72 3d fb ea 07 be ee 95 0a bd 27 84 e3 3c
       0.05919611 -0.13273232 -0.03383439 0.027772976

bias f4 [10]
000000 24 d9 2f 3e d1 c5 b3 3d 8a bc 8b bd bf e9 25 be
       0.17172676 0.08777965 -0.0682307 -0.16202448
000010 e9 b8 e2 bc b1 d0 d1 3e 41 d4 c5 bd 3b 97 f2 3b
       -0.027676063 0.4097953 -0.09659625 0.007403282
000020 c3 a0 cd bd 3b 69 9c bc
       -0.100404285 -0.019093147

weight f4 [10, 10, 4, 4]
000000 f0 be 8d bd e2 95 53 bc b9 ee cf bc ca 7b 29 3c
       -0.06921184 -0.012914153 -0.025382387 0.010344455
000010 b1 28 d8 3d 45 d4 9a 3d 95 b9 ae 3d dc 3a e6 3d
       0.10554636 0.075600185 0.08531491 0.11241695
000020 5e 62 17 be d4 d5 04 bd 89 2e 48 bd c6 df ca bd
       -0.14783618 -0.032430485 -0.048872504 -0.09905963
000030 c6 3d d8 bd fb 96 69 bd 04 f5 7a bd 25 4d aa 3c
       -0.10558657 -0.05702875 -0.06126882 0.020788739
000040 54 62 e3 bd c5 85 b7 bd 21 d2 b1 bd 15 83 14 be
       -0.11102739 -0.089610614 -0.08682657 -0.14503129
000050 75 8b 2c bd f0 75 a2 bd 9d 20 c1 bd 8a c5 c9 bd
       -0.042125184 -0.07932651 -0.094300486 -0.09852131
000060 b4 98 cf bd 9f 9a 1a be ea c0 8a bd 28 0f 49 bd
       -0.10136548 -0.15098046 -0.06775077 -0.04908672
000070 33 9f 2c bd d6 4f 1b be 70 62 a7 bc 44 e1 10 bc
       -0.04214401 -0.15167174 -0.02043268 -0.00884277
000080 13 de b4 bd 96 32 35 bd f7 03 06 be 36 cc c6 ba
       -0.0883142 -0.044237696 -0.1308745 -0.0015167061
000090 90 2a 30 bd 7b 29 5e bd 79 83 41 3c 2d 65 61 bd
       -0.04300934 -0.054238778 0.011811131 -0.05502813
0000a0 c7 1c 55 bd b4 ce d3 3c dc 2d e3 3c 2b 7b 49 3c
       -0.052029397 0.0258554 0.027731828 0.012297432
0000b0 bf 36 cb bd bc 9f b0 bd 2d 6c 5f 3c 8f a3 f4 bc
       -0.09922551 -0.08624217 0.013636631 -0.029863147
0000c0 f3 ef 94 3d ec db f0 3c 9c 13 35 3d 09 0e 01 3d
       0.07272329 0.029401742 0.044208154 0.031507526
0000d0 46 85 44 3c ed 33 2f 3b 8e 2d c7 3d 1f f0 e6 3d
       0.0119946655 0.002673383 0.09725486 0.11276268
0000e0 ae 41 04 3e 6c 5f 06 3b b3 71 df 3d ce d0 9b 3d
       0.1291568 0.0020503653 0.10910358 0.07608186
0000f0 a0 e5 ef 3d a0 e8 24 3d ec f7 d4 3d 25 61 03 3e
       0.11713719 0.04026091 0.1039885 0.12830026
000100 5e 8f 7d 3c a6 81 45 bd b2 ff a7 bc 4d b0 eb 3c
       0.015476076 -0.048219346 -0.020507667 0.02877059
000110 75 4a 31 bd b1 bd 50 bc 05 2c 75 3d c1 2f 79 bd
       -0.0432839 -0.012740538 0.059856433 -0.060836557
000120 b7 cd 55 bc d9 f1 21 bd 38 2a 5d bc c4 4d 0b bc
       -0.0130495345 -0.039537285 -0.013498835 -0.0085024275
000130 81 50 24 bd 74 8f 84 bd 8a 38 de bd 08 48 80 3d
       -0.040115837 -0.06472674 -0.10850628 0.06263739
000140 ec af c1 bd c3 ab e3 bd 69 9e 46 be 8b d7 e6 bd
       -0.094573826 -0.11116745 -0.19396366 -0.1127158
000150 b5 b3 18 be a3 a1 38 be 0d 07 22 be fb 88 2e be
       -0.14912303 -0.1803041 -0.15823002 -0.17044441
000160 4c c5 8f bd bf fd e1 bc e0 37 f2 bd 2e 7b 0d bd
       -0.07020053 -0.027586816 -0.118270636 -0.0345413
000170 5c ab bf bd 66 78 a0 bc a1 a2 38 be b4 f1 21 be
       -0.09358856 -0.01958866 -0.18030788 -0.15814859
000180 3b 00 30 3d 61 a9 ce 3c 37 18 82 3d 5f 77 64 bd
       0.04296897 0.02522725 0.06352275 -0.055777904
000190 0f ca b7 3d b4 87 d0 3d 52 5f a7 3d a2 65 97 3d
       0.089740865 0.10182133 0.08172478 0.07392432
0001a0 10 65 38 3d 9a ac 35 3e ab 21 30 3e 3e 41 f6 3d
       0.045018256 0.17741624 0.17200343 0.12024163
0001b0 d6 b0 90 3d 10 48 45 3d f3 8f e0 3d 46 20 1f bd
       0.07064979 0.048164427 0.10964956 -0.038849138
0001c0 83 fe 8a bd 96 9f 2b bd b3 91 3a be 9a ac 1e be
       -0.067868255 -0.04190024 -0.18219642 -0.1549553
0001d0 76 1b 18 be 95 5c 2d be df e8 c9 bd 1b 1e 19 be
       -0.14854226 -0.16929848 -0.0985887 -0.1495289
0001e0 38 aa db bc 74 e9 69 bd e1 16 1f bd ba ca 9d bd
       -0.026814565 -0.057107404 -0.03884018 -0.07704683
0001f0 d3 4f 13 bd 0a 56 11 be f2 35 00 be aa 4d 7e bd
       -0.0359648 -0.14192978 -0.12520579 -0.062085785
000200 a7 c2 58 bc 99 77 52 3d 70 0d 2a 3d 8d 08 42 3c
       -0.0132300025 0.05138359 0.04151672 0.011842859
000210 ea 8f 3c 3d 03 e0 a4 3d 62 15 b5 bc 2a 50 9b bd
       0.046035685 0.08050539 -0.022104923 -0.075836495
000220 d3 14 5e 3d a7 e4 d4 bd 74 83 f6 bd ca cc 20 bd
       0.05421908 -0.103951745 -0.120367914 -0.039257802
000230 90 bf f8 bd f4 6e 18 3d ba 46 83 bd eb dc b7 3c
       -0.12145913 0.03721519 -0.064099744 0.02244421
000240 a5 33 9e bd cf 8d 21 be a6 4e be bd 2d c3 fc bd
       -0.07724694 -0.15776752 -0.09292345 -0.12341914
000250 36 ec 6d 3d 1a 92 12 3e ee 4c db 3d ac b3 b8 bd
       0.058086596 0.14313546 0.107080325 -0.09018645
000260 a8 53 d8 3c 38 37 bb bb 77 7b a5 3d c8 eb 53 3d
       0.026407078 -0.0057133697 0.0808019 0.05173853
000270 2e f6 ce bd 86 87 11 bd 04 64 cf 3a 71 28 56 3d
       -0.10105549 -0.035529636 0.0015822654 0.05228466
000280 e0 39 cc be 8c 96 75 be b3 0e 7e be e4 26 4a be
       -0.39887905 -0.2398321 -0.24810295 -0.19741398
000290 7c f3 e7 bd 83 c5 04 3b 08 d9 3d 3d 27 f8 94 3d
       -0.11325738 0.0020259328 0.046349555 0.07273894
0002a0 11 cd cd 3a 7c df d2 3d 3d b1 17 3d 35 52 9d 3d
       0.0015701373 0.102965325 0.037034262 0.07681695
0002b0 79 f2 23 be a5 97 3f bd d0 6e c2 bd 9e 03 bf bd
       -0.16010465 -0.04677548 -0.09493792 -0.09326862
0002c0 7a 70 0c bd 26 2d 76 3c 94 c8 83 3d 2e d8 87 3d
       -0.034286954 0.015025413 0.064347416 0.0663303
0002d0 f5 9d 0d 3e cb 7c 72 3e 0d ca 07 3e 05 d1 6e bd
       0.13829787 0.23680417 0.1326067 -0.058304805
0002e0 fb 06 f1 bd 55 9e b1 bc 53 8a 02 bd 80 df 8f bd
       -0.117689095 -0.021681944 -0.031870198 -0.07025051
0002f0 e5 80 60 bd 8c 08 05 bd 64 c0 09 3d da e7 8a bd
       -0.054810423 -0.032478854 0.033630744 -0.067825034
000300 9a a5 62 3d b4 4d 72 3c 10 83 9a 3c 64 ae bc bb
       0.05533371 0.014789034 0.018861324 -0.0057580937
000310 9b 06 27 3e c3 43 a6 3d e9 cc af 3d 3e 3a cc 3b
       0.16311114 0.08118393 0.085840054 0.006232529
000320 92 d9 11 3e ef d8 82 3d c2 04 9b 3d 2c be a7 3c
       0.14243153 0.06389033 0.07569267 0.020476423
000330 58 55 42 3e df 79 65 3d 88 1b 96 3d b7 ba fb 3c
       0.18977869 0.05602443 0.0732947 0.030728681
000340 dc b5 18 bb 32 73 39 bd b7 58 97 bd 80 58 07 be
       -0.0023301756 -0.045275874 -0.07389968 -0.13217354
000350 46 f6 df 3d c8 1d f6 3c d5 3a 07 be 34 ee 1f 3c
       0.10935645 0.030043498 -0.13206036 0.009761382
000360 7e 65 4b 39 22 b5 8d 3c 1d 00 bb bc c0 e9 46 bd
       0.00019397397 0.017298285 -0.022827202 -0.048562765
000370 13 5d c3 bd ce f7 43 bd fd 45 d1 bd 8a 53 ae bd
       -0.09539237 -0.047843747 -0.10218427 -0.085120276
000380 cb af 73 3e ca a0 38 3e 8e 65 07 bd 84 58 1f bd
       0.23797528 0.18030086 -0.033055834 -0.038902774
000390 73 2b 94 3e f8 31 60 3e 1c 49 8d 3d 7a 66 e5 3b
       0.289394 0.21894062 0.0689871 0.0070007415
0003a0 8c 4e a2 3d 4a 96 ef 3d a9 b2 19 be 61 82 0e 3c
       0.07925138 0.11698587 -0.1500956 0.008698077
0003b0 f6 16 86 3b 18 8c 28 be 50 11 75 be 88 d0 1a be
       0.0040920926 -0.16459692 -0.23932385 -0.15118611
0003c0 8c 43 a0 3e a1 1b a8 3e de 55 ca 3e 3c 25 e3 3e
       0.31301534 0.3283358 0.39518636 0.44364345
0003d0 bf b4 e6 3d 9b 70 2b 3b b0 8f bb 3c 09 bc 7d 3d
       0.11264943 0.0026159647 0.022895664 0.061946902
0003e0 d9 61 0e 3c 1a ca 1c 3e c8 24 9f bd 64 02 c5 bc
       0.008690321 0.1531147 -0.07770687 -0.024048992
0003f0 2d 26 0a 3e c2 a6 68 3e 4d d5 ab 3d 7d 69 a3 bd
       0.13491125 0.22719863 0.08390293 -0.07979105

bias f4 [10]
000000 0e d0 04 be 27 bc b5 3d 5e 86 02 3d 6b 9e d9 bd
       -0.12969992 0.08873778 0.031866424 -0.10625919
000010 c6 d1 08 be 76 27 a3 bc 12 33 7f be 42 d1 3c 3e
       -0.13361272 -0.019916277 -0.24921826 0.184392
000020 f5 ab 6d 3e 22 89 bc 3e
       0.23210128 0.36823374

weight f4 [10, 10, 5, 5]
000000 77 06 12 be 54 e4 c1 bd d4 bd e3 3d 9e 70 e8 3c
       -0.14260279 -0.09467378 0.11120191 0.028374013
000010 c0 c8 c3 3d 83 86 25 be d5 2e bf 3b bb 31 01 bd
       0.095597744 -0.16164593 0.0058344402 -0.031541567
000020 56 ee 2b 3d 9d c1 3c 3d 27 83 a0 bd bb ba 19 3d
       0.04197534 0.04608308 -0.07837515 0.037531596
000030 98 c2 d2 3c 9e ee c5 bc 12 f7 d9 bd 81 04 db bd
       0.025727555 -0.024161633 -0.10642828 -0.106942184
000040 33 be 1c bd 6b 45 40 bd c0 85 29 3c 30 86 8e bd
       -0.038267326 -0.046941202 0.01034683 -0.06959188
000050 3f 50 1c be 2e 0c 2f be 56 c6 c7 bd 70 d9 f5 bd
       -0.15264986 -0.1709449 -0.097546265 -0.120043635
000060 49 99 6d bd c4 f5 84 3d 00 12 72 3e 35 27 a2 3d
       -0.058007512 0.064921886 0.23639679 0.079176344
000070 ee f7 9e 3d 21 7e 54 3d fd 4f a8 3e 28 68 05 3e
       0.077621326 0.0518781 0.32873526 0.13028014
000080 40 48 65 be e0 10 77 bb a0 cf f1 bd bc 35 d2 3b
       -0.22390842 -0.0037699267 -0.118071795 0.006415097
000090 c9 3a 61 be e7 6b a0 be 9b 28 cc 3d 78 51 2d 3d
       -0.21995081 -0.31332323 0.099686824 0.042314023
0000a0 78 5d 3d be 8a b5 4d be 8c 6a a5 be 6c 1a a3 3d
       -0.18492687 -0.20088783 -0.3230785 0.07964024
0000b0 36 eb 28 be bd 05 d9 3e d5 a1 9d 3e 36 9a a3 3d
       -0.16495976 0.4238719 0.3078753 0.07988398
0000c0 b0 a9 8f 3e 67 14 93 3e ac 39 38 3e 78 57 3e 3e
       0.2805915 0.28726503 0.1799075 0.18588054
0000d0 45 21 95 3d 01 80 ca bc 8a 72 05 be 9b b1 d7 3d
       0.07281736 -0.02471924 -0.13031974 0.105319224
0000e0 52 56 13 be ff 57 43 bb 38 e7 77 3e b5 7e 46 3e
       -0.14388397 -0.0029807088 0.24209297 0.19384272
0000f0 ce 92 ee bd 99 49 ab be 44 09 90 bd ea 4c e3 3d
       -0.116490945 -0.33454588 -0.07033017 0.110986546
000100 03 7b 0c 3d 86 8b c8 3c 40 e1 90 be 80 8b 99 bd
       0.034297 0.024480592 -0.28296852 -0.07497311
000110 25 9a 0e 3e b7 ad 63 bd aa 4e 2a 3e 08 35 1f bd
       0.13925989 -0.05558559 0.1663157 -0.038868934
000120 ae 18 b4 bd 01 5f 0d 3e 31 b0 93 bd 1c 21 20 3c
       -0.0879377 0.13805772 -0.0721134 0.009773519
000130 be e7 37 bc 5c bd ee bc 86 5a 91 3d 82 ae 1f bd
       -0.011224685 -0.029143028 0.07097344 -0.038984783
000140 30 8a 66 bc 85 2a a5 3d a2 55 43 3e d7 98 18 3e
       -0.014071032 0.080647506 0.19075635 0.14902054
000150 cd 1e 84 3e bb 40 1a bd dc 39 e3 3d 9c 4e 50 3e
       0.2580475 -0.037659388 0.1109502 0.20342487
000160 3a 83 66 ba 6b 05 18 bd ff 69 86 3e d8 b6 d9 3d
       -0.0008793358 -0.037114542 0.26252744 0.10630578
000170 cd 69 e4 3d 05 cd 79 3d 8b 65 48 bd 07 05 ca 3c
       0.111529924 0.060986537 -0.048924964 0.0246606
000180 b4 67 92 3d b1 1b c4 3c 55 19 80 be e5 86 c5 bd
       0.07148686 0.023938986 -0.25019327 -0.0964487
000190 0f c4 07 be 51 25 04 be f6 5b 72 be f9 5f c4 bd
       -0.13258384 -0.1290486 -0.23667893 -0.09588618
0001a0 39 e9 19 be e8 aa ce bd d7 ec 30 be cc 9b 85 bd
       -0.15030374 -0.100911915 -0.17277847 -0.065238565
0001b0 f8 b1 d2 bd 03 f6 41 be dc c7 33 bc e5 cb 22 be
       -0.10287851 -0.18941502 -0.010972943 -0.15898092
0001c0 69 95 55 be 3e 84 ca bd ac e8 76 be 4c b5 fc bd
       -0.20857777 -0.098885044 -0.24112195 -0.12339267
0001d0 37 b2 33 be 45 13 16 be 10 62 21 be 15 1d 78 bd
       -0.17548452 -0.14655788 -0.15760064 -0.06057461
0001e0 5c 81 01 3e 44 d8 ad 3d 6e 25 92 bd 93 a9 9f bc
       0.12647003 0.08488515 -0.071360454 -0.019490039
0001f0 73 40 af bd 9e 82 21 3d 4c 2a 4e 3d e5 47 91 3d
       -0.085572146 0.039431207 0.050333306 0.07093791
000200 e0 3d 81 bd 90 ec 85 bd f4 88 fc 3c dd a5 3b 3e
       -0.0631063 -0.06539261 0.030827023 0.1832499
000210 84 6c ed 3b a9 00 46 be cd ae db bd 8d 45 53 3d
       0.007245602 -0.1933619 -0.107267 0.05158
000220 ae 2b 95 3e 2d 47 0c 3e c0 90 29 bb f5 87 e6 3d
       0.29134887 0.13699026 -0.0025873631 0.112564005
000230 3a 10 97 bc 28 77 26 3e e4 9f 05 3e 04 41 db bd
       -0.018440355 0.16256392 0.13049275 -0.1070576
000240 46 f9 53 bd d0 bb da bc 2a 8d 41 be 67 7e 13 be
       -0.051751398 -0.026700884 -0.18901506 -0.14403687
000250 ba 94 41 be 60 59 d6 bd 95 e7 98 3d 9e ed 1e be
       -0.18904391 -0.10466266 0.07466046 -0.15520331
000260 3c e4 05 3e 42 30 32 3e 3e 91 24 3c 7a 79 8b bd
       0.13075346 0.17401221 0.010044394 -0.06810279
000270 92 5b e4 bc de 25 ef bd b7 ba 9c bd 50 f7 cd bd
       -0.027875695 -0.116771445 -0.076528005 -0.10056937
000280 1b 7f 45 3e 26 00 23 3d 31 91 b2 3d e9 0c c9 3d
       0.19286768 0.039795063 0.08719099 0.098169155
000290 1c 43 3c 3e 05 de c9 bd 80 09 d8 3d 7d 0a 0d 3e
       0.18384975 -0.098568 0.10548687 0.13773532
0002a0 bb 38 28 be 88 94 4b 3d ad 6b da bd 56 cf e4 bd
       -0.16427891 0.049702197 -0.10665069 -0.11172359
0002b0 99 6b 20 be 3e 35 0c be 16 b8 e1 3c de 7f 6a 3e
       -0.15666045 -0.13692185 0.0275536 0.2290034
0002c0 f3 53 1a 3e 33 ab ea bd ae eb 84 bc f5 d1 e4 bd
       0.15071087 -0.11458435 -0.016225662 -0.111728586
0002d0 ad 4a 87 3e c2 7c 33 3d ed 7d 0a 3d 98 8d 8e 3e
       0.2642416 0.04382015 0.0338115 0.27842402
0002e0 fc 1f 97 3e 40 da 6c be 40 ef 05 bf 5a 82 ac be
       0.2951659 -0.23130131 -0.5231819 -0.336932
0002f0 cf 07 c3 bd 1d cd 27 bd d4 dc 8c 3c b3 40 19 bd
       -0.09522974 -0.040967096 0.017195143 -0.037415218
000300 56 47 cf bd 81 40 25 3e 12 b2 dd bd 43 54 3f 3e
       -0.10121028 0.16137888 -0.1082498 0.18684487
000310 fc 47 22 3e 1c 45 de 3d 6b 92 15 3e 55 bb 34 3e
       0.15847772 0.10853025 0.14606635 0.17649586
000320 22 37 c1 bd 2b c5 b7 bd 19 d2 14 bc 96 94 5d 3e
       -0.09434344 -0.08973154 -0.009083294 0.21638712
000330 70 43 18 3e 90 d5 4e 3d 8b 1c 33 be ed 0c 4f bc
       0.14869475 0.050496638 -0.17491357 -0.012637359
000340 38 23 f8 3d e0 a0 bb 3d 0e cc 2f be 7c 0d a8 be
       0.121160924 0.09161544 -0.17167684 -0.32822788
000350 e9 1d 23 be 80 0d df 3d 8a 63 87 3d c8 70 05 be
       -0.15929379 0.10891247 0.066107824 -0.13031304
000360 ea fd 1c be 39 86 cd bd 43 fb 8a bd 43 69 be bd
       -0.15331236 -0.100353666 -0.067862056 -0.09297421
000370 c0 c7 33 3e c2 df c9 3d fd ed 28 3e 7f cc 4b 3e
       0.17556667 0.098571315 0.16497035 0.19902228
000380 28 59 a6 3d dd 3b 33 3e c4 ce ab 3d 30 c4 77 3d
       0.08122474 0.17503305 0.08389047 0.060489833
000390 2c 71 20 bb f7 4c 1d bd c8 ea eb 3d 69 61 dc bd
       -0.0024481518 -0.038403478 0.1151939 -0.10760767
0003a0 f1 96 82 bd 85 02 12 3e 2b 48 e4 3d bf 7e c4 bc
       -0.06376446 0.14258774 0.111465774 -0.023986218
0003b0 d5 6e 11 be 00 b8 83 be 61 a0 0a 3e ff 8c d5 3d
       -0.14202435 -0.25726318 0.13537742 0.104272835
0003c0 11 23 10 be 98 95 2f be 0c 9e 83 bd 00 b5 1f 3e
       -0.14075877 -0.17146909 -0.064266294 0.1559639
0003d0 02 5a 04 3d 5c cb e0 3d 05 70 a3 3d 36 da be bd
       0.0323124 0.10976288 0.079803504 -0.09318964
0003e0 47 51 91 3d b6 b8 2c 3d cb 8f 58 3c 06 23 b4 3d
       0.070955805 0.04216834 0.013217877 0.08795743
0003f0 b9 18 1c 3d db 5c 64 3b d9 57 91 bd 1b c5 0e 3d
       0.038109515 0.0034845385 -0.07096834 0.034855943

bias f4 [10]
000000 05 56 5a 3e 29 54 bf 3b d5 7f e0 bd 52 37 07 3e
       0.21321876 0.00583889 -0.10961882 0.13204697
000010 b4 6a 0f 3e 8f 11 5c 3e f8 22 bf 3d ac 01 59 be
       0.14005548 0.21491073 0.09332842 -0.21192044
000020 8b bf 8c 3d a8 2d a7 3d
       0.068724714 0.08163005

weight f4 [810]
000000 a4 1f 7f 3f 12 27 2f 3f 2f 32 ce 3e 7c 19 59 3f
       0.99657655 0.6841899 0.40272662 0.8480451
000010 05 12 a1 3f d3 8d 5a 3f 92 77 1d 3f 92 20 36 3f
       1.2583624 0.85372657 0.61510575 0.7114345
000020 11 9a b1 3f 70 e0 3f 3f e7 c2 64 3f 46 3a 27 3f
       1.3875142 0.7495184 0.893599 0.65323293
000030 e1 aa 42 3f b9 da 62 3f e8 13 00 3f 6a 45 2b 3f
       0.7604199 0.88614994 0.50030375 0.6690279
000040 36 cc ae 3f 27 5a b1 3f 28 30 6e 3f ae a6 65 3f
       1.365607 1.3855637 0.9304223 0.8970746
000050 c5 77 37 3f 34 f9 0f 3f c5 92 98 3f 63 35 4a 3f
       0.7166713 0.5623963 1.191979 0.7898771
000060 e3 42 48 3f a5 66 a7 3f e6 db cc 3f 8f 8a 4d 3f
       0.7822706 1.30782 1.6004608 0.8028955
000070 7b b6 38 3f 92 26 43 3f 4b 86 34 3f f9 83 3a 3f
       0.72153443 0.7623073 0.70517415 0.72857624
000080 38 1a 15 3f bd 2f 07 3f d0 46 23 3f 76 ae 86 3f
       0.5824313 0.5280722 0.63779926 1.0521991
000090 1b 71 50 3f 95 b1 6f 3f c6 39 5e 3f d2 dc 2f 3f
       0.81422585 0.93630344 0.86806905 0.6869632
0000a0 36 44 69 3f 51 9c 7b 3f a2 da 33 3f 86 e4 34 3f
       0.91119707 0.98285395 0.7025548 0.706612
0000b0 48 0f 55 3f 41 ee 8f 3f cd 8e 0a 3f 34 5f 33 3f
       0.8322644 1.1244584 0.54124147 0.70067143
0000c0 c5 b1 81 3f d6 35 82 3f 80 84 d1 3e 69 bf 3d 3f
       1.0132376 1.017268 0.40921402 0.74120194
0000d0 c3 b6 45 3f ba ef 48 3f 9c 77 48 3f 5b 4f 09 3f
       0.77232 0.78490794 0.7830751 0.5363671
0000e0 75 03 73 3f c2 fb b7 3e 73 c1 6d 3f ef 6a 82 3f
       0.9492715 0.35934263 0.92873305 1.0188884
0000f0 3c 8c 4c 3f 25 2c 84 3f 44 1f 85 3f b2 be 37 3f
       0.7990148 1.0325972 1.0400167 0.7177535
000100 e7 1d b8 3f 74 b2 1d 3f 8a ab 73 3f 22 a9 2b 3f
       1.4384125 0.6160042 0.9518362 0.6705495
000110 86 46 18 3f 52 42 48 3f c3 48 4a 3f 47 2a 8e 3f
       0.5948261 0.78226197 0.79017276 1.1106652
000120 bb 50 47 3f 6c c6 1a 3f 17 f1 35 3f 33 75 55 3f
       0.7785756 0.6045902 0.71071 0.83381957
000130 99 f1 50 3f d4 2c 85 3f a1 82 47 3f dc 8c 76 3f
       0.8161865 1.0404305 0.779337 0.96308684
000140 2d 53 6e 3f c0 64 7c 3f e1 d5 88 3f c8 1a 70 3f
       0.93095666 0.9859123 1.0690271 0.93790865
000150 89 ab 8f 3f f1 34 80 3f 68 5e 0f 3f 82 a1 80 3f
       1.1224223 1.0016156 0.5600343 1.0049288
000160 f4 1c 3b 3f 8e bb 33 3f 8b bc 47 3f a2 9f 74 3f
       0.73091054 0.7020806 0.7802207 0.9555608
000170 73 6d 70 3f 2b a2 70 3f 13 70 75 3f 26 11 33 3f
       0.93917006 0.9399745 0.95874137 0.6994804
000180 5a f8 4e 3f 77 86 3d 3f 67 49 54 3f 66 4f 5e 3f
       0.80847704 0.740333 0.82924503 0.868399
000190 af 52 08 3f 88 c5 3c 3f e0 a5 fc 3e 91 74 5e 3f
       0.53251165 0.7373891 0.49345303 0.86896616
0001a0 df 3a 14 3f de 35 76 3f e3 c0 85 3f 5c 90 27 3f
       0.5790233 0.96175945 1.0449489 0.6545465
0001b0 d8 48 43 3f 35 39 f9 3e 77 b6 6e 3f 6c 89 08 3f
       0.76283026 0.48676458 0.9324717 0.5333469
0001c0 95 14 1f 3f a7 3f 3a 3f bf 14 87 3f 87 0f 7a 3f
       0.6214078 0.72753376 1.0553206 0.9767994
0001d0 e0 bf 3b 3f b2 30 7b 3f 9b 95 34 3f d2 32 36 3f
       0.73339653 0.9812118 0.7054078 0.71171296
0001e0 22 5f 18 3f f1 3c 42 3f 6f f2 64 3f e5 27 85 3f
       0.5952016 0.7587424 0.89432424 1.04028
0001f0 53 7f 3c 3f 37 d1 89 3f da 0e 9a 3f ef f0 6c 3f
       0.7363178 1.0766972 1.2035782 0.92555135
000200 41 c9 15 3f 8e 0c 58 3f 49 9a 6e 3f 82 60 62 3f
       0.58510214 0.84394157 0.9320417 0.8842851
000210 26 a8 57 3f d6 b0 4b 3f 63 e2 51 3f 7c d2 02 3f
       0.8424095 0.79566705 0.81986064 0.51102424
000220 0d af 0a 3f 5b db 42 3f 57 eb 1e 3f be d5 90 3f
       0.54173356 0.7611596 0.6207785 1.1315229
000230 f6 ac 95 3f 26 1a 8e 3f 6d 8e 78 3f cd 96 8f 3f
       1.1693408 1.110173 0.97092324 1.1217896
000240 a1 d3 59 3f 5e 79 53 3f db 3d 3f 3f a6 59 6d 3f
       0.85088545 0.82607067 0.7470376 0.9271492
000250 b0 87 4e 3f 14 44 2c 3f ce 0d 2c 3f 48 c9 3e 3f
       0.8067579 0.6729138 0.67208564 0.7452588
000260 19 60 91 3f a6 41 8d 3f 10 8b 21 3f 1c f0 d5 3e
       1.1357452 1.1035659 0.6310282 0.4178475
000270 9d dc 6b 3f e7 1d 83 3f 78 00 1a 3f d2 4f 12 3f
       0.92133504 1.02435 0.60156965 0.57153046
000280 50 0a 67 3f d7 27 65 3f a1 79 7e 3f d9 79 84 3f
       0.9025011 0.89513916 0.9940434 1.0349685
000290 73 33 85 3f a7 77 4e 3f 79 2a 46 3f 51 7b 69 3f
       1.0406326 0.80651325 0.7740856 0.9120379
0002a0 36 e0 61 3f 5b d4 36 3f b6 6a 9c 3f 56 b6 8d 3f
       0.88232744 0.7141778 1.2220066 1.107127
0002b0 1b 51 5a 3f c4 4e 4a 3f 8f 41 42 3f 66 3e 27 3f
       0.8528001 0.79026437 0.75881284 0.6532959
0002c0 7a 89 64 3f c5 92 8c 3f 01 55 29 3f 0b 63 8d 3f
       0.8927227 1.098229 0.6614533 1.104585
0002d0 a2 3b 86 3f 53 26 72 3f 66 95 5a 3f 8d dd 43 3f
       1.0486948 0.9458973 0.85384214 0.76509935
0002e0 5c 45 4e 3f 72 ac 5d 3f ec a1 79 3f 89 5f 24 3f
       0.80574584 0.86591256 0.975127 0.64208275
0002f0 25 97 80 3f c7 c5 82 3f 14 b2 21 3f 4f 25 12 3f
       1.0046126 1.0216607 0.6316235 0.5708818
000300 b2 2e 43 3f 19 df 7e 3f 83 95 80 3f 5e e0 54 3f
       0.76243126 0.9955917 1.0045627 0.8315486
000310 c2 95 75 3f 44 d3 4c 3f f8 de 6f 3f a1 83 85 3f
       0.9593164 0.80009866 0.936996 1.0430795
000320 d5 f8 3a 3f e5 1f 76 3f fb d4 91 3f ba 5c 8a 3f
       0.7303594 0.9614242 1.1393121 1.0809548
000330 2b d0 1e 3f 7c ea 84 3f 72 d3 5e 3f 07 38 2f 3f
       0.6203639 1.0384059 0.8704139 0.68444866
000340 d1 20 30 3f 1e 35 23 3f 3a 1a 2a 3f 96 89 71 3f
       0.68800074 0.63752925 0.6644627 0.94350564
000350 76 e1 e2 3e 0b 5c 22 3f 83 3a 3b 3f 7c 2b 9a 3f
       0.44312638 0.63421696 0.73136157 1.204452
000360 19 8c 47 3f bf 56 5e 3f ec 2d 0d 3f 61 3a 58 3f
       0.7794815 0.86851114 0.55148196 0.8446408
000370 14 1c 33 3f 93 a7 f2 3e 64 98 3c 3f 8f be d6 3e
       0.6996472 0.47393474 0.7367003 0.4194226
000380 94 97 66 3f ab 47 57 3f ab 23 73 3f e9 6e 36 3f
       0.9007504 0.8409373 0.949763 0.71262985
000390 21 d5 67 3f 14 94 3b 3f 1c 63 4a 3f 4a d2 95 3f
       0.90559584 0.73272824 0.7905748 1.17048
0003a0 69 71 e0 3e 08 c5 28 3f 08 29 7d 3f 2a 33 0b 3f
       0.43836525 0.65925646 0.98890734 0.54374945
0003b0 3e 22 64 3f 26 1b a2 3f f2 f1 91 3f 53 65 64 3f
       0.8911475 1.2664535 1.1401961 0.8921711
0003c0 f9 ac 63 3f f9 37 aa 3f 51 bf 73 3f 91 da 44 3f
       0.8893581 1.3298331 0.952138 0.76896006
0003d0 7e a5 69 3f 54 b2 79 3f db a9 8b 3f ca 7c 90 3f
       0.91268146 0.9753773 1.0911211 1.1288083
0003e0 48 c2 3a 3f 84 8c 7a 3f fa fc 3d 3f c4 ce 65 3f
       0.729527 0.9787066 0.74214137 0.89768624
0003f0 9c 4b 71 3f 3d ce 99 3f f5 97 83 3f e9 cb 6b 3f
       0.94255996 1.2016064 1.0280749 0.9210802

bias f4 [810]
000000 de 17 9f 3d 7f 34 0f bf c0 4e b5 bd 62 00 8a 3e
       0.07768224 -0.5593948 -0.08852911 0.26953417
000010 b1 d8 21 3f 34 a1 d5 3e db 3e 4b bf a3 9c 03 bf
       0.6322127 0.4172455 -0.79392785 -0.51410884
000020 29 e5 8d be 34 c2 2f 3f 8f b1 44 3e c5 06 48 3f
       -0.27713898 0.68655705 0.19208358 0.7813533
000030 75 6e 26 3f cb 50 f0 3e df 11 3e 3f b7 91 31 3c
       0.65012294 0.4693664 0.7424602 0.010837964
000040 6f c6 25 be d7 29 bd bd 13 1b 22 be 51 03 1b 3f
       -0.16188978 -0.09236496 -0.1583064 0.60551935
000050 32 89 30 3f 5e 1e 3d 3f 09 23 3a 3f a5 2d 3d 3f
       0.68959343 0.7387446 0.7270971 0.73897773
000060 64 55 4f 3f e2 c3 d5 be b4 34 5c be 83 8d 71 3e
       0.8098967 -0.4175101 -0.2150448 0.23589139
000070 ff 16 63 3f a0 10 74 3f b7 3e 2b 3f b2 3c 4b 3f
       0.88706964 0.9533787 0.6689257 0.7938949
000080 2e ec 51 3f 26 89 59 3f 1b 25 2c 3f 47 3d e1 3d
       0.82001007 0.84974897 0.6724412 0.10998016
000090 2c ad 90 3e 7c 07 4e 3f cf 31 1b 3f a3 59 3e 3f
       0.2825712 0.8048017 0.60622877 0.74355525
0000a0 49 f5 0e 3f c6 64 b8 3e 70 5c 26 3f b8 a7 31 bf
       0.55843025 0.36014384 0.649848 -0.69396544
0000b0 bf 4e 22 bf a1 92 4e 3e ad 53 52 3f af a7 5c 3f
       -0.63401407 0.20173122 0.8215893 0.86193365
0000c0 ed 73 54 3f 29 06 ac 3e 8b e1 cb 3d 1f 84 4f 3e
       0.8298939 0.3359845 0.09955128 0.20265244
0000d0 79 41 3f bf ce 65 02 bf 09 09 4d 3f ee 1f fb 3e
       -0.7470928 -0.5093659 0.8009191 0.49047798
0000e0 36 e7 02 3f f0 1d 1b bb 30 49 b1 3d 37 ef 5d 3f
       0.5113405 -0.0023668967 0.086565375 0.8669314
0000f0 40 20 dc 3e a4 56 6f 3f 5a ae 8b be 1d 64 59 3f
       0.42993355 0.9349158 -0.27281457 0.84918386
000100 50 fc 29 be c9 f0 d9 be 57 4c 11 bf c4 8e 11 be
       -0.16600156 -0.42566517 -0.5675711 -0.14214617
000110 19 e5 00 3f 75 a8 4e bf 2d 33 c6 3e b9 25 eb 3e
       0.50349575 -0.80725795 0.3871092 0.45927218
000120 f5 39 82 bd 31 1b f0 be 54 07 bb bc be 7c 5e 3f
       -0.06358711 -0.46895745 -0.022830643 0.8690909
000130 c0 65 cd bd ae 56 49 3f 4c 58 44 be 8d a1 ac 3e
       -0.10029173 0.7864789 -0.19174308 0.33717003
000140 45 c4 48 bd a6 49 8b 3e 19 5e b9 3e b1 3b b4 3e
       -0.049015302 0.27204627 0.36204603 0.3520179
000150 52 47 d1 3e 14 d1 0f 3f 59 3a 10 bf b9 80 04 bf
       0.40874726 0.561784 -0.5633903 -0.51758915
000160 40 db 11 bf c1 73 23 bf 97 bb ff bd 8d 2c ee bc
       -0.56975174 -0.638485 -0.12486952 -0.029073978
000170 30 56 f7 3e 85 d0 d9 3e 64 0c 34 3f 2b ca 3d bf
       0.48307943 0.425419 0.70331407 -0.7413661
000180 9f 2e 3f bf 8e 0f 48 bf f9 cb 27 bf 8d ca 06 3f
       -0.74680513 -0.78148735 -0.6554561 0.5265282
000190 68 00 e0 be 86 e7 ee be ce 35 5e bf ee 97 1c 3f
       -0.4375031 -0.46661013 -0.8680085 0.61169326
0001a0 3e 42 3e 3d c3 b4 9a be a1 f7 1b bf 87 7e 83 be
       0.046449892 -0.30216035 -0.60924727 -0.2568247
0001b0 17 47 4c 3f 79 3e 4f bf 00 af 26 bf 32 3e 43 bf
       0.79795974 -0.809547 -0.6511078 -0.7626678
0001c0 9a 3e 33 bf c7 71 a2 be 26 3b 8f be 65 24 a0 be
       -0.700174 -0.3172743 -0.27974814 -0.31277767
0001d0 de 85 36 3f 2d c1 11 bf b6 04 26 bf 56 b8 3e bf
       0.71298015 -0.5693539 -0.6485094 -0.74500024
0001e0 00 28 60 bf 85 a7 3e bf 95 36 33 bf 41 1f 2e bf
       -0.87561035 -0.74474365 -0.7000516 -0.6801644
0001f0 ec e9 1e bf ac bf 41 3f 25 1c f0 be 72 28 3a bf
       -0.62075686 0.75683093 -0.46896473 -0.72717965
000200 b5 a5 3b bf c3 09 38 bf e3 f4 23 bf 70 92 e4 be
       -0.73299724 -0.71889895 -0.6404554 -0.44642973
000210 92 5d 6a bf 0d f4 fd be 97 63 a2 be fb b3 2a bf
       -0.91549027 -0.49600258 -0.31716606 -0.6668088
000220 ee 56 1e bf 01 f7 23 bf 02 bb 28 bf fa d8 6b be
       -0.61851394 -0.64048773 -0.6591035 -0.23031989
000230 d8 3b ca be cd 84 30 bf 1a 8d 02 bf 36 c7 9e be
       -0.39498782 -0.6895264 -0.50996554 -0.3101136
000240 a1 4f 23 3f 2a 2c 88 bd 95 88 07 bf 60 51 18 bf
       0.6379338 -0.066490486 -0.5294278 -0.5949917
000250 ca ce cb be 54 2c 67 bf bc 4e 2a bf 6e 2a 38 bf
       -0.39806205 -0.90302014 -0.6652639 -0.7193974
000260 69 a7 ad be 68 a0 dd be 91 b9 a8 be b3 73 b6 be
       -0.33916786 -0.43286443 -0.32954076 -0.35635146
000270 1b 12 fe be e2 02 31 bf 7f db 88 3e 75 04 34 bf
       -0.49623188 -0.69145024 0.26729962 -0.703193
000280 eb c4 43 3f 02 72 04 bf bc fc 86 3d 32 88 d9 3e
       0.7647235 -0.5173646 0.06591174 0.4248672
000290 93 5c ff 3e 3f 22 29 3f 33 3d 06 3f 99 08 19 bf
       0.49875316 0.6606788 0.5243713 -0.59778744
0002a0 45 e3 47 bf 2e af 39 bf 3b 5e 41 bd 40 d4 6e 3e
       -0.7808116 -0.7253293 -0.047209006 0.23323154
0002b0 a8 60 c2 bd a9 7c b3 3e e3 a3 5e 3f f8 97 57 3f
       -0.09491092 0.35056046 0.8696882 0.8421626
0002c0 09 65 5d be 65 ce 7a be b4 1f 2b bf f5 05 09 bf
       -0.21620573 -0.24492796 -0.6684525 -0.53524715
0002d0 7c 42 a9 3d 28 fb 54 bf e0 84 27 bf e5 d1 04 bf
       0.08264634 -0.83195734 -0.65437126 -0.51882774
0002e0 5f b3 53 3f 5e f1 53 bd e2 4b 85 be 2b ba 1d bf
       0.82695574 -0.051743858 -0.26034456 -0.61612195
0002f0 34 df 8e 3e 5c 54 e4 3e 22 f2 20 bf 4b 47 4e bf
       0.27904665 0.4459561 -0.62869465 -0.80577534
000300 d9 c2 62 be 66 1c 82 be 7b f1 8a be 25 03 0b bf
       -0.22144641 -0.2541229 -0.2713736 -0.54301673
000310 c5 a0 e6 3e 30 3e 2f 3f db 14 32 bf a0 93 2a bf
       0.45044532 0.68454266 -0.6956307 -0.6663151
000320 c3 c7 53 bf d7 97 11 bf e2 d2 c9 be 7d c9 d6 be
       -0.8272669 -0.56872314 -0.39418703 -0.41950598
000330 bd cc b4 3d 55 b2 2a 3f ae 48 2b 3f 7c c4 3a bf
       0.08828113 0.66678363 0.66907775 -0.7295606
000340 d4 fa 2e bf b4 c4 55 bf 6d d2 4e 3f 16 7a 7e 3e
       -0.68351483 -0.8350327 0.80789834 0.2485126
000350 67 b5 a9 bd 14 23 4c bf 20 f6 28 bd ad 60 a3 be
       -0.08286553 -0.79741025 -0.041250348 -0.31909695
000360 67 d6 f4 bd 22 99 87 be 64 3e 09 bf b5 f9 63 3f
       -0.119549565 -0.2648402 -0.53610826 0.890529
000370 f5 d1 e7 3e fb b2 5d 3e 50 85 05 bf a0 48 0a bf
       0.45277372 0.21650307 -0.52156544 -0.54017067
000380 48 af 44 bf 2a eb 04 bd 67 b6 b7 3e 41 26 04 3f
       -0.7682996 -0.032450832 0.3588135 0.5162087
000390 db 55 c3 3e 13 22 8f 3e 2d 0b 43 3e b7 a6 18 3f
       0.3815144 0.27955684 0.19047232 0.59629387
0003a0 16 91 0d bf 8f eb ec be bd ec 69 be 7e e2 15 3f
       -0.5529951 -0.46273467 -0.22844215 0.58548725
0003b0 44 a1 7e 3d b8 6f 0a bf 55 d8 10 bf 6f 62 60 3e
       0.062165514 -0.5407672 -0.56580096 0.2191255
0003c0 59 ca 91 3d a8 30 21 bf 92 31 f4 be bb 8e c6 3e
       0.07118673 -0.6296487 -0.4769407 0.3878077
0003d0 d5 74 c8 3e c7 43 a8 3e 8f a9 e6 3e fa 9a 98 3e
       0.39151636 0.3286421 0.45051238 0.29805738
0003e0 e4 90 57 be a5 4e 01 bf 64 b0 35 be 56 31 ab be
       -0.21051365 -0.5051063 -0.17743069 -0.33436078
0003f0 06 5a 87 3e 2c 53 fc 3d ee cb 7a be 0a 6b 80 be
       0.2643587 0.12320551 -0.24491856 -0.25081664

running_mean f4 [810]
000000 29 e2 f8 40 17 15 f5 40 03 8b f0 40 0f 58 f6 40
       7.7776074 7.6588244 7.516969 7.6982493
000010 48 a3 f7 40 c7 1e f4 40 f4 18 fc 40 a2 e3 f0 40
       7.738682 7.628757 7.878046 7.527787
000020 df de fa 40 97 22 ff 40 97 81 00 41 01 35 fb 40
       7.839706 7.9729724 8.031638 7.85022
000030 15 2c fb 40 65 9a fb 40 41 3c 01 41 5c 51 03 41
       7.849131 7.862597 8.07721 8.207363
000040 ef 19 01 41 50 b3 ff 40 1d ee fb 40 a4 d4 00 41
       8.068831 7.9906387 7.8728166 8.051914
000050 90 af fa 40 40 5a 02 41 1f b9 00 41 a0 fe 03 41
       7.833931 8.147034 8.045196 8.249664
000060 82 26 04 41 5f b0 fd 40 f2 39 03 41 f7 d5 03 41
       8.259401 7.9277797 8.201647 8.2397375
000070 40 f8 00 41 cf d3 f5 40 ed 3f fd 40 97 73 f7 40
       8.060608 7.6821055 7.9140534 7.73286
000080 ba d6 ff 40 10 ef 00 41 7e ee f6 40 1f 82 fd 40
       7.9949617 8.058365 7.716613 7.922134
000090 8b 31 fe 40 4a fe fa 40 dc ff ff 40 67 4c 01 41
       7.9435477 7.843541 7.999983 8.081153
0000a0 38 83 fb 40 f0 40 fb 40 11 46 05 41 4c c9 02 41
       7.859768 7.851677 8.329606 8.174145
0000b0 70 af fd 40 34 3f 01 41 a9 4f 00 41 61 88 f6 40
       7.9276657 8.07793 8.019448 7.704148
0000c0 a2 bf ef 40 ef 35 ee 40 40 85 f6 40 5f 61 03 41
       7.4921427 7.4440837 7.703766 8.211272
0000d0 84 4d 00 41 9e 72 f4 40 3e 7f 00 41 2b 62 fd 40
       8.018925 7.6389914 8.031065 7.9182334
0000e0 ff 7e f9 40 37 57 02 41 59 1a 00 41 d1 45 00 41
       7.7967525 8.146293 8.006433 8.017045
0000f0 5a e5 ff 40 12 83 00 41 4a e1 02 41 ce 7b f7 40
       7.996747 8.032 8.180002 7.733863
000100 d0 4d f3 40 90 a5 fd 40 0e 16 fb 40 30 4e f7 40
       7.6032486 7.9264603 7.846442 7.7282944
000110 cb 1f fe 40 f0 0d fd 40 a7 e0 f8 40 32 0a f6 40
       7.941381 7.9079514 7.7774234 7.6887445
000120 ed df fd 40 a5 75 fb 40 ea 2a fb 40 0a 0d fb 40
       7.9335847 7.858111 7.8489885 7.8453417
000130 1d 71 f6 40 8a fa ef 40 a4 ba f6 40 39 a3 f7 40
       7.701308 7.4993334 7.7102833 7.7386746
000140 77 5a fa 40 e8 1d 9e 40 32 8f 96 40 ee 6a 95 40
       7.823543 4.9411507 4.70498 4.669303
000150 7c a1 9e 40 1f 9c a3 40 9b 94 a9 40 74 05 b2 40
       4.9572124 5.1128078 5.2993903 5.5631657
000160 bd 5b b2 40 8a 27 b0 40 5d 17 92 40 36 f9 8b 40
       5.5736985 5.5048265 4.565352 4.3741713
000170 b0 fa 87 40 9b 26 91 40 23 13 94 40 32 3b a1 40
       4.2493515 4.5359626 4.627336 5.038476
000180 f1 3c ae 40 bb 90 a7 40 f2 cc a0 40 81 4c 8f 40
       5.444939 5.2364173 5.0250177 4.478089
000190 16 88 89 40 27 d8 8b 40 a5 05 97 40 18 4e 9a 40
       4.297862 4.370136 4.719439 4.822033
0001a0 ba 6d a1 40 26 66 a4 40 f8 b2 94 40 8a 33 98 40
       5.0446444 5.1374693 4.646847 4.7562914
0001b0 88 c4 9c 40 51 06 99 40 53 71 99 40 b4 02 a4 40
       4.8989906 4.782021 4.7950835 5.12533
0001c0 da 6b 9e 40 1f 70 9e 40 e7 b3 9f 40 d0 f7 95 40
       4.9506655 4.9511867 4.9907107 4.6865005
0001d0 0a 02 98 40 4e 62 9d 40 99 7e 97 40 7c ea 9e 40
       4.750249 4.91825 4.734204 4.9661236
0001e0 89 89 a3 40 43 ca 9f 40 3d dc a0 40 a6 24 a1 40
       5.110539 4.99344 5.0268846 5.0357237
0001f0 78 35 9d 40 fb 56 9c 40 78 c4 9f 40 da 0f 9d 40
       4.912777 4.8856177 4.992733 4.908185
000200 e9 2e a1 40 e4 e6 a1 40 00 1b 9f 40 7a 19 a3 40
       5.0369763 5.059435 4.972046 5.09686
000210 4d a1 9f 40 4c ef 9c 40 64 de 9e 40 04 cd 9d 40
       4.98844 4.904211 4.9646473 4.9312763
000220 97 e7 9a 40 18 ad 95 40 b6 d8 99 40 78 88 99 40
       4.8407702 4.6773796 4.807704 4.797909
000230 f9 0d 9c 40 8f 49 93 40 84 68 8b 40 e6 15 96 40
       4.8767056 4.6027293 4.3565083 4.690173
000240 b3 62 97 40 86 b1 8e 40 2e 5d 91 40 4f ea 95 40
       4.7307982 4.4591703 4.5426245 4.684852
000250 bb 71 98 40 a3 6e 9d 40 30 c7 91 40 4d 46 8c 40
       4.763883 4.9197555 4.555565 4.3835816
000260 db d8 92 40 5f 48 90 40 a8 2d 8b 40 b4 60 90 40
       4.5889716 4.5088344 4.3493233 4.5118046
000270 e2 18 92 40 a2 8a 95 40 2f da 96 40 89 08 9e 40
       4.5655375 4.673173 4.7141337 4.938542
000280 1c 16 97 40 79 be 91 40 c8 74 17 41 c0 7e 18 41
       4.721449 4.554501 9.466011 9.530945
000290 f6 70 18 41 00 12 17 41 91 26 19 41 c0 30 1b 41
       9.527578 9.441895 9.571916 9.699402
0002a0 43 7b 1d 41 84 45 1d 41 d8 74 19 41 4c ac 1f 41
       9.842593 9.829472 9.591026 9.979565
0002b0 eb 37 23 41 35 c6 21 41 d4 eb 1d 41 3c 7f 1a 41
       10.201152 10.11089 9.870075 9.656063
0002c0 87 be 18 41 c8 35 1c 41 dc c8 1c 41 32 75 19 41
       9.546515 9.76313 9.799038 9.591112
0002d0 23 01 23 41 ba db 21 41 8d 97 1e 41 6b 40 1c 41
       10.1877775 10.116144 9.912 9.765727
0002e0 d2 0c 1d 41 cb 7b 1f 41 78 7b 21 41 95 b3 1d 41
       9.81563 9.967723 10.092644 9.856343
0002f0 52 ac 18 41 b5 96 1a 41 d1 5f 21 41 59 e0 20 41
       9.54207 9.661794 10.085893 10.054772
000300 71 09 22 41 b2 6f 23 41 e8 78 26 41 79 79 2a 41
       10.127305 10.214769 10.404518 10.654656
000310 1c 4c 28 41 67 91 21 41 89 c1 17 41 d7 a4 1e 41
       10.518581 10.097999 9.48475 9.915244
000320 e4 23 24 41 13 8f 21 41 07 18 23 41 8d 29 26 41
       10.258762 10.09743 10.193366 10.385144
000330 ab c3 25 41 a6 0e 26 41 da bd 23 41 61 a8 24 41
       10.3602705 10.378576 10.2338505 10.291108
000340 02 ea 21 41 cf 3b 1e 41 2e d4 1e 41 eb 37 1e 41
       10.119631 9.889602 9.926802 9.888652
000350 86 e5 17 41 ea dd 13 41 f2 fe 16 41 ee b3 1b 41
       9.493536 9.241678 9.4372425 9.731428
000360 83 e2 19 41 94 da 1c 41 01 6e 1d 41 21 15 1c 41
       9.617801 9.803364 9.839356 9.755158
000370 f8 7b 1a 41 f8 5d 13 41 55 db 13 41 ff 19 18 41
       9.655266 9.210442 9.241048 9.506347
000380 6f e5 18 41 8f a2 1d 41 c5 ef 1d 41 c1 19 1d 41
       9.556014 9.852187 9.8710375 9.818788
000390 d0 5a 1b 41 ee ba 18 41 31 fc 19 41 5f d2 1d 41
       9.709671 9.545637 9.62407 9.86386
0003a0 ca 0d 1d 41 41 39 1e 41 2e 85 17 41 f8 2d 19 41
       9.815866 9.888978 9.470015 9.573723
0003b0 66 67 1b 41 62 f9 1b 41 0c 6f 1d 41 83 18 1d 41
       9.712744 9.748384 9.839611 9.818484
0003c0 7a a6 1d 41 c8 79 1e 41 ac ff 1c 41 4f 72 03 41
       9.853144 9.904732 9.81242 8.215407
0003d0 28 55 fe 40 b6 84 f8 40 6e fa fe 40 0d 59 03 41
       7.947895 7.7662 7.96807 8.209241
0003e0 af 77 04 41 b6 ef 07 41 e1 e8 04 41 14 ec 05 41
       8.27922 8.496023 8.306855 8.370136
0003f0 69 52 ff 40 8e c9 fb 40 11 e7 fa 40 54 29 00 41
       7.97881 7.868354 7.8407063 8.01009
