scripts/model_cnn.pt (torch_old, 364849 bytes, 12 tensors)

weight f4 [10, 3, 2, 2]
0	0x3e92c392	0.28664833
1	0xbe87dca3	-0.2653552
2	0x3e5839a1	0.21115734
3	0x3e6076df	0.21920346
4	0xbe3efc23	-0.1865087
5	0xbe94ba75	-0.29048505
6	0xbdbd9987	-0.09257799
7	0xbde76499	-0.11298484
8	0x3deb1c72	0.11480035
9	0x3e3acee8	0.18242991
10	0xbe74d6f5	-0.23910125
11	0x3e430656	0.19045386
12	0xbe5b9454	-0.21443301
13	0x3e121047	0.14264022
14	0xbe372ab8	-0.1788739
15	0xbe8d065e	-0.2754392
16	0xbdc5a2b5	-0.096501745
17	0xbd8d89e0	-0.06911063
18	0x3c8b963b	0.017039409
19	0x3debf775	0.11521808
20	0xbd90ed7b	-0.07076546
21	0xbdb3bb72	-0.08775987
22	0x3e932ef9	0.28746775
23	0x3d786281	0.060640816
24	0x3e89be68	0.2690308
25	0xbd35829e	-0.04431402
26	0x3e86a1b4	0.26295245
27	0x3e3b1876	0.1827105
28	0x3e7fd9b1	0.24985386
29	0x3e158481	0.14601327
30	0xbd872f26	-0.0660079
31	0xbe5969ff	-0.2123184
32	0x3e351fee	0.17687961
33	0x3c5b7b87	0.01339615
34	0x3e61d132	0.22052458
35	0x3dae306e	0.08505331
36	0xbe944eb8	-0.28966308
37	0xbbc170f8	-0.0059033595
38	0x3e203879	0.15646543
39	0x3d3d857e	0.046269886
40	0x3dd413f5	0.10355369
41	0x3caa39be	0.020779487
42	0xbdc5c50c	-0.09656724
43	0xbdeaeff5	-0.114715494
44	0x3e018790	0.12649369
45	0x3e5bcdba	0.21465197
46	0x3e30f76f	0.17281888
47	0x3e39d078	0.18145931
48	0x3d6ee9d2	0.058328457
49	0x3dd27940	0.10277033
50	0x3d3e3fb5	0.046447475
51	0xbd077066	-0.033066176
52	0xbe39e4eb	-0.18153732
53	0xbcc9ef1d	-0.02465015
54	0x3dceae2d	0.10091815
55	0xbe74d72a	-0.23910204
56	0xbe5cd84c	-0.21566886
57	0x3e50f82f	0.20407175
58	0x3e1645e9	0.14675106
59	0xbe481298	-0.19538343
60	0xbe60f3bf	-0.21967982
61	0xbe56903c	-0.20953459
62	0x3e4f2648	0.20229447
63	0xbe886051	-0.26635984
64	0x3d954587	0.07288652
65	0x3e8729e8	0.2639916
66	0xbddce2d8	-0.107854545
67	0x3e4d796f	0.20065854
68	0xbe0717ef	-0.13192724
69	0xbd515455	-0.051105816
70	0xbd88668a	-0.06660183
71	0x3e56ed37	0.20988928
72	0x3db359b2	0.087573424
73	0x3ab6747a	0.0013920211
74	0x3e24256a	0.16029897
75	0x3dd57398	0.104224384
76	0xbe81ee2e	-0.2537703
77	0xbe851613	-0.25993404
78	0xbdc3863a	-0.09547086
79	0x3d9ad047	0.07559257
80	0xbe563fcc	-0.20922774
81	0xbe6e3e88	-0.23266041
82	0xbd3f962f	-0.046774086
83	0x3e1c8cdb	0.15288107
84	0x3e68b060	0.22723532
85	0x3cd03304	0.025414951
86	0xbe2da152	-0.1695607
87	0xbddbf0cb	-0.10739287
88	0xbc3168c4	-0.010828201
89	0x3e91bd7f	0.28464887
90	0xbe4ddb54	-0.20103198
91	0xbe335533	-0.1751297
92	0xbcb9613a	-0.022629369
93	0x3e704406	0.23463449
94	0xbe3fa404	-0.18714911
95	0x3e770992	0.24124745
96	0x3c8ae13a	0.0169531
97	0x3dcade1c	0.09905645
98	0xbc9f08f1	-0.019413443
99	0x3cf76548	0.030199662
100	0xbe43e3bc	-0.19129843
101	0x3e7fb448	0.24971116
102	0xbe0b9f5e	-0.13635013
103	0x3e654474	0.22389394
104	0xbe4d2bca	-0.20036235
105	0x3e14f8ec	0.14548081
106	0xbe38e365	-0.18055494
107	0x3e21d0d1	0.15802313
108	0xbdc68f79	-0.09695334
109	0xbcc35e6e	-0.023848739
110	0x3d50ad2d	0.050946403
111	0xbdee0ea4	-0.11623886
112	0x3df087df	0.11744665
113	0xbe83fee0	-0.25780392
114	0xbe31b4b0	-0.17354083
115	0x3e345bf8	0.17613208
116	0xbe62465c	-0.22097152
117	0xbe1609ad	-0.14652129
118	0x3e970ce5	0.29502025
119	0xbdf42c8d	-0.1192256

bias f4 [10]
0	0x3e736856	0.2377027
1	0xbd3ce55a	-0.046117164
2	0xbd915c97	-0.07097738
3	0xbe3087f2	-0.17239359
4	0xbe94cdb8	-0.290632
5	0x3e712306	0.23548517
6	0x3e1727d8	0.14761293
7	0xbcfd02c0	-0.0308851
8	0x3e72ae40	0.23699284
9	0x3d2a00bb	0.041504603

weight f4 [10, 10, 3, 3]
0	0xbd840557	-0.06446331
1	0xbd4295e3	-0.047506224
2	0xbd7d25ee	-0.06180375
3	0x3d017c01	0.0316124
4	0x3d576179	0.05258319
5	0xbce429b2	-0.027851913
6	0x3da89521	0.08231569
7	0x3c8d3973	0.017239308
8	0xbd435186	-0.04768517
9	0xbd5eee4a	-0.05442647
10	0xbdcc31b8	-0.099704206
11	0x3db57676	0.08860485
12	0xbd1826fa	-0.037146546
13	0xbcc4c731	-0.024020763
14	0x3d36f1c1	0.04466415
15	0xbdca1320	-0.09866929
16	0x3d6fad86	0.058515094
17	0x3d757cbd	0.059933413
18	0x3d1fd79d	0.039023984
19	0x3d5eef1b	0.054427247
20	0xbd3e5d04	-0.046475425
21	0x3d19f221	0.037584428
22	0xbce97411	-0.028497728
23	0x3d9938b9	0.07481522
24	0xbdc20302	-0.0947323
25	0x3d58fbce	0.052974515
26	0x3bff37c5	0.0077886307
27	0xbd1d2711	-0.038367335
28	0xbd9716fa	-0.07377429
29	0x3d9136fa	0.07090564
30	0x3d680827	0.0566484
31	0xbdbe9c27	-0.093071274
32	0xbd9cdfb0	-0.076598525
33	0xbd88cab3	-0.06679287
34	0x3a8570cc	0.0010180711
35	0x3daeb048	0.08529717
36	0xbd813d43	-0.06310513
37	0x3ddcf826	0.10789518
38	0xbcc1bb81	-0.02364898
39	0xbd96eeb7	-0.0736975
40	0xba32ed75	-0.0006825545
41	0x3dba417e	0.09094523
42	0xbd838468	-0.06421739
43	0x3d719b23	0.05898584
44	0xbd4c8732	-0.04993362
45	0x3dbbf945	0.09178404
46	0x3cd9b1e0	0.026574075
47	0x3aa2dba0	0.0012425072
48	0x3d49ff54	0.049315766
49	0xbdc2fcd4	-0.095208794
50	0x3dab63ef	0.0836867
51	0xbd2369b6	-0.039895736
52	0xbd110003	-0.0354004
53	0x3da49052	0.080353394
54	0xbb064f53	-0.0020494058
55	0xbd500d04	-0.050793663
56	0xbda3dde3	-0.08001306
57	0xbdadda97	-0.08488958
58	0xbd44182a	-0.047874607
59	0x3d34a16e	0.044099264
60	0x3dcafe2d	0.099117614
61	0xbd686f83	-0.05674697
62	0x3b6246a1	0.0034526961
63	0xbdc692eb	-0.09695991
64	0x3d7175eb	0.058950346
65	0x3d8d2ef8	0.06893724
66	0x3c1ccf5f	0.0095709255
67	0x3ca82360	0.02052468
68	0xbd9384fc	-0.07203099
69	0x3c9bd8b7	0.019024236
70	0x3d2008f2	0.03907103
71	0x3dd61709	0.10453612
72	0x3cd1646b	0.025560578
73	0x3db7baa7	0.08971148
74	0xbdb64a23	-0.08900859
75	0xbd55e2f8	-0.052218407
76	0xbc52c6e2	-0.0128648
77	0xbcb2f798	-0.021846578
78	0x3cbe5bd0	0.023237139
79	0x3d973a9c	0.07384226
80	0x3db26158	0.08709973
81	0xbcb67103	-0.022270685
82	0xbd858fff	-0.06521606
83	0xbcb15446	-0.02164663
84	0x3c212215	0.009834786
85	0x3cedf574	0.029047705
86	0x3d810497	0.062997036
87	0x3c98d095	0.018654147
88	0x3c8e3aca	0.017362017
89	0xbdc1170d	-0.09428225
90	0x3dc6eaf1	0.0971278
91	0xbd8d8afc	-0.06911275
92	0xbdaa84b9	-0.08326096
93	0x3d8a5ca1	0.06755949
94	0x3d8bbfe7	0.06823712
95	0x3d987fd9	0.0744626
96	0x3ca15417	0.019693417
97	0x3cf9fe32	0.030516718
98	0xbdb5dde3	-0.08880212
99	0x3d5e37e5	0.054252524
100	0x3ca84683	0.020541435
101	0x3dd4a7d8	0.10383576
102	0x3d0a518b	0.03376917
103	0xbd7b3fbc	-0.06134008
104	0x3dc56b76	0.09639637
105	0xbd1c4d81	-0.03815985
106	0x3cdb9c66	0.026807975
107	0xbcf486d8	-0.029849455
108	0x3d4cf907	0.05004218
109	0x3d8a4cc2	0.06752922
110	0x3d61f045	0.05516078
111	0xbd60b2f6	-0.05485817
112	0xbd9d669c	-0.07685587
113	0xbd9479c1	-0.07249785
114	0xbca59101	-0.020210745
115	0x3ca376fc	0.019954197
116	0xbd33774a	-0.043814935
117	0x3d2af099	0.041733358
118	0x3cdbd16a	0.026833255
119	0x3dc22f85	0.0948172
120	0xbd414497	-0.047184553
121	0xbc8823bc	-0.016618602
122	0x3dc9c453	0.09851899
123	0xbcc5dfa7	-0.024154497
124	0x3c59705a	0.013271416
125	0x3da9d5aa	0.08292706
126	0x3d927409	0.07151038
127	0xbd33b16e	-0.043870382
128	0x3db28fef	0.087188594
129	0xbc3cc226	-0.011520898
130	0xbd763b8e	-0.06011539
131	0xbd1d0672	-0.038336225
132	0xbd64fb5b	-0.055903774
133	0x3dc7963e	0.09745453
134	0xbdb77773	-0.0895833
135	0x3d08d211	0.03340346
136	0x3dbd3ae6	0.092397496
137	0xbcf257da	-0.029582907
138	0xbcd7fd2f	-0.026365845
139	0xbc93fea6	-0.018065762
140	0x3ca05b42	0.019574765
141	0xbc740f7d	-0.014896271
142	0x3c038293	0.008026737
143	0x3c85efcd	0.016349697
144	0x3d0d1352	0.034442253
145	0xbd204f9a	-0.039138414
146	0x3c84160c	0.016123794
147	0x3d713890	0.058891833
148	0xbdb99c26	-0.09062986
149	0xbd0a6969	-0.033791933
150	0xbd8f6617	-0.07001894
151	0xbdc71df2	-0.097225085
152	0xbd53be58	-0.051695198
153	0x3d2d97d6	0.04238113
154	0xbd844d4d	-0.064600565
155	0x3d837428	0.064186394
156	0x3d6b04f7	0.05737778
157	0xbbcc6c9d	-0.0062385336
158	0xbbf30011	-0.0074157794
159	0x3db9a027	0.0906375
160	0xbdab0179	-0.0834989
161	0x3db698cf	0.08915865
162	0xbcbb8f40	-0.022895455
163	0xbcbd2300	-0.023087978
164	0x3d819e14	0.06328979
165	0xbd2283c3	-0.03967644
166	0x3dd1cf76	0.10244648
167	0x3c9e765a	0.019343544
168	0xbd699e96	-0.057036005
169	0xbda0d2bf	-0.078526966
170	0x3d4f9bd4	0.05068572
171	0x3b0eb4c7	0.0021775232
172	0xbbaa9141	-0.005205304
173	0xbdbb813d	-0.091555096
174	0x3d3f51ed	0.04670899
175	0x3cd2db77	0.025739415
176	0xbd74a6b9	-0.05972931
177	0x3cb29b23	0.02180249
178	0x3cdfb8b5	0.027309755
179	0x3dc03b7a	0.09386344
180	0xbd754ac1	-0.059885744
181	0x3d1753bd	0.036945093
182	0xbda92dda	-0.082606986
183	0xbda2ac4c	-0.07943019
184	0x3d289c9f	0.04116499
185	0xbd53c24b	-0.051698964
186	0x3de0b6a9	0.1097234
187	0xbc1b5fcf	-0.009483292
188	0x3dc0bfcb	0.094115816
189	0x3d90412d	0.07043681
190	0x3c9293c4	0.017892726
191	0xbd0134c2	-0.031544454
192	0x3b119da4	0.0022219205
193	0x3c8947eb	0.016757926
194	0xbc4a2d78	-0.012339942
195	0xbba472ee	-0.0050185835
196	0xbdb4adb6	-0.08822195
197	0x3d90bbf6	0.07067101
198	0xbd75aafb	-0.059977513
199	0xbcc6842b	-0.024232944
200	0x3cb4b103	0.022057062
201	0x3d8e56dc	0.06950161
202	0x3dc1e53b	0.0946755
203	0x3d9910c4	0.07473901
204	0xbd4b4fd8	-0.04963669
205	0x3db10748	0.08643967
206	0xbcd85f93	-0.02641276
207	0x3d8212a6	0.06351213
208	0xbbd971c1	-0.006635875
209	0xbd12650c	-0.035740897
210	0xbd33b344	-0.043872133
211	0xbc6e3509	-0.014539012
212	0xbd4a820b	-0.049440425
213	0xbd23b270	-0.039965093
214	0x3d9b3ebc	0.07580325
215	0xbd5639b8	-0.05230114
216	0x3d987bcc	0.074454874
217	0x3d663a9e	0.056208245
218	0x3cbf2dcf	0.023337273
219	0x3d60e024	0.054901257
220	0x3c7a65e7	0.0152830845
221	0xbd8b7d51	-0.068110116
222	0x3dbdd175	0.092684664
223	0x3dad731d	0.08469222
224	0x3d9d9c2d	0.07695804
225	0xbd92dcee	-0.07171045
226	0xbd195fd7	-0.037444916
227	0x3c672736	0.01410847
228	0x3a30d851	0.0006746101
229	0xbd2e425c	-0.042543754
230	0xbc670e2a	-0.014102498
231	0x3dd08b94	0.101828724
232	0xbc478c52	-0.012179451
233	0x3d326292	0.043551035
234	0xbd8d8e50	-0.069119096
235	0x3d88491f	0.06654572
236	0xbdc9c0f4	-0.09851256
237	0xbd8492fd	-0.06473348
238	0xbd147335	-0.036242682
239	0x3c781d03	0.015143636
240	0x3cf0eb01	0.029408934
241	0x3d8fa01d	0.07012961
242	0xbd45469f	-0.048163053
243	0x3d81d9d7	0.06340378
244	0xbbfb34c4	-0.0076662023
245	0xbd28674d	-0.04111414
246	0xbdcb05d3	-0.0991322
247	0x3dcf8515	0.10132805
248	0xbd7815fa	-0.060567833
249	0x3d0673c3	0.032825243
250	0xbd2fb1de	-0.042894237
251	0x3d736ece	0.059431843
252	0x3dbb7bf7	0.09154504
253	0x3dc0cacc	0.094136804
254	0x3c1db446	0.0096255
255	0x3daed3d0	0.08536494

bias f4 [10]
0	0xbd356c63	-0.04429282
1	0xbd8b87fd	-0.06813047
2	0x3c201e87	0.009772903
3	0xbbebea61	-0.007199571
4	0xbdbb94b2	-0.09159221
5	0xbc15958c	-0.009129893
6	0xbd07677c	-0.033057675
7	0xbd257696	-0.040396295
8	0x3d6372eb	0.055529516
9	0xbdc79d4e	-0.097468

weight f4 [10, 10, 4, 4]
0	0x3d75ddec	0.060026094
1	0xbd82d7b6	-0.063888
2	0x3d7e8bde	0.062145106
3	0x3d3775ef	0.044790205
4	0x3cff764c	0.031184338
5	0x3c91ce0e	0.01779845
6	0xbd1e7c37	-0.03869268
7	0xbda662f0	-0.081243396
8	0x3c72179f	0.0147761395
9	0xbd61f115	-0.055161554
10	0xbda8e752	-0.08247246
11	0xbd5a3d9e	-0.05328142
12	0xbd6052a5	-0.054766316
13	0xbd9c3b11	-0.076284535
14	0xbda4bcef	-0.08043849
15	0x3d952b7d	0.07283685
16	0xbc18396f	-0.009291037
17	0xbce2f11e	-0.027702864
18	0xbd869dd2	-0.065730706
19	0xbd69b896	-0.0570608
20	0xbda767a8	-0.08174068
21	0xbccde0ac	-0.025131546
22	0x3d05c9de	0.03266322
23	0x3d810968	0.06300622
24	0xbd3887ba	-0.045051314
25	0x3cc96619	0.024584817
26	0xbbedcf0e	-0.007257349
27	0xbd934fc5	-0.07192949
28	0xbd168ece	-0.036757283
29	0x38b8c21f	8.8099616e-05
30	0xbd4b8421	-0.049686555
31	0xbcf156ae	-0.029460277
32	0x3ba3db1e	0.005000486
33	0xbccd2d78	-0.025046095
34	0x3d2a0af9	0.04151437
35	0x3c60129b	0.013676311
36	0xbd64083f	-0.055671927
37	0x3c865ef5	0.0164027
38	0xbd3eadc0	-0.04655242
39	0x3bda5f0e	0.0066641634
40	0xbd8016c0	-0.06254339
41	0x3d2228c8	0.039589673
42	0x3ca42978	0.020039305
43	0x3cdfbe28	0.027312353
44	0xbd5f7155	-0.05455144
45	0x3d8d18cc	0.06889495
46	0xbc46f7e4	-0.012144063
47	0xbd6d4afe	-0.057932846
48	0xbd3cc21b	-0.04608355
49	0xbd6c8bc0	-0.057750463
50	0xbd049af3	-0.032374334
51	0xbd63cbd6	-0.055614315
52	0xbda3d000	-0.07998657
53	0xbb8ee092	-0.004360267
54	0xbc0c0e12	-0.0085482765
55	0x3d54d78d	0.051963378
56	0xbce99463	-0.02851314
57	0x3be3803d	0.0069427774
58	0x3d080223	0.033205163
59	0xbd229aa4	-0.039698258
60	0xbc85f7dd	-0.016353542
61	0x3d807ecf	0.06274187
62	0x3d4ed5c4	0.05049683
63	0xbd90086e	-0.07032858
64	0xbd5ccd98	-0.053907007
65	0xbc8aa0c0	-0.016922355
66	0xbd396053	-0.045257878
67	0x3ce858e3	0.028362697
68	0x3c3d9806	0.01157189
69	0xbb556131	-0.0032559151
70	0xbd445791	-0.047935072
71	0x3d8f58da	0.06999369
72	0xbd704fdf	-0.05866992
73	0x3d906f6e	0.070525035
74	0xbd48dfdd	-0.049041618
75	0xbd1ff285	-0.039049644
76	0x3c759554	0.014989216
77	0x3d173c2c	0.03692262
78	0xbd2622ec	-0.040560648
79	0xbcfb445a	-0.030672241
80	0xbc1d6435	-0.009606411
81	0xbda9c741	-0.08289958
82	0x3d7bb768	0.061454207
83	0x3ca2074b	0.019778868
84	0x3d8496a1	0.06474043
85	0xbd256b66	-0.040385626
86	0xbc576287	-0.013146049
87	0xbd867f27	-0.06567221
88	0xbd630c67	-0.05543175
89	0xbc723d77	-0.014785162
90	0x3d610e57	0.054945316
91	0xbdabebdb	-0.08394595
92	0xbd9e1526	-0.077188775
93	0xbd83a782	-0.06428434
94	0xbcd5245d	-0.026018316
95	0xbd00e695	-0.0314699
96	0x3c198dda	0.009372199
97	0xbd1f5305	-0.038897533
98	0x3b085e20	0.0020808056
99	0xbd87c059	-0.06628484
100	0xbbc36722	-0.005963222
101	0x3d2ebc60	0.042660117
102	0xbd80ce2e	-0.06289326
103	0x3d8c1e5a	0.068417266
104	0xbd6fe45c	-0.05856739
105	0x3d89c542	0.06727077
106	0x3d4280c6	0.04748609
107	0xbb8011d2	-0.0039083743
108	0x3cbc27cb	0.022968194
109	0x3c26c03a	0.010177666
110	0xbd9deded	-0.07711396
111	0xbd973c98	-0.07384604
112	0xbca08860	-0.019596279
113	0xbd303d53	-0.043027233
114	0xbd15a990	-0.03653866
115	0x3d84c586	0.06482987
116	0x3ac1ef01	0.001479596
117	0x3c6b5d61	0.014365525
118	0x3d7ee23a	0.062227465
119	0xb9e4a195	-0.00043607937
120	0xbda05b06	-0.07829861
121	0x3c18ab42	0.009318175
122	0x3d55d425	0.05220427
123	0x3d2bd534	0.041951373
124	0xbd9a7d16	-0.075433895
125	0x3d16653b	0.036717635
126	0x3d8bffcd	0.068358995
127	0xbda518d4	-0.08061376
128	0x3d0e3d7b	0.0347266
129	0xbd488a47	-0.048959997
130	0x3d8aaeb0	0.067716
131	0xbd355815	-0.044273455
132	0xba938aee	-0.0011256614
133	0x3bcad94f	0.006190456
134	0xbd960785	-0.07325653
135	0xbd262c94	-0.040569857
136	0xbd105802	-0.03524018
137	0xbd8a8580	-0.06763744
138	0xbd7ec07f	-0.062195297
139	0xbd89d586	-0.067301795
140	0xbd8e0f16	-0.06936471
141	0xbd377346	-0.044787668
142	0x3d3e0c9d	0.046398748
143	0x3ca965f4	0.020678498
144	0xbd98547a	-0.074379876
145	0xbce5378d	-0.02798059
146	0x3ba06855	0.00489525
147	0x3d432567	0.04764309
148	0xbd04f03c	-0.032455668
149	0xbd8e15bf	-0.069377415
150	0x3cf8daff	0.030377863
151	0xbda5f3ce	-0.08103143
152	0x3c1029ec	0.008799057
153	0x3cedb1aa	0.02901538
154	0xbd2b04fa	-0.041752793
155	0xbd0e3904	-0.034722343
156	0xbcd486e5	-0.025943229
157	0x3c667f0e	0.014068378
158	0xbcbb9e0f	-0.022902517
159	0x3d14672f	0.036231216
160	0x3d8eaba8	0.069663346
161	0x3d9bdbb4	0.076102644
162	0x3d509d17	0.050931063
163	0x3cb8c7c2	0.02255619
164	0xbd1f13ee	-0.038837366
165	0xbc8baf75	-0.017051438
166	0x3d45c854	0.04828675
167	0xbd661f75	-0.056182344
168	0xbd83db07	-0.064382605
169	0x3bd15452	0.0063882256
170	0x3d860f66	0.06545906
171	0x3d6b50f3	0.057450246
172	0x3da1616a	0.078799084
173	0x3cbf3e67	0.023345185
174	0xbcde782a	-0.027156908
175	0xbcf11ffd	-0.029434199
176	0x3d2bb6e2	0.041922458
177	0xbd83062f	-0.06397664
178	0xbc834f38	-0.016028985
179	0xbd813044	-0.06308034
180	0x3d7b095c	0.061288223
181	0x3cdc3f29	0.026885586
182	0xbd10f1e3	-0.03538693
183	0x3d001a92	0.03127534
184	0x3d85204f	0.06500303
185	0xba6d8bb2	-0.0009061649
186	0xba6b7e53	-0.00089833623
187	0x3d5e1e98	0.054228395
188	0x3ad8a224	0.0016527814
189	0x3d701ace	0.058619313
190	0x3d60c1cc	0.05487232
191	0x3d83a196	0.064273044
192	0x3ae096d5	0.0017134795
193	0xbcff1af7	-0.031140788
194	0xbd068262	-0.032839186
195	0x3b2b25fc	0.002611517
196	0x3d15ddc5	0.03658845
197	0x3cde222d	0.027115906
198	0x3c2b3acb	0.010451029
199	0x3d43d9da	0.04781518
200	0x3d0b4bd3	0.03400786
201	0x3da7c31d	0.08191512
202	0x3d843c6d	0.06456838
203	0xbb9c26a3	-0.004765348
204	0xbd43c86c	-0.04779856
205	0x3bf07331	0.0073379506
206	0x3d17721f	0.03697407
207	0xbcdcbd08	-0.026945606
208	0xbd4037a3	-0.04692806
209	0x3c19c81e	0.009386091
210	0xbcf00f54	-0.029304184
211	0x3d6ae7c0	0.05734992
212	0x3d924d74	0.07143679
213	0x3cd56207	0.02604772
214	0x3c0cc6bd	0.008592305
215	0x3d75ee6e	0.060041837
216	0xbd80d830	-0.062912345
217	0xbc69d39e	-0.014271645
218	0x3d9100d6	0.070802376
219	0xbd8ef560	-0.06980395
220	0xbd6214ce	-0.055195622
221	0xbcebdc8c	-0.028791688
222	0xbd5f9671	-0.05458683
223	0xbab834f3	-0.0014053866
224	0xbd985e98	-0.07439917
225	0xbb9ba4ca	-0.004749869
226	0xbd084d73	-0.033276986
227	0x3d72af53	0.059249233
228	0x3b035096	0.0020037047
229	0x3c844f26	0.016151022
230	0x3b944d73	0.004525834
231	0xbd266ef4	-0.040633157
232	0xbcbabb6b	-0.022794446
233	0x3d880636	0.0664181
234	0x3b219935	0.002465797
235	0x3d5208c8	0.051277906
236	0xbd206bfb	-0.03916548
237	0x3d994acd	0.0748497
238	0x3d47b1fe	0.04875373
239	0xbd417bed	-0.047237325
240	0x3d30d9d8	0.043176502
241	0x3d6759fc	0.0564823
242	0xbac05c0e	-0.0014675872
243	0xbb352925	-0.0027642932
244	0xbc196e7e	-0.009364722
245	0x3d9801a5	0.07422189
246	0xbd2d3cac	-0.04229419
247	0xbc0a0eef	-0.008426412
248	0x3c378a36	0.011202386
249	0xbba077e8	-0.0048971064
250	0x3d9f76bf	0.07786321
251	0xbd476505	-0.048680324
252	0x3ccf0db2	0.025275085
253	0xbb8d8963	-0.0043193563
254	0xbc98895c	-0.018620186
255	0xbd0dfbea	-0.034664072

bias f4 [10]
0	0xbd16ae73	-0.03678746
1	0x3d2d19bc	0.04226087
2	0x3d8cc889	0.068741865
3	0x3d424050	0.047424614
4	0x3d8e8b90	0.06960213
5	0x3d32a95b	0.04361854
6	0x3da70bb4	0.08156529
7	0xbcbfaede	-0.023398813
8	0x3da82008	0.082092345
9	0x3d2444ad	0.040104557

weight f4 [10, 10, 5, 5]
0	0xbd56f2dc	-0.052477702
1	0x3bb0a952	0.0053912783
2	0xbd4c8438	-0.04993078
3	0x3b879606	0.0041377572
4	0x3be9723a	0.0071242126
5	0xbccb4f25	-0.024818012
6	0x3c905c67	0.017622186
7	0x3cfd25e5	0.030901859
8	0x3ca82e5b	0.020529917
9	0x3cbcee88	0.02306296
10	0x3c927a8d	0.017880702
11	0x3d67e6bc	0.05661653
12	0xbcc34220	-0.023835242
13	0xbd22e4f4	-0.039769128
14	0xbbc96ed8	-0.006147247
15	0xbc908d67	-0.01764555
16	0x3ce06ddb	0.027396133
17	0xbd6ece8e	-0.058302455
18	0xbca87d47	-0.02056755
19	0xbc914efa	-0.017737854
20	0x3a085bcd	0.00052016677
21	0x3d41f5f0	0.047353685
22	0x3d031b28	0.03200832
23	0xbc9fbf53	-0.01950041
24	0xbd58233c	-0.052767977
25	0xbd0a2005	-0.033721942
26	0xbd42a33a	-0.047518946
27	0xbd54327b	-0.051805954
28	0xbd66a12c	-0.05630605
29	0xbbb58a22	-0.0055401484
30	0xbd1d5564	-0.038411513
31	0xba19a8c9	-0.0005861638
32	0xbb839d2a	-0.004016538
33	0xbd552cc6	-0.052044652
34	0x3cf409f1	0.029789897
35	0xbc8d98f0	-0.01728484
36	0xbbb810de	-0.005617245
37	0xbd2116c6	-0.03932836
38	0x3ce9e318	0.02855067
39	0x3c454b88	0.012041934
40	0x3d8f0509	0.06983382
41	0x3d072818	0.03299722
42	0x3d7136c9	0.058890138
43	0x3d89573e	0.06706093
44	0x3d336e4b	0.043806355
45	0xbd4b4442	-0.049625643
46	0x3d890bed	0.06691728
47	0x3cc1d0b1	0.023659082
48	0xbc37576d	-0.0111902775
49	0xbd06752e	-0.032826595
50	0xbc72a416	-0.014809629
51	0xbc2f3b56	-0.010695299
52	0xbd154fa1	-0.036452893
53	0x3b038f58	0.0020074453
54	0x3ce50ddf	0.027960716
55	0xbc4e98ec	-0.012609702
56	0x3c9e9324	0.019357271
57	0x3d630ceb	0.05543224
58	0xbcf93821	-0.030422272
59	0x3ab44087	0.0013752141
60	0x3d1fc0ec	0.039002344
61	0xbd1646d7	-0.036688652
62	0xbd527fdb	-0.051391464
63	0x3d8773ed	0.06613908
64	0xbc51aee2	-0.012798043
65	0x3cf031f3	0.029320693
66	0xbc678c2c	-0.014132541
67	0x3d228226	0.0396749
68	0x3d911851	0.07084716
69	0xbc382a9d	-0.011240629
70	0x3d17f0b6	0.037094794
71	0x3d41df40	0.04733205
72	0x3be4dc42	0.0069842646
73	0x3d7fd850	0.06246215
74	0x3aa06e84	0.0012239967
75	0x3d3e90ca	0.0465248
76	0x3c43ccef	0.011950715
77	0x3cf34058	0.029693767
78	0xbb8212d5	-0.00396953
79	0xbd2a0506	-0.041508697
80	0xbc5b672e	-0.013391299
81	0x3d087873	0.033317994
82	0xbc3c168f	-0.011479988
83	0xbd698aef	-0.057017263
84	0x3cd5e6de	0.026111063
85	0xbcc524ae	-0.024065342
86	0x3d58ee4f	0.052961644
87	0xbd062b5b	-0.03275619
88	0xbb25fd2f	-0.002532791
89	0x3cd64e01	0.026160242
90	0xbd2950ac	-0.0413367
91	0x3d5d62a6	0.054049157
92	0xbd1e8778	-0.03870341
93	0x3d854270	0.065068126
94	0x3c903b0d	0.017606283
95	0x3d290510	0.041264594
96	0xbd654161	-0.055970553
97	0x3d8d651e	0.06904052
98	0xbd452fe5	-0.04814138
99	0xbd4ab5fb	-0.049489956
100	0x3d41838a	0.047244586
101	0x3d4c5b79	0.049891923
102	0xbcddfc02	-0.027097706
103	0x3d48f94d	0.049065877
104	0xbc85a4a1	-0.016313853
105	0x3d89ba7d	0.06725023
106	0x3cbe7208	0.023247734
107	0xbd3de2f9	-0.046359036
108	0xbb6a5748	-0.003575759
109	0x3cb86064	0.0225069
110	0xbd0de6a0	-0.03464377
111	0xbcd791b7	-0.0263146
112	0x3d734b3f	0.059397932
113	0x3cc34262	0.023835365
114	0x3cff16fd	0.031138891
115	0xbbf94f20	-0.0076083094
116	0x3d28b447	0.04118755
117	0xbc29d43b	-0.010365541
118	0xbce69ffc	-0.028152458
119	0x3d4c4d98	0.049878687
120	0x39c44877	0.00037438024
121	0x3c3606b0	0.011109993
122	0xbd34854b	-0.04407243
123	0xbd0ee6e0	-0.03488815
124	0xbd2eafa5	-0.042647976
125	0x3c1b849e	0.009492068
126	0xbd1dc04a	-0.03851346
127	0x3d6a351e	0.057179563
128	0xbd303364	-0.04301776
129	0x3d774632	0.060369678
130	0x3b859e02	0.004077674
131	0xbd10a10f	-0.035309847
132	0x3ce250f7	0.027626498
133	0x3d803a63	0.062611364
134	0xbd0e08a6	-0.034676217
135	0xbbeede58	-0.007289689
136	0x3c1285c8	0.008943029
137	0x3cd74d88	0.026282087
138	0x3d6f17fb	0.05837248
139	0x3c3900be	0.011291681
140	0x3c60a178	0.013710372
141	0xbcddf19c	-0.027092747
142	0xbd1e9670	-0.038717687
143	0x3d849a51	0.06474746
144	0x3d423729	0.047415886
145	0x3c2febe8	0.010737397
146	0xb8bf2cfc	-9.115969e-05
147	0xbb71af67	-0.003687823
148	0x3d2cc497	0.04217967
149	0x3ce69032	0.02814493
150	0x3bb29f42	0.005451114
151	0xbbd95247	-0.0066321227
152	0xba9c6c60	-0.0011934154
153	0x3c196acc	0.009363841
154	0xbbeeff4c	-0.0072936174
155	0x3c947f2f	0.018127052
156	0xbcc1617f	-0.02360606
157	0xbc6bdcb7	-0.014395884
158	0x3a68ca69	0.0008880259
159	0xbc36b057	-0.011150441
160	0x3d46a3b9	0.04849598
161	0x3a85a191	0.0010195245
162	0xbd09bae0	-0.033625484
163	0x3ca06515	0.01957945
164	0x3d0d2243	0.034456503
165	0xbc5017d0	-0.01270099
166	0x3b3ac108	0.0028496403
167	0x3d5592f5	0.052142102
168	0x3ce94aa6	0.028477978
169	0x3d707c0b	0.058712047
170	0x3c97469c	0.018466286
171	0xbc2748dd	-0.010210243
172	0x3c85f212	0.01635078
173	0x3d2e1862	0.042503722
174	0xbd4eec8f	-0.05051857
175	0x3a6a08d3	0.00089277065
176	0x3ac18eef	0.0014767329
177	0x3d25970d	0.040427256
178	0x3d52d7ca	0.051475324
179	0xbc5b888e	-0.013399256
180	0xbd05a674	-0.032629445
181	0xbb278fde	-0.002556793
182	0xbd5930cf	-0.053025063
183	0x3cb1b164	0.021691032
184	0x3d8da9b8	0.06917137
185	0xbd2b7921	-0.041863564
186	0x3d596710	0.053076804
187	0x3c84968c	0.016185068
188	0xbcd4c103	-0.025970941
189	0x3d87f58a	0.0663863
190	0xbc5d77df	-0.013517349
191	0x3c32c4b3	0.010911155
192	0xbd0bbba7	-0.034114506
193	0x3d860061	0.06543041
194	0x3d081c48	0.033230096
195	0x3d48858d	0.04895549
196	0xbcb717c2	-0.022350196
197	0xbc2948d8	-0.010332309
198	0x3d351696	0.044210993
199	0x3d469cb9	0.048489306
200	0x3d52ad0f	0.051434573
201	0x3bf9c80b	0.007622724
202	0xbccbc999	-0.024876403
203	0xbd617118	-0.055039495
204	0x3d32daad	0.043665577
205	0x3c27b463	0.010235879
206	0x3aa2a4ab	0.0012408694
207	0x3d8b52f4	0.068029314
208	0x3d7fe94e	0.062478356
209	0xbd29fda2	-0.04150165
210	0x3d2f33e4	0.042774096
211	0x3d07dfeb	0.03317253
212	0x3d820948	0.063494265
213	0xbcfb1749	-0.030650752
214	0x3d81c3c2	0.06336166
215	0x3d8dca4c	0.06923351
216	0x3d3638af	0.04448765
217	0xbd60d4b9	-0.054890368
218	0xbcb25109	-0.021767156
219	0x3c6eceed	0.014575702
220	0x3d111812	0.035423346
221	0xbd41f94a	-0.04735688
222	0xbd28b130	-0.041184604
223	0xbcaabc38	-0.020841703
224	0x3d476df3	0.04868884
225	0x3d1ab329	0.037768517
226	0xbc70f405	-0.014706616
227	0x3cd67cad	0.026182497
228	0x3d68d270	0.056841314
229	0x3d779934	0.06044884
230	0x3c8ca857	0.017170114
231	0xbcb658b9	-0.022259103
232	0x3d5727cb	0.052528184
233	0xbc574fcb	-0.013141583
234	0xbd04de8f	-0.03243881
235	0xbc1a3778	-0.009412639
236	0xbc0bad61	-0.0085252235
237	0xbd23ffea	-0.04003898
238	0xbd37933a	-0.04481814
239	0x3c80688d	0.015674854
240	0x3d2d2e68	0.042280585
241	0x3d56a053	0.05239899
242	0xbd3be35d	-0.045871127
243	0x3c7e76eb	0.015531282
244	0xbcf8cb15	-0.030370275
245	0x3d63c2d9	0.055605743
246	0xbcef47e5	-0.029209087
247	0x3c923fcc	0.017852686
248	0x3d34f5b8	0.04417965
249	0xbcbd85a1	-0.023135008
250	0xbd3f7f34	-0.04675217
251	0xbcb34561	-0.021883668
252	0x3d4b5ff4	0.049652055
253	0xbd157969	-0.03649274
254	0x3b15ac43	0.0022838272
255	0xbd81dad7	-0.063405685

bias f4 [10]
0	0x3d3f03fd	0.046634663
1	0xbc91656b	-0.017748555
2	0x3d19e4cf	0.037571725
3	0xbbb28528	-0.0054480024
4	0xbd1c5ba5	-0.038173337
5	0x3d1cae10	0.038251936
6	0xbd8a213e	-0.06744622
7	0x3d2dc881	0.042427544
8	0xbd4fa0a6	-0.050690316
9	0xbce912a1	-0.028451266

weight f4 [100, 810]
0	0x3ccb51d9	0.024819301
1	0xbcd2a335	-0.025712589
2	0x3d23b045	0.039963026
3	0x3d03d982	0.032189853
4	0x3d012510	0.031529486
5	0x3bd54cec	0.006509414
6	0xbca79d2c	-0.020460688
7	0x3cfbd3d0	0.030740649
8	0xbc3b6541	-0.011437715
9	0x3b90df81	0.004421175
10	0xbb370b88	-0.0027930457
11	0xbcc06720	-0.023486674
12	0xbcb3c41c	-0.021944098
13	0x3cf6b8ca	0.030117411
14	0x3ac70b91	0.0015185942
15	0x3c30ca3a	0.010790402
16	0xbc81b3d5	-0.01583282
17	0x3d06a472	0.03287167
18	0x3d03a8bf	0.03214335
19	0xbb0d3bec	-0.0021550609
20	0x3cc8817f	0.024475811
21	0xbcca4ee8	-0.024695829
22	0x3d171372	0.03688378
23	0x3d050a6d	0.032480646
24	0xbadf752f	-0.0017048473
25	0x3d146a89	0.036234412
26	0x3b103efa	0.0022010193
27	0xbcac3e9d	-0.02102595
28	0xbb3b1f5e	-0.0028552632
29	0xbcc260a3	-0.02372772
30	0x3c92d39e	0.017923173
31	0xbcaf6db5	-0.021414617
32	0x3cb4abc0	0.022054553
33	0x3d1d664f	0.038427647
34	0xbcc11898	-0.023571298
35	0xbc08ca0c	-0.008348953
36	0xbcc119dc	-0.023571901
37	0xbc892116	-0.01673941
38	0x3b7d44ef	0.0038645824
39	0xbbc50c1a	-0.0060134055
40	0x3d1f67a8	0.038917214
41	0xba915e10	-0.0011090655
42	0xbca7b369	-0.020471292
43	0xbce08e99	-0.027411746
44	0x3ab4225b	0.0013743149
45	0xbca69826	-0.020336222
46	0x3c8908b7	0.016727788
47	0x3d2a044e	0.04150801
48	0x3bbc37db	0.005743963
49	0xbb3c081d	-0.002869136
50	0xbb4f92f5	-0.0031673287
51	0x3d066a63	0.032816302
52	0x3c96a369	0.018388467
53	0x3c7ad19f	0.015308767
54	0x3bcd7b0e	0.006270773
55	0x3b4b5ae0	0.0031029508
56	0xbca0f7db	-0.019649437
57	0x3c85cf7c	0.016334288
58	0x3c88d125	0.01670129
59	0x3ccbe139	0.024887668
60	0x3cc2072b	0.023685059
61	0x3c95bc98	0.018278405
62	0x3b731739	0.00370927
63	0x3c0a770d	0.0084512355
64	0xbbb399c8	-0.0054809786
65	0x3b829a31	0.003985666
66	0xbb6e55b8	-0.003636701
67	0x3d2455d4	0.040120915
68	0xba4dbe1f	-0.00078484596
69	0xbcbae986	-0.02281643
70	0xb9cf6109	-0.00039554414
71	0x3c7664c7	0.015038676
72	0x3ccb0a82	0.024785284
73	0x3ce97646	0.02849878
74	0xbb903a3b	-0.004401473
75	0x3bb5a427	0.00554325
76	0x3c6432fb	0.01392817
77	0xbc54d039	-0.012989097
78	0xbc68970b	-0.014196168
79	0x3d0c0439	0.034183715
80	0x3c9083a3	0.017640894
81	0xbc3d560f	-0.0115561625
82	0x3ce00935	0.02734814
83	0x3ce344d4	0.02774278
84	0x3ca01e37	0.019545658
85	0xba082e72	-0.0005194909
86	0x3cf0094a	0.029301304
87	0x3d0c7a7c	0.034296498
88	0xbc2c1c07	-0.010504729
89	0x3d094d6e	0.03352111
90	0xbbd21842	-0.006411583
91	0x3cc48602	0.023989681
92	0x3c493f3a	0.012283141
93	0xbc32798d	-0.010893238
94	0x3d045c4a	0.032314576
95	0xbca1e84b	-0.019764086
96	0x3d21af3f	0.03947377
97	0x3c811669	0.015757756
98	0x3d2476a1	0.040152196
99	0x3cdc45d0	0.026888758
100	0x3c3c60af	0.011497661
101	0x3cda6c5f	0.026663003
102	0xbc1b384d	-0.009473872
103	0x3c2b0b47	0.0104397
104	0x3cf56ee3	0.029960101
105	0x3d0056a9	0.031332646
106	0xbce9f8bb	-0.028560987
107	0x3cc3033f	0.023805259
108	0xba8b8d6f	-0.0010647009
109	0x3d1035a8	0.03520742
110	0xbcdb1b95	-0.02674655
111	0x3d22bd01	0.03973103
112	0xbc2b460a	-0.01045371
113	0x3d2030b4	0.039108947
114	0x3b1da9c0	0.0024057478
115	0x3d23c437	0.039982047
116	0x3cb3c2ac	0.021943413
117	0x3d1eac5c	0.038738593
118	0x3b634d8e	0.0034683677
119	0x3ce844c8	0.02835311
120	0xbcc99cab	-0.024610838
121	0x3c80ee0d	0.015738511
122	0xb9a3730d	-0.00031175502
123	0xbc090217	-0.008362315
124	0x3cd5406b	0.026031693
125	0xbc948967	-0.018131925
126	0x3cbacc3e	0.022802468
127	0xbc8f79e7	-0.017514182
128	0x3c1e66db	0.009668077
129	0xbcce2fa1	-0.025169196
130	0xbbcdc0d4	-0.0062790904
131	0xbb642991	-0.0034814815
132	0x3b76e2da	0.0037671835
133	0xbcdd8056	-0.027038734
134	0xbc0e3a77	-0.008680931
135	0x3c290a4f	0.010317399
136	0xbc4b18d9	-0.012396061
137	0x3cf6d80e	0.03013232
138	0x3c8e2e7e	0.017356154
139	0xbcd5c023	-0.026092594
140	0x3aabadbf	0.0013098045
141	0xbcbafdf5	-0.022826174
142	0x3cca3eee	0.02468821
143	0x3cb7b743	0.022426253
144	0x3ccca9fe	0.024983402
145	0x3d124869	0.035713587
146	0xbc4ac958	-0.012377106
147	0xb8c86432	-9.555406e-05
148	0x3d0e86db	0.034796577
149	0x3c222d20	0.009898454
150	0x3d2077c3	0.039176714
151	0x3c311fa9	0.010810771
152	0x3d2163c1	0.039401773
153	0x3d27c32c	0.040957615
154	0x3cdd5d89	0.02702214
155	0xbc948023	-0.018127507
156	0xbcb5be38	-0.02218543
157	0xbbc6b116	-0.0060635908
158	0xbc3c2c37	-0.011485151
159	0x3d02b506	0.03191092
160	0x3c58732f	0.013211056
161	0xbcbe5739	-0.02323495
162	0x3c8e4d1d	0.017370755
163	0x3c103326	0.008801257
164	0x3b16c076	0.00230029
165	0x3d18ec71	0.037334863
166	0x3d159fb8	0.036529273
167	0xbcdb5def	-0.02677819
168	0x3ceee752	0.029163036
169	0xbc17e06c	-0.009269815
170	0xbbe22b59	-0.00690214
171	0xbc3c4c2d	-0.011492771
172	0xbc83720a	-0.016045589
173	0xbc2585bd	-0.0101026865
174	0xbb158950	-0.002281744
175	0x3d0d5563	0.03450526
176	0x3c2b9970	0.010473594
177	0x3d183222	0.037157185
178	0x3bcae28e	0.006191558
179	0xbba1d1ba	-0.0049383314
180	0xbc4da9e9	-0.012552717
181	0xbca11c77	-0.019666893
182	0x3ba7a686	0.0051162867
183	0x3ce39368	0.02778025
184	0x3bd25613	0.0064189523
185	0xbb5bd400	-0.003354311
186	0x3c33c91c	0.010973241
187	0x3c172579	0.009225243
188	0x3c61ddb6	0.01378577
189	0x3c447415	0.011990567
190	0xbc67047c	-0.01410019
191	0x3d1ccf29	0.0382835
192	0x3cdfe270	0.027329654
193	0xbc4a1b40	-0.0123355985
194	0x3c1fad59	0.009745919
195	0xbbebe511	-0.0071989377
196	0xbcac3990	-0.021023542
197	0x3d1ca4a7	0.038242962
198	0xbcc4c7ec	-0.024021111
199	0x3c353c80	0.011061788
200	0x3c9e32e1	0.01931137
201	0xbc4545a1	-0.012040527
202	0xbc2aa759	-0.010415875
203	0xbce227d6	-0.027606886
204	0xbcc8344f	-0.024439005
205	0x3c7bb200	0.015362263
206	0x3c2f6258	0.010704599
207	0x3c985c50	0.018598706
208	0x3d297b45	0.041377325
209	0x3bcaf317	0.0061935293
210	0x3c1ca47e	0.009560702
211	0xb9d3fb37	-0.00040432226
212	0x3cff7ca3	0.031187361
213	0x3bbf3efc	0.0058363657
214	0x3cc57982	0.024105791
215	0x3d188a38	0.03724119
216	0xbcdd5233	-0.027016735
217	0xbc7142b8	-0.01472538
218	0xbcdf5b54	-0.027265228
219	0xbb9b7504	-0.004744174
220	0xbaed012b	-0.0018082013
221	0x3caef65a	0.021357704
222	0xb9df421e	-0.00042583136
223	0xb96e2a61	-0.00022713236
224	0xbc5db80b	-0.013532649
225	0x3c9daa77	0.019246323
226	0x3bdeeb32	0.00680294
227	0x3d0b79e5	0.034051795
228	0x3d1f8f67	0.03895512
229	0x3b3739cb	0.0027958031
230	0x3d1922e6	0.037386797
231	0x3c61a9e8	0.013773419
232	0xbcd4ddb0	-0.025984615
233	0xbb817fff	-0.003952026
234	0xbcc96fdc	-0.024589472
235	0x3b4b8a3c	0.0031057736
236	0xbbad7401	-0.0052933698
237	0x3c93ed4e	0.018057492
238	0xba5ff8a3	-0.00085438247
239	0x3ab510ca	0.0013814208
240	0xba50dabe	-0.00079671654
241	0x3cd34f33	0.025794601
242	0xbcb81e6e	-0.022475448
243	0xbccc9f57	-0.024978323
244	0x3baca04d	0.005268133
245	0x3ccdb569	0.025110917
246	0x3aeda107	0.0018129655
247	0x3ce04ec9	0.027381318
248	0x3d215033	0.039383125
249	0x3d26b6b2	0.040701576
250	0xbc1ad6c4	-0.009450618
251	0x3cbc2b95	0.02297
252	0x3cb1be34	0.021697141
253	0x3c98acf0	0.01863715
254	0x3c0f1158	0.008732162
255	0x3cf2d1e5	0.029641101

bias f4 [100]
0	0x3caef69b	0.021357825
1	0x3b13a5b6	0.0022529191
2	0x3cbc9b05	0.023023138
3	0xbc24ea8f	-0.010065689
4	0x3ad17a19	0.0015981823
5	0xbc96460f	-0.018343953
6	0x3ccf168a	0.025279302
7	0x3b4f0e28	0.003159413
8	0xbcd60964	-0.026127525
9	0xbc10c19e	-0.008835224
10	0x3cdaa8f4	0.026691891
11	0xbbc34910	-0.0059596375
12	0xbc92385f	-0.017849145
13	0x3c810fca	0.0157546
14	0xbcea2818	-0.028583571
15	0x3b829cdc	0.0039859843
16	0x3b1263a0	0.0022337213
17	0x3c98a098	0.018631265
18	0x3caf1242	0.02137101
19	0x3d20ecac	0.039288208
20	0xbcd3a739	-0.025836574
21	0xbd06da69	-0.032923136
22	0xbd00ee00	-0.031476974
23	0x3c45a808	0.012063988
24	0xbce1ed51	-0.027578982
25	0xbd029e72	-0.031889386
26	0xbc2ddf06	-0.010612255
27	0xbc331588	-0.010930426
28	0x3c0df8eb	0.008665304
29	0x3c88e252	0.01670948
30	0x3be4cf12	0.0069826925
31	0x3bb20164	0.0054322947
32	0x3d1a7cff	0.03771686
33	0x3c9c2833	0.019062137
34	0x3cb26c31	0.021780105
35	0x3aa087a8	0.001224746
36	0x3d06101d	0.03273021
37	0x3cc2f7ef	0.023799865
38	0x3cf6c882	0.030124906
39	0xbd0dcd72	-0.034619756
40	0xbafe23e0	-0.0019389354
41	0x3bcab13e	0.0061856797
42	0xbc9be10b	-0.019028207
43	0x3cc556b1	0.02408919
44	0x3ccd23c8	0.025041476
45	0xbcddbb74	-0.027066924
46	0xbcf66bf0	-0.030080765
47	0x3d047bec	0.032344744
48	0xbcd6502d	-0.026161278
49	0x3d0001a8	0.03125158
50	0xbc9577af	-0.018245546
51	0x3cf6cfe2	0.030128423
52	0xbd0972ac	-0.033556625
53	0xbcb9f867	-0.022701455
54	0xbcc8f0da	-0.02452891
55	0xbcc9cf42	-0.024634961
56	0x3be1aa0b	0.006886726
57	0xbd04bfa7	-0.032409336
58	0x3cdeff82	0.027221445
59	0x3c0046e4	0.007829402
60	0xbc969f8a	-0.018386621
61	0x3c5452d0	0.012959197
62	0xbcae2eb4	-0.021262504
63	0xbd02cf3c	-0.031935915
64	0x3b085d14	0.0020807432
65	0x3bbb68b1	0.0057192673
66	0x3c92c3ff	0.017915724
67	0xbca4e906	-0.020130645
68	0xbc9d2835	-0.019184211
69	0xbc7dbfdb	-0.015487636
70	0xbcdeb0e9	-0.027183967
71	0xbbf46db4	-0.0074593667
72	0xbc08eeef	-0.008357747
73	0xbbfc5d9f	-0.00770159
74	0xbc8f7d51	-0.01751581
75	0xbd13605d	-0.03598057
76	0x3cb41014	0.021980323
77	0x3ca8bb51	0.020597132
78	0x3c97eabc	0.018544547
79	0x3cd61a95	0.026135722
80	0xbd019ed6	-0.03164562
81	0xbc913bac	-0.01772865
82	0x3c2beac7	0.010492987
83	0x38c003e2	9.155997e-05
84	0x3cc1d6d0	0.023662
85	0xbc9bfa5c	-0.01904028
86	0xbca4aa19	-0.02010064
87	0x3d1bcb3e	0.038035624
88	0xbcb0360d	-0.021510148
89	0x3cc917c3	0.024547463
90	0x3c9a4c42	0.01883519
91	0xbc94b026	-0.0181504
92	0x3cde5757	0.027141256
93	0x3ce6c259	0.028168844
94	0xbc29cde0	-0.010364026
95	0xbcf29d75	-0.029616097
96	0x3d10de13	0.035368036
97	0xbd0e75ee	-0.034780435
98	0x3ca40aa9	0.020024614
99	0xbbb12257	-0.005405705

weight f4 [40, 100]
0	0xbd42388c	-0.04741721
1	0x3c9ab78b	0.018886348
2	0x3d053840	0.032524347
3	0x3d1e6736	0.03867265
4	0x3c98a797	0.0186346
5	0x3d993eb7	0.07482665
6	0x3d7a9ad6	0.06118282
7	0x3d463ef0	0.048399866
8	0x3dc0e484	0.09418586
9	0x3c8d3d52	0.017241154
10	0x3d185c4f	0.037197407
11	0xbc15c909	-0.009142169
12	0x3d10a5f1	0.035314504
13	0x3d331c9e	0.043728463
14	0xbdd4c61e	-0.1038935
15	0x3dcb54e9	0.09928305
16	0xbd80a241	-0.062809475
17	0x3c9aad32	0.018881414
18	0xbac46c44	-0.0014985879
19	0x3d522a2a	0.051309742
20	0xbc490345	-0.012268846
21	0xbdd08ddd	-0.10183308
22	0xbd0f1502	-0.034932144
23	0xbcfd2f6f	-0.030906407
24	0xbd08456b	-0.033269327
25	0xbd4739ef	-0.048639234
26	0x3d8cc3bb	0.0687327
27	0xbd926374	-0.071478754
28	0xbb35d385	-0.0027744484
29	0x3995af27	0.00028549993
30	0xbd80cd10	-0.062891126
31	0xbd704479	-0.05865905
32	0x3dac403e	0.08410691
33	0x3dc44a5e	0.09584497
34	0xbdd763a7	-0.10517054
35	0xbcbc367d	-0.0229752
36	0xbd4f8c57	-0.050670948
37	0x3d530f94	0.05152853
38	0xbd92638f	-0.071478955
39	0xbdcbe6da	-0.09956141
40	0x3d0f0ef0	0.034926355
41	0x3d072e44	0.033003107
42	0x3d99fd3c	0.07519004
43	0xbce4c098	-0.027923867
44	0xbd548529	-0.051884804
45	0xbd0cf880	-0.034416676
46	0x3d812c75	0.06307308
47	0xbd6148f0	-0.0550012
48	0xbc0b2bb3	-0.008494305
49	0x3dd72de6	0.10506801
50	0xbcd76f7c	-0.026298277
51	0x3d4d0643	0.0500548
52	0x3b1f6379	0.0024320765
53	0xbd441422	-0.047870763
54	0xbce9f451	-0.028558882
55	0xbd22bd28	-0.039731175
56	0xbd9da3a6	-0.07697229
57	0x3db8eb5b	0.090292655
58	0xbc667215	-0.014065285
59	0xbd041c18	-0.032253355
60	0xbd981989	-0.074267454
61	0xbdaf0e5d	-0.085476615
62	0xbc82ef7c	-0.015983336
63	0x3d29c341	0.041445974
64	0x3d13c760	0.03607881
65	0xbd931a5c	-0.07182762
66	0x3da6ff62	0.08154179
67	0x3d8f7c5c	0.070061415
68	0x3bf6b918	0.007529389
69	0x3d89bb5b	0.06725188
70	0x3d693373	0.05693383
71	0x3d299246	0.041399263
72	0xbd6583cd	-0.0560339
73	0xbdc6d846	-0.0970922
74	0xbd8a8487	-0.06763559
75	0xbd354414	-0.044254377
76	0x3d7e6efc	0.06211756
77	0x3da89e5a	0.08233328
78	0x3db26455	0.08710543
79	0x3cfa8821	0.03058249
80	0xbd4d9da4	-0.050199166
81	0x3d030e6d	0.03199618
82	0xbd84b18c	-0.06479177
83	0xbd73ff5f	-0.059569713
84	0x3d617ed7	0.055052605
85	0x3c975257	0.01847188
86	0x3d400119	0.046876047
87	0x3dc222b1	0.09479273
88	0x3dbfc47b	0.093636476
89	0x3db8df89	0.09027011
90	0xbdb7359f	-0.08945774
91	0xbd0cda39	-0.0343878
92	0x3dba7660	0.091046095
93	0xbd1157f5	-0.035484273
94	0x3d8e3fbe	0.069457516
95	0xbdbacedc	-0.091214865
96	0x3da58ac6	0.080831096
97	0x3d188eec	0.037245676
98	0xbd90b38a	-0.07065494
99	0xbca1b1c0	-0.019738078
100	0x3dbd0d92	0.09231104
101	0xbb1eb92f	-0.0024219265
102	0xbbd37836	-0.0064535392
103	0x3ccbbd19	0.024870442
104	0xbd8d1fa4	-0.068908006
105	0xbdb7cd7a	-0.089747384
106	0x3dc64bd5	0.096824326
107	0x3daa4b61	0.08315159
108	0x3d913bdf	0.07091498
109	0x3d37806e	0.044800214
110	0xbd933519	-0.07187862
111	0x3d4e6137	0.05038568
112	0x3d238013	0.039917063
113	0x3c1b9a7c	0.009497281
114	0x3dbb4fe5	0.09146098
115	0xbd27787f	-0.0408864
116	0x3d3ba6a6	0.045813225
117	0x3d19799f	0.037469503
118	0xbc838c12	-0.016058002
119	0xbc2ce451	-0.010552482
120	0x3d44e370	0.048068464
121	0xbda761e6	-0.081729695
122	0xbd561123	-0.052262437
123	0x3c7ce146	0.015434569
124	0x3a8417ef	0.0010077934
125	0x3d27fb42	0.041011102
126	0xbd611456	-0.054951034
127	0xbd02559f	-0.031819936
128	0xbdc10e24	-0.09426525
129	0x3cfbac62	0.030721847
130	0xbdcd0db4	-0.10012379
131	0xbc414db1	-0.011798308
132	0x3dabb636	0.08384363
133	0xbd9ab266	-0.07553558
134	0xbce5b6e1	-0.028041305
135	0xbc2c09f1	-0.010500417
136	0x3bc940da	0.006141764
137	0x3d48a111	0.04898173
138	0xbcdad17d	-0.02671122
139	0x3caf9417	0.02143292
140	0xbd88f3e9	-0.06687147
141	0x3dac4227	0.08411055
142	0xbc2bacdf	-0.010478227
143	0xbd1c99a3	-0.038232457
144	0x3bfc4352	0.007698455
145	0xbcdb73d1	-0.026788624
146	0x3cdb5767	0.026775075
147	0x3d21a598	0.039464563
148	0xbccfceba	-0.02536713
149	0x3cad7ebf	0.021178601
150	0xbdac897a	-0.08424659
151	0xbd88d9cf	-0.06682169
152	0x3c29c454	0.01036175
153	0xbd03aca7	-0.032147076
154	0x3b197c97	0.0023420209
155	0xbdaabda4	-0.08336952
156	0xbd07e64e	-0.03317862
157	0xbd2ad7cb	-0.041709702
158	0x3c251e23	0.010077986
159	0xbdb1288d	-0.086503126
160	0xbdc61459	-0.0967185
161	0x3cb7534e	0.02237859
162	0x3d83d714	0.06437507
163	0x3d4465a1	0.047948483
164	0x3dc22bf7	0.09481042
165	0xbdc06893	-0.09394946
166	0xbdc28df1	-0.094997294
167	0xbda3afdf	-0.07992529
168	0x3d5c19ef	0.05373567
169	0xbd4426db	-0.047888618
170	0x3d4f3120	0.05058396
171	0x3cf8e487	0.030382408
172	0x3c50a84c	0.012735438
173	0x3d8b27aa	0.06794675
174	0xbc9effc7	-0.019409074
175	0xbccec2a2	-0.025239293
176	0xbc05ce54	-0.008166868
177	0xbd208865	-0.039192576
178	0xbc6e0461	-0.014527411
179	0xbdc7b146	-0.09750609
180	0x3d84f355	0.064917244
181	0xbd48b1ef	-0.048997816
182	0xbc9a3712	-0.018825088
183	0xbd6e55b5	-0.058187205
184	0x3dafe9dd	0.08589528
185	0xbd0b0245	-0.03393771
186	0xbd887532	-0.06662978
187	0xbc7ee9b9	-0.0155586535
188	0xbdae0970	-0.08497894
189	0xbd925606	-0.07145314
190	0x3cbddd3d	0.023176784
191	0xbd8c8cb0	-0.068627715
192	0xbdc64226	-0.096805856
193	0x3dd223f8	0.10260767
194	0x3dc5293e	0.09627007
195	0x3bb011b4	0.005373204
196	0xbca7b9b5	-0.020474294
197	0x3db4fd0d	0.08837328
198	0xbd9b76a9	-0.07590992
199	0xbd4b5831	-0.049644653
200	0xbd500e09	-0.050794635
201	0xbd516352	-0.05112011
202	0xbdd08447	-0.1018148
203	0x3db03618	0.086040676
204	0x3bff30ab	0.007787784
205	0xbba19b47	-0.0049318406
206	0x3db85f95	0.09002606
207	0xbdbc130b	-0.0918332
208	0xbd8bde34	-0.06829491
209	0x3d53647b	0.051609498
210	0xbd86b37d	-0.065772034
211	0x3cd0e479	0.02549957
212	0x3d33208f	0.043732222
213	0x3d8c6580	0.06855297
214	0xbdc56c18	-0.09639758
215	0xbd8fa3c5	-0.070136584
216	0xbc444f0b	-0.011981736
217	0xbc66502e	-0.014057202
218	0x3c4eb16f	0.012615546
219	0xbdb58ce8	-0.08864766
220	0xbcff832d	-0.03119048
221	0x3d62fdfb	0.055417996
222	0x3cee5d6c	0.029097281
223	0x3d0e0087	0.03466847
224	0xbdbbe7cc	-0.09175071
225	0xbd7a0fbf	-0.061050173
226	0x3bcab0a2	0.006185607
227	0x3ced58d6	0.028973024
228	0x3d6501c2	0.05590988
229	0x3bac6454	0.0052609835
230	0x3db8f638	0.090313375
231	0x3db600cc	0.08886871
232	0x3dcabef1	0.098997004
233	0xbcd7ffa6	-0.02636702
234	0x3d26e987	0.040750053
235	0xbd8d0323	-0.06885364
236	0x3d87f041	0.06637622
237	0x3cc5eb5d	0.024160082
238	0x3d8ee491	0.06977189
239	0x3d3cc4be	0.046086065
240	0x3d5dacd4	0.0541199
241	0xbd685cb3	-0.05672903
242	0x3d08e35b	0.033419948
243	0x3d613b81	0.054988388
244	0xbc4f8c1a	-0.01266768
245	0x3da69fd3	0.08135953
246	0x3d8adf92	0.06780924
247	0x3ba69697	0.0050838697
248	0xbdb7e4f2	-0.08979215
249	0xba41f8b1	-0.00073994236
250	0xbd1dfca9	-0.038571034
251	0xbdc52ec6	-0.09628062
252	0xbd89f0c3	-0.06735375
253	0x3d431f9f	0.047637578
254	0xbdc68cdf	-0.09694838
255	0x3dc120a0	0.09430051

bias f4 [40]
0	0xbd668715	-0.056281168
1	0xbc82f2cc	-0.015984915
2	0xbd3464ea	-0.04404155
3	0xbbd39115	-0.006456504
4	0xbda6d170	-0.08145416
5	0xbd97e0b0	-0.074159026
6	0xbd3a3eb7	-0.045469966
7	0x3db6c00b	0.08923348
8	0x3d323bbd	0.043514002
9	0xbbdee6b3	-0.006802404
10	0xbda089b7	-0.07838767
11	0xbd00d890	-0.03145653
12	0x3c9f4c6c	0.01944562
13	0x3d90eef0	0.07076824
14	0xbb7747ca	-0.0037731999
15	0xbd4695f9	-0.04848287
16	0x3d15b7e3	0.03655232
17	0xbd5a4c21	-0.05329526
18	0x3d7f9c91	0.062405173
19	0x3cfc3b71	0.030790063
20	0x3c836904	0.016041286
21	0x3cd3cad1	0.025853546
22	0x3ce9a2a6	0.02851994
23	0xbdc629cb	-0.0967594
24	0xbd332f1d	-0.043746103
25	0x3c8b7a99	0.017026233
26	0x3c443792	0.01197614
27	0xbdba4a8b	-0.09096249
28	0xbd5e0c1e	-0.054210775
29	0x3db5e580	0.08881664
30	0xbc754020	-0.014968902
31	0xbce25687	-0.02762915
32	0xbd68f081	-0.056869987
33	0x3c143aae	0.009047193
34	0x3dd2ac9b	0.10286828
35	0xbcfe86c9	-0.03107013
36	0x3da968f0	0.08271968
37	0xbb159757	-0.0022825801
38	0x3cf4dcb7	0.029890401
39	0xbd2d2070	-0.042267263
