scripts/model_cnn.pt (torch_old, 364849 bytes, 12 tensors)

weight f4 [10, 3, 2, 2]
000000 08 a5 1e 3e 9d 30 d3 3d 1e 21 45 be 7b 34 83 3e
       0.15492642 0.103120066 -0.19250914 0.25625977
000010 f8 29 06 be 4c b1 f6 bc 8c ac 68 3e 1d 72 18 bd
       -0.13101947 -0.030113839 0.22722071 -0.037218202
000020 7c 69 55 3e f1 8a ed 3d b9 15 a2 bd 33 fa e7 bd
       0.2084102 0.115987666 -0.079142995 -0.113270186
000030 32 28 3d bd 95 93 15 3e a1 06 98 be cc 4b d3 3c
       -0.04618091 0.1460708 -0.29692557 0.025792979
000040 cb 5d 3d bd a4 3d 65 be 56 26 4d 3e 9e 73 69 3e
       -0.046232026 -0.22386795 0.20034155 0.2279801
000050 9e 84 39 3e 16 61 fc bc e3 54 1f be 77 f7 38 3e
       0.18116996 -0.030808013 -0.15559725 0.1806315
000060 f8 50 a3 bd 4a 6f ac 3d 4d 74 47 be c7 77 84 3e
       -0.07974428 0.08419664 -0.19477959 0.25872633
000070 0f 08 7b be a2 e1 4b be b3 26 2b 3e 70 73 89 bc
       -0.24514793 -0.19910291 0.16713981 -0.016778678
000080 f3 b9 c7 bc 1c 61 da bd 3f 73 82 3e 71 54 99 3e
       -0.02438066 -0.106630534 0.2547855 0.29947236
000090 48 43 97 3e 49 e7 ab 3d 9d 88 6f 3e ff 6e 4e 3e
       0.2954352 0.083937235 0.23391958 0.20159529
0000a0 8e f1 34 3d 43 6a 36 3c 26 8b 6d 3e 45 3b 8a 3e
       0.044175677 0.011133733 0.23197612 0.26998344
0000b0 0f 78 8a be d6 3f 32 be b7 95 4b 3e 40 8f 67 be
       -0.27044722 -0.17407164 0.1988133 -0.2261324
0000c0 1d 94 f8 bd bc fb 1c 3a d8 fc 62 3e 57 66 9a 3e
       -0.12137625 0.0005988439 0.22166765 0.30156204
0000d0 6c aa ba 3d 68 a1 8f 3e eb 24 89 3e 9f a0 50 be
       0.09114537 0.2805283 0.2678598 -0.20373772
0000e0 48 44 9b be 15 83 17 3e b8 11 96 be 77 df 1a 3e
       -0.30325532 0.14796098 -0.29310393 0.15124308
0000f0 7d 11 b2 bc 41 ba 6c be af cd 36 be 19 cb a3 3c
       -0.021736855 -0.23117925 -0.178519 0.019994305
000100 7f f2 c1 bd 88 5b 43 be 0a ab a4 bd 2b e4 31 be
       -0.094700806 -0.19077885 -0.080404356 -0.17372195
000110 68 ea 69 bd ff 1e cf bd 2d 48 a4 3d 7a a8 07 be
       -0.057108313 -0.10113334 0.08021579 -0.13247862
000120 d1 9f 7e be 60 a0 6f be fe 2a ef 3b 5e 33 dd bc
       -0.24865653 -0.23401022 0.0072988262 -0.027002033
000130 f4 3e 82 3d c4 5f b8 bd 3d 46 33 be cb b6 9a be
       0.063596636 -0.09002641 -0.17507263 -0.30217585
000140 25 07 b8 3d 90 87 a5 3d fa 99 a1 bd 4d d8 fd 3d
       0.08985738 0.08082497 -0.07890697 0.12394772
000150 93 7d e6 bd a8 75 8f 3d bc 85 2b be 9b 95 60 bd
       -0.1125442 0.07004863 -0.16750234 -0.054830175
000160 3f 90 3d 3e 65 f3 9a 3d 5a 28 42 be 2c 8b a6 bc
       0.18512057 0.07565955 -0.18960705 -0.020330034
000170 16 2c 3b be 64 d8 d9 bd 0d f7 1c be ff 4e a9 3c
       -0.18278536 -0.10636976 -0.15328617 0.020667551
000180 d4 81 c9 bd 47 a7 10 be 24 6a 91 3e e4 c4 8c 3e
       -0.09839216 -0.14126311 0.2840129 0.27493966
000190 10 4b bf bc 0e f1 0e 3e d2 bb 2e 3e 16 b4 2b 3e
       -0.023351222 0.13959143 0.17063835 0.16767916
0001a0 23 e6 90 3e e4 72 46 be 01 aa 46 3e fb d0 0f be
       0.2830058 -0.19379765 0.19400789 -0.14044563
0001b0 d9 f7 2f 3e 4d 98 f2 bd 98 06 38 3e 81 a1 87 be
       0.1718439 -0.11845455 0.17971265 -0.26490405
0001c0 c9 06 31 be aa 6e 80 3e 14 32 6c be c1 8d 34 3e
       -0.17287745 0.2508443 -0.23065978 0.176322
0001d0 5f 0f 54 be 48 03 9a bc 8b 52 33 3e 2e 08 58 3e
       -0.20708989 -0.018800393 0.17511956 0.2109687

bias f4 [10]
000000 07 19 57 be 40 65 27 be 76 7a a1 bd 1a 0f 85 be
       -0.21005641 -0.16347218 -0.07884686 -0.25988084
000010 ca c8 7f be 6c 8e d6 bd 86 e4 4f 3e c5 cc 6c be
       -0.24978939 -0.104763836 0.20302019 -0.23124988
000020 6e 0c 03 be fd c9 5c 3e
       -0.1279771 0.21561427

weight f4 [10, 10, 3, 3]
000000 9a 08 b9 3d 54 41 85 bd 5a 76 15 3d 43 38 e7 bc
       0.09034844 -0.06506601 0.036489822 -0.02822507
000010 fe ab ac bd 3c a0 21 bd 97 95 63 bd 00 a3 a4 3d
       -0.084312424 -0.039459452 -0.055562582 0.08038902
000020 2b ef f4 bc 3d a2 a9 3c 88 e4 04 3d 68 40 91 bd
       -0.0298992 0.020707244 0.032444507 -0.07092363
000030 0e ea a8 bb f0 dc a0 bd 2d e2 2b bd a4 64 00 bd
       -0.0051548546 -0.078546405 -0.041963745 -0.03134598
000040 19 86 85 bc 12 dd bb 3d 9c 76 07 3c ce aa 86 3d
       -0.016299294 0.09173025 0.008268025 0.06575547
000050 b2 7b a9 bc 18 97 a0 3d a9 43 c4 3d e4 85 0b bd
       -0.020688865 0.07841319 0.09583218 -0.034063235
000060 45 db 91 bc a0 4e 2e bd 98 e2 a3 bd 52 ac c1 3d
       -0.017804751 -0.04255545 -0.08002204 0.094566956
000070 30 3d 70 bc 46 90 e4 3d 8b ff 1f 3d e0 47 a4 3c
       -0.014663026 0.111603305 0.039062064 0.020053804
000080 a5 c8 83 3d f8 ce 6a bc 6d b0 67 bd 6e 37 30 3d
       0.06434754 -0.014331572 -0.056564737 0.043021612
000090 ea a6 ed 3d 76 4d ed bc f6 c6 c1 bc be 94 3d bd
       0.11604102 -0.0289676 -0.023654442 -0.04628443
0000a0 57 14 d5 3c 96 7f 8e bd 95 cb b7 ba 46 09 29 ba
       0.026010675 -0.06957929 -0.0014022464 -0.000644822
0000b0 32 0f 85 bd bb bf 6a 3c 85 9f ab bd 30 72 2e bd
       -0.06497039 0.014327939 -0.08380035 -0.042589366
0000c0 00 5c d0 3d 86 0f c5 3d 46 4f 9f 3d 6f d4 3a bd
       0.101737976 0.096221015 0.07778792 -0.04561275
0000d0 79 ee c3 bc 92 97 99 bd 14 f6 b4 3d a9 0b 8e bc
       -0.023917424 -0.07499613 0.08835998 -0.017339544
0000e0 45 0a cc 3d 5d 5a 4b 3d 3f d0 c6 3d 7b d3 4a bd
       0.09962896 0.049646724 0.097076885 -0.04951809
0000f0 df e0 40 bd 8c c9 b3 bc 28 fb ab 3c a1 fc 54 3c
       -0.047089454 -0.021946691 0.020993784 0.012999685
000100 37 be 90 bd 62 64 6c bd 22 a2 07 bd ca c1 bd 3d
       -0.070675306 -0.05771292 -0.033113606 0.09265478
000110 8b d5 03 bd 2e e0 a8 bd d6 a7 6e 3d 9b 5a a3 3c
       -0.032186072 -0.08245884 0.05826553 0.019940665
000120 41 75 18 3d 11 e7 8f 3d ce bb 9e 3d 46 0b 28 3d
       0.037221197 0.07026494 0.07750665 0.041026376
000130 34 72 82 3d fc d7 d3 bc e3 28 8a 3d 5f 62 4d bd
       0.06369439 -0.025859825 0.0674608 -0.050142642
000140 c1 f7 2b bd 4c ab 74 3d b0 ba 23 bc 41 a1 06 3c
       -0.041984323 0.059733674 -0.00999324 0.008217157
000150 c7 d4 de 3d 7e 43 48 bd 41 56 fa 3c 8c ab 94 bd
       0.10880428 -0.04889249 0.030558707 -0.072592825
000160 e9 5e 9f 3d 4c e3 49 bd 92 77 35 3d a7 fb 60 3d
       0.077817746 -0.049289033 0.044303484 0.054927494
000170 72 d2 85 bc c4 e1 cc 3c 36 42 d9 3d 57 92 62 bd
       -0.0163357 0.025009997 0.10608332 -0.05531534
000180 98 44 cb 3d f8 e1 d4 3d ea ed 88 bd 06 4f 36 3d
       0.099251926 0.103946626 -0.066860035 0.044508956
000190 31 5a 43 3c 80 05 9f 3d d0 4e 05 3d 43 dd dd bc
       0.011923359 0.07764721 0.032545865 -0.027083045
0001a0 1e fb ee bc 25 a2 99 bd 03 af ed 3d 2c 39 51 bd
       -0.029172476 -0.0750163 0.116056465 -0.051079914
0001b0 f7 65 17 3d 33 0e 69 bd ea f3 12 bd ca cd 69 39
       0.036962476 -0.056898307 -0.035877146 0.00022297274
0001c0 e8 bd 8f bb b6 bd 92 bd 6c 3f be 3d 0d ab 30 bd
       -0.0043866523 -0.07165091 0.092894405 -0.043131877
0001d0 a3 7d 48 3d a2 c3 d5 bc 7d 7d f6 3d df cf cb 3d
       0.04894794 -0.026094262 0.12035654 0.09951758
0001e0 a8 c4 cc bc 57 9f b3 bc 0e ba d7 3d 05 90 d3 bb
       -0.024996117 -0.021926565 0.10533534 -0.0064563775
0001f0 6b 4a 31 3d 56 f9 97 3d 9f 9a a4 bd 32 a1 1c 3d
       0.04328386 0.07420604 -0.08037304 0.038239665
000200 63 d9 b6 3d 09 e4 b1 bc 0d 1e e4 3d 8c 3d 01 3d
       0.08928182 -0.021715181 0.11138544 0.031552836
000210 62 94 88 3c d4 66 0b bc 14 ad 5d 3d 6e 96 ba bc
       0.016672317 -0.008508403 0.05412014 -0.022776809
000220 2f d2 df 3c b4 e0 92 bd 9d dd ed 3d e0 c8 95 bd
       0.027321903 -0.07171765 0.11614535 -0.073137045
000230 7e ba b9 3d 6c f3 3e bb 14 ee 10 bd c2 bc 8e bd
       0.09068774 -0.002913679 -0.0353833 -0.069695964
000240 ee 29 82 bc 28 60 3d bd 51 12 95 3d 9a ee c4 3d
       -0.015889134 -0.04623428 0.07278884 0.09615822
000250 69 69 ef 3d 43 5c b9 3d 02 13 a1 3d 95 75 68 bd
       0.11690027 0.09050801 0.078649536 -0.05675276
000260 1c 99 57 3d a2 06 fd 3c 86 0b e4 3c 0b 9d 21 bd
       0.05263625 0.030886952 0.027837526 -0.03945641
000270 f5 e5 89 3d 9e c2 11 3d 69 95 28 3c c5 b8 60 bc
       0.06733314 0.035585992 0.010289528 -0.0137159275
000280 26 65 10 3d 7a 02 ba 3d 4b 75 35 bb 08 4f 5e 3d
       0.035252713 0.090825036 -0.002768832 0.05427459
000290 6c 13 17 bc 49 3e 08 3c a1 f7 3b 3d 65 5f f5 3d
       -0.009220939 0.008315631 0.045890454 0.11981086
0002a0 7c 8f 40 3c 6c 29 1a 3c 4c bb 06 3d 7b 89 33 3d
       0.011752959 0.00940929 0.032893464 0.043832283
0002b0 ff f1 97 3d 7a ba 95 bd 26 08 40 3d c5 f6 89 bd
       0.07419204 -0.07310958 0.04688277 -0.06736521
0002c0 50 89 b6 bc c3 d7 27 3d 03 d1 6b 3d 83 b9 9b bd
       -0.022282273 0.04097725 0.057572376 -0.07603743
0002d0 88 48 9e bd 91 15 6e bc 59 3c b0 3d 99 0c 30 3d
       -0.07728678 -0.014531509 0.086052604 0.042980764
0002e0 87 92 65 bc aa 27 c5 bc 3f 3a 3c bd b0 3f 55 3d
       -0.014011986 -0.024066765 -0.045953985 0.05206269
0002f0 42 5c d0 3d 00 28 e9 3c 3d a6 74 bd 4c be 8c 3d
       0.10173847 0.028461456 -0.05972885 0.06872234
000300 7c 14 35 bd e6 82 c7 3d 96 a9 17 3d 19 36 f4 3d
       -0.04420899 0.09741764 0.037026964 0.11924381
000310 1c 47 98 3d 4d 27 03 bd 38 aa 4a 3d eb 4c 86 bd
       0.07435438 -0.032019902 0.04947874 -0.0655764
000320 95 58 bd 3c a8 fd ae bd 9c e6 c4 bc 14 76 82 bd
       0.023113528 -0.08544475 -0.024035744 -0.06370178
000330 4c 95 b3 bc 40 fa 02 bb 24 08 86 3d 77 1e 51 bd
       -0.021921776 -0.0019985586 0.065445215 -0.051054444
000340 bf 45 63 3d cc 9e 94 3d 80 4e 5b 3d 9c e9 c1 3d
       0.055486437 0.072568506 0.05354166 0.094683856
000350 50 39 8a 3c 91 54 de bb e9 68 c4 3d a4 bd ad bc
       0.016873032 -0.0067849834 0.095903225 -0.021208592
000360 d1 f9 33 bd 82 b2 e9 3d 81 ee 9a 3d 5e f7 00 3d
       -0.043939415 0.11411001 0.07565022 0.031485908
000370 cc 4f c6 3d 2e 9f ac 3c 68 4c cf 3d a0 ac b7 bc
       0.09683189 0.021071997 0.10121995 -0.022421181
000380 0d 5e e5 3c a9 4f a2 bd 0e e5 5b 3d 09 84 9a 3c
       0.027998948 -0.0792535 0.05368524 0.018861787
000390 1f d1 80 bc 32 ba 3b bc 08 e6 8d 3c 65 2c 44 bd
       -0.015724717 -0.011457967 0.017321602 -0.0478939
0003a0 84 75 87 bd 75 0c c3 ba 7e ac 3e 3d a2 24 ae 3d
       -0.06614211 -0.0014881032 0.04655122 0.08503081
0003b0 12 48 39 bd fd 8a ec bb 23 77 d0 3d cf 94 4c 3d
       -0.045234747 -0.007218717 0.101789735 0.049946602
0003c0 da 67 ac 3d 34 b2 9a bd e2 f2 e5 3d 8f f6 68 bd
       0.084182456 -0.07553521 0.11227967 -0.05687576
0003d0 ab 6a 30 bd c3 9f 88 3d 4b 8e d7 bc 34 f4 49 3d
       -0.043070477 0.06671097 -0.026312968 0.049305156
0003e0 87 d5 f0 3d 0a 51 d0 bc 69 e8 75 bc 5f 04 a3 bd
       0.11759477 -0.025429267 -0.015009024 -0.07959818
0003f0 33 70 aa 3d 4d 1e b9 3c 64 47 3b bc 6e 68 33 bd
       0.083221816 0.022597456 -0.011430595 -0.043800764

bias f4 [10]
000000 bf eb 01 bd ce 28 6f 3d 34 65 ac 3d 6f 19 af bd
       -0.031718966 0.058388524 0.084177405 -0.08549773
000010 27 8d 53 bd d3 8f fb bc f4 e1 5e 3d 7a 7f a4 3d
       -0.051648285 -0.03070823 0.054414704 0.08032127
000020 2e ea 18 bd 3a 18 d6 3d
       -0.037332706 0.104538396

weight f4 [10, 10, 4, 4]
000000 3f d7 74 bd 9f 8c 6a 3d 48 47 5f 3d 79 85 3f bc
       -0.059775587 0.057263013 0.05451134 -0.011689537
000010 ec 7b 11 3d 86 d9 be 3d 01 9f 7c bd 8c 34 d7 bc
       0.03551857 0.09318833 -0.061675075 -0.026270173
000020 64 ce a7 3d c2 a6 3a bd a4 36 d6 bc ca 8b 5c 3d
       0.08193663 -0.04556919 -0.026149102 0.05384425
000030 6e 95 bd 3d a8 e7 aa 3c 6a ef b2 bc d0 1a 26 bd
       0.09257017 0.020862415 -0.021842677 -0.040552914
000040 87 75 ae 3d 1b 34 e5 3c 0d e5 92 3d 9c 78 8e 3d
       0.0851851 0.027978947 0.07172594 0.06956598
000050 2a ba 3f 3b db 25 42 bd c0 a1 98 3d e1 ba 90 3d
       0.002925525 -0.047399383 0.07452726 0.07066894
000060 7a 1b 0d b8 b8 a2 06 bd 4a 79 59 3b 7a 10 6f 3b
       -3.364261e-05 -0.032870024 0.0033183866 0.0036478327
000070 0c 5e 57 3c ad 9a 15 3d ae 87 aa 3d 21 f0 a7 3d
       0.013144981 0.036524463 0.0832666 0.08200098
000080 8c 68 37 bd c2 65 1a 3d c0 d3 2d 3d 52 6d 4d bd
       -0.044777438 0.0376947 0.04243827 -0.050153084
000090 02 b0 bc 3d 73 0f 08 3b 3e 83 c7 3d e7 82 a2 3d
       0.09213258 0.0020761162 0.09741829 0.07935124
0000a0 46 e0 de 3c 54 04 72 bd 7a c3 40 bd 67 92 a9 bc
       0.027206551 -0.05908616 -0.04706142 -0.020699693
0000b0 f6 39 f8 3c 01 a2 13 3d 1c 83 39 bc ed 15 af 3d
       0.030301075 0.03604317 -0.011322763 0.08549104
0000c0 6e 7c 99 3d 01 67 30 bd a1 cf 96 3d 47 1a f2 bc
       0.07494436 -0.043066982 0.07363821 -0.029553546
0000d0 d8 ac b7 3d 97 f3 1f bd ca 65 9f 3d 18 a1 3c 3d
       0.08968514 -0.039050665 0.077830866 0.04605207
0000e0 e1 ab 0f bd 0a ea 41 bc dc b0 16 3d 95 94 f3 3c
       -0.035076026 -0.011835584 0.03678976 0.029733935
0000f0 58 90 13 3d d5 23 67 3c bb 9a 3e bd 6f 5d 92 3d
       0.03602633 0.014107664 -0.04653428 0.07146727
000100 b8 c5 55 bd 9d 48 a5 3d 44 f7 1f 3d 57 3a ae 3d
       -0.052190512 0.080704905 0.03905417 0.08507221
000110 a8 a7 5f 3d 36 5e 7a bd b8 7a 8c 3d 0e 5e 53 bd
       0.05460325 -0.061125003 0.06859344 -0.05160337
000120 33 d1 83 3d 83 55 e2 bc 8d 30 f4 bc b5 76 50 3d
       0.06436386 -0.027628666 -0.029808307 0.050894458
000130 1b fe a5 3d be c1 c6 3d b0 14 4a bd e2 67 ab 3d
       0.081051074 0.09704922 -0.049336135 0.083694234
000140 7d 4e 96 3d e7 9b c1 3d bc 91 18 bc 89 a4 60 bc
       0.07339189 0.09453564 -0.0093120895 -0.013711103
000150 2d 4d 74 3d c2 0c 9c 3d db 7b 69 3d 49 3f 93 3d
       0.059643913 0.07619621 0.057002883 0.07189805
000160 0c 46 1e 3d cb 3c 52 3d c7 c5 f7 3c 87 4d c0 3b
       0.03864102 0.051327508 0.030245675 0.005868617
000170 29 b9 38 bd bb 47 a2 3d 14 ff 18 bd 77 ae 3d bd
       -0.045098457 0.07923838 -0.037352636 -0.04630896
000180 fe f9 f7 bc 18 0e 19 3d 5e 22 38 3d d2 ac d1 bc
       -0.030270573 0.037366956 0.04495465 -0.025595102
000190 d8 e0 89 3d 0b 1a 29 bd 03 22 90 3d ca 7c c7 3d
       0.06732339 -0.041284602 0.07037737 0.097405985
0001a0 6f 25 ee bc 91 cc 20 3c f7 a0 8c bc ef 3a ea bc
       -0.029070584 0.009814397 -0.017166598 -0.028592555
0001b0 cf a6 21 3d 6d 1a 9b 3c 01 2a 6d 3d cc 28 0b 3d
       0.03946572 0.0189335 0.057901386 0.033974454
0001c0 63 56 2e 3d 1e a6 94 3d e5 0c 47 bd 7d bf 15 bd
       0.042562854 0.07258247 -0.04859628 -0.03655957
0001d0 90 28 42 3d 11 97 75 bd a3 7b 3c 3d 85 33 f8 bc
       0.047401965 -0.05995852 0.046016347 -0.030298004
0001e0 2b 34 a2 bc 7a fd 5d 3c 75 96 08 bd 82 6f 49 3b
       -0.019800266 0.013549203 -0.033346612 0.003073663
0001f0 68 80 94 3d 6b 2e 1a bd 5d b6 92 3d cb fa c9 3c
       0.07251054 -0.037641924 0.07163689 0.02465572
000200 a4 a4 3c 3d 06 75 4c 3d 15 d4 08 bd 0b 30 24 bd
       0.04605545 0.04991629 -0.033405382 -0.04008488
000210 60 8d af bc b2 69 27 bd 91 59 2e bd 07 4b 77 3d
       -0.021429718 -0.040872283 -0.042565886 0.060374286
000220 ee 45 2d bd 4a 0c 70 bd e1 df 73 bd 05 5e 28 3d
       -0.04230302 -0.05860547 -0.05953968 0.04110529
000230 f5 b4 25 bd f7 e5 9b 3c d6 81 17 bd 63 12 0e 3d
       -0.040455777 0.019030554 -0.036989056 0.034685504
000240 ae 27 89 3c c7 c8 27 bd a8 c5 d6 bc a2 41 99 bb
       0.016742554 -0.04096296 -0.026217297 -0.0046770135
000250 fb 8b 5f bd 82 35 43 3d 34 18 29 3d 2b 83 a0 3d
       -0.054576855 0.04765845 0.041282848 0.07837518
000260 d6 bb 9e 3b 07 3b 9d 3d 82 46 8b 3d d5 d8 31 3d
       0.004844169 0.07677274 0.06800558 0.043419678
000270 e5 71 10 3d 1a 54 04 bd ee 4b ad 3d b6 09 2b bd
       0.03526487 -0.032306768 0.08461748 -0.041757308
000280 cc 1f d9 3c e8 30 46 3d 03 d7 33 bd 9f 19 00 bc
       0.02650442 0.048386484 -0.043906223 -0.007818609
000290 77 8b 14 3d 88 bf 64 3d 18 c0 c6 3d 5c 2c bb 3d
       0.036265817 0.05584672 0.09704608 0.0913932
0002a0 9a e0 57 bd da cd bc 3d 75 29 5a bd 67 4c 0f bc
       -0.05270443 0.092189506 -0.053262193 -0.008746243
0002b0 cf f6 0d 3d ec 50 ab 3d ee b9 5d 3d 7e dc 81 3d
       0.034659203 0.08365044 0.054132394 0.06340884
0002c0 d9 8d d4 3c 79 f0 ba bc d0 a2 c3 3d 85 4c 27 bd
       0.025946544 -0.022819744 0.095525384 -0.04084446
0002d0 1f 7e 27 bd e9 09 31 bd 14 77 0a 3d a3 62 8a 3d
       -0.040891763 -0.04322234 0.033804968 0.06757095
0002e0 2f a6 75 bc 04 c6 01 bd 58 4e 7e 3d 3e 60 93 3d
       -0.014993235 -0.031682983 0.062086433 0.07196091
0002f0 b9 b6 4d bd e4 7a 13 3d 0f aa b5 3d de 11 7b 3d
       -0.050223086 0.03600587 0.08870327 0.061296336
000300 47 46 56 3b a0 89 89 3d 24 47 20 3d 0c 7d bf 3c
       0.0032695697 0.06715703 0.039130345 0.023375057
000310 c5 b3 b1 3d 52 6b 37 bd c0 3c 58 3d 7d 2f 95 3d
       0.086768664 -0.044780083 0.05279231 0.07284448
000320 da 04 df 3b 69 f3 6f 3d 6e 4b 12 3b 88 59 45 bd
       0.0068059983 0.058581743 0.0022322792 -0.048181087
000330 68 a8 cb 3c 94 27 87 3d f8 1c e2 3b 7a 15 b1 3d
       0.024860576 0.06599346 0.006900426 0.086466745
000340 ac 9d e8 ba 05 07 6f bd da ad bd bc 69 12 2a bd
       -0.0017747185 -0.058356304 -0.023154188 -0.041521464
000350 9d 59 cd bc c4 43 8d bb 24 66 17 3d 87 a0 c5 3d
       -0.025067145 -0.004311057 0.036962643 0.09649759
000360 bb 48 78 bc 6f b5 15 3d 7b 36 26 3d f5 da a8 3d
       -0.015154059 0.03654998 0.0405793 0.08244888
000370 9f 8c 93 3d a1 ae 10 3d b9 09 19 bd 54 4d 9b ba
       0.07204556 0.03532279 -0.037362788 -0.0011848607
000380 9a d7 6d bc 63 2e 14 bd fc 20 24 3b b0 fa 34 bb
       -0.014516735 -0.03617705 0.0025044074 -0.0027615242
000390 7a 63 0f bd 75 70 e8 bc 08 86 24 3c a6 3c cf bb
       -0.035006978 -0.028373936 0.010041721 -0.0063243685
0003a0 a2 01 58 3d be 43 6f bc da 74 0c 3d f9 7e e2 3c
       0.052735932 -0.014603553 0.034291126 0.027648436
0003b0 68 91 a6 3d b7 5a 8d bc 15 83 25 bd cf 1e 72 3c
       0.08133203 -0.01725517 -0.040408213 0.014777853
0003c0 45 c4 3f bd 35 54 45 38 ac 2e fe 3c ee 53 5d 3c
       -0.046818037 4.7046884e-05 0.031028114 0.01350878
0003d0 a1 72 34 3d 71 ac 1e bc ef f6 08 3d 6b 40 46 bd
       0.04405463 -0.009684668 0.03343862 -0.048401278
0003e0 03 2c e4 3c 1e c6 88 3c e4 16 6d bd 58 b5 69 bd
       0.027853018 0.016696032 -0.05788316 -0.05705771
0003f0 72 e6 c2 3d 81 00 e3 bc e4 3f 12 3d 33 bd cd 3c
       0.0951661 -0.027710201 0.035705462 0.025114631

bias f4 [10]
000000 b7 e6 bb 3c 92 25 99 3d 5a b3 05 3d 24 09 91 bd
       0.022937162 0.07477869 0.032641746 -0.070818216
000010 7d 90 c5 3d 34 1e 4e bd ac 14 fe 3a 14 ef 0b bd
       0.096466996 -0.050321773 0.0019384823 -0.03416355
000020 a0 18 1d 3d 02 0b 05 3d
       0.038353562 0.0324812

weight f4 [10, 10, 5, 5]
000000 e7 48 7c bd a0 e2 07 3b 8a 3d b7 bc 5e 5c 26 3d
       -0.061592963 0.0020734444 -0.022368211 0.040615432
000010 e0 97 d5 bc 10 f9 b8 3c ac 3e 12 bc 0c 5e 71 3d
       -0.026073396 0.0225797 -0.008926075 0.05892758
000020 f4 00 28 bd dc 05 23 bd 34 ad d9 bb 20 cc eb 3b
       -0.041016534 -0.03980051 -0.006642962 0.0071959645
000030 04 57 f3 bc 90 f0 58 3d 9c 5a 22 bc c0 87 c9 bc
       -0.029704578 0.052963793 -0.009909298 -0.024600863
000040 40 6e 76 3d 05 70 49 bc 04 72 8b bc 76 2c e9 bc
       0.060163736 -0.012294774 -0.01702214 -0.028463583
000050 98 51 3f 3d fa b0 1b bd 88 7b 46 3d 3c 99 50 3d
       0.046708673 -0.038010575 0.048457652 0.050927386
000060 aa 1c af bc 0b 1b cb 3c 57 22 10 bd 90 bb d4 bb
       -0.021375973 0.024793169 -0.035189 -0.0064920858
000070 fa fe 8e 3c 3e ee 27 3d bd 45 87 bc f8 33 6f bd
       0.017455567 0.04099869 -0.016512746 -0.05839917
000080 93 d3 f9 bc 26 de 3b 3d 68 62 51 bd a6 2b 14 3d
       -0.030496394 0.045866154 -0.05111924 0.03617444
000090 26 79 92 3b 2f c4 3d 3d a1 6b 70 bd 75 04 50 bd
       0.0044700084 0.046329673 -0.058696393 -0.0507855
0000a0 f7 c8 64 bc 76 68 cb 3c 4f 1b 80 bd f1 f9 66 bd
       -0.013963929 0.024830084 -0.06255209 -0.056390706
0000b0 f6 94 ab bb ad 70 00 3d 50 47 a8 3c 92 50 13 bc
       -0.0052362634 0.031357456 0.020541817 -0.008991377
0000c0 ee 91 4d bd 70 1b f9 3c 78 b6 57 3c 01 74 93 3c
       -0.050187998 0.030408591 0.0131660625 0.01799965
0000d0 aa e5 be bb ec 21 48 bd a0 ce b6 3b 48 7b c2 3b
       -0.005825718 -0.048860475 0.005578831 0.0059351064
0000e0 06 71 dc bc 42 0b cd bc 91 e6 ec bc 78 e2 02 3c
       -0.026909363 -0.025029782 -0.028918536 0.007988565
0000f0 34 ee c1 3c 28 ed 33 3d 2d 53 5e bd 6e 92 3e 3d
       0.023673154 0.04392734 -0.05427854 0.046526365
000100 02 2b 67 bd 88 68 76 3c a6 e9 24 3d be e2 03 bd
       -0.0564375 0.015039571 0.040261887 -0.03219866
000110 47 2b b5 3a 0b fd 56 bd b0 3d 0d bd a2 f1 50 bd
       0.0013822102 -0.052487414 -0.034482658 -0.05101169
000120 60 6b 22 3d 93 93 55 bd ae 89 5e 3d 92 f9 a2 bc
       0.039653182 -0.05214269 0.05433052 -0.019894395
000130 b8 8c f0 bc 00 1c cc bc 16 ac 43 3d d0 eb 33 bc
       -0.029363975 -0.024915695 0.047771536 -0.010981515
000140 20 a4 7a bb 8c c3 e4 3c 56 3b 34 bd 9a aa 11 3d
       -0.0038244799 0.027925275 -0.0440019 0.03556309
000150 c6 6c 40 bd 40 6a 04 bc c6 5f 04 3d c8 30 b8 3c
       -0.046978734 -0.008081973 0.0323179 0.022484198
000160 00 27 a7 3a 18 e1 ba bb cc 08 b8 bc 3e 2c 48 3d
       0.0012752712 -0.005703103 -0.022465132 0.048870318
000170 57 46 0f bd 84 18 3a bd a2 9a af bc a0 99 9d ba
       -0.03497919 -0.045433536 -0.02143604 -0.0012023933
000180 d0 00 3b 3d 20 f4 c5 ba 7c 99 4b 3d 83 56 36 bd
       0.04565507 -0.0015102662 0.04970692 -0.044516098
000190 c0 a9 21 3d 16 e8 6c bc ec 69 50 bc 16 6a 95 3c
       0.039468527 -0.0144596305 -0.012720566 0.018239062
0001a0 1b 2b 85 bd 2f a9 e9 bc ac 3a 06 bc c4 4e a4 3c
       -0.06502362 -0.028523056 -0.008192699 0.02005709
0001b0 70 80 76 bd 4a 63 01 3c a1 7e 52 3d bd f5 62 3d
       -0.06018108 0.0078972075 0.051390294 0.055410136
0001c0 0e a4 27 3d 12 12 c4 bb 58 66 88 bd 23 e3 1f bc
       0.04092794 -0.0059835995 -0.066601455 -0.009758743
0001d0 11 b3 41 3d d6 f9 cb 3c 3b 45 86 bd 67 9f 0e bd
       0.04728991 0.024899404 -0.065561734 -0.034819987
0001e0 2a 4a e2 3c b4 9b c3 3c 4a 1b 3c 3d 8d aa 69 3d
       0.027623255 0.023877956 0.045924462 0.057047416
0001f0 8c 28 4a bd 01 94 c6 3b e2 ea 90 bc 69 81 4f 3d
       -0.049355075 0.006060124 -0.017690126 0.050660525
000200 e8 a1 51 3d 45 6c 69 bd cc ab 57 bd 4c 07 79 3c
       0.051179796 -0.05698802 -0.052654073 0.015199494
000210 61 71 82 bc b0 97 49 3d 54 cd 37 bd 58 37 27 bd
       -0.015923204 0.049216926 -0.04487355 -0.040824264
000220 32 a7 32 3c 7f 4d b8 bb e8 10 ce ba 12 6e 38 bd
       0.01090412 -0.0056244726 -0.0015721591 -0.045026846
000230 b3 61 15 3d cc 36 23 3d f1 98 44 3d b3 6b 13 3d
       0.036470126 0.03984718 0.04799742 0.03599138
000240 78 4f 23 bc 95 e2 b9 bc 3a 38 7e bc e7 e9 3c bd
       -0.009967677 -0.02269105 -0.015516335 -0.046121504
000250 32 e7 12 3d 38 71 56 bc 86 7a 87 bd f5 1b 39 3b
       0.035865016 -0.013088517 -0.06615166 0.0028245423
000260 ce 07 27 bd 5a 9d af 3c 51 dc c7 3b 89 ba c7 bc
       -0.040778928 0.021437336 0.006099262 -0.02438094
000270 00 9c 04 bc 09 6a 59 bb d3 16 c7 39 2d 74 43 bd
       -0.008093834 -0.0033174774 0.00037973243 -0.047718216
000280 62 26 5d 3b bf b3 42 bc 25 e0 5f bd e8 bc 7d bd
       0.0033744802 -0.011883675 -0.05465712 -0.061947733
000290 70 00 18 3d b8 ee 44 3d 1e 4a 3c bd 2c 50 6e bc
       0.037109792 0.048079222 -0.04596912 -0.014545482
0002a0 66 5f da 3c 73 bc 0b bd eb 62 14 bb da 6b 85 bd
       0.026656818 -0.034115266 -0.0022641968 -0.06514712
0002b0 7f 26 69 bd f3 60 20 ba 0d 7f f7 bc a4 39 b1 3c
       -0.05692148 -0.0006117962 -0.03021195 0.02163393
0002c0 f0 20 af 3c 49 2a d0 3c 71 d4 b9 ba 68 d8 6f 3c
       0.02137801 0.025410788 -0.0014177692 0.014638998
0002d0 80 59 c9 3b 38 93 5a 3c 30 4e 49 bc 3c 2a 88 3c
       0.0061447024 0.013340764 -0.012286708 0.016621701
0002e0 10 f5 d9 3c 17 c6 59 bd ec d9 1f bc 02 2a bd bc
       0.026606113 -0.05316743 -0.0097565465 -0.02309132
0002f0 0a c5 50 3d 0b 9a c7 3a 41 6b 36 3d 1f b7 45 3d
       0.05096916 0.0015228403 0.04453588 0.04827034
000300 c0 1f bb bb 24 95 87 3c 74 1a d7 3b 73 e9 fe bc
       -0.005710572 0.016550608 0.0065644328 -0.031117177
000310 74 bb 03 bd 3d ad 5d 3d 68 08 c2 3c 5d 93 13 bd
       -0.03216119 0.05412029 0.023685649 -0.03602921
000320 6e c8 cb 3c e1 ee 88 bd ca 37 80 3d b8 ff 12 bd
       0.024875846 -0.066861875 0.06260641 -0.035888404
000330 c8 59 81 bd d6 41 8e bc b3 2a 30 bd f1 86 36 3d
       -0.063159525 -0.017365377 -0.04300947 0.044562284
000340 a0 4d e9 bb 3b fa 5e bd 22 eb 36 bd 60 ba cf bc
       -0.0071198493 -0.054437857 -0.044657834 -0.025357425
000350 6d 96 46 bd 52 50 73 3d d0 6f 82 3c c4 8c bb bb
       -0.0484833 0.05940277 0.015922457 -0.0057235677
000360 22 21 20 bd 4d 43 7f bd 8c 8f c2 bc 08 2a 12 3c
       -0.039094098 -0.062320042 -0.02375009 0.008921154
000370 ba 82 47 bd f8 88 2d 3d 0c 06 33 bd f0 e9 56 3d
       -0.048708655 0.04236695 -0.04370694 0.052469194
000380 f8 c6 75 3c 6b da 5e bd f4 f1 d4 3c ca e9 5f bc
       0.015001051 -0.05440752 0.025994278 -0.0136665795
000390 20 a3 bf bb d6 a6 7f bd 6b b5 76 bd 01 58 6e bb
       -0.0058483034 -0.062414967 -0.060231607 -0.0036368372
0003a0 79 c4 08 3c 74 a1 b2 3c a2 49 01 bd f4 d5 31 bd
       0.008347624 0.021805502 -0.031564362 -0.043416932
0003b0 c5 94 cb 3c fb 18 41 3d 68 54 d5 3c 79 4d 34 bd
       0.024851212 0.047142964 0.026041225 -0.044019196
0003c0 28 cd 74 bc b1 2c 09 3d e2 09 9b bc 45 7d 0b bd
       -0.014941491 0.033489887 -0.01892561 -0.034055013
0003d0 9a ff 25 3d 10 77 44 3c 0a 01 52 3d 3e 7a 42 3d
       0.040526964 0.011991277 0.051270522 0.04747986
0003e0 80 b6 36 ba 46 cb 5c bd 2f a5 3e 3d 35 0d 9f bc
       -0.00069699436 -0.053904794 0.04654425 -0.019415477
0003f0 8b 7a 8f 3d 49 77 a7 3b 72 ac 6c 3c c3 0e 87 3c
       0.07005795 0.0051106554 0.014445411 0.016486531

bias f4 [10]
000000 eb 51 63 bd bb f5 85 3c 35 02 90 bc 13 36 4c bd
       -0.055498045 0.016352525 -0.017579177 -0.049856257
000010 dc 23 20 3d ea af c3 3c 29 ef 2d bd ef ba fe bc
       0.0390967 0.023887593 -0.04246441 -0.031094996
000020 78 f9 e1 bb 73 a0 16 bd
       -0.006896194 -0.03677411

weight f4 [100, 810]
000000 e6 d6 fe 3c 7c 35 42 3c b0 e7 68 3c 16 4f bd bc
       0.031108331 0.011853572 0.014215395 -0.023109
000010 96 b0 8a 3c e7 75 8f bc f4 04 40 3c 79 d6 fb bc
       0.016929906 -0.017512275 0.011719931 -0.030741917
000020 ae ad d8 3c 7a c7 0b bc b0 83 ba 3c 24 3c c7 bc
       0.026450004 -0.008531446 0.022767872 -0.02432067
000030 8a 5b 22 bc 80 98 96 3b 30 95 93 3c 85 97 bb bc
       -0.00990952 0.004595816 0.018015474 -0.022899399
000040 fe d2 e9 bc e0 2f ca 3a 83 9d e1 bc 49 b3 86 bc
       -0.028542992 0.0015425645 -0.027540928 -0.016442912
000050 00 30 79 3b 0a 60 e0 3c 90 e7 d4 3c dc eb c2 3c
       0.0038022995 0.027389545 0.025989324 0.023794107
000060 68 dd 49 3c 2e ba a0 bc 3c 48 88 bc 0e 9a 0e bd
       0.012320854 -0.019620027 -0.016636007 -0.034814887
000070 72 d8 fe 3c 10 44 38 3c a4 6c 20 bc b4 63 fe bb
       0.031109069 0.011246696 -0.009791527 -0.0077633504
000080 6d 12 0b bd 76 24 98 3c 86 1f a3 bc bc dd 8f 3c
       -0.03395312 0.018572073 -0.019912492 0.017561786
000090 6c 80 47 3c e0 01 2a 3b 52 7d e5 3c 8e f8 dc 3c
       0.012176614 0.002594106 0.028013859 0.026973989
0000a0 6c e9 3e bc 3c d6 50 3c 00 d3 89 3b 1c 23 b4 3c
       -0.011652332 0.01274639 0.0042060614 0.021989398
0000b0 fd 22 06 3d ba 91 31 bc 98 0a 17 3c cd f7 d1 bc
       0.03274821 -0.010837967 0.009218834 -0.025630856
0000c0 f4 c4 5c bc b2 1c d8 3c b6 eb f4 3c 5b 05 96 bc
       -0.013474692 0.02638087 0.029897552 -0.0183131
0000d0 5c 3f 8a 3c c4 f7 5e 3c e0 9f e6 3b e0 db 9d 3c
       0.016875915 0.013608877 0.0070381016 0.019269884
0000e0 f4 4a 18 3c 00 72 6e 3a 66 bd a5 3c 84 52 00 bc
       0.009295214 0.0009095967 0.020231914 -0.007832173
0000f0 72 da d5 bc 54 b4 6a 3c ac 2e 90 bb 6a a9 f5 3c
       -0.02610514 0.01432522 -0.004400095 0.02998801
000100 ae f5 e8 3c 0e b8 69 bc e2 94 08 bd 02 6b a9 3c
       0.028437462 -0.014265073 -0.03334511 0.020680908
000110 8f 33 b7 bc 02 bd eb 3c 2f 5c 0d 3d d1 1d 98 bc
       -0.022363452 0.02877665 0.03451174 -0.018568905
000120 32 82 77 bc 80 53 d3 39 67 85 9d bc 10 35 49 3b
       -0.015106725 0.00040307269 -0.01922865 0.0030701794
000130 20 e3 fc 3a b0 db 6e bc f4 1a 98 bc fa 3e e5 3c
       0.0019293763 -0.014578745 -0.01856754 0.027984131
000140 62 be f0 3c 4b 54 e4 bb f9 7a b8 3c 55 b1 eb 3b
       0.029387657 -0.0069680563 0.022519575 0.0071927705
000150 77 24 b2 bc e0 46 11 bd 16 ec a7 3c e8 3d 48 3c
       -0.021745903 -0.035467982 0.020498317 0.012221791
000160 98 d5 1c bd 8e 6b da bc 6a 73 fa bc 72 3d 38 bc
       -0.038289636 -0.026662614 -0.030572612 -0.011245118
000170 14 74 41 3c 83 c3 bd 3b 43 68 c2 3a b6 d8 30 3c
       0.01180746 0.005791129 0.0014832098 0.010793855
000180 84 1b 99 3c 32 94 c5 bc 09 41 d8 bc e5 57 de bc
       0.018689878 -0.024118517 -0.026398199 -0.02714152
000190 51 5b 47 bc ed 2e b4 bc ed 84 b5 bc 32 3e 18 3a
       -0.012167768 -0.021995032 -0.02215811 0.00058076077
0001a0 f3 b2 c5 3c 96 d9 a9 bb 57 ce 10 bc bc f8 c3 3c
       0.024133181 -0.005183409 -0.008838258 0.023922317
0001b0 e9 84 26 bd 03 d5 73 bc 6b f2 bb 3c e5 3b ab 3c
       -0.040654097 -0.014882329 0.022942742 0.020902583
0001c0 35 bc ee bc 9f 42 26 bb 9c b9 27 bb 75 62 a1 bc
       -0.029142478 -0.00253693 -0.002559281 -0.019700268
0001d0 cd 83 d5 bc 94 48 04 bb 49 59 cb 3a 86 49 0e 3c
       -0.026063824 -0.0020184861 0.001551428 0.008684522
0001e0 57 0c 9e 3b 8e 28 ae bb 50 5c d7 3c 74 9f ae bc
       0.0048232484 -0.005314893 0.026289135 -0.021316268
0001f0 64 61 15 bd 71 93 1a bd b9 b9 97 3c a3 2c 41 bc
       -0.036469832 -0.037738267 0.018521177 -0.011790427
000200 4d 46 c7 bc 9d 6b b2 bc cf 0a 28 bd 91 58 d4 3b
       -0.024325514 -0.02177983 -0.041025933 0.0064802845
000210 e4 61 18 bd 02 d9 2d bd ea b5 cc 3a 58 a0 ac bc
       -0.03720273 -0.042443283 0.001561818 -0.021072552
000220 39 7d ea bc a0 43 dc 3c a3 71 2b bc ae e6 d1 3c
       -0.028624164 0.026887715 -0.010464105 0.025622692
000230 72 e8 cb 3c 07 31 0a bd 27 ad 9e bc 51 01 1a bc
       0.024891112 -0.033738162 -0.019369675 -0.009399728
000240 79 81 bd bc 9b 9a 0f bb 81 4f 97 3b 26 c2 00 bd
       -0.023133026 -0.002191222 0.004617632 -0.031435154
000250 0c c3 c8 3b dd dc 83 3c 3c e4 20 3c 4d 7d 6c 3b
       0.006126767 0.016096527 0.00982004 0.0036085427
000260 eb 84 d1 3c e5 30 9c 3c ae 5d af 3c 3f 5a 09 3c
       0.025576076 0.019066283 0.021406975 0.008383333
000270 04 32 e3 bc c6 53 86 3c 61 25 10 bd 62 dc 83 3c
       -0.02773381 0.016397368 -0.035191897 0.016096298
000280 7a 81 12 bd 7f a5 ed bc e9 08 c5 bc 99 b8 9f bb
       -0.03576801 -0.029009579 -0.0240521 -0.0048743007
000290 67 c7 bb bc 2b c4 c3 3c 25 31 01 bd 56 dc 06 bd
       -0.02292223 0.023897251 -0.03154101 -0.032924972
0002a0 45 60 d5 3c 81 e6 a7 3c dc cd 8b bc 12 b4 e8 bc
       0.026046881 0.020495655 -0.017065935 -0.028406177
0002b0 09 42 29 3c 1e b9 05 bd 6f a6 85 bc 0f 74 58 3c
       0.010330685 -0.032647245 -0.016314713 0.013211264
0002c0 5e 81 0f bd 6e a8 ee 3c ee a5 1c bd 0f 52 d7 bc
       -0.035035484 0.029133048 -0.03824418 -0.026284246
0002d0 ae 95 e2 3c 4d 05 be 3c 04 19 a3 bc 25 5b 45 bc
       0.027659263 0.023195887 -0.01990939 -0.012045656
0002e0 30 8c 0b bd 7e 3f 2e bc 19 84 b7 3c b9 69 02 bd
       -0.03406924 -0.010635255 0.022401856 -0.031839106
0002f0 2e f8 8f bc f5 9a 35 3c 81 5f 97 3c 40 c0 e4 bc
       -0.017574396 0.011084308 0.018478157 -0.027923703
000300 3f 3b a8 3c 50 9e 8c 3c 76 a0 b4 3c 58 df 11 3c
       0.020536063 0.017165333 0.02204917 0.008903347
000310 53 d6 bf 3c 9c 96 95 3c a5 fb 92 bc 13 06 ba bc
       0.023417627 0.018260293 -0.01794226 -0.022707975
000320 17 fb 10 bc 3c 1d c4 3c 8a 13 79 3b 8e 76 b9 bc
       -0.008848927 0.023939721 0.003800603 -0.02263954
000330 88 2a ea bc 42 8c f6 bc e6 b6 6f 3b 6e 88 ff bc
       -0.028584734 -0.030096177 0.0036577522 -0.031192984
000340 86 b3 96 bc 43 0e 11 bd 89 de 6b 3c 52 29 c1 bc
       -0.01839615 -0.03541399 0.014396318 -0.023579273
000350 18 d0 d4 bc 32 f0 56 bc 49 c8 7f bc 99 ec 9c 3c
       -0.025978133 -0.01311879 -0.015611717 0.019155787
000360 a3 0b 3c ba 23 a9 ee 3b c5 c3 7d 3c e6 6f 1c bc
       -0.0007173365 0.0072833463 0.01548857 -0.009548163
000370 7f fc 30 3c 30 41 e3 bc 9b 79 8c bb f6 69 a6 3c
       0.010802387 -0.027741045 -0.0042869574 0.020314198
000380 a5 2f 20 bd b5 25 67 bb eb 1d 8d bc 6c 1f 00 3b
       -0.039107937 -0.0035270278 -0.01722618 0.001954998
000390 7a 26 1b bd a8 73 dd 3c 14 08 8f bc 08 72 d2 3b
       -0.03787849 0.027032688 -0.017459907 0.006422285
0003a0 1d cc 1a bd 3b b0 4e 3c b4 8c c1 bb e1 7e e6 3c
       -0.037792314 0.012615259 -0.0059066657 0.028136672
0003b0 9b bc 01 bd 96 38 9c bc 41 50 08 bd 4f 13 94 bc
       -0.03167401 -0.019069951 -0.03327966 -0.018075613
0003c0 17 bd 8b bc 20 ed eb 3c 7d e2 01 3c b6 7f f3 3c
       -0.017057939 0.028799593 0.007927534 0.029723983
0003d0 16 a6 61 bc 5b 60 8c bc 84 81 9f 3c f7 fd e3 3c
       -0.013772508 -0.01713579 0.019470938 0.02783106
0003e0 b1 e3 fe bc 60 db 98 39 26 42 4d bc f0 f7 9a 3c
       -0.031114431 0.00029155146 -0.012527978 0.018917054
0003f0 e0 95 90 3b d0 ee 1f 3c a6 85 f0 3c 35 e0 1e bd
       0.0044123977 0.009761527 0.029360604 -0.03878804

bias f4 [100]
000000 dc 72 00 bc 4d 6e 60 bb e4 e6 bc 3c 2f 5f 8d 3b
       -0.007839885 -0.0034245432 0.023059316 0.0043143253
000010 b1 9a 4c bc 74 c6 94 3c 3e 3c fe bb 73 8a c5 bb
       -0.012488053 0.018161036 -0.0077586463 -0.0060284673
000020 13 e8 cb 3c cb 7c 1e bd 6e eb 12 bc be d3 43 3c
       0.024890935 -0.03869323 -0.008967264 0.011952339
000030 39 b0 cb bc 0a a3 34 bc e1 ae ee bb 20 95 43 bb
       -0.024864303 -0.0110252 -0.007284031 -0.0029843524
000040 66 58 93 3c e0 d2 3d 3d 86 41 24 3c ed e9 9c 3c
       0.017986488 0.046343684 0.010025388 0.019154513
000050 4a d5 51 bc 78 b5 4b 3d ca 9a ff bb e7 f6 04 3c
       -0.0128072 0.04973361 -0.0078004347 0.008115507
000060 3f c1 08 3d 4b ce 4c 3d 04 e6 45 3d 0d 21 5e 3d
       0.03338742 0.050001424 0.048315063 0.05423074
000070 ef 9d 4e 3c 1f 15 b4 3c 92 c8 da bc d7 27 33 3c
       0.0126108965 0.021982728 -0.026706968 0.0109347915
000080 ee ed f3 3c 12 9d c7 ba c9 a2 17 bc af 0d 0f 3c
       0.02977654 -0.0015229306 -0.00925512 0.00873129
000090 77 14 54 3c 46 da e6 3c fb 42 a2 3c 85 08 12 3d
       0.012944332 0.028180253 0.01980733 0.035652656
0000a0 6b 21 9f 3c 94 26 f9 3b fb 06 99 bc b9 f2 31 3c
       0.019425115 0.007603476 -0.018680086 0.010861092
0000b0 c2 4c 25 bc 98 f6 44 3d 4b 03 97 3b d7 bf 6c bb
       -0.010089101 0.048086733 0.004608547 -0.0036125088
0000c0 59 b8 96 bb 66 da 1e 3d a2 0c 90 3c 56 53 20 bd
       -0.0045996127 0.0387825 0.017584149 -0.039141975
0000d0 78 28 5a bc 38 08 84 bc f5 25 61 3c a9 04 a3 3b
       -0.013315313 -0.0161172 0.01374196 0.004974921
0000e0 33 e0 61 bc a1 d4 42 3c 21 4c 23 3d 39 56 1d bc
       -0.013786363 0.011891515 0.039867524 -0.009603077
0000f0 f6 0d 51 3d 82 ae c2 bc d8 1c 61 3b 90 a3 90 3c
       0.051038705 -0.023764852 0.0034349468 0.017656118
000100 9a 97 0a 3c da e3 34 3d 13 5f c0 bc 5d f3 a9 bc
       0.008458996 0.04416261 -0.023482835 -0.020745927
000110 6c 52 08 3c bd 01 58 3d f1 6e 3a 39 d1 71 15 3d
       0.008320432 0.052736033 0.00017779671 0.036485497
000120 b3 d3 09 bd 80 12 8d bb 8d df 0f 3d 3c 9c d3 bb
       -0.033649158 -0.004305184 0.035125304 -0.0064578336
000130 e1 81 d6 3a 62 6e 17 3c cd a1 00 3c 66 c9 60 bb
       0.0016365611 0.009242626 0.007851076 -0.003429973
000140 ae 3e ab 3c a0 1f 9d 3c da 00 d5 bc 39 3f 9c bc
       0.020903911 0.019180119 -0.026001383 -0.019073116
000150 ce af a2 3c 1a eb dc bc 11 cf 12 3c 0e 2f 9d 3c
       0.01985922 -0.026967574 0.008960501 0.019187476
000160 ba 19 7f bc 2f 29 46 3d b5 34 4d 3d 78 78 b6 bc
       -0.0155700985 0.04837912 0.050099093 -0.02227424
000170 c8 e5 9c 3c 2b 1f fa 3c 20 6c 53 bb 37 66 d6 bc
       0.019152537 0.03053244 -0.0032260492 -0.026171787
000180 e1 44 66 bc 35 7d f6 3c d3 de 3f 3c 56 96 b1 bc
       -0.014054508 0.030089 0.01171084 -0.021678131

weight f4 [40, 100]
000000 2d ab 8e bc 67 03 52 bd 22 f5 9c 3d e3 3c 68 bd
       -0.017415607 -0.051272776 0.07663943 -0.05669869
000010 cb aa 11 bd 4c cf 24 bd dc c4 66 3c 48 69 55 bd
       -0.03556327 -0.040236756 0.014085021 -0.052102357
000020 5f 58 94 3d 27 3e 14 bd a0 73 71 3d 62 ca 25 3d
       0.07243418 -0.036192086 0.05894816 0.04047621
000030 37 90 b1 3d 82 2d b3 bd e4 b0 c4 ba 5d 95 dd bd
       0.08670085 -0.08748914 -0.0015006331 -0.108195044
000040 10 29 4b bd 3a dc a2 3d e1 d2 77 bd b1 38 71 bc
       -0.049599707 0.07952161 -0.060503844 -0.014722989
000050 9e 3a 74 3d 5a 2f 94 3d aa d8 16 3d 45 38 3b 3d
       0.059626214 0.07235594 0.03682772 0.04570796
000060 67 06 8c 3d 5b 15 dd bd 0a c0 24 bd ae 59 58 bc
       0.06837159 -0.10795089 -0.040222205 -0.013204975
000070 d8 20 29 3d 21 ab ba bd 6c 23 ab 3c de ee 92 3c
       0.041291088 -0.091146715 0.020890914 0.017936166
000080 79 6f b6 bd 78 69 67 bc b5 25 70 3d cb 13 7e bd
       -0.089079805 -0.014124267 0.05862971 -0.062030595
000090 95 83 35 3d ba 4c 43 bd 11 cb a3 bd 65 06 9e 3c
       0.04431494 -0.047680594 -0.07997716 0.019290159
0000a0 12 5e d9 3c b7 f6 7f bd dd 08 91 3d 2a 0f bb 3d
       0.026534114 -0.062491145 0.07081769 0.09133752
0000b0 f7 33 81 bd 95 f9 72 3d 83 e4 90 bd 1c 21 c7 3d
       -0.0630874 0.05932005 -0.07074835 0.09723112
0000c0 09 2c 18 bd ea 4a 68 3c f2 d0 e2 bc cb fa 8f 3d
       -0.03715137 0.014178017 -0.027687524 0.07030257
0000d0 48 f2 b0 3d b6 35 48 3d 59 c2 0b ba 6b cf eb bc
       0.086399615 0.048879348 -0.0005331389 -0.028785428
0000e0 25 43 6f bd 8a 7b 52 3d b0 cc 23 bd 9f 4b 3e 3c
       -0.058413643 0.051387347 -0.039990127 0.011614709
0000f0 06 5b 38 3d 91 62 2b bc 73 ca ca 3d 58 ff 7e 3d
       0.04500868 -0.010460512 0.099018954 0.062255234
000100 76 52 48 3d 34 82 d8 3c c0 d6 23 3b 0d 73 67 3d
       0.048906766 0.026429273 0.0024999827 0.056506205
000110 72 ef 89 3d aa b0 9b bd 02 59 9e bd 6f 85 82 bc
       0.06735124 -0.07602055 -0.07731821 -0.015932767
000120 c1 ea 66 bc cd 50 6e 3c df b7 fc 3c 82 49 b5 bd
       -0.014094056 0.014545632 0.030849395 -0.08851911
000130 dc c7 ed 3c bc 69 7e bd ff 82 8b bc 0e e3 35 3d
       0.029025964 -0.062112555 -0.017030237 0.04440599
000140 5d 2a c3 bb e6 a7 59 3d ca 04 35 3d 84 9d 39 bd
       -0.005955978 0.053138636 0.04419402 -0.045316234
000150 1e 2c 55 bd f0 4c 45 bc d5 bd 87 bd d5 0d a8 bd
       -0.052044027 -0.012042269 -0.066280045 -0.08205763
000160 ea 9a 6a 3d d4 39 52 3d bb f2 e7 bc 48 26 51 bd
       0.057276644 0.05132468 -0.028313985 -0.0510619
000170 ba c0 b9 bd 1e fd e1 bd a9 d3 d7 3d 7a d1 78 3d
       -0.09069963 -0.110346064 0.10538418 0.060746647
000180 29 56 81 bd f9 20 77 bd 06 95 0c 3d 82 86 8f 3d
       -0.06315262 -0.06033418 0.034321807 0.07008077
000190 af f1 80 bd 47 f4 20 3d 6c 83 97 bd 82 2d c9 3d
       -0.062960975 0.03929546 -0.073981136 0.09823133
0001a0 ef 18 95 bd 3a ba 75 bc 4d b0 f9 bc c5 b7 fc 3c
       -0.07280146 -0.014998013 -0.030479575 0.030849347
0001b0 fa e4 d8 3d 42 dc b7 3d 0c a8 95 bd eb 72 25 bd
       0.10590549 0.08977558 -0.07307443 -0.040392797
0001c0 be 26 78 3d 91 9f 6c 3d 04 84 85 bd 0e 9e 4d bd
       0.060583822 0.057769362 -0.065193206 -0.05019956
0001d0 7c 7b 3a bb 30 3d d6 3d 9f 43 a6 bd b2 94 b2 3c
       -0.002845495 0.10460889 -0.081183665 0.02179942
0001e0 08 72 39 bd 85 ae 90 3d b0 cd 10 3c 80 b4 f7 bc
       -0.045274764 0.07064537 0.008838102 -0.030237436
0001f0 3c 34 36 bd 81 12 b3 3c 9b ac de 3d d0 b6 b3 3d
       -0.04448341 0.02185941 0.10872766 0.08775103
000200 5e 85 d7 3a a7 e2 0b bd 27 f9 a4 3d 88 06 db 3c
       0.0016442945 -0.0341517 0.080553345 0.026736513
000210 00 1c e9 3d 19 98 83 bd 8c d1 71 3d eb 66 b0 3d
       0.11382294 -0.06425495 0.05903773 0.0861338
000220 53 2e 51 bb a4 53 64 3d dd f7 20 bd b6 3a 24 bd
       -0.003191848 0.05574383 -0.03929888 -0.040095054
000230 22 93 b4 3d e3 37 c0 3d 26 ac 91 3d 4d 98 38 3c
       0.08817126 0.093856595 0.07112913 0.01126678
000240 96 d9 f1 3b 47 bf 49 3c 23 a2 9d bd f2 36 86 bd
       0.0073806746 0.0123136705 -0.07696941 -0.06553449
000250 3f 19 91 bc 1d 8c ad 3c 64 c8 87 bd 20 a7 3e 3c
       -0.017712234 0.021184975 -0.06630018 0.011636525
000260 00 fc 8a bd e3 8b b7 bd 70 a3 80 bc aa 7c 99 3d
       -0.067863464 -0.08962228 -0.015702933 0.07494481
000270 7f d2 b4 3c b8 ec 25 bd e5 97 53 bd 7c 7d 22 bd
       0.022073029 -0.040508956 -0.05165853 -0.039670452
000280 7f a0 a5 3d 81 dd d4 3d f5 a4 64 3c d7 b9 ab 3d
       0.08087253 0.10393811 0.013955344 0.083850555
000290 7e 49 5c bd 6c 11 76 ba b0 61 9c bd 5d ce 0e bd
       -0.053781025 -0.00093867513 -0.0763582 -0.034864772
0002a0 7b 1b b0 3d 78 ea d5 3d 6b d8 d9 3d 7c 67 f2 3d
       0.085989915 0.10445112 0.106369816 0.11836144
0002b0 2d c0 85 bc 9d 03 9f bd f2 ba 3e 3d 4a 7b 9c bd
       -0.016326988 -0.07764361 0.046565004 -0.07640703
0002c0 33 1c 5b 3d ca b8 1c 3c f8 62 4f bd a3 c4 77 bd
       0.05349369 0.0095655415 -0.050631493 -0.06049026
0002d0 49 5d a4 3d c1 13 9a bd 32 09 9a bd a4 77 06 bd
       0.08025605 -0.07523299 -0.07521285 -0.032828942
0002e0 cb be 4f 3d d2 31 18 3d f0 57 c0 3c f8 7d a2 bd
       0.050719064 0.037156887 0.023479432 -0.07934183
0002f0 ec f4 f1 bc 9d 21 de 3c b2 be 57 3d f0 c6 b8 bd
       -0.029535733 0.027115637 0.052672096 -0.09022319
000300 d3 89 db 3d c0 57 3e 3d 2e 21 2e bd 56 a3 9a 3d
       0.10719647 0.046470404 -0.04251211 0.07550685
000310 af 3d bf 3d f5 c1 18 bd cc be 83 3d 94 50 db 3d
       0.09337937 -0.037294347 0.06432876 0.107087284
000320 82 d4 56 bd ce 90 2d 3d ce 03 2a 3d 54 3b b7 3d
       -0.052448757 0.042374425 0.041507535 0.08946863
000330 35 34 08 3d 78 4c 5b 3c 21 4a 07 3c 34 56 94 3d
       0.033252914 0.013384931 0.00825742 0.072430044
000340 44 7a 5a 3c 00 1c 54 bd ab 7b 2b 3d 92 d6 46 3d
       0.013334814 -0.051784515 0.041865986 0.048544474
000350 f4 b8 f5 bc 6e b1 9d 3d d1 b3 fa bc 54 58 fd bc
       -0.02999542 0.07699858 -0.030603321 -0.030925907
000360 54 45 3d bd 0f 37 a4 bd a1 bb c5 3b e6 20 3d bc
       -0.046208695 -0.08018314 0.00603433 -0.011543488
000370 f2 22 d0 3d b7 07 13 3d 64 f0 84 3d 32 df 14 bd
       0.10162915 0.03589603 0.064911634 -0.036345668
000380 6c 15 9b 3d 70 42 28 bd 4b bb 84 bc f6 c4 c3 3d
       0.07572445 -0.041078985 -0.01620259 0.09559052
000390 b5 e3 94 3c e9 7f 6f 3d f9 58 a9 3d 41 3a b8 bd
       0.018174985 0.058471594 0.08268923 -0.08995486
0003a0 7e 90 ac 3d e7 a5 aa 3b 95 57 f7 3b d5 3c 75 bd
       0.08425997 0.0052077654 0.0075482824 -0.059872467
0003b0 18 4b 8d 3d 86 c2 98 3c b0 30 d6 3c 64 16 47 bd
       0.068990886 0.018647444 0.026146263 -0.048605338
0003c0 db 4b ad bb 88 28 d8 3c 0b 36 73 bd 44 6b ce 3d
       -0.0052885837 0.026386514 -0.05937771 0.10079053
0003d0 c4 ea 35 bd b8 f1 27 3b a2 61 0b bd 6c aa 57 bb
       -0.044413343 0.0025626253 -0.034028657 -0.0032907976
0003e0 56 32 96 bc 97 2d 56 3c 97 d6 36 3d b1 5d b4 bd
       -0.018334549 0.013072393 0.044638243 -0.08806933
0003f0 3a 50 d8 3c a0 78 62 bd d5 ac 2e 3c 1a 02 eb 3d
       0.026405443 -0.05529082 0.010661324 0.1147501

bias f4 [40]
000000 24 19 c6 3d be 7a 6d bd 31 4f 1a 3d ca 22 99 bd
       0.09672764 -0.057978384 0.03767318 -0.074773386
000010 da 61 75 bd fa 08 00 3d 5e 75 7b ba 5b c3 8d 3d
       -0.05990777 0.03125856 -0.0009592379 0.06922027
000020 28 fa 50 3d ea d1 cb bd 6d 10 9e 3c c1 12 87 bd
       0.051019818 -0.09952147 0.019294942 -0.06595374
000030 9d a1 8c bd 7f 76 ab bd 38 3e 55 3c 78 b3 46 3d
       -0.06866763 -0.08372211 0.013015322 0.048511
000040 88 76 7e bb 33 50 db 3c da 17 78 3d 83 8f 81 3d
       -0.0038827974 0.02677164 0.06056962 0.06326201
000050 d1 bd 00 bd b1 68 a8 3d 87 51 7a bd d8 3e ca bc
       -0.031431023 0.08223093 -0.061112907 -0.02468817
000060 76 76 98 bb f8 5c 7d 3d 19 2e 3c bd 41 cc 3e 3d
       -0.0046527935 0.06185624 -0.0459424 0.04658151
000070 1b d6 39 bd d9 ba 08 bd fe 47 3f bd b6 d6 dd bd
       -0.045370203 -0.033381317 -0.046699516 -0.108319685
000080 b8 56 09 bd ca 07 82 bd 13 cd 25 3d 6e 12 ee bd
       -0.033529967 -0.06349142 0.040478777 -0.11624609
000090 21 bc 70 3d a9 dc 51 bc d8 6a c8 bd e4 13 92 3d
       0.058773164 -0.012808957 -0.09786004 0.071327
