scripts/model_baseline.pt (torch_old, 412266 bytes, 12 tensors)

weight f4 [10, 3, 2, 2]
0	0xbe82fcf4	-0.25583613
1	0xbe0bc316	-0.13648638
2	0x3d87caad	0.06630454
3	0x3e76d53e	0.24104783
4	0x3e23f991	0.16013171
5	0xbdc85a69	-0.09782869
6	0xbdd8d4d4	-0.10587469
7	0xbc0db9e2	-0.008650275
8	0x3d881f3d	0.06646583
9	0xbdc58f48	-0.09646469
10	0xbe483be2	-0.19554093
11	0xbe32f1c7	-0.17475043
12	0xbe874c96	-0.26425618
13	0xbe8eb5b6	-0.2787301
14	0xbe3ca880	-0.18423653
15	0xbdc1f9d5	-0.0947148
16	0xbe23176a	-0.159269
17	0xbe783fb5	-0.24243052
18	0xbe6be3fb	-0.23036186
19	0xbdbac2bb	-0.09119173
20	0xbe991c69	-0.29904488
21	0xbe04a4dd	-0.12953515
22	0x3e5b6d71	0.21428467
23	0x3c03a38c	0.008034598
24	0xbe859f53	-0.26098117
25	0x3cab74a4	0.020929642
26	0xbe6be8ae	-0.23037979
27	0x3c091698	0.008367203
28	0xbe67a75b	-0.22622435
29	0x3cc0985d	0.023510152
30	0x3e246929	0.1605574
31	0xbdf5110c	-0.11966142
32	0x3e97abec	0.29623353
33	0x3e1106bf	0.1416273
34	0xbe3906bd	-0.18068977
35	0x3e860d19	0.26181868
36	0x3d159d04	0.036526695
37	0xbe4ad71d	-0.19808622
38	0xbe9a7c57	-0.3017299
39	0xbc4e04eb	-0.012574415
40	0xbe86cf77	-0.26330158
41	0xbe774e72	-0.24151018
42	0xbe23b545	-0.15987118
43	0x3e43583d	0.19076629
44	0x3e11e790	0.1424849
45	0x3e33a315	0.1754268
46	0xbe7338d4	-0.23752147
47	0xbc75d980	-0.015005469
48	0x3e967132	0.29383236
49	0x3deeeb62	0.116659895
50	0xbe870a97	-0.26375267
51	0x3e9beb84	0.30453122
52	0x3dd5fdf1	0.10448826
53	0xbe5f80dc	-0.218265
54	0xbe5e3ce8	-0.21702921
55	0x3dc964d8	0.098336875
56	0x3bd873e4	0.006605612
57	0xbdafd586	-0.08585648
58	0x3de035ec	0.10947785
59	0xbe8cada4	-0.27476227
60	0x3e377f8a	0.17919746
61	0x3d275e4b	0.04086141
62	0xbcde32c1	-0.02712381
63	0xbe821801	-0.2540894
64	0x3e410604	0.18849951
65	0x3d12eae9	0.03586856
66	0xbde1cb52	-0.110251084
67	0x3e255e65	0.1614929
68	0x3e323328	0.17402327
69	0xbdb52651	-0.08845199
70	0xbd9f09d5	-0.07765547
71	0x3c6ac900	0.014330149
72	0xbd3d314b	-0.046189588
73	0xbdfe236f	-0.12409102
74	0x3e2acacd	0.16678925
75	0xbdf84a38	-0.12123531
76	0xbe846153	-0.25855502
77	0xbe879c45	-0.26486412
78	0x3e06c92c	0.13162678
79	0xbe2d310b	-0.1691324
80	0xbe81193b	-0.25214562
81	0x3e122527	0.14271985
82	0x3e89e759	0.26934317
83	0x3cc4164e	0.023936417
84	0xbe662cca	-0.22478023
85	0xbd01c83f	-0.03168511
86	0x3e044d15	0.1292003
87	0x3e9314c6	0.28726786
88	0x3e8bc208	0.27296472
89	0xbda61f4b	-0.081114374
90	0x3e971fa9	0.29516342
91	0xbdbd0d38	-0.09231037
92	0xbe678877	-0.22610651
93	0xbe70d70c	-0.23519534
94	0xbcbeae7c	-0.02327656
95	0x3d09becb	0.03362922
96	0xbbb807d6	-0.0056161685
97	0xbe6117ce	-0.21981737
98	0x3dea5ba1	0.11443258
99	0x3e84fdce	0.25974888
100	0x3e82c170	0.25538206
101	0x3e38b7f4	0.18038923
102	0x3ddd7fd1	0.10815395
103	0x3e162586	0.14662752
104	0x3e0b21f9	0.13587178
105	0xbe836b90	-0.25668
106	0xbca99502	-0.020700935
107	0x3e7a0d21	0.24419071
108	0xbe89fe8d	-0.2695202
109	0x3cfa6d92	0.030569825
110	0x3d8bd637	0.068279676
111	0xbcb2dfbd	-0.021835202
112	0x3d63cd03	0.055615436
113	0x3e45b48f	0.19307159
114	0xbe2a997f	-0.16660117
115	0x3e64d7d8	0.22347963
116	0x3ce380ab	0.027771315
117	0x3e8a9d05	0.2707292
118	0x3e89066e	0.26762718
119	0xbd8b489a	-0.06800957

bias f4 [10]
0	0xbe218086	-0.15771684
1	0xbe60379d	-0.21896215
2	0xbdbc6d9c	-0.09200594
3	0xbe851a67	-0.25996706
4	0x3dbf07c5	0.09327654
5	0x3e837b49	0.25679997
6	0x3d06078f	0.032722052
7	0xbe08fb96	-0.13377222
8	0xbe7bb796	-0.24581751
9	0x3c375965	0.011190747

weight f4 [10, 10, 3, 3]
0	0x3c6c3e3b	0.014419134
1	0xbd5a71e1	-0.05333126
2	0xbd1b3dee	-0.037900858
3	0x3d39056d	0.04517119
4	0x3dd46032	0.1036991
5	0xbd37c659	-0.044866893
6	0xbd81e82d	-0.06343112
7	0x3c5d5da4	0.013511095
8	0x3cb1b36d	0.021692002
9	0x3de81bfe	0.11333464
10	0xbce676be	-0.028132793
11	0xbdb100d0	-0.08642733
12	0x3d916850	0.07099974
13	0xbdada0a4	-0.084779054
14	0x3ce7cec9	0.028296845
15	0x3d2e44f8	0.042546242
16	0x3c317e44	0.010833327
17	0x3d8dc853	0.069229744
18	0x3daa2196	0.08307187
19	0x3db3f24b	0.08786448
20	0x3d61d6dd	0.05513655
21	0x3c8057e9	0.015666919
22	0x3c960487	0.018312706
23	0x3b69f473	0.0035698682
24	0xbc6f5f66	-0.014610147
25	0xbda0d355	-0.078528084
26	0x3ce92c84	0.02846361
27	0x3cdb1444	0.026743062
28	0xbbfa410a	-0.007637148
29	0x3da4dcb1	0.08049906
30	0x3d8a08ab	0.067399345
31	0xbd8e08d6	-0.06935279
32	0xbd84d0dd	-0.0648515
33	0x3bbbbb94	0.005729148
34	0x3da2b664	0.079449445
35	0xbd3de60d	-0.04636197
36	0xbd6813ba	-0.056659438
37	0x3dbcb4bd	0.092141606
38	0x3b853cd4	0.004066089
39	0x3dd2006b	0.10253986
40	0x3dd7bfab	0.10534605
41	0xbd013f0f	-0.031554278
42	0x3d85b860	0.06529307
43	0xbc2bb1b0	-0.010479376
44	0xbcf66b13	-0.030080354
45	0x3d639fdd	0.05557238
46	0xbd219a3e	-0.039453737
47	0xbd91d54b	-0.071207605
48	0xbd68ba79	-0.05681846
49	0x3d81852d	0.063242294
50	0x3d99084f	0.07472288
51	0x3d065c85	0.032803077
52	0xbc587118	-0.013210557
53	0x3d60a44d	0.05484419
54	0x3dedd749	0.11613328
55	0xbda4263f	-0.08015107
56	0x3d1a28e0	0.037636638
57	0xbd902980	-0.070391655
58	0xbd33aae3	-0.043864142
59	0xbd2a312e	-0.041550808
60	0x3dbb122e	0.09134327
61	0x3d1bfb45	0.038081426
62	0x3d564a6f	0.05231708
63	0x3cc65e5a	0.024214912
64	0xbd4a1210	-0.049333632
65	0x3ce8d618	0.0284224
66	0xbc10173d	-0.008794603
67	0x3d3c43b8	0.04596302
68	0xbcac381c	-0.021022849
69	0x3d8dabab	0.06917509
70	0xbd533513	-0.051564287
71	0xbd8115a4	-0.06302956
72	0x3ca84341	0.020539882
73	0xbdaf7cae	-0.08568703
74	0xbc9f85f7	-0.01947306
75	0x3d61463a	0.054998614
76	0x3be0ba45	0.0068581426
77	0xbd09324a	-0.033495225
78	0xbd91fffd	-0.07128904
79	0x3dfe19ea	0.124072865
80	0xbd9ea6f2	-0.07746686
81	0xbd9d7ecf	-0.076902024
82	0x3da0ea9d	0.07857249
83	0xbd6b4fb0	-0.057449043
84	0x3c016e63	0.007899853
85	0xbd6a440c	-0.0571938
86	0xbd9ba7a0	-0.07600331
87	0xbd07935a	-0.03309951
88	0x3de5c2d1	0.11218799
89	0xbcd23fbf	-0.025665162
90	0x3dab1971	0.08354462
91	0xbd8c1765	-0.068404
92	0xbc2d7368	-0.010586597
93	0x3d8f7218	0.070041835
94	0x3db09509	0.08622176
95	0x3d97f16c	0.074190944
96	0x3c61747c	0.013760682
97	0xbd5b6a28	-0.053568035
98	0x3d3d1959	0.04616675
99	0xbceaa49a	-0.028642941
100	0xbcecec7b	-0.028921356
101	0xbd8f56d9	-0.06998987
102	0x3d820d82	0.06350233
103	0x3d7401e6	0.059572123
104	0x3d7d39c7	0.06182268
105	0x3df3968b	0.11893948
106	0x3d677d93	0.05651624
107	0xbd5289d1	-0.051400963
108	0xba856a0c	-0.0010178699
109	0x3ca5cbd9	0.020238804
110	0xbd95ff8d	-0.07324133
111	0x3de5cd77	0.1122083
112	0x3dbacb56	0.091208145
113	0x3d329ee9	0.04360858
114	0xbd019de6	-0.031644724
115	0x3dd707f4	0.10499564
116	0xbdab8b7c	-0.08376214
117	0x3c7ef9f5	0.015562524
118	0xbc67a559	-0.014138543
119	0xbc8a9c1a	-0.016920138
120	0xbccf32d2	-0.025292788
121	0x3d1da123	0.03848375
122	0x3dd41fcf	0.103576295
123	0x3d571872	0.052513547
124	0xbdad7ef9	-0.08471484
125	0x3d1e2913	0.03861339
126	0x3d347cb4	0.04406424
127	0xbbc556be	-0.0060223034
128	0xbda047a0	-0.078261614
129	0xbd30f551	-0.043202702
130	0x3dab0b67	0.08351784
131	0x3d2ee753	0.042701077
132	0xbd6aa3aa	-0.05728499
133	0xbd716574	-0.058934644
134	0xbd63f467	-0.055653002
135	0xbd84e2be	-0.0648856
136	0x3d81ec49	0.06343896
137	0x3de5686a	0.11201556
138	0xbd5a8288	-0.05334714
139	0xbd7786be	-0.060431235
140	0x3ca0f225	0.019646714
141	0x3d51ad50	0.051190674
142	0xbd81f16c	-0.06344876
143	0xbd84b836	-0.06480448
144	0x3c13b050	0.009014204
145	0x3cd70151	0.026245745
146	0x3dc093e8	0.09403211
147	0xbd9bacf5	-0.07601348
148	0x3db0bc75	0.08629695
149	0xbd85c356	-0.06531398
150	0x3db15ece	0.08660661
151	0x3db47ee7	0.08813267
152	0xbd1fca73	-0.03901143
153	0xbdaa03d6	-0.08301513
154	0x3d4c79a8	0.049920708
155	0x3c448477	0.011994473
156	0xbcf8237d	-0.03029036
157	0x3cee6e94	0.029105462
158	0x3deb248c	0.1148158
159	0xbd28733b	-0.041125517
160	0x3dcf8581	0.10132886
161	0xbd6d200d	-0.057891894
162	0xbd0ff5b8	-0.035146445
163	0x3ded8cc8	0.115991175
164	0x3dd7f07c	0.10543916
165	0xbc3df2e3	-0.011593553
166	0x3d1ce77a	0.03830669
167	0xbd12540d	-0.03572469
168	0xbd941852	-0.07231201
169	0x3d883834	0.06651345
170	0xbd1394ba	-0.03603051
171	0x3d13ae4a	0.036054887
172	0x3d45e4c7	0.048313882
173	0x3d7826c5	0.06058385
174	0xbdb1d9f2	-0.08684148
175	0x3d0b7a82	0.03405238
176	0xbdb28fd6	-0.08718841
177	0xbd8c1875	-0.06840602
178	0x3deb297a	0.114825204
179	0xba945e6e	-0.0011319646
180	0xbd5bb40f	-0.053638514
181	0x3c289bd2	0.010291057
182	0xbdb8d8a7	-0.09025698
183	0xbd9ead97	-0.077479534
184	0xb9220818	-0.00015452539
185	0x3d078b01	0.03309155
186	0xbd97d920	-0.0741446
187	0x3cd662d0	0.026170164
188	0x3c7f6d8e	0.015590085
189	0xbdb13ebd	-0.086545445
190	0xbda9eb19	-0.082967944
191	0x3d93b826	0.07212858
192	0x3d5ec8b3	0.05439062
193	0xbd5cbf98	-0.053893656
194	0xbd920c93	-0.071313046
195	0xbd37be2c	-0.044859096
196	0xbd219b3e	-0.03945469
197	0xbc89e051	-0.016830595
198	0x3dbbae4e	0.09164105
199	0x3dc22ca6	0.09481172
200	0x3dea2662	0.11433102
201	0x3d7520d5	0.059845764
202	0x3cb457f9	0.022014605
203	0xbd7f139a	-0.062274553
204	0x3c34cfe3	0.011035892
205	0xbd755040	-0.059890985
206	0x3db5486c	0.08851704
207	0xbd9fede7	-0.07809048
208	0x3b3ef7fd	0.0029139512
209	0x3b31d50b	0.002713504
210	0x3da9f6d4	0.08299032
211	0xbd225cb9	-0.03963921
212	0xbd90a717	-0.0706312
213	0xbc251d00	-0.010077715
214	0x3c19a394	0.009377379
215	0x3d53681f	0.05161297
216	0x3d31e14b	0.043427747
217	0x3c7a8b2a	0.015291968
218	0x3d7d2cfc	0.06181048
219	0x3d58cb33	0.05292816
220	0xbc01b084	-0.00791562
221	0x3df20988	0.11818224
222	0xbd6412c0	-0.055681944
223	0x3d78f06f	0.06077617
224	0x3d55f148	0.052232057
225	0x3dd30feb	0.103057705
226	0xbd41e96b	-0.047341745
227	0xbb4e4698	-0.0031475183
228	0xbd65245d	-0.05594288
229	0xbd9e4df6	-0.077297136
230	0xbbbba381	-0.0057262783
231	0x3d8f1cf0	0.06987941
232	0x3d5c1eaf	0.0537402
233	0xbb8167d9	-0.003949147
234	0xbccca477	-0.024980767
235	0xbc238b67	-0.009981967
236	0xbb541836	-0.0032363064
237	0x3b34ba6c	0.0027576936
238	0x3dad38db	0.0845811
239	0x3dcceb15	0.10005776
240	0x3cf9b0b7	0.030479772
241	0x3dcc84d1	0.0998627
242	0x3d87ed6a	0.0663708
243	0xbcd5c496	-0.026094716
244	0xbd9d06cd	-0.07667313
245	0x3b2c8717	0.0026325637
246	0xbd5b2ac8	-0.053507596
247	0xbc970d93	-0.01843909
248	0x3d01ef32	0.031722255
249	0x3c193f04	0.009353403
250	0x3c09ae5a	0.008403385
251	0x3da3197d	0.07963846
252	0xbca27a04	-0.019833572
253	0xbdb62747	-0.0889421
254	0x3d851cab	0.064996086
255	0x3d1d22a1	0.038363103

bias f4 [10]
0	0x3d58a8f9	0.05289552
1	0x3b24a75d	0.002512417
2	0xbcb71cc9	-0.022352593
3	0x3dcb5d5c	0.09929916
4	0xbdac53c9	-0.08414418
5	0x3caad5a5	0.020853827
6	0x3c2fe08e	0.01073469
7	0x3d83e1f0	0.064395785
8	0xbd1bc9fa	-0.038034417
9	0x3c9c78c3	0.019100552

weight f4 [10, 10, 4, 4]
0	0xbd51ebbe	-0.051250212
1	0xbd1ff674	-0.039053395
2	0xbd338381	-0.043826584
3	0x3d6646cb	0.056219857
4	0x3d9e8255	0.077397026
5	0xbc13f4cf	-0.009030535
6	0xbd3dc801	-0.046333317
7	0x3c466190	0.012108222
8	0x3d2426d4	0.040076092
9	0x3d94b14c	0.07260379
10	0xbc21f82d	-0.00988583
11	0x3b4c59bf	0.0031181423
12	0x3d477081	0.048691276
13	0x3dacd1c5	0.08438448
14	0xba661e6f	-0.00087783387
15	0xbd11dc15	-0.035610277
16	0x3da4b900	0.080430984
17	0x3a161fcf	0.0005726786
18	0x3d9dab08	0.07698637
19	0x3d843e12	0.064571515
20	0x3d1de45b	0.038547855
21	0xbc918257	-0.017762346
22	0xbcae1148	-0.021248475
23	0xbd305f44	-0.043059602
24	0x3d59d6b3	0.05318327
25	0xbc02da0b	-0.007986556
26	0xbc795996	-0.015219113
27	0x3d87d034	0.066315085
28	0xbd08eed6	-0.033430897
29	0x3dbe0e13	0.09280028
30	0x3d2a4181	0.041566376
31	0x3da254e1	0.079263456
32	0x3c5403a7	0.012940324
33	0x3cf745a3	0.030184573
34	0xbd85b445	-0.06528524
35	0xbb5a21ab	-0.0033284228
36	0x3cc929e0	0.0245561
37	0x3bdf9587	0.006823245
38	0xbd5294da	-0.051411487
39	0x3c834039	0.016021835
40	0x3d8a183f	0.06742906
41	0x3b8bf120	0.0042706877
42	0xbc4f5cc1	-0.012656392
43	0x3d919623	0.071087144
44	0x3cdfc030	0.027313322
45	0xbcdac322	-0.026704375
46	0xbd4f7cdb	-0.05065618
47	0xbceda71d	-0.02901035
48	0x3d6ddf2e	0.05807417
49	0xbd521123	-0.051285874
50	0x3bc2b9d1	0.005942561
51	0x3d518f05	0.051161785
52	0x3c03fdd0	0.008056119
53	0x3d10a952	0.035317726
54	0x3db88513	0.09009757
55	0x3d0f1c74	0.034939244
56	0x3d8043cb	0.062629305
57	0x3dab6bec	0.08370194
58	0xbcf89318	-0.030343577
59	0x3cc55a6d	0.02409097
60	0x3d11d2ae	0.03560131
61	0x3d509626	0.050924443
62	0xbd8297bc	-0.06376597
63	0xbd11adca	-0.03556613
64	0x3b90fcbb	0.004424659
65	0xbd4da3f5	-0.05020519
66	0x3a9dd03c	0.0012040208
67	0x3da2279b	0.079177104
68	0xbd416c3d	-0.047222365
69	0x3c6eed43	0.014582935
70	0x3d9eeed6	0.07760398
71	0x3c121ba7	0.008917726
72	0x3d18b0ef	0.037278112
73	0x3d6733c6	0.05644586
74	0x3c64a45e	0.013955204
75	0x3bf73cb4	0.007545078
76	0xbc828d5f	-0.015936552
77	0xbd81d1a5	-0.06338815
78	0xbc903a16	-0.017605823
79	0xbd3739e0	-0.04473293
80	0x3d3d8abe	0.046274893
81	0xbd098b15	-0.033579905
82	0x3d0c6be4	0.03428258
83	0x3d8d3f2a	0.06896813
84	0xbc7bdc3c	-0.015372332
85	0x39fafdd8	0.00047872844
86	0x3db6b6e9	0.08921606
87	0x3d804c01	0.062644966
88	0xbcd54da2	-0.026037995
89	0x3d891fa3	0.06695487
90	0x3c06d020	0.008228332
91	0xbb40efa5	-0.0029439714
92	0xbb3c296d	-0.0028711215
93	0xbcec5a6f	-0.028851716
94	0x3d49f4f3	0.049305867
95	0xbd5c8e82	-0.053846844
96	0xbbc6ee13	-0.006070861
97	0xbd6adfc6	-0.057342313
98	0x3d6a63b2	0.057223983
99	0xbbc9ded2	-0.0061605955
100	0x3da371e8	0.0798071
101	0x3bb84d99	0.0056244847
102	0x3d8f8d8f	0.07009422
103	0x3d853ef8	0.06506151
104	0xbd41ee0b	-0.047346156
105	0x3d967e2c	0.07348284
106	0x3d5721b6	0.052522384
107	0xbcc8256c	-0.024431907
108	0x3d05f561	0.032704715
109	0xbd534d97	-0.051587667
110	0xbd402b0d	-0.046916056
111	0x3c1ca7d9	0.009561502
112	0x3d86279a	0.06550522
113	0xbcaab549	-0.020838397
114	0x3dc12b16	0.09432046
115	0xbba760e1	-0.0051079844
116	0xbc3d161d	-0.011540917
117	0x3db91b39	0.090383954
118	0x3cd83923	0.026394432
119	0xbd688554	-0.056767777
120	0x3d7eb3bb	0.062183123
121	0x3ca35216	0.019936603
122	0x3b6cf2c9	0.0036155453
123	0x3dad0df6	0.084499285
124	0x3d3520aa	0.044220604
125	0xbd463360	-0.04838884
126	0xbc316d06	-0.010829216
127	0xbd560573	-0.05225129
128	0xbab85c00	-0.0014065504
129	0x3d31b961	0.04338968
130	0x3d7f83a6	0.06238141
131	0xbbf43e89	-0.007453744
132	0x3d9c6ab5	0.0763754
133	0x3d9f7441	0.077858455
134	0x3d53c917	0.051705446
135	0xbc088a11	-0.008333699
136	0x3d87eebd	0.066373326
137	0x3d8b4f5a	0.068022445
138	0xbd28a9d3	-0.041177582
139	0xbcecada6	-0.028891396
140	0x3d9534ce	0.07285462
141	0xbc2b738f	-0.010464563
142	0xbd422fe6	-0.04740896
143	0xbcca6e79	-0.02471088
144	0x3c4c0e4b	0.01245458
145	0xbc641401	-0.013920785
146	0xbc59b1c5	-0.013287012
147	0xbd35273c	-0.04422687
148	0xbba7e68c	-0.005123919
149	0x3d2ebd4c	0.042660996
150	0x3db4d0fd	0.08828924
151	0xbcaec6fb	-0.021335116
152	0xbcee583a	-0.029094804
153	0x3d214b0d	0.039378215
154	0x3dc1d20c	0.094638914
155	0x3d39bf7f	0.04534864
156	0xbd332afb	-0.04374216
157	0x3da83cda	0.082147315
158	0x3d5f78e1	0.05455864
159	0x3d01305f	0.03154027
160	0xbcbefc51	-0.023313673
161	0xbb517db9	-0.0031965806
162	0xbcee751b	-0.029108575
163	0xbbb1f9bd	-0.0054313825
164	0x3d68d282	0.05684138
165	0x3d3ee2e4	0.0466031
166	0xbc021123	-0.007938656
167	0x3cf26c4e	0.02959266
168	0x3bd3f17c	0.006467996
169	0x3d75e2a0	0.06003058
170	0x3da5dc95	0.08098713
171	0x3da8acc6	0.08236079
172	0xbd2c3204	-0.042039886
173	0x3d7806ec	0.060553476
174	0x3d29941c	0.041401014
175	0x3bce50b0	0.00629624
176	0x3d87225e	0.06598352
177	0x3cf4f6b4	0.029902793
178	0x3d92191e	0.07133697
179	0x3d2a656d	0.041600633
180	0x3db24c6b	0.08705982
181	0x3d9da37d	0.076971985
182	0x3d2e2eb9	0.042525027
183	0x3daa6729	0.083204575
184	0xbb5c9731	-0.0033659453
185	0xbc930944	-0.017948754
186	0xbd5a6471	-0.053318445
187	0xbc110193	-0.008850473
188	0xbce59e70	-0.02802965
189	0xbc40f190	-0.011776343
190	0xbd2593b6	-0.04042407
191	0xbc906cee	-0.017630067
192	0xbc9600ef	-0.018310992
193	0x3db647ed	0.089004375
194	0x3d7afd12	0.061276503
195	0xbd1530a1	-0.03642333
196	0xbcaccb22	-0.021092955
197	0x3d26b8a1	0.04070342
198	0xbc52828b	-0.012848507
199	0x3d9943e8	0.07483655
200	0x3d0113da	0.031513073
201	0xbd3b791f	-0.045769807
202	0xbc5770bd	-0.0131494375
203	0x3da85762	0.08219792
204	0xbc974929	-0.018467503
205	0x3bc73a11	0.00607992
206	0xbd0ca8ed	-0.034340788
207	0xbd03250d	-0.032017756
208	0x3db59153	0.08865609
209	0x3d8f8060	0.070069075
210	0x3c367ea4	0.011138592
211	0xbd4faf44	-0.050704256
212	0x3d39e2a6	0.045382164
213	0xbd277b17	-0.040888872
214	0x3d49488c	0.04914145
215	0xbc0c55ac	-0.008565348
216	0x3b4d46f7	0.0031322816
217	0x3d996fa8	0.07492
218	0xbd4759bc	-0.04866956
219	0xbc5e19b1	-0.01355593
220	0x3d085b91	0.03329045
221	0x3d8c1ea0	0.06841779
222	0x3ca87d09	0.020567434
223	0x3c4f6119	0.012657427
224	0xbd11696c	-0.03550093
225	0x3d5b1e22	0.053495534
226	0xbd33c19b	-0.04388581
227	0x3da9bc64	0.08287886
228	0x3d839dc1	0.064265735
229	0xbd3a0e4e	-0.0454238
230	0x3dc265ec	0.09492096
231	0xbd3c39b2	-0.04595346
232	0xbca02bb2	-0.019552086
233	0x3d7349d6	0.059396587
234	0xbd5f0da4	-0.054456368
235	0x3d9964fb	0.074899636
236	0x3d3fd15b	0.046830516
237	0xbd58c96a	-0.05292646
238	0x3d97e2ca	0.074163035
239	0x3bcce4d0	0.0062528625
240	0x3d9ecfdf	0.07754492
241	0xbc30b2ec	-0.010784846
242	0xbcca1ba6	-0.024671387
243	0xbd64e68d	-0.055883933
244	0x3d94fc29	0.07274658
245	0xbd06ba5e	-0.032892577
246	0xbd30266b	-0.04300539
247	0x3ce94111	0.028473409
248	0x3db3cf23	0.087797426
249	0x3da69dbe	0.08135556
250	0x3c89da18	0.016827628
251	0x3db44188	0.088015616
252	0x3c0208b4	0.007936645
253	0x3d8b1289	0.06790645
254	0xbcafb90e	-0.021450546
255	0x3c50424a	0.012711117

bias f4 [10]
0	0x3d26882d	0.04065721
1	0x3d9ff8e7	0.07811146
2	0x3d893448	0.06699425
3	0x3bf6e3a3	0.0075344606
4	0x3bbc66dd	0.005749567
5	0x3d0df4b4	0.034657195
6	0xbc2a3c85	-0.010390406
7	0x3cb19b72	0.021680567
8	0x3d413261	0.047167186
9	0x3da94f19	0.0826704

weight f4 [10, 10, 5, 5]
0	0x3d13e21d	0.03610431
1	0x3d9f6d97	0.077845745
2	0x3b2359ef	0.002492543
3	0xbccff8a0	-0.025387108
4	0xbc15ee54	-0.00915106
5	0x3d674b10	0.05646807
6	0x3d59097f	0.05298757
7	0xbcf433b6	-0.029809814
8	0xbb942827	-0.004521388
9	0x3d4645b7	0.04840633
10	0x3b0608b3	0.0020451962
11	0x3d6854d2	0.056721516
12	0x3c188fef	0.00931166
13	0x3d18fe2d	0.037351776
14	0xbcb5bc7d	-0.022184605
15	0x398847ff	0.00025993583
16	0x3d9c7ac7	0.076406054
17	0x3d91cb32	0.071188346
18	0xbb534415	-0.0032236625
19	0xbc9c3b07	-0.019071115
20	0x3cdf89ea	0.027287442
21	0xbbb4ce4c	-0.0055177566
22	0x3d30e177	0.04318377
23	0xbc852c2c	-0.016256414
24	0x3d127621	0.035757188
25	0xbc7245a3	-0.0147871105
26	0xbce0a5ca	-0.027422804
27	0x3cc41b74	0.023938872
28	0xbd262f54	-0.04057248
29	0xbbbb70e6	-0.0057202457
30	0x3d52c28a	0.05145506
31	0x3d97cc88	0.07412058
32	0x3d8eb29a	0.06967659
33	0x3d77767a	0.060415722
34	0xbcdb13f6	-0.026742917
35	0x3cef6c34	0.0292264
36	0x3cdf47d1	0.027255924
37	0xbc2edf75	-0.0106733935
38	0xbd2808a3	-0.04102386
39	0x3da14ea4	0.07876328
40	0x3d8766bc	0.06611392
41	0x3cce13b2	0.025155876
42	0x3d9b4584	0.075816184
43	0x3d70b0cf	0.058762368
44	0xbd09b87c	-0.033623204
45	0x3cc9a40b	0.024614355
46	0xbc9f5ea8	-0.019454315
47	0xbcce091b	-0.025150826
48	0x3c99d0be	0.018776294
49	0x3ce4732c	0.02788695
50	0x3d2a174f	0.041526135
51	0xbcb9ce43	-0.022681361
52	0xbd139cf5	-0.036038358
53	0x3d110192	0.03540189
54	0x3d407e0a	0.0469952
55	0x3cf8d4d2	0.030374918
56	0xbb66efdf	-0.003523819
57	0x3c9628e0	0.018330038
58	0x3bf147d6	0.0073633
59	0xbd435177	-0.047685113
60	0x3c64c184	0.013962153
61	0x3caea627	0.021319462
62	0xbd066e4d	-0.032820035
63	0xbcfc69c2	-0.030812148
64	0x3d7c1f04	0.061553016
65	0xbd0a34a1	-0.033741597
66	0xbc1431ab	-0.009045045
67	0x3cab9052	0.02094284
68	0xbccbd58d	-0.024882102
69	0xbcbed755	-0.023296038
70	0x3d2611c8	0.0405443
71	0x3c2478cd	0.010038567
72	0x3d8df374	0.069312006
73	0x3d4b56af	0.049643215
74	0xbd0e6a26	-0.0347692
75	0x3d93d344	0.0721803
76	0x3b57623c	0.0032864949
77	0x3d83e980	0.06441021
78	0xbc648d8a	-0.013949761
79	0x3d001672	0.031271406
80	0x3d7eb76c	0.062186643
81	0x3c491132	0.012272166
82	0x3d9f5f7e	0.077818856
83	0xbc34473b	-0.011003311
84	0x3bf8a801	0.007588387
85	0xbd0d0b73	-0.034434747
86	0xbcb1cd90	-0.021704465
87	0x3d5fa706	0.054602645
88	0xbc805bb0	-0.01566872
89	0xbc017afe	-0.007902859
90	0x3b6145a2	0.003437378
91	0x3d295173	0.04133744
92	0x3d7fbfff	0.06243896
93	0x3d8afb37	0.06786197
94	0x3d603895	0.05474146
95	0x3d9f1f5a	0.07769652
96	0xbc57b576	-0.013165822
97	0xbc3f46b4	-0.011674572
98	0x3c8f3b89	0.017484443
99	0x3d6a4529	0.057194863
100	0x3d5d06d7	0.0539616
101	0x3da287db	0.079360686
102	0x3cea8d3e	0.028631803
103	0x3d7ba478	0.061436146
104	0xbd1ccd1e	-0.038281552
105	0x3bc2fddb	0.005950672
106	0x3d85ff17	0.06542795
107	0xbd231e32	-0.03982372
108	0x3cf17da0	0.029478848
109	0xbd145259	-0.036211345
110	0xbd0876cc	-0.03331642
111	0x3d58d0fc	0.052933678
112	0x3d7524a4	0.059849396
113	0x3d91c274	0.07117167
114	0x3d8c4e35	0.06850854
115	0x3cd873a2	0.026422326
116	0x3d857a69	0.065174885
117	0xbcb8fcaa	-0.022581417
118	0x3b325a4c	0.0027214466
119	0xbcacf3d1	-0.021112354
120	0xbd1f682d	-0.03891771
121	0x3c814b78	0.015783057
122	0x3d908e4c	0.07058391
123	0xbbf9a703	-0.0076187863
124	0x3caaaaec	0.020833455
125	0x3ceb7332	0.028741453
126	0x3c0bbffb	0.008529658
127	0x3d508286	0.050905727
128	0x3ca2e765	0.019885728
129	0x3d95f094	0.07321277
130	0x3d822daa	0.06356366
131	0x3c37afdb	0.011211361
132	0x3d9c3f52	0.07629265
133	0xbcc5059f	-0.024050532
134	0xba093bb4	-0.0005235032
135	0x3d1f3007	0.03886416
136	0x3d1f4145	0.038880605
137	0x3d70df68	0.058806807
138	0xbd2e69f0	-0.0425815
139	0xbd37f8b3	-0.044914912
140	0x3d268ea4	0.040663376
141	0x3cbfa3d9	0.023393558
142	0x3d99e620	0.07514596
143	0xbc7119c0	-0.014715612
144	0x3b8cb4cf	0.004294015
145	0x3d0bd9bb	0.03414319
146	0x3d7b33a7	0.061328556
147	0xbc0bc4ab	-0.008530776
148	0x3cdfd9ad	0.027325476
149	0x3b054340	0.0020334274
150	0x3d188a90	0.03724152
151	0x3c5ebd51	0.013594941
152	0xbd14856e	-0.03626006
153	0x3da1901f	0.07888817
154	0xbc231bef	-0.00995539
155	0xbcdb4f37	-0.026771171
156	0x3c670e74	0.014102567
157	0x3d89288c	0.06697187
158	0xbb82f81f	-0.0039968635
159	0x3d8efe31	0.06982077
160	0x3d79e1cc	0.061006352
161	0xbbf98c92	-0.0076156342
162	0x3b701acc	0.0036637066
163	0x3c57d903	0.013174298
164	0x3cb701ac	0.022339664
165	0x38a9a55c	8.0893486e-05
166	0xbd2b21bb	-0.041780215
167	0x3d662008	0.05618289
168	0x3d7a4816	0.061103903
169	0xbc601955	-0.013677915
170	0xbcdc5eb0	-0.02690062
171	0x3b89e7f9	0.0042085615
172	0x3cc22786	0.023700487
173	0x3d00a300	0.03140545
174	0x3da8b916	0.08238427
175	0x3d0ed2ca	0.034868993
176	0xbd00c274	-0.031435445
177	0x3d31e925	0.043435235
178	0x3ca905df	0.020632682
179	0xbc45db6e	-0.012076242
180	0xbce786d3	-0.028262531
181	0x3d9e2bae	0.07723175
182	0xbcd17c4f	-0.02557197
183	0xbbc44b13	-0.005990395
184	0x3d98c5a3	0.07459571
185	0x3d82e033	0.06390419
186	0x3d7d13a6	0.061786316
187	0xbc7a0b08	-0.015261419
188	0xbce3db8e	-0.027814653
189	0x3d9301dc	0.07178089
190	0x3d17efe6	0.03709402
191	0x3d80c370	0.06287277
192	0xbce6a42a	-0.028154451
193	0x3c0b463d	0.008500633
194	0xbd371bed	-0.044704366
195	0x3d892550	0.0669657
196	0x3d2d38b5	0.04229041
197	0x3d844825	0.06459073
198	0x3da01105	0.07815746
199	0xbd0aa9fc	-0.033853516
200	0x3da56f69	0.080778904
201	0x3c7de62b	0.015496771
202	0xbccb853f	-0.02484381
203	0xbd0028ec	-0.031289026
204	0x3d66b50a	0.056324996
205	0xbc275dd8	-0.010215245
206	0x3c8cd44c	0.017191075
207	0x3d5c7bbd	0.053828944
208	0x3d760b3b	0.060069304
209	0xbcfcd11d	-0.030861432
210	0x3d8e6e02	0.06954576
211	0x3d84b949	0.06480653
212	0xbcf6361f	-0.030055104
213	0xbccdb7c1	-0.025112035
214	0xbc7a262e	-0.015267892
215	0xbbeb2835	-0.007176424
216	0x3d00c76c	0.031440184
217	0x3d8428d1	0.064530976
218	0xbd2db2d6	-0.04240688
219	0xb97d5991	-0.00024161326
220	0x3d30c744	0.043158785
221	0xbd1c0c2f	-0.038097557
222	0xbd2821c1	-0.041047815
223	0x3cc79d7e	0.02436709
224	0xbbdf9744	-0.006823452
225	0xbc53d613	-0.012929457
226	0xbc0d4cc0	-0.008624256
227	0xbc3716ec	-0.011174899
228	0x3d71dc13	0.05904777
229	0xbd39c85a	-0.045357086
230	0xbc08c735	-0.008348276
231	0x3c3bd2d4	0.01146384
232	0xbc4c6cef	-0.012477144
233	0x3d7db6c6	0.061941884
234	0x3c7879c7	0.015165753
235	0x3d3b669e	0.04575216
236	0x3b8e984c	0.0043516513
237	0xbcac6e44	-0.021048672
238	0x3caffca0	0.021482766
239	0xbc71bd50	-0.014754608
240	0xbd37cd4b	-0.044873517
241	0x3d2dd752	0.042441674
242	0x3d392df7	0.04520985
243	0xbbd7ec20	-0.0065894276
244	0x3d8c64b8	0.06855148
245	0x3d800d44	0.0625253
246	0x3d829d8e	0.063777074
247	0xbd38e71c	-0.045142278
248	0x3d83d7b3	0.06437626
249	0x3d0e0d32	0.034680553
250	0xbd2a2273	-0.04153676
251	0x3c2f8ef3	0.010715234
252	0xbc834be8	-0.016027406
253	0x3d7249d6	0.059152447
254	0x3cc08992	0.023503099
255	0x3d81f696	0.06345861

bias f4 [10]
0	0xbd1e7667	-0.038687136
1	0x3cfb812d	0.030701244
2	0xbc5d7ef4	-0.0135190375
3	0x3d5b2ad9	0.05350766
4	0x3d3de1f8	0.04635808
5	0x3d0c0359	0.03418288
6	0x3c14cbda	0.009081805
7	0x3d4a81a9	0.04944006
8	0x3d56fe1a	0.052488424
9	0x3d438fdb	0.047744613

weight f4 [100, 810]
0	0x3b6c3372	0.0036041406
1	0xbb520fe3	-0.0032052926
2	0x3c1859f7	0.009298793
3	0x3d07990a	0.033104934
4	0xbcc22248	-0.023697987
5	0xbc14297b	-0.009043093
6	0x3d17f0be	0.037094824
7	0x3b7656b0	0.003758829
8	0x3d09a227	0.033601906
9	0x3d2cd225	0.042192597
10	0x3d016f77	0.03160044
11	0x3cfddeb1	0.030989977
12	0x3c134217	0.008987925
13	0x3c4701ce	0.012146426
14	0xbb68c0be	-0.0035515274
15	0x3ce0e978	0.027455077
16	0xba79cc61	-0.0009529051
17	0x3c9b0631	0.01892385
18	0x3c6bfe06	0.014403826
19	0x3d2a44d5	0.04156955
20	0x3d01c394	0.03168066
21	0xbb0e8beb	-0.0021750878
22	0x3bef43d7	0.0073017883
23	0xbc1ef950	-0.009702995
24	0x3cbe8dc3	0.023260957
25	0xbcd76d78	-0.026297316
26	0x38f08eb4	0.00011470672
27	0x3b87a475	0.004139478
28	0xbcb8806f	-0.02252218
29	0x3c6288b1	0.013826535
30	0x3b72e89d	0.0037064918
31	0x3cad1e12	0.021132503
32	0xbc275b41	-0.010214628
33	0xbbed9469	-0.007250358
34	0xbc22e3c0	-0.009941995
35	0xbc3f2e3e	-0.01166874
36	0x3cd4a0c6	0.025955569
37	0x3c3fa89a	0.011697913
38	0x3cc0bb13	0.023526704
39	0x3c8163cb	0.015794655
40	0x3babc269	0.0052416814
41	0x3c776535	0.015099813
42	0xbcc70393	-0.024293697
43	0xbc589c52	-0.013220863
44	0x3b4d4c06	0.003132583
45	0x3cf02e82	0.029319052
46	0x3d12b967	0.035821345
47	0x3bc6e17e	0.006069361
48	0x3cee52d2	0.029092226
49	0x3d127cdd	0.03576361
50	0x3cc71555	0.024302164
51	0xbbd6d726	-0.0065564094
52	0x3cabbd96	0.020964425
53	0x3cb7032c	0.02234038
54	0x3c90a699	0.017657565
55	0xbcb62f06	-0.02223922
56	0xbc3d38cb	-0.011549185
57	0x3c804e68	0.015662387
58	0x3ce6cc8c	0.028173707
59	0xbbbdc94f	-0.00579182
60	0xbc1b051d	-0.009461668
61	0xbc53ff24	-0.012939248
62	0xbc8f7b5c	-0.017514877
63	0x3cf48614	0.02984909
64	0x3c4a2e6e	0.012340171
65	0xbbb40b3d	-0.005494504
66	0xbca04df1	-0.019568415
67	0xbbcb1623	-0.0061977073
68	0xbcb35f15	-0.021895925
69	0x3a38c1bb	0.0007047911
70	0x3cebe685	0.028796444
71	0xbcbb82f9	-0.022889601
72	0xbc2c9600	-0.01053381
73	0xbc4f8128	-0.012665071
74	0xbc1f6ec4	-0.009730998
75	0x3cb4fe3c	0.022093885
76	0x3c174b15	0.00923421
77	0xbc7fa002	-0.015602114
78	0x3ce0e453	0.027452623
79	0x3d0f5bfa	0.034999825
80	0x3c5c4273	0.013443577
81	0x3caaf8f4	0.020870663
82	0xbca5a617	-0.0202208
83	0xbbfb5387	-0.0076698693
84	0xbc769a0a	-0.015051374
85	0x3b518e9d	0.0031975873
86	0xbcc91d49	-0.024550097
87	0x3d2ab8d0	0.041680157
88	0x3b26ec64	0.002547049
89	0xbca40e9a	-0.020026494
90	0x3d18f035	0.037338454
91	0xbbd602a5	-0.006531077
92	0xbca5892e	-0.020207014
93	0xbc8e0f98	-0.01734142
94	0xbc4a2a4c	-0.012339186
95	0xbc679099	-0.014133596
96	0x3cb2e4c3	0.021837598
97	0xbcdf2a29	-0.027241783
98	0xbbf2a587	-0.0074049863
99	0x3b849973	0.004046613
100	0xbc2084e6	-0.00979731
101	0x3d2c48f2	0.042061754
102	0x3d298411	0.041385714
103	0x3c143146	0.009044951
104	0xbbbd3fc6	-0.0057754247
105	0x3d2eeccd	0.0427063
106	0xbccff3c4	-0.025384791
107	0xbb852567	-0.0040632966
108	0x3d0259f5	0.03182407
109	0x3d2b469e	0.041815393
110	0xbca18b60	-0.01971978
111	0xbbb83d9a	-0.005622578
112	0x3c8adbdf	0.016950546
113	0xbcb97804	-0.022640236
114	0x3d1ac0c5	0.037781496
115	0x3ce088df	0.027409015
116	0x3cd4e0c1	0.025986077
117	0xbbb9162e	-0.005648396
118	0xbc76db83	-0.015066984
119	0x3d01139f	0.031512853
120	0xbb214a0d	-0.0024610788
121	0x3c4ee337	0.012627414
122	0x3ca8b92e	0.020596113
123	0xbc3f988c	-0.011694085
124	0x3c1f3a82	0.009718539
125	0xbc7277bb	-0.014799054
126	0x3ae5f56c	0.0017544455
127	0x3afea1cb	0.001942688
128	0xbca2a6b0	-0.019854873
129	0x3cff1f84	0.031142958
130	0xbcdacb09	-0.026708143
131	0xbc7089e2	-0.014681311
132	0x3bd88a12	0.006608256
133	0xbaeb5df6	-0.001795708
134	0xbc8df2e1	-0.017327728
135	0xbcc430fb	-0.023949137
136	0x3d1bcba5	0.038036007
137	0x3b8de90d	0.0043307603
138	0xbca3c669	-0.01999207
139	0x3c689cb5	0.014197518
140	0xbc8dad4f	-0.017294554
141	0x3c5a578f	0.01332654
142	0x3a9825f7	0.0011607994
143	0x3c0cb1d1	0.008587317
144	0x3d236344	0.03988959
145	0x3cef551d	0.02921539
146	0x3c8486ae	0.016177502
147	0xbca40dd9	-0.020026134
148	0x3cf28713	0.029605424
149	0x3b44100e	0.0029916796
150	0x3d16bd58	0.036801666
151	0x3cee67b1	0.029102178
152	0xbcc1fd78	-0.023680434
153	0x3cce1eec	0.02516123
154	0x3d0cf228	0.034410626
155	0xbc923ea0	-0.017852128
156	0x3bea1ae9	0.007144321
157	0x3af6ca1e	0.0018828546
158	0xbc9dd23f	-0.019265292
159	0xbc0b50c8	-0.0085031465
160	0xbc333800	-0.010938644
161	0xbcc07767	-0.023494435
162	0xb94becf5	-0.00019447862
163	0x3c3ea60c	0.011636268
164	0x3d2432e0	0.04008758
165	0xbc6a4010	-0.0142975
166	0x3c7ab208	0.015301235
167	0x3d17726c	0.036974356
168	0x3b8ef1ad	0.004362306
169	0x3aae2a96	0.0013287838
170	0x3d134506	0.035954498
171	0xbc6177c5	-0.013761465
172	0x3cb3c271	0.021943303
173	0x3c88040a	0.016603488
174	0x3cdb273f	0.026752112
175	0x3bc05c5c	0.005870385
176	0x3ca1fd64	0.019774146
177	0xbc3f7d9e	-0.011687664
178	0xbc9085f9	-0.017642008
179	0x3d042aad	0.03226726
180	0xbca13b95	-0.019681731
181	0xbc122cd5	-0.008921822
182	0xbc1e4260	-0.00965938
183	0x3ba1c185	0.0049363994
184	0x3c876454	0.016527332
185	0x3d0a5e7d	0.033781517
186	0xbb7e9dc1	-0.0038851353
187	0xbc38f3dc	-0.011288609
188	0x3d082112	0.033234663
189	0xbb0acac1	-0.002117798
190	0x3c27a8b9	0.010233098
191	0xbbcec9a3	-0.006310658
192	0x3ce7f001	0.028312685
193	0xbc567f84	-0.0130919255
194	0xbb692dd9	-0.0035580306
195	0xbc9f81de	-0.019471105
196	0xbbc38ca6	-0.0059676943
197	0x3c873edc	0.016509466
198	0xbc82b76c	-0.015956603
199	0xbbd8ed47	-0.0066200825
200	0x3d2a2f12	0.041548796
201	0x3cb4b4b1	0.022058817
202	0xbc94e54a	-0.01817574
203	0x3c01125a	0.0078779105
204	0x3c8fc2bf	0.017548917
205	0x3c9e490f	0.019321946
206	0xbc94dc49	-0.018171446
207	0x3d29fa68	0.04149857
208	0x3bd853b6	0.006601776
209	0xbc8db9c1	-0.017300488
210	0xbcbe6377	-0.023240788
211	0xb95fb43b	-0.00021334078
212	0xbba6b32b	-0.0050872765
213	0x3cd5418b	0.02603223
214	0x3ceaf9e7	0.028683616
215	0xbcc627e3	-0.024188941
216	0xbcc42054	-0.023941197
217	0xbcdc4aa2	-0.026891056
218	0xbca4c05b	-0.020111253
219	0xbc2e14c6	-0.01062507
220	0xbcd78c70	-0.026312083
221	0x3c9e74c4	0.019342788
222	0x3c05f675	0.008176436
223	0xbc6c63b8	-0.014428072
224	0x3d1b19a5	0.037866253
225	0xbcafdb90	-0.021467
226	0x3d1ee15e	0.038789146
227	0x3d1a0c42	0.037609346
228	0x3cc02cdb	0.023458889
229	0x3d19e59b	0.037572484
230	0x3c9166ec	0.017749272
231	0xbc119f9c	-0.0088881515
232	0x3c685a79	0.014181727
233	0x3c8718fd	0.016491408
234	0xbc89612b	-0.016769966
235	0x3b91ad1e	0.004445686
236	0x3d0600f3	0.03271575
237	0x3c1d5567	0.009602881
238	0xbcc2d5d5	-0.023783604
239	0x3c260c20	0.010134727
240	0xbbf50956	-0.0074779196
241	0xbbac4ba3	-0.00525804
242	0xbbafef04	-0.005369069
243	0xbcb6a3cb	-0.0222949
244	0xbc0ce58f	-0.008599653
245	0x3d07ce84	0.033155933
246	0x3cd6e55c	0.026232414
247	0x3ce352fa	0.027749527
248	0xbc8001d1	-0.015625866
249	0xbc8525a6	-0.016253304
250	0x3cd27902	0.025692467
251	0x3c793f80	0.0152128935
252	0xbc1dbf46	-0.009628123
253	0x3c30a7a3	0.010782155
254	0x3c474e3b	0.012164648
255	0x3bcf5d32	0.0063282484

bias f4 [100]
0	0xbca9c5b7	-0.02072416
1	0xbd0889c0	-0.033334494
2	0x3b005a10	0.0019584931
3	0x3cfafe9c	0.030638985
4	0x3d4c9e98	0.049955934
5	0x3d0c53c9	0.03425959
6	0x3b9cf825	0.0047903233
7	0x3c8fc928	0.017551973
8	0xbd03b70f	-0.032157
9	0x3d02c4ca	0.031925954
10	0x3c43fda2	0.011962326
11	0x3d4baa18	0.04972276
12	0xbcb7e010	-0.022445709
13	0x3c87f697	0.016597075
14	0xbcb8706b	-0.022514543
15	0x3d1fa48f	0.038975295
16	0x3a986073	0.0011625424
17	0x3c407ede	0.0117489975
18	0x39e2aeb4	0.00043236243
19	0xbc828f9a	-0.015937615
20	0xbd198a88	-0.03748563
21	0x3c96eca0	0.018423378
22	0x3cdeb271	0.027184697
23	0xbcfff1e5	-0.031243274
24	0x3ce55410	0.027994186
25	0xbc2953c0	-0.010334909
26	0x39f0e9d8	0.00045950594
27	0x3982589f	0.0002486156
28	0x3c83409b	0.016022017
29	0x3c90e51c	0.017687373
30	0xbc610ccc	-0.013735961
31	0xbaadcc15	-0.0013259674
32	0xbc6b2c4b	-0.014353822
33	0xbc6c67ba	-0.014429027
34	0xbd1ac756	-0.037787758
35	0xbce1a031	-0.027542206
36	0xbce2eb1d	-0.027700001
37	0x3d5509ff	0.052011486
38	0x3c78ebb5	0.015192916
39	0xbcef01aa	-0.029175598
40	0x3b35b498	0.002772605
41	0x3ce53402	0.0279789
42	0x3d161a0e	0.03664594
43	0x3bd1ce52	0.006402769
44	0x3d3a3afb	0.045466404
45	0x3a9814ec	0.0011602915
46	0x3c340494	0.01098742
47	0x3c09a8ec	0.0084020905
48	0xbc4b1861	-0.012395949
49	0x3c601796	0.013677498
50	0x3cb359e6	0.021893453
51	0xbc97afa9	-0.018516378
52	0xbcdb5225	-0.026772568
53	0xbc9a411f	-0.01882988
54	0xbd23ffed	-0.04003899
55	0x3c66b7e5	0.01408193
56	0x3c4d5834	0.012533236
57	0x3d0173c9	0.031604562
58	0x3cc5fbac	0.024167858
59	0x3d26466a	0.040594496
60	0x3d184e5d	0.037184108
61	0x3d3b6a3f	0.04575562
62	0x3d2a3a4f	0.041559514
63	0x3d238ac6	0.039927267
64	0xbcc092dc	-0.023507528
65	0x3ce5c658	0.02804868
66	0x3ca7038c	0.020387433
67	0x3ce35f3d	0.027755374
68	0x3b0e9d30	0.0021761172
69	0x3a0e6980	0.0005432591
70	0xbbbeb233	-0.005819583
71	0x3d044e66	0.03230133
72	0xbd1aaade	-0.037760608
73	0xbc845ee8	-0.016158536
74	0xbb40e69c	-0.002943433
75	0x3ce9030a	0.028443832
76	0xbc58fd75	-0.013244023
77	0x3cffa705	0.03120757
78	0x3b24b52d	0.0025132403
79	0xbd0f8d04	-0.035046592
80	0x3c8afd66	0.016966533
81	0x3ce0a1c4	0.027420886
82	0x3b2ab56d	0.002604808
83	0x3b70cf00	0.0036744475
84	0x3c7dd4e1	0.015492649
85	0xbd0cf8a4	-0.03441681
86	0x3c7a0892	0.015260832
87	0x3ccf569b	0.025309851
88	0xbc1ea231	-0.009682224
89	0x3c6bf7d3	0.014402348
90	0xbcac7bc6	-0.021055114
91	0xba38235a	-0.0007024311
92	0x3a93cbd6	0.0011275958
93	0xbcfc1ef9	-0.030776488
94	0xbcfb7b2c	-0.030698381
95	0xbc165fe3	-0.009178135
96	0xbb0e2d9c	-0.0021694666
97	0xbc2c3fc1	-0.010513247
98	0x3d39a914	0.04532726
99	0x3cc3dcd4	0.02390901

weight f4 [123, 100]
0	0xbd234b22	-0.039866574
1	0x3d336aa9	0.04380289
2	0xbd422800	-0.04740143
3	0x3c118841	0.008882583
4	0xbd415879	-0.047203515
5	0x3d863e7e	0.06554888
6	0xbddfedc9	-0.10934026
7	0xbcc23073	-0.023704743
8	0xbd6ec73a	-0.058295466
9	0xbbea285c	-0.0071459245
10	0xbd856812	-0.065139905
11	0xbb5faae8	-0.0034128968
12	0xbd555064	-0.05207862
13	0xbd9f1bdc	-0.07768986
14	0xbd79ab43	-0.060954344
15	0x3c4916e6	0.012273526
16	0xbbcd7023	-0.0062694713
17	0x3d861efb	0.06548878
18	0xbcb13d20	-0.021635592
19	0xbdcca86f	-0.09993064
20	0xbc8b4c0c	-0.017004035
21	0xbde6498f	-0.11244499
22	0x3d69886f	0.05701488
23	0x3db35261	0.08755947
24	0x3daa943b	0.08329054
25	0xbdc95243	-0.09830143
26	0xbdebb175	-0.115084566
27	0x3dc19cf0	0.094537616
28	0xbdd18a6c	-0.1023148
29	0x3d9f6586	0.07783036
30	0xbd6dfa95	-0.0581003
31	0x3c78fc30	0.015196845
32	0xbd963718	-0.07334727
33	0x3d126df2	0.035749383
34	0x3d612dd4	0.054975346
35	0x3ca13338	0.019677743
36	0x3b9a2110	0.0047036484
37	0xbc5030d1	-0.012706951
38	0xbd84ed44	-0.06490567
39	0x3db90a43	0.090351604
40	0x3c9aff5d	0.018920595
41	0xbdb3c7fc	-0.08778378
42	0xbdc6f8ae	-0.09715401
43	0xbd1fc14a	-0.039002694
44	0xbd6264a3	-0.055271756
45	0xbdd3b98b	-0.10338124
46	0x3dbcaab9	0.0921225
47	0xbd714dd7	-0.058912124
48	0x3d5a349a	0.05327282
49	0x3d2a78aa	0.04161898
50	0xbd7bd801	-0.061485294
51	0xbdc3399b	-0.09532472
52	0xbdd1c456	-0.10242526
53	0x3db85491	0.09000505
54	0x3d7c2ccc	0.06156616
55	0x3da21ebd	0.07916019
56	0x3db7dc36	0.08977549
57	0x3d046f7e	0.03233289
58	0xbd898b8b	-0.06716069
59	0xbccfe31f	-0.025376854
60	0x3d44bb33	0.04803009
61	0x3c510ea4	0.012759838
62	0x3d85175b	0.06498595
63	0x3c40ae8d	0.011760366
64	0x3b3abdc0	0.0028494447
65	0xbbf5da45	-0.0075028264
66	0x3d9d5eb8	0.07684082
67	0xbd97bc92	-0.07409014
68	0x3d032546	0.03201797
69	0xbdaa286a	-0.083084896
70	0x3d73eebb	0.059553843
71	0x3b6bd517	0.0035985166
72	0xbd8a34dc	-0.067483634
73	0x3da2989a	0.07939263
74	0x3c9bb997	0.019009395
75	0xbda4e681	-0.08051778
76	0x3d689dd6	0.05679115
77	0xbd79fe55	-0.061033566
78	0x3d033023	0.03202833
79	0x3d9d0b13	0.07668128
80	0x3c853c6c	0.016264163
81	0xbd7059a7	-0.05867925
82	0xbddccffc	-0.10781857
83	0x3d2a2f7d	0.041549195
84	0xbd9ff546	-0.07810454
85	0x3d7ff48e	0.062489085
86	0x3d9ebad1	0.07750476
87	0x3c2b05a4	0.010438357
88	0xbd776b38	-0.060404986
89	0xbd535a8b	-0.05160002
90	0x3d52f936	0.051507197
91	0x3d50a3d7	0.0509375
92	0xbd778a90	-0.060434878
93	0xbd91ba44	-0.071156055
94	0xbdb93a7d	-0.09044359
95	0x3c85f3fe	0.016351696
96	0x3d296ba9	0.04136244
97	0x3c0b8905	0.008516555
98	0xbcf987d4	-0.030460276
99	0xbcc66fe8	-0.024223283
100	0xbdc57dc4	-0.096431285
101	0xbd52a8c6	-0.051430486
102	0x3be67bd0	0.0070338026
103	0x3ce64ff8	0.028114304
104	0xbbce26ba	-0.0062912377
105	0x3c99dc4c	0.018781804
106	0xbdc09977	-0.09404271
107	0xbd8153e6	-0.063148305
108	0xbdc0cccb	-0.09414061
109	0x3d3754ac	0.044758484
110	0x3bbcfc56	0.0057673855
111	0xbd54d76f	-0.051963266
112	0xbcda07c1	-0.026615025
113	0xbd4b0e1c	-0.049574003
114	0x3d95ac41	0.073082455
115	0xbb85de71	-0.004085355
116	0x3dbf7300	0.093481064
117	0xbc96df92	-0.018417154
118	0xbd93e761	-0.072218664
119	0xbdbaa826	-0.09114103
120	0xbd83efb0	-0.06442201
121	0x3cbe7c5e	0.023252662
122	0x3d061428	0.032734066
123	0xbd7624f0	-0.06009382
124	0xbdb75889	-0.089524336
125	0xba708b00	-0.0009175986
126	0x3da5d80a	0.08097847
127	0x3cae0c70	0.021246165
128	0xbce9ecb2	-0.028555248
129	0x3d828e3c	0.06374785
130	0x3c460f17	0.012088559
131	0xbc87b55e	-0.016565975
132	0x3d658c35	0.056041915
133	0xbcb9bad8	-0.022672102
134	0xbdd06ba0	-0.10176778
135	0xbabc2a80	-0.0014355928
136	0x3b81eebb	0.0039652265
137	0x3d817484	0.06321052
138	0x3ccb6873	0.024830079
139	0xbc8948f9	-0.016758429
140	0x3c3c17cd	0.011480284
141	0xbc0397bc	-0.008031782
142	0x3d5c8b18	0.053843588
143	0xbd307d24	-0.043088093
144	0xbd1f6db7	-0.03892299
145	0x3b74b200	0.0037337542
146	0xbdb1a378	-0.08673757
147	0xbd8a1166	-0.067416
148	0xbd4ddcb2	-0.0502593
149	0xbcabff53	-0.020995772
150	0xbde4c313	-0.1117002
151	0xbce35643	-0.027751094
152	0x3d772bb9	0.06034443
153	0x3d9e5489	0.077309676
154	0x3d48a8d1	0.04898912
155	0xbcbea5ac	-0.023272358
156	0xbd8868a7	-0.06660586
157	0x3d85a64d	0.0652586
158	0xbd673099	-0.05644283
159	0xbd827179	-0.063692994
160	0x3d71be3e	0.05901932
161	0x3d102540	0.035191774
162	0xbda82b37	-0.082113676
163	0xba80bef2	-0.0009822531
164	0x3d9f039b	0.077643596
165	0xbcbc868a	-0.023013372
166	0xbcf0c425	-0.029390404
167	0xbdbb7652	-0.09153427
168	0x3d2665fe	0.04062461
169	0xbc56c298	-0.013107918
170	0x3d855ce2	0.065118566
171	0xbd71f043	-0.059067022
172	0xbd816c16	-0.06319444
173	0xbd3f1afb	-0.04665659
174	0xbc2576e9	-0.010099151
175	0xbd0da8ac	-0.034584686
176	0x3d8b4e5a	0.06802054
177	0xbd154d23	-0.036450516
178	0xbc4c4319	-0.012467169
179	0xbdc6def5	-0.097104944
180	0xbbd1edce	-0.0064065224
181	0xbd9929e5	-0.07478694
182	0x3d16a79a	0.03678093
183	0xbd901885	-0.07035927
184	0xbc960d00	-0.018316746
185	0x3da14ecf	0.0787636
186	0x3c11dd62	0.008902879
187	0x3d678698	0.056524843
188	0xbddfef78	-0.10934347
189	0x3d7ada53	0.061243366
190	0x3da0b50b	0.07847031
191	0x3ce939ce	0.028469946
192	0xbcdfe026	-0.027328562
193	0x3d408078	0.046997517
194	0x3d65c776	0.056098424
195	0x3ce46453	0.02787987
196	0xbddb5184	-0.10708907
197	0xbdb6329b	-0.08896371
198	0xbc356017	-0.011070273
199	0xbd2b6140	-0.04184079
200	0xbdcacd75	-0.09902469
201	0xbc8665d7	-0.016405983
202	0x3ca79300	0.020455837
203	0xbdd6c741	-0.104872234
204	0x3d8af23e	0.06784485
205	0x394648cf	0.00018909875
206	0xbc4b4150	-0.012405708
207	0x3cb0e93d	0.021595592
208	0xbd15b5a4	-0.03655018
209	0xbd83c4b7	-0.06434005
210	0xbd050bde	-0.03248202
211	0x3d3a8f62	0.045546897
212	0x3d896347	0.06708389
213	0x3d842134	0.064516455
214	0x3c892cf4	0.016745068
215	0xbd72cf15	-0.05927952
216	0x3d436a21	0.047708634
217	0x3d1d9ad6	0.03847774
218	0xbd067b4a	-0.03283242
219	0x3d1347d9	0.03595719
220	0xbdcbc421	-0.09949518
221	0xbc0382ba	-0.008026773
222	0x3d620131	0.055176917
223	0x3d861b41	0.06548167
224	0xbda4028f	-0.080083005
225	0x3d4192ba	0.04725907
226	0xbdd3a664	-0.10334471
227	0xbc3f2eef	-0.011668905
228	0xbd7e0d8e	-0.062024646
229	0x3d9d0e58	0.076687515
230	0xbd7cbe0f	-0.06170469
231	0x3d1dd34a	0.03853158
232	0x3cea7283	0.028619057
233	0x3c1c8080	0.009552121
234	0x3d9cc691	0.07655061
235	0xbdab19a6	-0.083545014
236	0x3d9016c5	0.07035593
237	0x3ceb60b0	0.028732628
238	0x39e29f1e	0.0004322463
239	0x3d924a10	0.071430326
240	0xb9d8e52e	-0.00041369483
241	0x3d414f35	0.04719468
242	0x3d1be0c2	0.038056143
243	0xbd8c0437	-0.068367414
244	0xbd579325	-0.052630562
245	0x3d96c3a1	0.07361532
246	0x3dbf1647	0.09330421
247	0x3c01bcff	0.007918595
248	0xbc648cff	-0.013949632
249	0xbc593f72	-0.013259755
250	0xbd587325	-0.052844185
251	0x3d279e08	0.040922195
252	0xbc8a615f	-0.016892133
253	0xbd0b2826	-0.033973835
254	0xbd1f60c1	-0.03891063
255	0x3db043d6	0.08606689

bias f4 [123]
0	0xbd4eee2e	-0.050520115
1	0x3d179db1	0.03701562
2	0xbbb3c8aa	-0.0054865675
3	0xbdc7d2ab	-0.097569786
4	0x3d0dcdf2	0.034620233
5	0xbd7963b1	-0.06088609
6	0xbdac79f7	-0.084217004
7	0x3d81ffb4	0.063475996
8	0x3d5f9a5c	0.054590568
9	0x3c85ed0c	0.016348384
10	0xbd10ec17	-0.035381403
11	0xbdc2f63e	-0.09519623
12	0xbd5298a5	-0.051415104
13	0xbde0d068	-0.1097725
14	0x3d8e4f27	0.06948691
15	0xbd81c759	-0.06336851
16	0x3da01293	0.07816043
17	0xbded2264	-0.11578825
18	0xbce7e026	-0.028305124
19	0xbcd913ca	-0.026498694
20	0x3b97577c	0.0046185832
21	0xbc580321	-0.01318434
22	0xbc868aac	-0.016423546
23	0x3d9e347b	0.077248536
24	0x3c6e35a7	0.014539159
25	0xbcb921b4	-0.022599079
26	0xbd685a4c	-0.05672674
27	0xbaf3cd19	-0.0018600553
28	0x3b5d5dce	0.0033777836
29	0xbaf03e70	-0.0018329155
30	0x3c9ccbaf	0.019140093
31	0xbd35cd0b	-0.044384997
32	0x3c91aae5	0.017781684
33	0xbc3f2822	-0.011667283
34	0xbddd0f40	-0.10793924
35	0x3c47dd31	0.012198732
36	0xbdd7316e	-0.10507475
37	0x3d35eb00	0.044413567
38	0x3cc2f4db	0.023798397
39	0xbc8300d3	-0.015991604
40	0xbda9ebdf	-0.08296942
41	0xbd91e240	-0.07123232
42	0xbd3ab2dc	-0.04558073
43	0xbda9d0bd	-0.08291767
44	0xbdbe9159	-0.093050666
45	0x3d736128	0.059418827
46	0xbc1d8c91	-0.009616033
47	0x3d891a35	0.06694452
48	0x3d0b42d3	0.033999275
49	0xbd0381d9	-0.032106254
50	0xbdb06fbf	-0.08615064
51	0x3c1c68ed	0.009546501
52	0xbdaa7cd1	-0.08324588
53	0xbd983ff5	-0.07434074
54	0x3cfaef55	0.0306317
55	0xbdcf05f2	-0.10108556
56	0xbddb7e6e	-0.10717474
57	0xbd67902b	-0.056533974
58	0x3c1d66c7	0.009607024
59	0xbc818c66	-0.015814018
60	0xbdd7a310	-0.105291486
61	0x3ca30329	0.019898968
62	0x3c7bc009	0.015365609
63	0xbd551e21	-0.052030686
64	0x3c93f32b	0.018060287
65	0x3d2e661f	0.04257786
66	0xbd165b93	-0.036708426
67	0x3d9c467c	0.07630631
68	0xbdc77f3c	-0.09741065
69	0xbda23712	-0.0792066
70	0xbb9de831	-0.004818939
71	0xbd8a209d	-0.06744502
72	0xbcf2f0c4	-0.029655822
73	0xbcbf49df	-0.023350654
74	0x3d8c879c	0.06861803
75	0x3d9a46e1	0.0753305
76	0x3c165547	0.009175605
77	0xbce725af	-0.028216211
78	0xbcf98e88	-0.030463472
79	0x3da03156	0.0782191
80	0x3d301939	0.042992804
81	0xbc0df65b	-0.008664693
82	0x3c806698	0.01567392
83	0x3d50e579	0.051000092
84	0xbcd1e403	-0.02562142
85	0xbd892a8c	-0.06697568
86	0x3d6080fc	0.05481051
87	0xbda2a65a	-0.07941885
88	0x3d0d7c3b	0.034542304
89	0x3c1be7cd	0.009515715
90	0xbdec73c6	-0.115455195
91	0xbdd4bce7	-0.10387593
92	0x3d97c680	0.07410908
93	0xbca87292	-0.020562444
94	0xbcc413b0	-0.023935169
95	0x3d7972a6	0.060900353
96	0xbd31a7d0	-0.04337293
97	0xbd93d250	-0.07217848
98	0xbd1250a6	-0.035721444
99	0xbd9eb396	-0.07749097
100	0xbdbecdba	-0.09316583
101	0x3ce56353	0.028001463
102	0x3cd35148	0.025795594
103	0xbdc874ce	-0.09787904
104	0xbc8b5bdb	-0.017011574
105	0x3d5adbfb	0.053432446
106	0xbd9d96de	-0.07694791
107	0xbc933407	-0.017969145
108	0xbd53a0e5	-0.051667113
109	0xbd825589	-0.06363971
110	0x3d85a120	0.06524873
111	0x3c99b77b	0.018764248
112	0x399d9ca0	0.00030062068
113	0x3c91de14	0.01780609
114	0x3d061c44	0.0327418
115	0xbdee990c	-0.11650285
116	0xbbb0c25e	-0.005394264
117	0x3d2b9c4e	0.04189711
118	0x3d117321	0.035510186
119	0xbde874cd	-0.11350403
120	0xbc95aaaf	-0.018269865
121	0xbc8a1061	-0.016853513
122	0xbdb72da1	-0.0894425
