scripts/model_cnn.pt (torch_old, 378752 bytes, 12 tensors)

weight f4 [10, 3, 2, 2]
0	0x3e14b364	0.14521557
1	0xbce715ce	-0.02820864
2	0x3df2c00b	0.118530355
3	0x3e8c7308	0.27431512
4	0x3cf68a7d	0.030095333
5	0xbe8fc4dd	-0.28079882
6	0x3e4df0cb	0.20111386
7	0xbc1b9977	-0.009497038
8	0x3e32d309	0.17463316
9	0x3dd83079	0.105561204
10	0xbb2c115f	-0.0026255471
11	0x3d3a8c5e	0.04554402
12	0x3e5f0b6a	0.21781698
13	0x3e0e90ab	0.13922374
14	0xbe892074	-0.26782572
15	0x3e2200a9	0.15820564
16	0xbccec1ef	-0.02523896
17	0xbb03e452	-0.0020125103
18	0xbe821532	-0.25406796
19	0xbdfa7064	-0.12228468
20	0xbe8b3977	-0.2719228
21	0xbe41f025	-0.18939264
22	0xbd7a7282	-0.06114436
23	0x3e454d02	0.19267657
24	0x3e8d0bea	0.27548152
25	0xbe203ff1	-0.15649392
26	0x3e028eb6	0.12749752
27	0xbdf0b9de	-0.11754201
28	0xbde7f7cd	-0.11326561
29	0xbcaeb2dd	-0.021325523
30	0xbae06bac	-0.0017121932
31	0x3e5eda11	0.21762873
32	0x3e1e2820	0.15444994
33	0xbe05fbec	-0.13084382
34	0x3e5be43e	0.21473786
35	0xbe1276b7	-0.14303099
36	0x3e150718	0.14553487
37	0xbe7ae110	-0.24499917
38	0x3dc2a768	0.095045865
39	0xbe8c53da	-0.27407724
40	0x3db6e75b	0.08930846
41	0xbe8cf368	-0.27529454
42	0x3c7ec721	0.015550406
43	0xbe77a2cf	-0.241832
44	0x3e5f6d57	0.21819054
45	0xbe3ef1aa	-0.18646875
46	0x3dede7bd	0.11616466
47	0x3e7d18fc	0.24716562
48	0xbde4bd82	-0.11168958
49	0x3e37ad79	0.17937268
50	0x3e5e5c13	0.21714811
51	0xbc1eef5f	-0.009700625
52	0x3d48e677	0.049047913
53	0xbd0e15e3	-0.03468884
54	0xbe89dd81	-0.26926807
55	0xbcbd0a1c	-0.02307611
56	0x3de01b88	0.10942751
57	0xbe123c90	-0.14280915
58	0x3e8c0a59	0.27351645
59	0x3e839cf2	0.25705677
60	0xbd81242d	-0.06305728
61	0x3cbfe648	0.023425236
62	0x3e452d6c	0.19255608
63	0x3e5e12d4	0.2168687
64	0xbdab85b6	-0.08375113
65	0xbe0235f7	-0.12715898
66	0xbdf28c00	-0.11843109
67	0x3e178610	0.14797235
68	0xbdcbc710	-0.099500775
69	0x3d5ad0b5	0.053421695
70	0x3ccd8baf	0.02509102
71	0xbe2e2428	-0.1700598
72	0xbe86cdcb	-0.26328883
73	0xbe4ed1e3	-0.20197253
74	0xbe15ae59	-0.1461729
75	0x3e613a01	0.21994783
76	0xbe253117	-0.16132008
77	0x3cf1d3a6	0.029519867
78	0x3e5db64c	0.21651572
79	0x3e0c0bb4	0.1367634
80	0xbe253df7	-0.16136919
81	0x3e489acd	0.19590302
82	0xbe2f4e99	-0.17119826
83	0xbd04c70b	-0.032416385
84	0xbe8aacf4	-0.27085078
85	0xbe1210f8	-0.14264286
86	0xbe16b665	-0.14718015
87	0xbe48a633	-0.1959465
88	0x3e1295aa	0.14314905
89	0x3c950208	0.018189445
90	0x3d8fd8d0	0.070237756
91	0x3e21fcf9	0.15819158
92	0x3e8777f1	0.26458696
93	0xbced2d62	-0.028952304
94	0x3e6f949d	0.23396535
95	0x3ca6a15e	0.020340618
96	0x3e5ece77	0.21758448
97	0x3e93282c	0.28741586
98	0xbd105c17	-0.035244074
99	0xbd263ce9	-0.040585432
100	0x3c94112d	0.018074596
101	0x3e2ad629	0.16683258
102	0x3d9effc0	0.07763624
103	0xbe3e179a	-0.18563691
104	0xbe9398c9	-0.28827503
105	0xbd6ab269	-0.05729905
106	0x3d01ea5d	0.031717647
107	0xbe8e1185	-0.2774774
108	0xbd7b9d49	-0.061429296
109	0x3db69394	0.08914867
110	0xbe37f6d7	-0.17965256
111	0xbd337ee2	-0.043822177
112	0xbdfefa52	-0.124500886
113	0xbe912aa2	-0.2835284
114	0xbe2debf3	-0.16984539
115	0xbe8a54fb	-0.2701796
116	0xbe0a91b2	-0.13532141
117	0xbe1c6131	-0.1527145
118	0xbdba0e47	-0.090847544
119	0xbe89c199	-0.26905516

bias f4 [10]
0	0x3d947bfe	0.07250212
1	0x3d646671	0.05576176
2	0x3decd968	0.115649045
3	0x3e736d46	0.23772153
4	0x3c79ee82	0.015254619
5	0x3e3e7581	0.18599512
6	0xbe025263	-0.1272674
7	0x3e17f15e	0.14838168
8	0xbe75451f	-0.23952149
9	0xbe85608a	-0.26050216

weight f4 [10, 10, 3, 3]
0	0xbda6ba86	-0.08141045
1	0x3d46e5e3	0.04855908
2	0x3c088e66	0.008334732
3	0xbd8e9582	-0.0696211
4	0x3db0c1f4	0.086307436
5	0x3d586af7	0.052836385
6	0xbdbdfbbd	-0.09276531
7	0x3d831757	0.06400936
8	0x3d300dfe	0.042982094
9	0x3c877e36	0.016539674
10	0x3d2229aa	0.039590515
11	0x3d71b33d	0.059008826
12	0x3ddf659b	0.109080516
13	0xbd30e68d	-0.04318862
14	0xbdb94d03	-0.09047892
15	0x3dc7637e	0.097357735
16	0xbdc780bf	-0.09741353
17	0x3dccab17	0.0999357
18	0x3dc5fb17	0.09667032
19	0x3d528544	0.051396623
20	0xbce2e66b	-0.027697762
21	0xbd7e0b21	-0.062022332
22	0x3d1e0ea3	0.038588177
23	0x3dce8b35	0.100851454
24	0x3dda4617	0.106579
25	0xbd20664c	-0.039160058
26	0xbd7684e7	-0.06018534
27	0x3d20cc25	0.039257187
28	0x3d8c9bcc	0.068656534
29	0x3d471468	0.048603445
30	0x3d018c7b	0.031628113
31	0x3d667883	0.056267273
32	0x3b748bf6	0.0037314869
33	0xbd3765f9	-0.044774983
34	0x3c563c85	0.013075952
35	0x3c450852	0.0120259095
36	0x3dc972e3	0.09836366
37	0xbc3a1267	-0.0113569265
38	0xbd200e76	-0.03907629
39	0x3cf31fae	0.029678192
40	0xbd8c6217	-0.06854647
41	0x3d77c14d	0.06048708
42	0x3d013779	0.031547043
43	0xbcbf8d6a	-0.023382861
44	0x3cd636c1	0.026149156
45	0x3a614a81	0.0008594171
46	0xbd78395d	-0.06060158
47	0xbce2106e	-0.027595725
48	0x3d98acea	0.07454856
49	0xbd81430e	-0.06311618
50	0xbcb0154c	-0.02149453
51	0x3d9c8068	0.07641679
52	0x3dcc42c0	0.09973669
53	0x3d0c1fce	0.03421002
54	0x3d166e75	0.036726434
55	0xbd9c1831	-0.07621802
56	0x3d700e46	0.058607362
57	0xbd17c65d	-0.03705441
58	0xbda19a64	-0.07890776
59	0xbd7e8527	-0.062138703
60	0x3ccbfba5	0.024900267
61	0xbd663c6c	-0.056209967
62	0x3d6c8459	0.057743404
63	0xbda75185	-0.081698455
64	0xb98f817a	-0.00027371553
65	0xbd0ec696	-0.034857355
66	0x3ca36111	0.019943746
67	0xbd42c7f3	-0.047553968
68	0x3db00a14	0.08595672
69	0x3d8b136c	0.06790814
70	0xbd1f2dea	-0.038862146
71	0xbdb4e440	-0.08832598
72	0x3db9c8c1	0.09071494
73	0xbdb50a96	-0.0883991
74	0x39cbe34a	0.0003888852
75	0x3dba14dd	0.090860106
76	0xbd8488ad	-0.06471381
77	0xbd199126	-0.03749194
78	0x3d784586	0.060613178
79	0xbb079c81	-0.0020692649
80	0xbdbce4fa	-0.09223361
81	0xbda687e5	-0.081313886
82	0xbcc68026	-0.024231028
83	0xbd9219c5	-0.071338214
84	0xbc7d1b4b	-0.015448402
85	0x3d39eb4e	0.04539042
86	0xbdc0351f	-0.09385132
87	0x3d7d8250	0.061891854
88	0x3bdbdf45	0.0067099654
89	0xbc23dc12	-0.010001199
90	0x3b3cb888	0.0028796513
91	0x3ccbe2f8	0.0248885
92	0xbd974808	-0.07386786
93	0xbdcdeeb1	-0.100552924
94	0x3c8bd9db	0.017071655
95	0x3d33ab11	0.043864314
96	0xbc7fcd2c	-0.015612882
97	0xbc099d26	-0.0083992835
98	0x3dda0c42	0.10646869
99	0xbd86cfb2	-0.065825835
100	0x3d2e55c1	0.04256225
101	0x3d88d2ba	0.06680818
102	0xbdbc9f5d	-0.09210084
103	0xbda74fc0	-0.08169508
104	0xbd6dbdd0	-0.058042347
105	0xb9d9a46c	-0.0004151197
106	0x3da36758	0.07978696
107	0xbc772dc0	-0.015086591
108	0x3dc08ebf	0.09402227
109	0xbd86e162	-0.06585957
110	0x3d8d635a	0.069037154
111	0xbd791a60	-0.06081617
112	0xbcb371e7	-0.021904899
113	0xbd089489	-0.03334478
114	0x3dcd8b3a	0.10036321
115	0xbcc1d639	-0.02366172
116	0x3db3d05d	0.087799765
117	0x3ddcd2fe	0.10782431
118	0x3cdf7772	0.027278636
119	0x3c9d287b	0.019184342
120	0x3da6ddba	0.0814776
121	0x3bc36a5d	0.005963607
122	0x3dab16bf	0.08353948
123	0x3dd73ed5	0.10510031
124	0xbc9f2569	-0.019427018
125	0x3d36b8b5	0.044609744
126	0xbdbb036d	-0.09131513
127	0x3d9cbe3a	0.0765347
128	0x3db3c4a3	0.0877774
129	0xbd9ce2b5	-0.076604284
130	0x3cd4ea4f	0.025990633
131	0xbd8881a6	-0.066653535
132	0xbd4420a6	-0.0478827
133	0x3d4747d7	0.048652496
134	0xbac58b37	-0.0015071396
135	0xbd5a51ae	-0.053300552
136	0xbcb733a2	-0.022363488
137	0x3cf4719e	0.029839333
138	0xbd283430	-0.041065395
139	0x3d804ae1	0.06264282
140	0xbd84c260	-0.064823866
141	0xbd6c28b8	-0.05765602
142	0xbd62c152	-0.055360146
143	0xbd7006ac	-0.058600113
144	0xbd5965a4	-0.053075448
145	0x3cad0dcb	0.021124741
146	0xbcd453db	-0.025918892
147	0x3d75077e	0.0598216
148	0xbab29578	-0.0013624867
149	0x3c283670	0.010266885
150	0xbdb80e3a	-0.089870885
151	0x3da9cbfe	0.082908615
152	0xbd248d31	-0.040173713
153	0xbd8c11d0	-0.06839335
154	0x3d4f6223	0.0506307
155	0x3c5f5d1d	0.01363304
156	0x3c7dca22	0.015490087
157	0xbdb1f257	-0.08688801
158	0xbd3183cd	-0.043338586
159	0x3dac8d87	0.08425432
160	0x3d8c0c10	0.06838238
161	0x3d576b46	0.05259254
162	0xbc8a9e15	-0.016921083
163	0xbcf48fc9	-0.029853718
164	0x3d971c5f	0.07378458
165	0x3d25bab4	0.040461257
166	0x3dbac9ec	0.09120545
167	0x3b3d67dc	0.0028901016
168	0x3dc4504b	0.09585627
169	0x3a8f5577	0.0010935505
170	0xbdbe83d5	-0.09302489
171	0xbd2e21db	-0.042512756
172	0xbd1e783c	-0.038688883
173	0x3da43de8	0.0801962
174	0x3da67cb6	0.081292555
175	0x3dd3545c	0.10318825
176	0xbdb9e845	-0.09077505
177	0x3ddadedf	0.106870405
178	0x3d96a6b1	0.073560126
179	0xbdc3d7c0	-0.095626354
180	0xbd4c61fc	-0.049898133
181	0x3d543a70	0.051813543
182	0x3d5c15c6	0.053731702
183	0xbd21b194	-0.039475992
184	0x3d28b56a	0.041188635
185	0xbd5af8f3	-0.053460073
186	0x3bca64ff	0.0061765905
187	0xbda5db91	-0.080985196
188	0x3d9eff26	0.077635095
189	0xbd8f22e1	-0.069890745
190	0xbda6eb07	-0.08150297
191	0xbbdac55a	-0.006676358
192	0x3dc3fd59	0.095698066
193	0xbce3f9ff	-0.027829168
194	0x3d76a135	0.060212333
195	0x3d991ad1	0.07475818
196	0xbb328b7d	-0.0027243786
197	0xbd4bc2da	-0.04974637
198	0x3c920823	0.017826146
199	0xbd2cb686	-0.042166255
200	0x3cc0ecd5	0.02355043
201	0x3d34639f	0.04404032
202	0x3d7bd916	0.061486326
203	0xbd3c9f2e	-0.046050243
204	0x3d484874	0.04889722
205	0x3da1d06d	0.07901082
206	0x3d897c31	0.06713141
207	0xbbac3a2a	-0.005255957
208	0x3c2378e8	0.009977557
209	0x3db7d85f	0.089768164
210	0x3d411f26	0.047148846
211	0xbb9204a5	-0.00445612
212	0xbc386cde	-0.011256425
213	0x3db4c4c9	0.08826596
214	0x3d41f210	0.04734999
215	0x3d048f1b	0.03236304
216	0xbc29e48b	-0.01036943
217	0x3d061a93	0.032740187
218	0x3d9f3274	0.07773295
219	0xbd2831fd	-0.041063298
220	0xbbbf9a11	-0.0058472236
221	0xbd903a63	-0.070423864
222	0x3d9629a2	0.073321596
223	0xbce17822	-0.027523104
224	0xbd83fa02	-0.064441696
225	0x3b4915bf	0.0030683128
226	0xbdbb3cd4	-0.091424614
227	0x3d5c8be9	0.053844366
228	0xbcee7fa5	-0.0291136
229	0xbdb35078	-0.087555826
230	0xbd642976	-0.055703603
231	0x3dd6db25	0.10491017
232	0xbc24ee71	-0.0100666145
233	0xbd9ce690	-0.07661164
234	0xbdaabb38	-0.083364904
235	0xbdc60a6a	-0.09669955
236	0xbd2e4cee	-0.042553835
237	0x3db4a61d	0.08820746
238	0x3d63fce4	0.055661097
239	0x3cc8c10e	0.024506118
240	0x3cdb89f1	0.026799174
241	0xbcf4486e	-0.029819693
242	0x3dab8ac4	0.08376077
243	0xbdaae6e9	-0.08344824
244	0xbbfdd8b9	-0.0077467826
245	0xbd9ee46f	-0.07758414
246	0xbdc7c2af	-0.0975393
247	0x3da12cdc	0.07869884
248	0xbd66279c	-0.05619012
249	0xbd100c2d	-0.03516786
250	0x3d38ac32	0.045086093
251	0xbcf3c781	-0.029758217
252	0xbcde9e5f	-0.027175127
253	0xbda097e8	-0.07841474
254	0x3d5e9446	0.054340623
255	0xbd86c759	-0.06580991

bias f4 [10]
0	0x3d276642	0.040869005
1	0x3d33f986	0.043939136
2	0x3d5bce23	0.053663384
3	0xbd89139b	-0.066931926
4	0x38126ac2	3.490854e-05
5	0x3c80769f	0.015681563
6	0x3d841627	0.06449538
7	0x3cd1f685	0.025630245
8	0xbd21b1d6	-0.03947624
9	0x3d87df15	0.066343464

weight f4 [10, 10, 4, 4]
0	0xbd85b62f	-0.065288894
1	0xbce595a1	-0.02802545
2	0x3d955929	0.072923966
3	0x3d5e8e28	0.05433479
4	0xbd13b845	-0.036064405
5	0xbcad1c4d	-0.021131659
6	0xbd5732b9	-0.052538607
7	0xbc2da07c	-0.0105973445
8	0x3d81313b	0.06308218
9	0xbcef02dd	-0.02917617
10	0xbd66efb8	-0.056380957
11	0x3ba8adf9	0.0051476923
12	0x3aa506f2	0.0012590571
13	0x3d9e4bd0	0.07729304
14	0x3d597278	0.05308768
15	0x3d8835ec	0.0665091
16	0x3d48c769	0.049018297
17	0xbd96fbc1	-0.07372237
18	0xbd86c7cb	-0.06581076
19	0xbd79f736	-0.061026774
20	0xbd7e0116	-0.062012754
21	0x3d0fa787	0.035071876
22	0x3cd6dd80	0.026228666
23	0xbce1231e	-0.027482565
24	0xbd73aec9	-0.05949286
25	0x3d37c615	0.04486664
26	0x3d85ec78	0.065392435
27	0xbd058945	-0.032601614
28	0x3d431056	0.047623
29	0xbb8dfc18	-0.0043330304
30	0x3ce91621	0.028452935
31	0xbd91599a	-0.07097168
32	0xbd9c712b	-0.076387726
33	0xbcdec21d	-0.02719217
34	0x3d3abdcd	0.045591164
35	0x3ccfb7be	0.02535617
36	0x3cac9684	0.021067865
37	0xbb061555	-0.0020459492
38	0x3b6d7888	0.0036235172
39	0x3b80ae2d	0.0039270134
40	0x3c232215	0.009956856
41	0x3d981110	0.074251294
42	0xbd80ecb5	-0.06295148
43	0xbd288f47	-0.041152265
44	0x3d0fcfd7	0.03511032
45	0x3cfe676e	0.031055178
46	0xbd552e88	-0.05204633
47	0xbadd5e2d	-0.0016889028
48	0xbd4fe641	-0.050756697
49	0x3c23e067	0.010002232
50	0x3d8e9347	0.06961685
51	0x3cb10d89	0.0216129
52	0xbd26a654	-0.040685967
53	0xbc98be9a	-0.018645573
54	0xbd91d97a	-0.071215585
55	0xbd5d2dfe	-0.05399894
56	0x3cd77757	0.026302023
57	0x3d488fb7	0.048965182
58	0xbd97a064	-0.07403639
59	0xbd3513ac	-0.044208214
60	0xbd2b7c87	-0.041866805
61	0x3c8e90f3	0.017403102
62	0x3d3f030e	0.046633773
63	0x3d5264da	0.05136571
64	0xbd99598c	-0.07487783
65	0xbc803543	-0.015650397
66	0x3da5e401	0.08100129
67	0x3d72369b	0.059134107
68	0x3d7d146c	0.061787054
69	0x3c62dff8	0.013847344
70	0x3da2fe97	0.079587154
71	0x3d94a40c	0.07257852
72	0x38d77c66	0.0001027517
73	0xbca821c0	-0.020523906
74	0xbd97657a	-0.07392402
75	0x3d0e58f5	0.034752805
76	0xbd6aeb7f	-0.057353493
77	0x3bb6c4d1	0.0055776616
78	0xbd1849af	-0.037179645
79	0xbd6fbcc6	-0.058529638
80	0xbc966e7f	-0.018363236
81	0xbc8f0967	-0.017460538
82	0xbc2d246e	-0.010567768
83	0x3d04413a	0.032288767
84	0xbd65a8e6	-0.056069277
85	0x3d17210a	0.036896743
86	0xbd39433e	-0.045230143
87	0xbc84943f	-0.01618397
88	0x3d846351	0.064642556
89	0xbbaa526b	-0.0051978133
90	0x3c85315b	0.016258886
91	0xbc9dc525	-0.019259045
92	0x3c7198b4	0.01474588
93	0x3cdb75a0	0.026789486
94	0xbd8221d9	-0.06354112
95	0xbc1f0b4e	-0.009707285
96	0xbd8daef0	-0.06918132
97	0xbd8e641a	-0.069526866
98	0x3d0f8dc9	0.035047326
99	0xbd150635	-0.036382873
100	0x3d0e4910	0.034737647
101	0xbd399166	-0.04530468
102	0xbaa880f8	-0.0012855818
103	0xbd2e64fc	-0.042576775
104	0x3d47337b	0.04863308
105	0xbd8c8208	-0.06860739
106	0x3c372617	0.011178515
107	0xbd83ab44	-0.06429151
108	0xbd39d2f2	-0.04536719
109	0x3c68b0e9	0.014202335
110	0xbd6769ca	-0.056497373
111	0xbcb24a1f	-0.02176386
112	0x3d6556e9	0.055991087
113	0x3d4afb0c	0.049555823
114	0x3b08ffe4	0.0020904476
115	0x3c9f5351	0.019448908
116	0x3d5e4371	0.054263536
117	0xbc7944e8	-0.015214182
118	0x3d7c0f7f	0.061538216
119	0xbd588dfe	-0.05286979
120	0x3d836a85	0.06416801
121	0x3b31390f	0.0027042066
122	0xbc4ea380	-0.012612224
123	0xbc7ea1df	-0.015541523
124	0xbcd37210	-0.025811225
125	0x3d51a26b	0.051180284
126	0x3b8cf55a	0.004301709
127	0x3d26defa	0.04073999
128	0x3d23fd8b	0.04003672
129	0x3c932831	0.0179635
130	0x3b978852	0.004624405
131	0x3b8502f4	0.00405919
132	0xbd11cbc0	-0.0355947
133	0x3c930eed	0.017951453
134	0x3c55769b	0.013028766
135	0x3d9de6a6	0.07710008
136	0xbd165c92	-0.036709376
137	0x3d8fe249	0.07025582
138	0xbd323622	-0.043508656
139	0x3d4ab041	0.049484495
140	0xbc119323	-0.008885178
141	0xbd5512ee	-0.052020006
142	0x3d2beb1d	0.04197227
143	0xbd4031e6	-0.046922587
144	0x3c893a40	0.016751409
145	0xbd1921b7	-0.03738567
146	0xbc499c8c	-0.01230539
147	0x3cd08c89	0.025457637
148	0x3b5ee779	0.003401248
149	0xbd249900	-0.040184975
150	0xbd80b907	-0.06285291
151	0xbd2e9822	-0.042625554
152	0x3c6b746c	0.014371019
153	0x3c8a4c25	0.016882012
154	0x3da2c6a9	0.07948048
155	0xbc3647c7	-0.0111255115
156	0x3d8a164f	0.06742536
157	0x3c925bdc	0.017866068
158	0xbd004244	-0.031313196
159	0xbcc83126	-0.024437498
160	0xbc54075a	-0.012941206
161	0xbd800bea	-0.062522724
162	0x3d508819	0.050911043
163	0xbd4cc20f	-0.049989756
164	0x3d413b38	0.047175616
165	0xbd1e0244	-0.03857638
166	0x3d7c00d7	0.06152424
167	0xbd982f76	-0.074309275
168	0xbd9528e6	-0.072831914
169	0x3d76d68d	0.060263205
170	0xbce0e068	-0.027450755
171	0xbd06c98a	-0.032907046
172	0xbd8aa986	-0.06770615
173	0x3c98cc67	0.018652154
174	0xbc826e39	-0.015921699
175	0xbc725dcc	-0.014792871
176	0x3d706012	0.05868537
177	0xbcb4419c	-0.022003941
178	0xbd2fa272	-0.04287953
179	0xbb7b4dd2	-0.0038345945
180	0x3c19a526	0.009377753
181	0x3cc7f0ae	0.024406757
182	0x3c9ad678	0.018901095
183	0x3d9a43e2	0.07532479
184	0xbacc1e61	-0.0015573018
185	0x3cf77086	0.030205023
186	0xbccbe06c	-0.024887286
187	0xbd2620b3	-0.04055853
188	0x3d9cd7b9	0.07658333
189	0xbd3c90ed	-0.04603665
190	0x3d740fbd	0.05958532
191	0x3cc862e7	0.024461223
192	0x3cbdfd0d	0.023191953
193	0x3d899fb1	0.06719912
194	0xbd35570d	-0.04427247
195	0x3d800edf	0.062528364
196	0xbd4974e1	-0.04918373
197	0x3a83eef7	0.0010065724
198	0x3d244416	0.040103994
199	0x3b88846d	0.004166177
200	0xbcd45cc8	-0.025923148
201	0x3d6656c2	0.056235082
202	0x3d901120	0.07034516
203	0x3d992ad9	0.07478876
204	0xba926248	-0.0011168206
205	0x3d6b76db	0.057486396
206	0xbc907c76	-0.017637473
207	0x3da730e0	0.08163619
208	0xbc966c35	-0.018362144
209	0xbca84135	-0.020538906
210	0x3d65e02a	0.056121983
211	0xbd0d5f08	-0.034514457
212	0xbb47f1cd	-0.0030509115
213	0xbd77fca5	-0.060543675
214	0x3d185d2f	0.03719824
215	0xbc7ee6df	-0.015557974
216	0xbd9cbc6e	-0.076531276
217	0xbd802bdf	-0.06258368
218	0x3c611db8	0.013739996
219	0xbcdf79e5	-0.027279804
220	0xbcfcab00	-0.030843258
221	0xbd26bdac	-0.04070823
222	0xbb8a6693	-0.0042236536
223	0x3d96d24d	0.073643304
224	0x3d47dbb5	0.048793513
225	0x3d3e164a	0.046407975
226	0x3d8584f7	0.06519502
227	0x3cb8bd97	0.022551341
228	0x3d4ec5c9	0.05048159
229	0xbc8a3673	-0.016871667
230	0x3d0c1802	0.034202583
231	0x3bf7de80	0.007564366
232	0x3d1ae76e	0.037818365
233	0x3d68375d	0.056693424
234	0xbd8c65d5	-0.068553604
235	0xbbff441e	-0.0077901026
236	0x3cc63532	0.024195287
237	0xbd83da74	-0.06438151
238	0x3d1b4f35	0.037917335
239	0x3d538b07	0.05164626
240	0x3c57cfc7	0.013172097
241	0xbd1ff877	-0.039055314
242	0xbb949d03	-0.004535319
243	0xb99d3363	-0.0002998366
244	0xba8decfa	-0.0010828071
245	0x3d840ada	0.06447382
246	0x3d2e30d0	0.04252702
247	0xbce3f74b	-0.02782788
248	0x3d9a932f	0.07547604
249	0xbd912e41	-0.070889
250	0x3d97fe1f	0.074215166
251	0x3d8c7c51	0.06859649
252	0xbd295563	-0.041341197
253	0xbb71c041	-0.0036888274
254	0x3cd0611f	0.025436936
255	0xbd007e08	-0.031370193

bias f4 [10]
0	0xb9d99dbc	-0.00041506987
1	0xbcbbc75a	-0.022922207
2	0xbd065a1a	-0.03280077
3	0xb948ea65	-0.00019160805
4	0xbc91b80d	-0.017787958
5	0xbd2df294	-0.04246767
6	0xbd576968	-0.052590758
7	0xbd4fc20b	-0.050722163
8	0xba850e70	-0.0010151397
9	0x3d0c8d98	0.03431472

weight f4 [10, 10, 5, 5]
0	0xbba99d17	-0.0051761973
1	0x3d14c608	0.03632167
2	0xbd23304b	-0.039840978
3	0x3d2d2989	0.04227594
4	0x3a4941da	0.0007677354
5	0xbd4f3596	-0.050588213
6	0xbd0d120e	-0.034441046
7	0xbc2abfcd	-0.010421705
8	0x3ca13c5c	0.019682102
9	0xbd1b5cd2	-0.037930317
10	0xbd45d39f	-0.04829752
11	0x3c8f1bd0	0.017469317
12	0xbd4fe145	-0.050751943
13	0xbc70f1ca	-0.0147060845
14	0xbd672265	-0.056429286
15	0xbccb1ee0	-0.024794996
16	0xbc08b280	-0.008343339
17	0xbcd13f73	-0.02554295
18	0x3cabdf53	0.020980513
19	0x3cc73113	0.024315393
20	0xbc0eecf8	-0.00872349
21	0xbcbb2f5b	-0.02284973
22	0x3abc9c7b	0.0014389897
23	0xbcedcb9a	-0.029027749
24	0x3d3ac785	0.045600433
25	0xbd074cf8	-0.033032387
26	0x3c928e18	0.017890021
27	0xbd390766	-0.04517307
28	0x3d21c387	0.03949311
29	0x3d348da5	0.044080395
30	0xbd6c720b	-0.057725947
31	0x3c50d296	0.01274552
32	0xbc018c39	-0.007906967
33	0x3c9f9f2e	0.019485082
34	0xbd65c8c4	-0.05609967
35	0x3cc3469c	0.02383738
36	0x3c8bebe0	0.017080247
37	0xbc8e2c28	-0.01735504
38	0x3d0f3294	0.034960344
39	0x3d201b64	0.03908862
40	0xbca6252b	-0.020281395
41	0xbcd97e19	-0.026549386
42	0xbc6ed4e9	-0.014577129
43	0xbd399937	-0.045312133
44	0x3d21f3a0	0.03953898
45	0xbd1eb93e	-0.03875088
46	0xbc7e4078	-0.0155183
47	0x3c03474d	0.008012605
48	0x3cd0f14e	0.025505688
49	0xbd3815ba	-0.044942595
50	0x3d5bae4e	0.053633027
51	0x3ce360bd	0.02775609
52	0x3cd5a235	0.026078323
53	0x3d16ff69	0.03686467
54	0x3d1f75ad	0.038930584
55	0x3d4579fa	0.04821203
56	0xbd093e41	-0.033506636
57	0xbcad28e6	-0.021137666
58	0x3d0a3eee	0.03375142
59	0x3d643ab1	0.055720035
60	0x3cc0baf5	0.023526648
61	0x3ce20e82	0.027594808
62	0xbd133e2c	-0.035947964
63	0xbd3a64e8	-0.045506388
64	0xbc9274d0	-0.017877966
65	0xbd559de7	-0.05215254
66	0x3c60238f	0.013680353
67	0xbd564954	-0.052316025
68	0xbd03f38f	-0.032214697
69	0xbc426fce	-0.011867477
70	0x3cf5f542	0.030024175
71	0xbc9ecb21	-0.019383969
72	0x3cc48dc2	0.023993377
73	0x3d167fe9	0.03674308
74	0x3c8d72bf	0.01726663
75	0x3c77819d	0.015106586
76	0xbd5ca9b0	-0.053872764
77	0xbd0c397a	-0.0342345
78	0x3c4d7d48	0.012542076
79	0xbc9d34d8	-0.019190237
80	0xbce6d424	-0.028177328
81	0x3d4918c6	0.04909589
82	0xbd4b27d1	-0.04959852
83	0xbd497b21	-0.04918969
84	0xbd5e41f8	-0.05426213
85	0x3d5d4332	0.05401916
86	0x3d2b3556	0.041798912
87	0xbb122bd0	-0.0022303946
88	0xbd73317d	-0.059373368
89	0xbc896ce3	-0.016775554
90	0xbd513461	-0.051075343
91	0xbc1665e3	-0.009179565
92	0x3c398ad3	0.011324602
93	0x3c9c7b51	0.01910177
94	0x3c97fa89	0.018552082
95	0xbbbc3787	-0.005743924
96	0x3cef1695	0.029185573
97	0x3d812666	0.06306152
98	0x3d414554	0.047185257
99	0x3d587c6b	0.05285303
100	0x3d1a9e37	0.03774854
101	0xbd135be1	-0.035976294
102	0xbaef51e2	-0.0018258656
103	0x3d077e0e	0.0330792
104	0xbc5eafd7	-0.013591728
105	0xbd431ac3	-0.047632944
106	0x3d28ce21	0.041212205
107	0xbd2de30a	-0.04245285
108	0x3d7bfa50	0.061518013
109	0x3ca148f5	0.019688109
110	0xbd450118	-0.048096746
111	0xbd243ec4	-0.04009892
112	0x3d3c3c40	0.045955896
113	0x3cab42fc	0.020905964
114	0x3cd7088e	0.026249196
115	0xbce5bdbf	-0.02804458
116	0xbcc9d39b	-0.024637034
117	0xbcdada02	-0.026715282
118	0x3cdec84d	0.02719512
119	0xbbca0a29	-0.006165762
120	0xbcaa7f27	-0.020812584
121	0x3d2c0f1b	0.042006593
122	0xbc1e478c	-0.009660613
123	0xbd278275	-0.040895898
124	0x3d68965c	0.05678402
125	0x3cbb25c7	0.022845162
126	0x3b88e26b	0.0041773818
127	0xbd21b1cf	-0.039476212
128	0xbc301f7f	-0.010749697
129	0x3bc8c81f	0.006127372
130	0x3b9b498f	0.0047389935
131	0xbbf12504	-0.007359149
132	0x3d46319c	0.048387155
133	0x3d5f52b6	0.05452224
134	0x3d585dd0	0.05282384
135	0x3d3472ec	0.04405491
136	0x3d4b2fe2	0.04960621
137	0x3cecc3dd	0.028901989
138	0xbced6b5b	-0.028981855
139	0x3d03f90a	0.032219924
140	0xbcea35ec	-0.028590165
141	0x3c8c5b96	0.017133515
142	0xbd09dc98	-0.03365764
143	0xbc4736f0	-0.012159094
144	0x3bcc5df3	0.0062367856
145	0xbc32c761	-0.010911793
146	0xbd57f3a7	-0.0527226
147	0xbcb5a95d	-0.022175485
148	0x3c86fcaf	0.01647791
149	0x3d12c074	0.03582807
150	0x3d549104	0.05189611
151	0xbd34cb89	-0.04413942
152	0xbb76f481	-0.0037682357
153	0xbd17ae43	-0.037031423
154	0x3d49eca4	0.049297944
155	0x3d07089c	0.032967195
156	0x3d059193	0.032609534
157	0x3cc2ca16	0.023778003
158	0xbd3aea7b	-0.045633774
159	0x3ccef871	0.02526495
160	0xbc63b798	-0.013898753
161	0x3d4ca475	0.049961526
162	0x3d10d30b	0.035357516
163	0x3d35a013	0.04434211
164	0x3ba3eaf6	0.0050023748
165	0x3bb260f1	0.005443685
166	0xbd46255e	-0.04837548
167	0xbb960b8e	-0.004579014
168	0x3a5300c2	0.0008049124
169	0xbcd5beaf	-0.026091902
170	0xb9393a24	-0.00017664634
171	0x3c80de05	0.015730867
172	0xbd306676	-0.043066464
173	0xbc70fc0c	-0.01470853
174	0x3cc9fd3f	0.02465689
175	0xbd2ff5dc	-0.04295908
176	0xbc1a74a8	-0.009427227
177	0xbd396de2	-0.045270808
178	0x3d30281c	0.043007
179	0x3ca0ae95	0.019614497
180	0xbc9b9c0e	-0.018995311
181	0x3ccd7b5d	0.025083238
182	0x3bf03907	0.007331017
183	0x3d57b890	0.052666247
184	0x3d39a0a8	0.04531923
185	0x3d101d91	0.035184447
186	0x3c56d64b	0.013112615
187	0x3c766af9	0.015040153
188	0xbce1a819	-0.027545976
189	0xbc92ef49	-0.017936366
190	0x3d6c7364	0.057727233
191	0x3ce12268	0.027482226
192	0x3c429bfc	0.01187801
193	0x3c8862a8	0.016648605
194	0x3d2d421d	0.04229938
195	0xbd3daff7	-0.04631039
196	0xbcf18c69	-0.029485898
197	0xbc91b83b	-0.017788043
198	0xbd23e206	-0.040010475
199	0xbc5bd6a3	-0.013417873
200	0x3c154878	0.009111516
201	0x3c0cf615	0.008603592
202	0x3c2166ff	0.009851216
203	0x3ac9f47e	0.0015407947
204	0x3d39619e	0.04525911
205	0x3d67e600	0.05661583
206	0xbd1b9485	-0.037983436
207	0xbc79e28e	-0.015251769
208	0x3d2bd6df	0.041952964
209	0xbc8721c2	-0.01649559
210	0xbcf4f5a5	-0.029902289
211	0x3cc2734d	0.02373662
212	0x3cc1bdba	0.023650039
213	0xbd1fd4d1	-0.039021317
214	0x3d5f5858	0.05452761
215	0xbd5bb3b6	-0.053638183
216	0xbd50ceaf	-0.05097836
217	0xbcc562ca	-0.024094958
218	0x3d791b7e	0.060817234
219	0xbd0b12c7	-0.033953454
220	0x3b7a5720	0.0038198903
221	0xbbbda0ee	-0.0057870066
222	0xbd333fb3	-0.04376192
223	0xbcac11bc	-0.02100455
224	0x3d43d56e	0.047810964
225	0xbc06ebcd	-0.00823493
226	0xbc71982b	-0.014745752
227	0xbcd8472a	-0.026401121
228	0x3d69384e	0.056938462
229	0xbca4986a	-0.020092208
230	0x3d3387e6	0.043830775
231	0xbd22bff9	-0.03973386
232	0xbbaa525a	-0.0051978054
233	0x3d1ac29d	0.037783254
234	0xbcc506d5	-0.02405111
235	0x3c80ed8e	0.015738275
236	0xbcee964a	-0.029124398
237	0xbd0763ee	-0.033054285
238	0x3c5eb52e	0.013593001
239	0x3d7f0fe3	0.06227101
240	0x3d68c778	0.056830853
241	0x3d5f96b0	0.054587066
242	0xbd6038b6	-0.054741584
243	0xbccbd567	-0.024882032
244	0x3d3500b2	0.044190116
245	0xbd0526bc	-0.032507643
246	0xbd037a13	-0.03209884
247	0xbd19d117	-0.03755292
248	0x3cdb90fe	0.026802536
249	0xbd19f419	-0.037586305
250	0xbd161d95	-0.036649305
251	0x3d21775e	0.039420478
252	0x3c8ef7ab	0.017452082
253	0x3b435461	0.0029804932
254	0x3d37c43d	0.04486488
255	0x3d4a3f82	0.049376972

bias f4 [10]
0	0x3d3f0dd9	0.046644066
1	0xbd81cc20	-0.06337762
2	0xbd733a46	-0.059381746
3	0xbd4e3884	-0.050346866
4	0xbd136272	-0.035982557
5	0xbd87b17e	-0.06625651
6	0x3cbc7063	0.023002809
7	0x3bdb63ec	0.006695261
8	0x3d7ca66c	0.06168215
9	0x3d299881	0.041405205

weight f4 [100, 810]
0	0xbc436143	-0.0119250445
1	0x3b637686	0.0034708097
2	0xbd131892	-0.035912104
3	0x3ca00743	0.019534713
4	0xbc86bc70	-0.016447276
5	0xbc0b4bd1	-0.008501963
6	0x3c6f2a28	0.014597453
7	0xbaaa6e90	-0.0013002921
8	0xbc9e8ce6	-0.019354295
9	0xbd105cb4	-0.03524466
10	0xbd1af28b	-0.037828963
11	0xbc941dd4	-0.01808063
12	0x3b4b5c54	0.0031030374
13	0x3c7b1dd0	0.015326932
14	0xb970bcdb	-0.00022958538
15	0xbcb93bd8	-0.022611544
16	0xbc8ddc9f	-0.017317114
17	0x3c453ad3	0.012037951
18	0x3c19e9b3	0.009394097
19	0x3c461d87	0.012092001
20	0xbd08806b	-0.033325594
21	0xbbf62949	-0.007512246
22	0xbb28359a	-0.0025666715
23	0xbc9a2f51	-0.01882139
24	0x3c9478bd	0.018123979
25	0x3c8af7d8	0.016963884
26	0x3cedc6e9	0.029025512
27	0xbc1cf177	-0.009579054
28	0xbd1c177f	-0.038108345
29	0xbcd858a8	-0.026409462
30	0xbd11e41d	-0.035617936
31	0x3a829461	0.0009962433
32	0xbd0be117	-0.03415021
33	0xbcc77ec8	-0.024352446
34	0xbbb4b729	-0.0055149985
35	0xbd084ff6	-0.03327938
36	0x3c5b72c2	0.01339406
37	0xbce4a41a	-0.027910281
38	0xbcfb3a04	-0.030667312
39	0x3b2dc669	0.0026515967
40	0x3c212446	0.009835308
41	0xbc084a00	-0.008318424
42	0xbcc0a3af	-0.02351555
43	0xba05016d	-0.000507376
44	0x3ca1259f	0.01967126
45	0x3a01143c	0.00049239746
46	0x3b18bc51	0.0023305605
47	0x3c862b9f	0.016378222
48	0x3af1e5cc	0.0018455326
49	0xbb75c11d	-0.0037499138
50	0xbb1b6fde	-0.00237178
51	0xbd1fcaae	-0.03901165
52	0xbcc17e18	-0.023619696
53	0xbd01e6a4	-0.031714097
54	0xbcb3f3b1	-0.021966787
55	0x3cabeef4	0.020987965
56	0x3c94bf59	0.018157648
57	0x3cb393a7	0.021920992
58	0xba28cd5c	-0.00064392923
59	0xbcaa6284	-0.020798929
60	0x3cf04ea5	0.029334376
61	0xbb62ef60	-0.0034627542
62	0xbc1dbf09	-0.009628066
63	0xbca3f7c1	-0.0200156
64	0x3c4a9952	0.012365656
65	0xbb878822	-0.0041361013
66	0xbc826e8b	-0.015921852
67	0xbc5e021a	-0.013550306
68	0x3c0555a2	0.008138092
69	0xbcadd795	-0.021220962
70	0xbbf0be5a	-0.0073469104
71	0x3c9a8c3e	0.0188657
72	0x3ce26510	0.027636081
73	0x3cd6c893	0.026218688
74	0x3c89b989	0.016812103
75	0xbd19933f	-0.03749394
76	0xbc1251b0	-0.008930609
77	0x3c0a2b3d	0.00843316
78	0xbb6f99ad	-0.0036560104
79	0xbc3f4c2d	-0.011675877
80	0x3ce99efc	0.028518192
81	0xbb900c58	-0.0043960027
82	0xbca2d321	-0.019876065
83	0xbcfba50e	-0.030718353
84	0xbbe2ad97	-0.006917666
85	0xbccdce0d	-0.025122667
86	0x3c67291f	0.014108925
87	0xbbaa578a	-0.0051984238
88	0xbcd5b4ed	-0.026087249
89	0x3ca16d56	0.019705456
90	0x3caa0d17	0.020758195
91	0xbbdc8cd5	-0.0067306557
92	0x3b804a84	0.003915133
93	0x3b479571	0.0030454064
94	0xbb162659	-0.002291104
95	0xbd07e56a	-0.03317777
96	0x3ceb53bc	0.028726451
97	0xbbe123c7	-0.00687072
98	0x3ce4287b	0.027851334
99	0x3cbd2779	0.023090111
100	0xbcedfa03	-0.029049879
101	0xbc38cb26	-0.011278903
102	0xbd0598f0	-0.032616556
103	0x3cb1b468	0.02169247
104	0x3d1104b5	0.03540488
105	0x3caa1315	0.020761052
106	0xbc5d1e8d	-0.013496053
107	0x3c5a8a2f	0.01333861
108	0x3ba5f5f4	0.0050647203
109	0xbd043ae7	-0.032282736
110	0xbcaa547c	-0.020792238
111	0xb80241a7	-3.105556e-05
112	0x3c004178	0.007828109
113	0xb9f3a9e8	-0.00046475162
114	0x3d16da5a	0.03682933
115	0xb9e305de	-0.00043301185
116	0x3d090feb	0.033462446
117	0x3b9ba640	0.004750043
118	0xbca73d8d	-0.020415092
119	0xbd00adab	-0.031415623
120	0x3c2e06ce	0.01062174
121	0xbb90e84f	-0.0044222246
122	0xbbdb6da4	-0.00669642
123	0x3d130343	0.035891782
124	0xbcaaf022	-0.020866457
125	0x3c2a3542	0.010388674
126	0xbb94f2b4	-0.004545534
127	0x3c84e188	0.016220823
128	0xbcd23c8a	-0.025663633
129	0x3bd591ee	0.0065176403
130	0x3d11fdd2	0.035642453
131	0xbb885960	-0.004161045
132	0xbcff0e95	-0.031134883
133	0xbce53587	-0.027979625
134	0xbbfa11ee	-0.007631532
135	0x39b8bebf	0.00035237332
136	0x3b8ff651	0.004393377
137	0x3c9cd23f	0.019143222
138	0xbc062a75	-0.0081888335
139	0xbc674045	-0.014114444
140	0xbd019909	-0.031640086
141	0xbc83390a	-0.01601841
142	0x3c058e81	0.008151651
143	0xbac91199	-0.0015340328
144	0xbc095467	-0.0083819395
145	0x3b97604b	0.0046196333
146	0xbcce8959	-0.025211977
147	0xbcb35946	-0.021893155
148	0xbcbb882b	-0.022892078
149	0x3ce7dd71	0.028303834
150	0xbcb13c4c	-0.021635197
151	0xba27fefc	-0.000640854
152	0x3a5750e7	0.00082136545
153	0xbc6d104d	-0.014469218
154	0x3c909d0b	0.017653009
155	0x3ca571ee	0.020195927
156	0x3d028267	0.031862643
157	0xbc55b975	-0.013044705
158	0xbd006477	-0.03134581
159	0xbb0573b4	-0.0020363154
160	0x3a8ea870	0.0010883939
161	0x3d0fecdf	0.035138007
162	0xbcfd862b	-0.030947765
163	0xbb898acb	-0.0041974536
164	0xbc919942	-0.017773274
165	0xbb62e9d9	-0.0034624247
166	0xbcc1076c	-0.02356311
167	0xbbd8f6e6	-0.0066212295
168	0x3bc61c39	0.006045845
169	0x3d043af8	0.0322828
170	0xbb9615c0	-0.0045802295
171	0xbbdf20a3	-0.0068093105
172	0xbccfd6fd	-0.02537107
173	0xbba04262	-0.004890726
174	0xbc5c4134	-0.01344328
175	0x3cab0eb2	0.02088103
176	0xbc65cf30	-0.014026448
177	0xbc0d6940	-0.008631051
178	0xbc8b6970	-0.01701805
179	0x3c40498f	0.011736288
180	0x3ce037f1	0.027370425
181	0x3c8b1bf0	0.016981095
182	0xbcf94b7d	-0.030431503
183	0xbcd51d5c	-0.026014976
184	0xbcf78f75	-0.030219773
185	0x3c8bb16a	0.017052371
186	0xbc3c386f	-0.011488064
187	0xbc3c58cc	-0.01149578
188	0x3ce5e95c	0.028065376
189	0xbcf94992	-0.030430589
190	0x3b87864c	0.0041358825
191	0xbcbd0009	-0.023071306
192	0x3cae1bc5	0.021253476
193	0xbbf0645a	-0.0073361816
194	0xbce4e24e	-0.027939942
195	0xbcf474c6	-0.029840838
196	0xbb88cb78	-0.004174646
197	0xbc330c53	-0.010928231
198	0x3c0b5a05	0.008505349
199	0x3c84c6b7	0.016208036
200	0xbc7db51c	-0.015485074
201	0xbc632ca4	-0.013865624
202	0x3c200757	0.009767375
203	0x3c46c0fd	0.012130973
204	0x3ce39ebf	0.027785657
205	0xbce6faed	-0.028195823
206	0x3be9eec3	0.0071390583
207	0x3bbeda1d	0.005824341
208	0x3c22dfde	0.009941069
209	0x3c702783	0.014657858
210	0x3d100d4c	0.03516893
211	0xbae347e4	-0.0017340151
212	0x3cedeea1	0.029044451
213	0x3ce29d25	0.027662823
214	0xbcaafa86	-0.020871412
215	0xbc64e716	-0.013971111
216	0xbcb819fd	-0.02247333
217	0x3c8574b8	0.016291007
218	0x3caa69a6	0.02080233
219	0x3cd225f0	0.025652856
220	0x3cf89a4f	0.030347018
221	0xbb5222bc	-0.003206416
222	0x3c4d36cb	0.012525271
223	0xbb2238aa	-0.0024753013
224	0xbcc992d8	-0.024606153
225	0xbcf04ec8	-0.02933444
226	0x3d0697eb	0.032859724
227	0xbb8cd5ff	-0.0042979713
228	0xbca5c565	-0.020235727
229	0xbcc3faae	-0.023923244
230	0xbd000849	-0.0312579
231	0x3b5e1594	0.0033887373
232	0xbc800d1f	-0.015631257
233	0xbceddc28	-0.029035643
234	0xbc902295	-0.017594615
235	0xbc651c52	-0.013983803
236	0xbbc58c1c	-0.006028665
237	0x3cc9c1d8	0.024628565
238	0x3c6142d4	0.013748843
239	0xbcd3d6a7	-0.02585919
240	0x3c660551	0.0140393535
241	0xbc9926b5	-0.018695215
242	0xbcb173af	-0.021661608
243	0xbc8cf4da	-0.017206598
244	0xbcf74afc	-0.030187123
245	0xbca15c62	-0.019697372
246	0xbca32912	-0.019917045
247	0xbd0a2e98	-0.03373584
248	0xbced95d1	-0.029002102
249	0xbca929c1	-0.020649793
250	0x3bcafc32	0.006194615
251	0xbc706194	-0.014671702
252	0xbcc9b367	-0.024621679
253	0x3d134765	0.03595676
254	0x3c4180fe	0.011810539
255	0x3cfb8087	0.030700935

bias f4 [100]
0	0x3c315d90	0.01082553
1	0xbc956fc8	-0.018241778
2	0x3ca2f906	0.019894134
3	0xbcbe7b83	-0.023252254
4	0x3cf22392	0.029557977
5	0xbc168308	-0.009186514
6	0xbbf54fd3	-0.0074863224
7	0x3ad3f478	0.001617088
8	0x3ce05a4b	0.027386805
9	0xbc6ce1f1	-0.0144581655
10	0xbae52846	-0.0017483316
11	0xbc910307	-0.017701639
12	0x3caf1683	0.02137304
13	0xbc297e7b	-0.010345097
14	0x39664045	0.00021958452
15	0x3ba4bff5	0.005027766
16	0xbcbabd43	-0.022795325
17	0xbc63362a	-0.013867894
18	0x3c0e9784	0.008703116
19	0x3bda63f0	0.0066647455
20	0x3a0fa5dd	0.00054797326
21	0x3cddf252	0.027093086
22	0x3d0ee012	0.03488166
23	0x3ca6acce	0.020346072
24	0xbcc07d57	-0.023497267
25	0xbb60f9bf	-0.0034328548
26	0xbd01a245	-0.031648893
27	0x3ccb0b2c	0.0247856
28	0x3c9edaba	0.019391406
29	0xbbca6530	-0.0061766133
30	0xbc03159d	-0.0080007585
31	0xbd0b9132	-0.034074016
32	0x3bc60d4c	0.0060440656
33	0x3b6882c8	0.0035478342
34	0xbc472b96	-0.012156388
35	0xbc1f79a4	-0.009733591
36	0x3bc74b5c	0.0060819816
37	0x3c89d7d8	0.016826555
38	0x3d1778c3	0.0369804
39	0xbd0adeb6	-0.0339038
40	0xbcbc631c	-0.022996478
41	0xbca72e23	-0.020407742
42	0x3cdfa840	0.027301908
43	0xbc54b3c5	-0.0129823135
44	0x3d1c9901	0.038231853
45	0x39da39e8	0.00041623344
46	0x3d17c837	0.037056174
47	0x3cb3b6ac	0.02193769
48	0x3cb58f8b	0.022163173
49	0x3cc2ea10	0.02379325
50	0xbb89d0c8	-0.004205797
51	0xbd092ca4	-0.03348984
52	0xbce7caab	-0.028294882
53	0x3bbaa0d5	0.005695442
54	0xba85e929	-0.0010216582
55	0xbd045193	-0.032304358
56	0xbaada4af	-0.0013247932
57	0x3c5c9472	0.0134631265
58	0xbab5cdc1	-0.0013870524
59	0xbb5fbc4b	-0.003413933
60	0x3d095608	0.03352931
61	0x3cc0df48	0.023543969
62	0x3cce70cb	0.025200268
63	0x3b5e30dc	0.0033903634
64	0x3cd4d63d	0.025981063
65	0xbae56935	-0.0017502668
66	0x3c9c0dd1	0.019049557
67	0x3d0f0121	0.034913186
68	0x3d015846	0.031578325
69	0x3cc0dfc7	0.023544205
70	0x3c434a41	0.011919559
71	0x3ce526b8	0.027972564
72	0x3c1058ba	0.008810217
73	0xbcab8e52	-0.020941887
74	0xbce2f2c6	-0.027703654
75	0x3c73cd82	0.01488054
76	0xbc909b44	-0.017652161
77	0x3cde86d0	0.027163893
78	0x3caea0ed	0.02131697
79	0xbcba67b9	-0.022754537
80	0x3c129084	0.008945588
81	0xbd00182f	-0.031273063
82	0xbc837fdb	-0.016052177
83	0xbcd44d0f	-0.02591565
84	0x3c99bb61	0.018766107
85	0x3ca096de	0.01960319
86	0xbd01a7f8	-0.031654328
87	0xbc740c71	-0.014895544
88	0x3ba9b18a	0.005178635
89	0x3d0f5fc6	0.035003446
90	0x3ca1ffe8	0.019775346
91	0x3d067a35	0.03283139
92	0xbc177f76	-0.009246698
93	0x3c9974ca	0.018732447
94	0x3c83e739	0.016101466
95	0x3cd85d70	0.026411742
96	0xbc1106dd	-0.008851734
97	0x3d0293c2	0.031879194
98	0x3bca2d47	0.0061699483
99	0xbbbe75d5	-0.0058123865

weight f4 [40, 100]
0	0x3d91bb69	0.07115824
1	0x3d3a1b2b	0.045436066
2	0xbd45ce77	-0.048292603
3	0xbcbc0849	-0.02295317
4	0xbd95d9cf	-0.07316934
5	0xbdae8e99	-0.08523292
6	0x3dd12ec7	0.10214
7	0xbd272b7c	-0.040812954
8	0xbdbe3f06	-0.092893645
9	0xbdcd4011	-0.10021985
10	0xbd9078ec	-0.07054314
11	0xbd4a08e0	-0.04932487
12	0xbc480369	-0.012207844
13	0xbcae6d08	-0.021292225
14	0xbb1f9fca	-0.0024356716
15	0x3cd0eb4a	0.02550282
16	0xbd669998	-0.056298822
17	0x3d3ece8d	0.0465837
18	0x3dbd4915	0.09242455
19	0x3c6ae9ed	0.014337999
20	0xbbe1f470	-0.0068955943
21	0x3cfbadfb	0.030722609
22	0x3dbcb079	0.09213347
23	0x3d6baa75	0.057535607
24	0x3d83936f	0.06424605
25	0xbdba6b0d	-0.091024496
26	0xbd08de1a	-0.033414938
27	0xbb2fc2f7	-0.002681909
28	0x3dc15d6e	0.094416484
29	0x3db14c5c	0.086571425
30	0xbd490572	-0.04907746
31	0x3d6296e6	0.05531969
32	0xbd4c862a	-0.049932636
33	0xbdb0c1e3	-0.08630731
34	0xbce0c7b3	-0.027438974
35	0xbd8c7280	-0.06857777
36	0x3d3eddfa	0.046598412
37	0xbc840554	-0.016115822
38	0xbdc97756	-0.09837215
39	0x3d9a9fb0	0.07549989
40	0x3d054704	0.03253843
41	0xbdbee6ce	-0.09321366
42	0x3d054305	0.032534618
43	0xbdbe3875	-0.09288112
44	0x3d11deae	0.035612755
45	0xbd3fa247	-0.04678562
46	0x3db7a8a6	0.08967714
47	0x3d0257a5	0.031821866
48	0xbd257753	-0.040397
49	0x3d442bb8	0.047893256
50	0x3b70cf73	0.0036744743
51	0x3d986e6c	0.07442936
52	0x3cb23799	0.021755027
53	0x3cef87e3	0.0292396
54	0x3d4a27f3	0.049354505
55	0x3d19cedd	0.037550796
56	0x3c8adeee	0.016952004
57	0x3d80f98e	0.06297599
58	0xbd755534	-0.05989571
59	0xbc728c85	-0.01480401
60	0xbbe4e930	-0.006985806
61	0xbd6e4082	-0.05816699
62	0x3d55b5e2	0.05217541
63	0xbd094d0f	-0.033520754
64	0xbd058541	-0.032597784
65	0xbdc27a9b	-0.094960414
66	0xbda9ec7f	-0.08297061
67	0x3be41a7d	0.0069611655
68	0xbda700f3	-0.08154478
69	0x3d5b5056	0.05354341
70	0xbbec7547	-0.007216129
71	0xbda5ef84	-0.081023246
72	0x39f88afe	0.00047405803
73	0xbd134d67	-0.03596249
74	0x3d079c95	0.033108313
75	0x3c25e12d	0.010124487
76	0xbd8d0bdc	-0.068870276
77	0xbdb19866	-0.08671646
78	0x3db0dfa3	0.08636405
79	0x3dd3e836	0.10347025
80	0xbd9ef6fe	-0.07761954
81	0xbcfa79b8	-0.030575618
82	0x3c92a0fd	0.01789903
83	0x3d1cc20a	0.038270988
84	0x3da546c0	0.08070135
85	0x3d9b0e14	0.075710446
86	0x3cc2b04b	0.023765704
87	0x3b8b536a	0.004251887
88	0x3be25818	0.0069074742
89	0xbdbba6ab	-0.09162649
90	0x3d368431	0.04455966
91	0xb9b641af	-0.00034762683
92	0x3c849e73	0.016188836
93	0x3da40209	0.08008201
94	0xbdb8f3ad	-0.090308525
95	0xbd8c2a5e	-0.068440184
96	0x3d65fe81	0.056150917
97	0xbd5fae1e	-0.05460941
98	0xbb06fc8c	-0.0020597307
99	0x3d3e49f0	0.04645723
100	0x3d5e1fc9	0.05422953
101	0xbc0f1f3a	-0.008735472
102	0xbd110947	-0.03540924
103	0xbdaf0ef3	-0.08547773
104	0x3dc44c45	0.0958486
105	0xbc4edab5	-0.012625386
106	0x3cb1730c	0.021661304
107	0x3d75c259	0.059999797
108	0xbd2472fd	-0.040148724
109	0xbccf6f91	-0.025321754
110	0x3b2b35f6	0.0026124693
111	0x3d368014	0.04455574
112	0xbd4e60ee	-0.050385408
113	0x3d8d6e6c	0.06905827
114	0xbc54cc3c	-0.012988146
115	0x3dac0f24	0.08401325
116	0x3bc6510a	0.006052141
117	0x3d608a21	0.05481923
118	0xbcba0762	-0.022708599
119	0x3dc8cede	0.09805082
120	0xbcc1dcd3	-0.023664868
121	0xbda539b5	-0.08067647
122	0x3d00c51f	0.03143799
123	0xbcbcf7aa	-0.023067314
124	0xbc221a95	-0.009894033
125	0x3dc2ed8a	0.09517963
126	0x3b57302d	0.0032835111
127	0xbdd47830	-0.103744864
128	0xbd29c366	-0.041446112
129	0xbdaaaf7c	-0.08334252
130	0x3da52e8b	0.08065518
131	0x3ccc5c9d	0.024946505
132	0x3da99074	0.08279505
133	0x3d160413	0.03662498
134	0x3c46822b	0.012115995
135	0xbd28cdb3	-0.041211795
136	0xbd853a0a	-0.06505211
137	0xbda01318	-0.07816142
138	0xbd830d85	-0.06399063
139	0x3d485c9f	0.048916455
140	0x3d377fed	0.044799734
141	0xbd978cb1	-0.07399882
142	0x3d05ca73	0.032663774
143	0x3d8ba5d1	0.06818736
144	0x3d03f781	0.03221846
145	0xbc5e5ff6	-0.013572684
146	0x3d415fee	0.047210626
147	0xbdaecae5	-0.08534793
148	0xbd1c7eeb	-0.038206976
149	0xbc20aced	-0.009806854
150	0x3d7dba0d	0.06194501
151	0x3d032b7d	0.032023896
152	0x3d2b461d	0.041814912
153	0xbccc745c	-0.024957828
154	0xbcd9a648	-0.026568547
155	0x3c4e29ab	0.012583177
156	0x3bfb1344	0.0076622088
157	0x3db7c636	0.089733526
158	0x3d47e162	0.048798926
159	0x3dd4efb1	0.1039728
160	0xbd3eadf2	-0.046552606
161	0xbdba53fd	-0.09098051
162	0x3d9cdb22	0.07658984
163	0xbda78e8a	-0.08181484
164	0x3c020837	0.007936529
165	0xbd2026ca	-0.039099492
166	0xbd5a451f	-0.053288575
167	0xbd2f1111	-0.042740885
168	0xbd76a85f	-0.060219165
169	0x3d46d3e6	0.048541926
170	0x3d925a3b	0.07146116
171	0xbd73043c	-0.05933021
172	0xbd534df7	-0.051588025
173	0xbd1ae582	-0.037816532
174	0x3d785cec	0.060635492
175	0x3cc1c5ad	0.02365383
176	0x3d285a04	0.04110147
177	0xbc8ec3a9	-0.017427282
178	0x3d3c489d	0.045967687
179	0xbc3627ac	-0.011117857
180	0x3d0e376b	0.03472082
181	0x3d73ca55	0.05951913
182	0xbaed51e5	-0.0018106072
183	0x3db7361d	0.08945868
184	0x3d80d418	0.06290454
185	0xbd470cd5	-0.048596222
186	0xbd30702a	-0.043075718
187	0x3dc95886	0.09831338
188	0xbdc1ae9d	-0.09457133
189	0xbc412db6	-0.0117906835
190	0xbb2f7360	-0.002677165
191	0xbdc215ba	-0.094768
192	0xbd7fbb6f	-0.06243461
193	0xbd45890b	-0.048226397
194	0xbd63cfa3	-0.05561794
195	0x3d3b1d1c	0.045682058
196	0xbaba414a	-0.0014210131
197	0xbd4b8c83	-0.04969455
198	0x3dbd24d7	0.09235542
199	0xbd9ca8f9	-0.076494165
200	0xbd80df8d	-0.06292639
201	0xbc0b043b	-0.008484895
202	0x3d7da193	0.061921667
203	0x3d83676b	0.0641621
204	0xbd173361	-0.036914233
205	0xbcf779e1	-0.030209484
206	0xbd991f39	-0.074766584
207	0xbba77979	-0.005110916
208	0xbdada0b4	-0.08477917
209	0x3dbd373c	0.09239051
210	0x3bf6b2c1	0.0075286333
211	0x3ce86976	0.0283706
212	0x3dc3a358	0.0955264
213	0xbd8f011b	-0.06982633
214	0xbd41f7d1	-0.047355477
215	0x3d4f7fe9	0.050659094
216	0x3d86b006	0.065765426
217	0xbd2709d6	-0.040780865
218	0xbce1f124	-0.027580805
219	0xbd7086f9	-0.05872247
220	0xbd5d8fb9	-0.054092143
221	0xbd641458	-0.055683464
222	0xbc5d5354	-0.0135086365
223	0x3d01ae16	0.031660162
224	0x3d99ce31	0.07510031
225	0xbd314e60	-0.043287635
226	0xbd74cfc7	-0.059768464
227	0x3d40e819	0.047096346
228	0xbdc7cb1f	-0.09755539
229	0xbc7690f2	-0.015049206
230	0x3daa7f80	0.083251
231	0xbc692f4c	-0.014232468
232	0x3d53946e	0.051655225
233	0xbd12795e	-0.035760276
234	0x3d056c5c	0.032574043
235	0xbc8b9b93	-0.017041957
236	0xbd9ffa3f	-0.078114025
237	0xbdc7dd5c	-0.09759018
238	0xbca9ef06	-0.020743858
239	0x3cde869f	0.027163802
240	0x3dbd8abe	0.092549786
241	0x3d52e012	0.05148322
242	0x3c6f409e	0.014602808
243	0x3cfe5000	0.031044006
244	0x3d97c8a2	0.074113145
245	0x3c8349c3	0.016026383
246	0xbdc8ca77	-0.09804242
247	0x3d506318	0.050875753
248	0xbd002844	-0.0312884
249	0x3d82600d	0.063659765
250	0x3ae13bf1	0.0017184002
251	0xbdbc4ace	-0.09193955
252	0xbd85485c	-0.06507942
253	0x3d89dbe3	0.06731393
254	0x3d7aae00	0.061201096
255	0xbd91bd85	-0.07116226

bias f4 [40]
0	0x3d3aadcf	0.045575913
1	0xbd26eb5d	-0.040751804
2	0x3cb9348e	0.022608068
3	0x3bde51fb	0.006784675
4	0xbdc1a20b	-0.09454735
5	0xbc9618c8	-0.018322363
6	0x3c5e728a	0.013577113
7	0x3c55ea4d	0.01305635
8	0xbd7b1b0c	-0.06130509
9	0x3d037e7f	0.032103058
10	0xbcd05a1f	-0.025433598
11	0x3d53e213	0.051729273
12	0xbd3a3276	-0.04545828
13	0x3dba36cf	0.09092485
14	0x3dd2aeba	0.10287233
15	0xbbb8a55a	-0.005634946
16	0x3d8f5622	0.069988504
17	0x3d97c77d	0.07411096
18	0xbd3972f5	-0.045275647
19	0xbd528878	-0.051399678
20	0x3a55a75e	0.0008150245
21	0xbbb96662	-0.005657957
22	0xbd2f3612	-0.042776175
23	0xbdad8719	-0.084730335
24	0xbda996f5	-0.08280746
25	0x3dd0201f	0.101623766
26	0x3c804d89	0.015661972
27	0x3db17dc9	0.0866657
28	0xbca2f2f4	-0.01989124
29	0xbdaa99f6	-0.08330147
30	0xbd5e6123	-0.054291856
31	0x3b2feb07	0.0026842968
32	0x3cef1f17	0.02918963
33	0x3db292d3	0.08719411
34	0xbd2b7928	-0.04186359
35	0x3d841c5e	0.06450723
36	0xbd9e71b7	-0.07736533
37	0x3d9e57c9	0.077315874
38	0xbdadc2b4	-0.08484402
39	0xbc48bc8f	-0.012251987
