scripts/model_cnn.pt (torch_old, 378752 bytes, 12 tensors)

weight f4 [10, 3, 2, 2]
0	0xbb48b805	-0.0030627262
1	0xbe8212a9	-0.25404862
2	0xbe2df280	-0.16987038
3	0x3e7b074c	0.24514502
4	0x3d58e828	0.052955776
5	0xbe39580c	-0.18099993
6	0xbe419bad	-0.18907042
7	0x3e924923	0.28571424
8	0xbbfeca08	-0.007775549
9	0xbe1b7458	-0.151811
10	0x3e154919	0.14578666
11	0xbd5ea1a1	-0.05435336
12	0x3dd7678a	0.105177954
13	0x3d7e0faf	0.062026676
14	0x3e7c9d92	0.24669483
15	0xbe1ebecd	-0.15502472
16	0xbd184784	-0.037177578
17	0x3dcd4202	0.100223556
18	0xbe494b54	-0.19657642
19	0xbe58f6be	-0.21187875
20	0xbd6223ac	-0.0552098
21	0xbe0b8b53	-0.13627367
22	0xbe636adf	-0.22208737
23	0xbe91f08c	-0.28503835
24	0x3dee8937	0.116472654
25	0xbe6c96fc	-0.23104471
26	0x3dded944	0.10881284
27	0xbd96d57a	-0.07364936
28	0x3e1a3065	0.15057524
29	0x3cd42798	0.025897786
30	0x3d57eb25	0.052714486
31	0x3e97916a	0.2960313
32	0xbe7458d8	-0.23862016
33	0x3e4b7f30	0.19872737
34	0x3e51129d	0.20417257
35	0x3e586ec2	0.21136001
36	0x3e938de1	0.28819183
37	0x3e5f22b1	0.21790577
38	0x3e88f5a8	0.2674992
39	0x3e20208b	0.15637414
40	0x3e7151b5	0.23566325
41	0xbdceb2e5	-0.10092715
42	0x3c90e549	0.017687457
43	0x3e5e5e8b	0.21715753
44	0x3e63ad41	0.2223406
45	0x3debf895	0.11522023
46	0x3cbbf0ab	0.022941908
47	0x3e309001	0.17242433
48	0xbdc2e871	-0.09516991
49	0xbd6fab4c	-0.05851297
50	0xbd4ea035	-0.050445754
51	0xbdbed4c0	-0.093179226
52	0xbe91cd41	-0.2847691
53	0xbe119204	-0.14215857
54	0x3e7171de	0.23578593
55	0xbd988629	-0.07447464
56	0x3e729aa5	0.23691805
57	0xbe7d5d3b	-0.24742596
58	0xbe3d5f12	-0.18493298
59	0x3dcd7495	0.10032002
60	0x3e051a82	0.12998393
61	0xbe24c9b3	-0.16092567
62	0xbe1763cb	-0.14784162
63	0x3d368aa9	0.04456583
64	0x3df1c3d4	0.118049294
65	0xbdbf54b2	-0.09342326
66	0xbd2aedf4	-0.041730836
67	0xbdf7a9e2	-0.120929495
68	0xbe5e8983	-0.21732144
69	0x3d403212	0.04692275
70	0xbe2dbcd9	-0.16966571
71	0xbe74d5af	-0.23909639
72	0xbd82ed23	-0.063928865
73	0xbe3e3cf8	-0.18577945
74	0x3e96aa6f	0.29426906
75	0x3d812ecb	0.06307753
76	0xbd2fcd81	-0.042920593
77	0xbcf34f31	-0.029700847
78	0xbdd410b0	-0.103547454
79	0x3de4d5b6	0.111735746
80	0x3df46afa	0.11934467
81	0x3e9591a9	0.29212692
82	0xbe8e4ae3	-0.2779151
83	0xbe8a20e6	-0.26978225
84	0x3e5e14c8	0.21687615
85	0x3d730e2d	0.05933969
86	0xbc41d964	-0.011831615
87	0x3db0477e	0.08607386
88	0xbe897687	-0.26848242
89	0xbe3106d7	-0.17287765
90	0x3e0fa90e	0.14029333
91	0x3e81ef96	0.25378102
92	0xbc392bbf	-0.011301934
93	0xbe15c02e	-0.14624092
94	0xbe2569f5	-0.161537
95	0xbde84de0	-0.113429785
96	0x3dbcb3dc	0.09213993
97	0xbd6f58c3	-0.05843426
98	0x3e64583e	0.22299287
99	0xbe2f02d5	-0.17090924
100	0xbe58dc3a	-0.2117776
101	0x3e39d3ae	0.18147156
102	0x3e7c674a	0.24648777
103	0xbce1b0b2	-0.027550075
104	0xbdb728be	-0.08943318
105	0xbc15ff3e	-0.009155093
106	0xbd0fe003	-0.035125744
107	0xbd930490	-0.071786046
108	0xbe7cacb9	-0.24675263
109	0x3d7e437c	0.062076077
110	0x3d08ac84	0.03336765
111	0x3e852391	0.26003698
112	0xbe850ec0	-0.25987816
113	0xbe63dcd6	-0.22252211
114	0xbd834e5c	-0.0641143
115	0xbe3a99c5	-0.18222721
116	0x3e5ec4a9	0.21754707
117	0xbdcfc6fb	-0.101453744
118	0x3d4f9054	0.05067475
119	0xbd4d61d4	-0.050142124

bias f4 [10]
0	0x3e8f6675	0.28007856
1	0x3e85e35f	0.26150033
2	0xbdeae9fa	-0.11470409
3	0xbe2b9d62	-0.16759256
4	0xbe8d56da	-0.27605325
5	0x3e31ea7a	0.17374602
6	0xbdef860f	-0.116954915
7	0x3e07ef83	0.1327496
8	0x3e7c6830	0.2464912
9	0xbddd1df2	-0.10796727

weight f4 [10, 10, 3, 3]
0	0xbdc25244	-0.09488347
1	0x3db585ed	0.08863435
2	0xbdc076d8	-0.09397668
3	0x3d3d64f4	0.046238855
4	0xbdab6432	-0.0836872
5	0xbd8269cd	-0.06367836
6	0x3c345064	0.011005495
7	0xbc098896	-0.008394381
8	0xbd1f781c	-0.038932905
9	0xbd5c1e8a	-0.05374006
10	0x3db44ef3	0.08804121
11	0x3dd027ff	0.10163879
12	0xbd21233a	-0.039340235
13	0x3d482878	0.04886672
14	0xbccd4bf5	-0.025060633
15	0xbd1a1815	-0.037620623
16	0x3c00483a	0.00782972
17	0xbd4629d4	-0.048379734
18	0x3c9bc06d	0.019012654
19	0xbd8324ab	-0.06403478
20	0x3d039613	0.032125544
21	0xbd00b620	-0.031423688
22	0xbc0d9446	-0.008641308
23	0xbb41c915	-0.0029569317
24	0x3cb713ef	0.022348372
25	0x3d7339ec	0.05938141
26	0x3dbf5ece	0.093442544
27	0x3ce2a39b	0.027665904
28	0xbc7ce503	-0.01543546
29	0xbcbc015a	-0.022949863
30	0x3cb6d1a7	0.022316767
31	0x3d526d59	0.051373813
32	0x3dd74505	0.10511211
33	0xbc9f21f4	-0.01942537
34	0xbd9c9450	-0.07645476
35	0x3dae12e0	0.08499694
36	0xbd70227c	-0.058626637
37	0xbdb28128	-0.08716041
38	0x3d033349	0.03203133
39	0xbda33566	-0.07969169
40	0xbc9f757e	-0.019465204
41	0xbceb60ed	-0.028732741
42	0x3d829f00	0.06377983
43	0x3db699b5	0.08916036
44	0xbd3c7e28	-0.04601875
45	0xbcb0f965	-0.021603296
46	0xbdbe4d7b	-0.09292122
47	0x3d0f1ce7	0.034939673
48	0xbdc0ec4a	-0.094200686
49	0xbceadf5a	-0.028670955
50	0xbd085f95	-0.03329428
51	0xbd8d9d24	-0.06914738
52	0x3bd624cb	0.006535148
53	0xbcb0bdc2	-0.021574859
54	0x3dc757b0	0.09733522
55	0xbd3800f2	-0.044922777
56	0xbd9da3ab	-0.07697233
57	0x3dc7b4b3	0.097512625
58	0x3d5c8846	0.053840898
59	0xbdbecd72	-0.09316529
60	0x3c9a6ff6	0.018852215
61	0xbd9b2714	-0.07575813
62	0xbd53ba8e	-0.051691584
63	0x3d295cd3	0.04134829
64	0x3d635279	0.055498574
65	0x3d3da52d	0.046300102
66	0xbdae8eb8	-0.08523315
67	0x3bd0b17b	0.0063688136
68	0xbbe6ad13	-0.007039675
69	0x3b0d5738	0.002156688
70	0x3d0f8a77	0.03504416
71	0x3de63214	0.112400204
72	0xbd978640	-0.07398653
73	0xb8aedb02	-8.33776e-05
74	0xbca632b2	-0.020287845
75	0x3d65a023	0.05606092
76	0x3dba16ca	0.09086378
77	0x3dd8dff5	0.105895914
78	0x3cc00be6	0.023443174
79	0xbcf15bdf	-0.029462753
80	0x3d9c03b5	0.076178946
81	0x3dcc346b	0.099709354
82	0xbce0e49c	-0.02745276
83	0x3d9947b3	0.07484379
84	0x3db79d63	0.08965566
85	0x3d94a9ad	0.072589256
86	0x3c8aaeba	0.01692902
87	0xbd375dfd	-0.04476737
88	0xbc425cc9	-0.011862942
89	0x3d623d10	0.055234015
90	0x3d993194	0.074801594
91	0xbc95f9fc	-0.018307678
92	0x3d7cc562	0.061711676
93	0x3d6214fe	0.0551958
94	0xbd25f1d1	-0.040513817
95	0xbd56f851	-0.052482907
96	0x3d6fa225	0.058504242
97	0x3da0f4cb	0.078591906
98	0xbd8349e7	-0.0641058
99	0x3da5d80c	0.08097848
100	0xbbe5d994	-0.0070144627
101	0xbc680727	-0.0141618615
102	0x3cfef175	0.031120995
103	0x3dbac27e	0.09119128
104	0x3be9c696	0.007134269
105	0x3cb2a394	0.021806516
106	0x3da60271	0.081059344
107	0xbd714747	-0.058905866
108	0xbcaab8f5	-0.020840148
109	0xbd3da003	-0.046295177
110	0x3c9febe1	0.019521656
111	0x3d0fbd8c	0.035092875
112	0x3d86c7e5	0.065810956
113	0x3de0372b	0.109480225
114	0x3cd65acb	0.02616634
115	0xbd0914a1	-0.03346694
116	0xbd82d5ca	-0.06388433
117	0x3d128acd	0.035776902
118	0x3ddcbbd6	0.10778014
119	0xbd1eb76a	-0.038749136
120	0x3d960d8d	0.07326803
121	0xbd229dda	-0.03970132
122	0x3c8d4050	0.01724258
123	0xbbb0fc41	-0.0054011648
124	0x3db4a3fb	0.08820339
125	0xbcbf1899	-0.023327159
126	0x3b89e36f	0.0042080204
127	0xbd9a7cc6	-0.0754333
128	0x3c5bb896	0.013410708
129	0x3dc55e0a	0.09637077
130	0xbd86c3cb	-0.06580313
131	0x3db1ec2c	0.08687624
132	0xbb17cf00	-0.0023164153
133	0x3c878849	0.016544478
134	0xbc456920	-0.01204899
135	0x3d6ad477	0.05733153
136	0x3d215934	0.03939171
137	0xbd9f6a16	-0.07783906
138	0x3d1a3cee	0.037655763
139	0x3c5ad352	0.013356047
140	0xbcc3c5e3	-0.02389807
141	0x3de4c6a0	0.11170697
142	0x3dccff10	0.10009587
143	0x3d91c804	0.07118228
144	0x3d800086	0.062501
145	0x3db73888	0.08946329
146	0xbdb13706	-0.08653073
147	0x3dbb3f13	0.0914289
148	0x3db496b9	0.088178106
149	0x3dc605ee	0.096691
150	0x3d865def	0.06560885
151	0x3cfe7580	0.031061888
152	0x3c2f3577	0.010693899
153	0x3dc1b10a	0.09457596
154	0xbd70f981	-0.058831695
155	0xbba900e4	-0.005157577
156	0xbda1f867	-0.07908707
157	0x3c129e50	0.008948877
158	0xbd161eec	-0.036650583
159	0x3bd12da4	0.0063836146
160	0xbc88b229	-0.016686516
161	0xbaf730f5	-0.0018859195
162	0xbd5a12f4	-0.05324073
163	0xbdbf29a0	-0.09334111
164	0x3baf38aa	0.005347331
165	0x3d743740	0.059623003
166	0x3d8e4226	0.069462106
167	0xbdafa9c9	-0.08577306
168	0xbd96d502	-0.07364847
169	0xbcaf5ae2	-0.021405641
170	0x3dd78f6d	0.10525403
171	0xbdae2c35	-0.085045256
172	0x3d594de9	0.053052817
173	0xbcf2d1df	-0.02964109
174	0xbbfff221	-0.0078108464
175	0xbb969fa1	-0.004596666
176	0xba8f9c93	-0.0010956697
177	0x3d61a99a	0.055093385
178	0x3d851183	0.06497481
179	0xbd83561e	-0.0641291
180	0x3d83edc6	0.06441836
181	0x3dd8d4ef	0.10587489
182	0xbbd55c38	-0.0065112375
183	0x3cebc6ac	0.028781258
184	0xbd836666	-0.06416015
185	0x3ddf9e78	0.109188974
186	0x3d33ed85	0.04392769
187	0x3dc849f7	0.09779733
188	0x3d9efe7e	0.07763384
189	0x3db6ee83	0.08932211
190	0xbd9c3840	-0.07627916
191	0x3d114b62	0.03547228
192	0x3dcc53f1	0.09976948
193	0xbd7f45be	-0.06232237
194	0x3af03687	0.0018326797
195	0x3d3d61ca	0.046235837
196	0x3ae8dbe3	0.0017765727
197	0x3d4bdcd9	0.049771164
198	0xbd00712d	-0.031357933
199	0x3c904012	0.017608676
200	0x3d5a91d4	0.05336173
201	0x3c91e19e	0.017807778
202	0x3de34957	0.11097973
203	0xbdc19d1b	-0.094537936
204	0xbcc99fc9	-0.024612324
205	0xbd4bb634	-0.04973431
206	0x3dcb5509	0.099283285
207	0x3ac8e2bc	0.0015326361
208	0xbd65ca6e	-0.056101255
209	0x3c8dd0b7	0.017311437
210	0xbd95a72f	-0.07307278
211	0x3d87f8ad	0.06639228
212	0x3de07057	0.10958927
213	0x3d5229fb	0.051309567
214	0xbd88cdde	-0.06679891
215	0x3c9e67b8	0.019336566
216	0x3d89858f	0.067149274
217	0x3cc72a27	0.024312092
218	0x3ddefe8f	0.10888397
219	0xbc15d35c	-0.00914463
220	0x3c4c8902	0.012483837
221	0x3ddefeb1	0.10888422
222	0xbd819b76	-0.0632848
223	0xbdcb2c64	-0.09920576
224	0xbd35f5e2	-0.044423945
225	0xbd99f0d0	-0.075166345
226	0x3d3b4815	0.04572304
227	0xbdbd706b	-0.09249958
228	0x3db01cfa	0.08599277
229	0xbc1038be	-0.008802591
230	0x3c42f211	0.011898533
231	0xba47d1f1	-0.0007622531
232	0x3dca5aec	0.09880623
233	0xbd9b7b5b	-0.075918876
234	0x3cc19dfb	0.023634901
235	0x3d0b50e7	0.0340127
236	0x3db0fbe5	0.08641795
237	0x3c21b4ef	0.009869798
238	0x3da54c40	0.08071184
239	0xbd87c566	-0.06629448
240	0xbd85342e	-0.06504093
241	0xbdb8fe03	-0.09032824
242	0xbd3e4f50	-0.046462357
243	0xbd81a3d2	-0.06330074
244	0xbc712c2e	-0.014720006
245	0xbd957425	-0.072975434
246	0x3db4bb24	0.08824757
247	0x3dcb06f0	0.099134326
248	0x3d121d2f	0.035672363
249	0x3d21adbe	0.039472334
250	0x3db88fa9	0.09011776
251	0xbd8069ac	-0.06270155
252	0x3cb4ea26	0.022084307
253	0xbda51bac	-0.080619186
254	0xbcb4094e	-0.021977093
255	0xbd94b877	-0.072617464

bias f4 [10]
0	0x3ceed587	0.029154552
1	0x3cb648b6	0.022251468
2	0xbd472b3e	-0.048625223
3	0x3cf9c0b6	0.0304874
4	0xbd443cef	-0.047909673
5	0x3dd5da2a	0.10442002
6	0xbd286d5c	-0.04111992
7	0x3b8ce40d	0.0042996467
8	0x3a938f3d	0.0011257898
9	0xbcb0ec15	-0.021596948

weight f4 [10, 10, 4, 4]
0	0xbb2896e8	-0.0025724713
1	0xbd1c26d1	-0.038122956
2	0x3cacc613	0.021090543
3	0x3d792b2a	0.06083218
4	0x3d4cf4c0	0.0500381
5	0x3d8bf2f9	0.06833453
6	0x3cfd4395	0.030916015
7	0x3ce8b3d6	0.028406065
8	0xbd264f0e	-0.040602736
9	0x3c83cd7a	0.01608919
10	0xbc2cdb7a	-0.010550374
11	0xbd2c7d28	-0.042111546
12	0x3d20fc58	0.039303154
13	0xbd8e07b6	-0.069350645
14	0xbcc1e400	-0.02366829
15	0x3cbde48e	0.023180272
16	0x3d5d69e6	0.05405607
17	0x3c1a9f65	0.009437417
18	0xbd64bacc	-0.055842206
19	0x3d009092	0.031387873
20	0xbd1dc4de	-0.038517825
21	0x3d950468	0.07276231
22	0x3b55cfe7	0.003262514
23	0x3d8d013c	0.06885001
24	0x3d625189	0.05525354
25	0x3d50743a	0.050892092
26	0x3d823667	0.06358033
27	0xbce34b76	-0.027745944
28	0x3d473b2d	0.04864042
29	0x3d8a4ce3	0.06752946
30	0x3d084381	0.0332675
31	0xbc49a6f6	-0.012307873
32	0x3d1335e4	0.035940066
33	0xbd8f8a0b	-0.070087515
34	0x3d7556e0	0.059897304
35	0xbca1b5c8	-0.01974
36	0xbbc49bc8	-0.006000016
37	0x3d85accd	0.065271
38	0x3d492310	0.049105704
39	0x3d076f31	0.033065025
40	0x3b4927b9	0.0030693843
41	0x3da06630	0.07831991
42	0x3d3891a7	0.04506078
43	0x3cba4204	0.022736557
44	0xbd07cbfd	-0.033153523
45	0xbca9c73a	-0.020724881
46	0xbb680004	-0.00354004
47	0x3d8dffc5	0.0693355
48	0xbd520714	-0.05127628
49	0xbd06ccfb	-0.03291033
50	0x3ce3588b	0.027752182
51	0xbc68c593	-0.014207262
52	0xbcee1daf	-0.029066889
53	0x3d8950fe	0.06704901
54	0x3be1d524	0.0068918634
55	0xbd082706	-0.03324034
56	0x3d6aa3ab	0.057284992
57	0xbd38ff82	-0.045165546
58	0xbcb62094	-0.022232331
59	0x3d060723	0.03272165
60	0x3d3b69a7	0.045755055
61	0x3d89014f	0.06689703
62	0x3c8babe0	0.01704973
63	0x3d40b4da	0.047047473
64	0xbd4072e0	-0.046984553
65	0x3d5d3ddd	0.054014076
66	0xbc0ecfd2	-0.00871654
67	0x3d4c318a	0.04985193
68	0x3c0b1a87	0.008490211
69	0x3d30dad0	0.043177426
70	0xbd1a6d26	-0.03770175
71	0xbd856d95	-0.06515042
72	0xbc85f771	-0.01635334
73	0xbcef355f	-0.029200254
74	0xbd588a71	-0.052866403
75	0xbd45e08f	-0.04830986
76	0xbca76c40	-0.02043736
77	0xbc134609	-0.008988866
78	0x3c664585	0.014054661
79	0xbd611b09	-0.054957423
80	0xbd8d36d9	-0.06895227
81	0x3d3890d5	0.045059998
82	0x3d836b0d	0.06416903
83	0xbd08590e	-0.033288054
84	0x3c604bd7	0.013689957
85	0xbd5274ac	-0.0513808
86	0x3d3eeea7	0.046614315
87	0x3d2abe95	0.04168566
88	0xbd0edef6	-0.0348806
89	0xbd223703	-0.039603245
90	0xbd31b8d8	-0.04338917
91	0x3cbffac0	0.023434997
92	0x3da6037b	0.081061326
93	0x3d668ac3	0.056284677
94	0xbd6d2318	-0.057894796
95	0xbc990e63	-0.018683618
96	0x3beebcce	0.007285691
97	0xbd54eaf6	-0.05198189
98	0x3d51896f	0.051156458
99	0xbc153a02	-0.009108068
100	0x3d210cf3	0.03931899
101	0x3d8e2a6e	0.069416866
102	0xbc72fb76	-0.014830461
103	0x3c364142	0.011123957
104	0x3d96e1e6	0.073673055
105	0x3d423c24	0.047420636
106	0x3daf7c84	0.08568671
107	0x3d38ac3f	0.04508614
108	0x3db1b544	0.08677152
109	0x3cd0c963	0.025486654
110	0xbcec59f0	-0.02885148
111	0x3d79bbfe	0.0609703
112	0x3d89547e	0.06705569
113	0x3d60c546	0.054875635
114	0x3d0d10c6	0.034439825
115	0x3cd0e3a0	0.025499165
116	0xbd64c54d	-0.055852223
117	0x3d57485f	0.052559253
118	0x3d68e4f4	0.05685897
119	0xbd81cd71	-0.06338013
120	0xbd2c0441	-0.041996244
121	0xbd21a8ea	-0.03946773
122	0xbcd914af	-0.02649912
123	0x3ba19d3d	0.0049320743
124	0x3d801b1f	0.06255173
125	0xbc86dd40	-0.016462922
126	0x3d18c6a5	0.037298817
127	0xbc6dec9b	-0.014521743
128	0x3d8ef2ea	0.06979926
129	0xba2a5a8c	-0.0006498478
130	0xbd3ff788	-0.046866924
131	0x3d699357	0.05702528
132	0xbb2cdd72	-0.002637711
133	0x3ced70eb	0.028984508
134	0x3d5b4b43	0.053538572
135	0x3daa0e32	0.08303489
136	0xbce4471b	-0.027865937
137	0x3c9dd5db	0.019267013
138	0xbbf60947	-0.00750843
139	0x3daf930e	0.0857297
140	0x3ccd4888	0.025059
141	0xbd7ddb19	-0.061976526
142	0x3d2e37fc	0.04253386
143	0x3cc11ce9	0.023573356
144	0xbba491f5	-0.0050222822
145	0x3d812b8f	0.06307136
146	0xbd416cd7	-0.04722294
147	0x3cf39832	0.029735658
148	0x3c930ece	0.017951395
149	0x3daef3f1	0.08542622
150	0xbc0b3705	-0.008497004
151	0xbce7a4eb	-0.028276881
152	0x3d4de003	0.050262462
153	0x3b8635cc	0.0040957686
154	0x3c91e312	0.01780847
155	0xbc9ff2bf	-0.01952493
156	0x3d3057d1	0.0430525
157	0x3da00449	0.07813317
158	0xbc5a4b44	-0.013323609
159	0x3d564245	0.052309293
160	0xbd3c6f12	-0.046004362
161	0xbbcddcc1	-0.0062824194
162	0x3d95b17a	0.073092416
163	0xbb28a6e2	-0.0025734236
164	0x3c55a9a8	0.0130409375
165	0x3d5c93eb	0.053852003
166	0xbd73168b	-0.05934767
167	0x3cbf9b39	0.023389446
168	0x3b295aa4	0.002584138
169	0xbd61048d	-0.05493598
170	0xbd85e66c	-0.0653809
171	0x3d18171c	0.037131414
172	0x3da7e916	0.081987545
173	0x3d8d72a2	0.0690663
174	0x3d54ab32	0.051921077
175	0xbc0832c0	-0.008312881
176	0x3cce765b	0.02520292
177	0x3d227fe3	0.039672744
178	0x3ba40479	0.005005416
179	0xbc3b078c	-0.0114153735
180	0xb9238729	-0.00015595242
181	0xbb7acbc3	-0.0038268424
182	0xbcf3776d	-0.029720033
183	0x3d73228d	0.059359122
184	0xbd0e04de	-0.03467261
185	0xbd7b6bd8	-0.061382145
186	0xbd65f787	-0.056144264
187	0x3d8fc8bc	0.07020709
188	0x3d049875	0.032371957
189	0xbd2a95ca	-0.041646756
190	0x3c9ee722	0.019397322
191	0x3d8dd720	0.069257975
192	0x3da29ec2	0.07940437
193	0xbcac824f	-0.02105823
194	0xbd4e0378	-0.050296277
195	0x3d293119	0.04130659
196	0xbc5a669e	-0.01333013
197	0xbd74260f	-0.059606608
198	0x3d0cbcd9	0.034359787
199	0x3d4e0c77	0.050304856
200	0x3bf1d390	0.0073799565
201	0xbd575d6b	-0.052579325
202	0x3d960181	0.073245056
203	0xbd5909d8	-0.052987903
204	0x3d93d9b0	0.07219255
205	0xbd480dec	-0.048841402
206	0x3d6ecb00	0.058299065
207	0xbc4b610e	-0.012413276
208	0x3d9210bf	0.071321
209	0x39e013e3	0.00042739426
210	0x3d86903a	0.06570478
211	0xbd73be71	-0.05950779
212	0x3c8fdaf5	0.017560462
213	0x3c087445	0.008328502
214	0x3c864475	0.016390065
215	0x3c68d29d	0.01421037
216	0x3da3bae1	0.07994629
217	0xbc96b055	-0.018394629
218	0x3c0e7818	0.008695625
219	0xb9d44f9a	-0.000404951
220	0x3da3c3fa	0.07996364
221	0xbd1b4963	-0.037911784
222	0xbc5e9908	-0.01358629
223	0xbcd170ac	-0.025566421
224	0x3cefef92	0.02928904
225	0xbc424525	-0.011857306
226	0xbcad993c	-0.021191232
227	0x3d1232f3	0.03569312
228	0x3d4c64e2	0.049900897
229	0xbd0e4ea6	-0.034742974
230	0xbd5bb9cb	-0.053643983
231	0x3d4ab887	0.049492385
232	0xbd0c7298	-0.034288973
233	0x3d6e5255	0.058183987
234	0x3d038643	0.032110464
235	0x3cba59bd	0.022747869
236	0x3d877d3d	0.06615684
237	0x3d295089	0.04133657
238	0xbbcb4f96	-0.0062045557
239	0xbd5f34ed	-0.054493833
240	0xbd31a5d2	-0.04337103
241	0xbc865e1f	-0.016402302
242	0x3da7ce81	0.08193684
243	0x3cdc117d	0.026863808
244	0x3b7d8dc6	0.003868924
245	0x3a94cc5c	0.0011352408
246	0x3cbe4231	0.023224922
247	0x3c5712e8	0.013127066
248	0x3cdc11f0	0.026864022
249	0xbc74ee45	-0.014949386
250	0x3c4561b8	0.012047224
251	0x3d99fb69	0.07518656
252	0x3da32ad7	0.079671554
253	0xbd346597	-0.044042196
254	0xbd34191c	-0.04396926
255	0xbd141725	-0.036154885

bias f4 [10]
0	0x3bc47299	0.0059951064
1	0x3da2a406	0.07941441
2	0xbd85c3dc	-0.06531498
3	0xbd2e0d35	-0.042493064
4	0xbc621db1	-0.013801024
5	0xbc65bd20	-0.014022142
6	0xbbb4d575	-0.00551861
7	0x3d8cc012	0.06872572
8	0x3afac5dd	0.0019132454
9	0xbd8781ec	-0.066165775

weight f4 [10, 10, 5, 5]
0	0x3d552e49	0.052046094
1	0x3c216e8d	0.0098530175
2	0x3cbe5bee	0.023237195
3	0xbc40db81	-0.011771084
4	0xbc4c0257	-0.01245173
5	0x3988ced8	0.00026094052
6	0xbcb95f6f	-0.022628514
7	0xbd32a168	-0.04361096
8	0x3c9fad65	0.01949186
9	0x3c7446c3	0.014909449
10	0xbc857d32	-0.01629505
11	0x3ce0b43d	0.027429694
12	0xbc247f0c	-0.010040056
13	0xbd3ed821	-0.046592835
14	0x3d16afed	0.03678887
15	0x3c27a598	0.010232352
16	0xbcb44f41	-0.022010447
17	0x3d6b9715	0.05751713
18	0xbcef8818	-0.0292397
19	0x3d34fb39	0.044184897
20	0xbcbc5a79	-0.02299236
21	0xbcf0950e	-0.02936795
22	0x3ce0dc35	0.027448753
23	0xbbea01b7	-0.0071413177
24	0x3c8b3b28	0.016995981
25	0x3d3a11ef	0.04542726
26	0xbd411351	-0.047137562
27	0xbd45a423	-0.048252236
28	0x3d404c23	0.04694761
29	0x3d10bc83	0.03533603
30	0xbd0c2c3d	-0.034221876
31	0x3c55d5ca	0.01305146
32	0x3d03fe69	0.032225046
33	0x3d79d9be	0.06099867
34	0xbc9d44e4	-0.019197889
35	0x3d5faf65	0.05461063
36	0xbd54a09b	-0.051910978
37	0xbd543363	-0.05180682
38	0x3d225a8a	0.039637126
39	0x3d06d0d8	0.032914013
40	0xbc753517	-0.014966271
41	0x3d626c2a	0.055278935
42	0x3d2b6082	0.041840084
43	0x387a171d	5.962617e-05
44	0x3d008263	0.031374346
45	0xbcfedbd2	-0.031110678
46	0x3cfa678f	0.030566959
47	0x3d886cc3	0.0666137
48	0xbd40f3df	-0.047107574
49	0xbd007a3a	-0.031366564
50	0x3c49b405	0.012310986
51	0x3d2ca74f	0.042151745
52	0xbd33b282	-0.04387141
53	0x3cca8cb7	0.024725301
54	0x3c47258f	0.012154951
55	0x3c73d61b	0.01488259
56	0x3d815232	0.06314506
57	0x3d86e843	0.06587269
58	0xbcd989b5	-0.026554922
59	0xbc9952c2	-0.01871622
60	0x3c040f5c	0.008060303
61	0xbcb07f05	-0.021544943
62	0x3ad95f6c	0.0016584224
63	0x3d47c36c	0.048770353
64	0xbcf78c7c	-0.030218355
65	0x3d0e2ad9	0.03470883
66	0xbc5f653d	-0.013634977
67	0xbd1fdee9	-0.039030943
68	0xbd419984	-0.047265545
69	0xbd488e26	-0.04896369
70	0x3d70fda7	0.05883565
71	0xbd2fa943	-0.04288603
72	0x3c3299fe	0.010900972
73	0xbc834640	-0.016024709
74	0x3bcc774e	0.006239808
75	0xbccdb200	-0.025109291
76	0xbd60cabb	-0.05488084
77	0x3d3eb3f1	0.046558324
78	0xbc1defd3	-0.009639698
79	0xbc04edf0	-0.008113369
80	0x3d13a53b	0.036046248
81	0xbce272ea	-0.027642686
82	0x3d47b871	0.04875988
83	0xbbcdf2f6	-0.0062850667
84	0xbc7b8f3c	-0.015353974
85	0x3d1afc81	0.037838463
86	0x3ca5cf7f	0.020240543
87	0x3d818d98	0.06325835
88	0x3c21110f	0.009830727
89	0x3d4a12e4	0.04933442
90	0xbd15f581	-0.036611084
91	0x3d8c21d3	0.06842389
92	0x3d84acc7	0.06478267
93	0x3cf1988a	0.029491682
94	0x3d4c7e38	0.04992506
95	0x3cb5fc11	0.022214921
96	0xbc3d3410	-0.011548057
97	0xbd500785	-0.05078842
98	0x3d3db1b2	0.04631204
99	0xbd2f65d9	-0.04282174
100	0x3ba10d99	0.004914951
101	0x3d8fe5c8	0.07026249
102	0x3d5b6bf6	0.053569756
103	0xbca59816	-0.020214122
104	0xbcffd278	-0.031228289
105	0x3d7e1e28	0.062040478
106	0x3cd30010	0.025756866
107	0xbc29695c	-0.010340061
108	0x3d8deb93	0.06929698
109	0xbd0599a7	-0.032617237
110	0x3c8fb58d	0.017542625
111	0xbb2b25b0	-0.0026114993
112	0xbcb9f1f1	-0.022698374
113	0x3d3bb13e	0.04582333
114	0x3d968dcf	0.073512666
115	0x3c004eb8	0.007831268
116	0xbba991ae	-0.005174837
117	0x3bdbc820	0.0067072064
118	0xbc333775	-0.010938515
119	0x3c9c586c	0.019085132
120	0x3c9b6a88	0.018971696
121	0x3d514a81	0.051096443
122	0x3cf7a7b8	0.030231342
123	0x3d83e172	0.06439485
124	0x3d92a373	0.07160082
125	0x3cee5c9e	0.029096898
126	0xbd8b893b	-0.06813284
127	0xbb157e91	-0.0022811035
128	0x3d1895d7	0.037252273
129	0x3d4f568d	0.05061965
130	0xbc4a43ab	-0.012345235
131	0xbc9b7d22	-0.018980566
132	0x3d62ca36	0.055368625
133	0xbb7f9f3f	-0.003900483
134	0xbc7253f5	-0.014790525
135	0x3cb8e57b	0.022570362
136	0xbd0f1531	-0.03493232
137	0x3ca39d8a	0.019972581
138	0xbd68214c	-0.05667238
139	0xbd772f5e	-0.060347907
140	0x3d4bfb19	0.049800012
141	0x3d678269	0.056520853
142	0xbcbe332f	-0.023217766
143	0xbcc588d0	-0.024113089
144	0x3d615fb0	0.055022895
145	0x3cf439f7	0.029812796
146	0xbd62b4cc	-0.055348203
147	0x3d321095	0.043472845
148	0xbaa9241e	-0.001290444
149	0xbcef7828	-0.0292321
150	0x3cd1d532	0.025614355
151	0x3d48d6bd	0.049032915
152	0x3d1fea16	0.0390416
153	0xbcc02f52	-0.023460064
154	0x3cfc4a6b	0.030797204
155	0x3d9329cb	0.07185706
156	0x3ca9d32a	0.020730574
157	0x3bf65d8a	0.007518475
158	0xbd09f918	-0.03368482
159	0x3ce94765	0.028476426
160	0x3d8a2e28	0.06747085
161	0x3d6fb479	0.05852172
162	0x3d97c9c6	0.07411532
163	0xbc73b3a5	-0.014874374
164	0x3d8c5523	0.06852176
165	0x3c4f114f	0.012638404
166	0xbb2e809c	-0.002662695
167	0xb9ae72cb	-0.00033273394
168	0x3d9ebe15	0.07751099
169	0xbcc1f0af	-0.023674337
170	0xbcee9e18	-0.02912812
171	0xbc9486a5	-0.01813061
172	0xbcf683d4	-0.030092157
173	0x3d0d5a0e	0.03450971
174	0x3d582d29	0.052777443
175	0xbd0e13c4	-0.03468682
176	0xbd45b51c	-0.048268422
177	0xbb7ade80	-0.0038279593
178	0x3c58e6c1	0.01323861
179	0x3cddcb62	0.02707452
180	0x3d12409e	0.035706155
181	0xbd595a85	-0.05306484
182	0x3cc2b68b	0.023768684
183	0xbc0027fb	-0.007822032
184	0x3d87db4e	0.06633626
185	0x3b22ee3f	0.0024861244
186	0xbd410ec8	-0.047133237
187	0xbc2e33b5	-0.010632445
188	0xbcc03f8e	-0.023467805
189	0x3d132459	0.035923336
190	0x3cfac57d	0.030611748
191	0x3d32ca1a	0.04364977
192	0xbd159463	-0.036518466
193	0x3d8f3515	0.069925465
194	0x3c55edde	0.0130572
195	0xbd329ad0	-0.043604672
196	0x3d31c019	0.04339609
197	0x3d4b6be4	0.04966344
198	0x3d29edd4	0.041486576
199	0x3d26ec5e	0.04075276
200	0x3cc3c9e4	0.02389998
201	0x3d0d5713	0.03450687
202	0x3d635273	0.05549855
203	0xbd45e722	-0.04831613
204	0x3d7ee7f4	0.062232926
205	0xbd50bc50	-0.05096084
206	0xbcfdc169	-0.030976014
207	0xbd0cf574	-0.03441377
208	0x3d2bd34c	0.041949555
209	0xbce616b7	-0.028087003
210	0xbb466eb0	-0.0030278377
211	0xba5ee133	-0.0008502185
212	0x3d137980	0.036004543
213	0x3d302c0f	0.043010768
214	0xbc4252d9	-0.011860573
215	0x3c940686	0.018069517
216	0xbd07da5e	-0.033167236
217	0x3d7e4652	0.06207878
218	0xbca0a714	-0.019610919
219	0xbd61ab4f	-0.055095013
220	0xbc159565	-0.009129857
221	0x3d0b470e	0.03400331
222	0xbcb0ba6b	-0.021573266
223	0x3d83d578	0.064372
224	0x3d7d640b	0.061862987
225	0x3d141285	0.036150474
226	0xbd1e75dd	-0.038686622
227	0x3ccd55a3	0.025065249
228	0x3ce6abea	0.028158147
229	0xbd4bcced	-0.04975598
230	0x3d45822e	0.048219852
231	0xbd57cec6	-0.05268743
232	0x3d563b35	0.052302558
233	0x3c527c6d	0.012847048
234	0xbc3564ea	-0.011071423
235	0x3c0ed593	0.008717912
236	0xbc430db4	-0.011905123
237	0x3d288763	0.04114474
238	0x3cdf15f1	0.027232142
239	0x3d8d2449	0.068916865
240	0x3d3afadd	0.045649398
241	0xbce66d7c	-0.028128378
242	0x3d81fb7c	0.06346795
243	0x3c07d0bb	0.008289511
244	0x3cbcc8af	0.023044912
245	0xbd2c84a6	-0.04211869
246	0x3c4279e8	0.011869885
247	0xbd68446a	-0.05670587
248	0x3d81f7fa	0.06346126
249	0x3d8c78a5	0.068589486
250	0x3d487888	0.048943073
251	0xbcbf2c1d	-0.023336465
252	0x3d30b5b4	0.043142036
253	0x3cff2199	0.03114395
254	0x3c0e107d	0.008670923
255	0x3d35130c	0.044207618

bias f4 [10]
0	0x3b9d55c0	0.004801482
1	0xbba84068	-0.005134631
2	0x3be6c831	0.0070429076
3	0xbd8beb4c	-0.06831989
4	0xbb126b8f	-0.0022341942
5	0xbc49248a	-0.012276778
6	0x3d31defa	0.043425538
7	0xbd839797	-0.06425398
8	0xbd795729	-0.060874138
9	0x3cf99c12	0.030469928

weight f4 [100, 810]
0	0x3bf62968	0.00751226
1	0x3c201ac6	0.009772008
2	0x3ccde9b0	0.025135845
3	0x3ca74f76	0.020423632
4	0xbca2e97b	-0.019886723
5	0x3c64b0b1	0.013958142
6	0xbc8decdc	-0.017324857
7	0xbc58f75d	-0.01324257
8	0xbb65a0e8	-0.0035038535
9	0x3ccfa139	0.025345432
10	0x3cd6af22	0.026206557
11	0x3c3c0985	0.011476879
12	0x3d00fd7e	0.03149175
13	0xbbd725ed	-0.0065658004
14	0x3c96fcb1	0.01843104
15	0x3b267734	0.002540064
16	0xbd16c798	-0.03681144
17	0x3cd6d888	0.026226297
18	0x3c8d5c78	0.017256007
19	0xbc8e2c55	-0.017355124
20	0xbd085884	-0.03328754
21	0xbc9e1718	-0.019298121
22	0xbbdeda8f	-0.0068009566
23	0x3be4e108	0.0069848336
24	0xbcdbfae1	-0.026853027
25	0xbc5477df	-0.012968033
26	0xbc0ed52d	-0.008717817
27	0x3cec9a61	0.028882207
28	0x3cd9e176	0.026596766
29	0xbca9aa5a	-0.020711113
30	0xbd03ba38	-0.032160014
31	0x3c689729	0.014196196
32	0x3ce83d3d	0.028349513
33	0x3bc15188	0.005899612
34	0x3cce8de8	0.02521415
35	0x3cbb5aa0	0.022870362
36	0xbbf31b71	-0.0074190428
37	0xbc0eb849	-0.008710929
38	0x3caef304	0.021356113
39	0x3cef1262	0.02918357
40	0xbcdbde81	-0.026839497
41	0xbc91d671	-0.017802449
42	0x3cd6f1e3	0.026238387
43	0x3c934661	0.017977895
44	0xbcdfcb59	-0.027318643
45	0xbcf8f7ff	-0.030391691
46	0xbd0a4949	-0.033761296
47	0xbccfa352	-0.025346432
48	0xbd01ec6d	-0.031719614
49	0xbcbc6325	-0.022996495
50	0x3c876488	0.01652743
51	0xbcd39116	-0.025826018
52	0xbce91726	-0.02845342
53	0xbcf22e20	-0.02956301
54	0xbab63721	-0.0013901928
55	0x3c85be94	0.016326226
56	0x3cc84c8e	0.024450567
57	0x3c8f213e	0.017471906
58	0x3d056045	0.032562513
59	0xbd0fea9c	-0.03513585
60	0x3cd4e45a	0.025987793
61	0x3cda7cbc	0.026670806
62	0x3c106a01	0.008814336
63	0x3c9d4a42	0.019200448
64	0xbc6e6be9	-0.014552095
65	0x3c4ce2fa	0.012505287
66	0xbcc1f1a5	-0.023674795
67	0xbc76ee49	-0.01507146
68	0xbd06188e	-0.03273826
69	0xb946bd85	-0.00018953353
70	0xbba1519b	-0.004923058
71	0xbb15b22b	-0.0022841792
72	0x3c3a8a1e	0.011385469
73	0xbc26a49c	-0.010171082
74	0x3ce9cd3d	0.028540248
75	0xbb2b6ee0	-0.0026158616
76	0x3ca8c410	0.020601302
77	0x3a146271	0.0005660421
78	0xbcc61257	-0.024178667
79	0x3bc73ae3	0.006080018
80	0xbc0fb561	-0.008771271
81	0xbd1a24c1	-0.037632708
82	0x3b4812f8	0.0030528884
83	0xbbae5c3d	-0.0053210543
84	0xbbe547ce	-0.006997085
85	0x3ca3535f	0.019937215
86	0xbc26505f	-0.010150998
87	0x3ced742e	0.028986063
88	0x3b8f52d4	0.0043738876
89	0xbcd74438	-0.026277646
90	0x3c4f43d5	0.01265045
91	0x3cb7d6fd	0.022441382
92	0xbd0e3707	-0.034720447
93	0xbd13a5e4	-0.036046878
94	0xbd16cd2d	-0.036816765
95	0xbbf674d0	-0.0075212494
96	0xbcb7472f	-0.02237281
97	0x3d01bb2b	0.031672638
98	0xbc4e3635	-0.012586166
99	0x3c9e9006	0.019355785
100	0xba822e1f	-0.0009931958
101	0xbb5ae800	-0.0033402443
102	0xb98eed48	-0.0002726114
103	0xbc09a56e	-0.008401258
104	0xbd10ef25	-0.035384316
105	0xbae53b88	-0.0017489055
106	0xbceb1b29	-0.028699474
107	0x3ca4d47d	0.020120854
108	0x3d0201cd	0.03174
109	0xbce981a2	-0.028504197
110	0x3ccd99ba	0.025097717
111	0x3a93caa9	0.0011275607
112	0x3c0ca113	0.008583325
113	0x3ce31b87	0.027723087
114	0xbb48ee44	-0.0030659596
115	0x3cf56479	0.029955136
116	0x3a263e5a	0.00063416886
117	0x3b412e30	0.0029476993
118	0xbd14a240	-0.036287546
119	0xbd13efcb	-0.036117356
120	0xbc86e36f	-0.01646587
121	0xbd1afc2b	-0.037838142
122	0x3cc8359a	0.024439622
123	0xbc171443	-0.009221139
124	0xbcfe48c0	-0.03104055
125	0xbca995ca	-0.020701308
126	0xbb751655	-0.0037397344
127	0x3bdef93e	0.0068046143
128	0xbc585587	-0.013203985
129	0xbca64263	-0.020295328
130	0xbc8e946a	-0.017404754
131	0xbcad9c27	-0.021192623
132	0xbbf91dd2	-0.007602432
133	0x3cb4bf29	0.022063809
134	0x3cf31c3f	0.029676555
135	0xbb099036	-0.0020990497
136	0x3c9adcd6	0.01890413
137	0x3cba968f	0.02277687
138	0x3bad8bbc	0.0052961987
139	0xbc9d206d	-0.0191805
140	0xbb2aefc1	-0.0026082846
141	0xbb9a7d4c	-0.0047146436
142	0xbc0284c3	-0.007966223
143	0xbb87791b	-0.00413431
144	0x3c6b9712	0.01437928
145	0x3b695205	0.0035601866
146	0x3cc869b4	0.024464466
147	0x3c320705	0.010865931
148	0x3bd56b8f	0.006513066
149	0xbcfa55e5	-0.030558536
150	0xbba378d0	-0.004988767
151	0x3b1ef2ed	0.0024253682
152	0x3c3a78e3	0.011381361
153	0xbbc14428	-0.0058980174
154	0xbb1deb68	-0.0024096612
155	0x3cafd1fb	0.021462431
156	0x3c37c87d	0.011217234
157	0x3cfef000	0.0311203
158	0xbad726fa	-0.0016414814
159	0x3cae120e	0.021248844
160	0xbcb74de9	-0.022376018
161	0x3aec6cf1	0.0018037838
162	0xbccca442	-0.024980668
163	0x3c9e0d9e	0.019293603
164	0xbb85e02e	-0.004085562
165	0x3cc684cc	0.024233244
166	0xbc16e3c6	-0.009209579
167	0xbcd5fbb7	-0.026121004
168	0xbcc9f7fa	-0.024654377
169	0xbcca747c	-0.024713747
170	0x3c910679	0.017703282
171	0xbbd062b8	-0.0063594244
172	0xbc982d10	-0.018576175
173	0xbd07fdba	-0.033200957
174	0xba90587f	-0.0011012702
175	0xbc0963bf	-0.008385598
176	0xbd194c4c	-0.037426278
177	0x3b3b493c	0.0028577587
178	0x3cb28012	0.021789584
179	0xbbb35136	-0.0054723276
180	0xbca96594	-0.020678319
181	0xbce6f7d2	-0.028194342
182	0xbbc2ee5e	-0.0059488257
183	0x3ccdc912	0.025120292
184	0x3c76de56	0.015067657
185	0x3b3f9092	0.0029230458
186	0x3cfe4fc7	0.0310439
187	0x3bfabff1	0.0076522757
188	0xbcfcaf40	-0.030845284
189	0xbc21d73f	-0.009877979
190	0x3c54f83f	0.01299864
191	0xbb6bda32	-0.003598821
192	0xbcffc026	-0.031219553
193	0xbce398ce	-0.027782824
194	0xbd0df65b	-0.03465877
195	0xbbe79567	-0.0070673707
196	0x3c22cd47	0.009936637
197	0x3b8b42ab	0.004249891
198	0xb9fcef77	-0.000482436
199	0xbad370bf	-0.0016131623
200	0xbd038998	-0.03211364
201	0x3c765bbb	0.015036519
202	0xbc82ec9b	-0.015981963
203	0xbc28c0df	-0.01029989
204	0xbc68986e	-0.014196498
205	0x3b0ae16b	0.0021191488
206	0xbb9181cd	-0.0044405223
207	0xbcbedaea	-0.023297746
208	0xbcb896af	-0.022532789
209	0xbd0f08e9	-0.034920607
210	0x3cb6ff11	0.022338422
211	0xbd0717a5	-0.032981534
212	0xbc2e2623	-0.01062921
213	0x3c2d9a8c	0.010595929
214	0x3ca6f63c	0.020381086
215	0xbb8cb1c3	-0.004293652
216	0xbc0a8f92	-0.008457081
217	0xbc68b4f6	-0.014203301
218	0xbd16f194	-0.03685148
219	0xbcbbc844	-0.022922643
220	0x3cc1ae48	0.023642674
221	0xbc803888	-0.015651956
222	0xbc0b314b	-0.008495639
223	0xbc56ccbd	-0.013110337
224	0x3c18ef76	0.009334436
225	0xbcae91ef	-0.021309821
226	0x3cc3ddb2	0.023909424
227	0xbccf3f19	-0.025298642
228	0xbcbbf25f	-0.02294272
229	0xbbb14b09	-0.005410556
230	0xbcf56082	-0.029953245
231	0xbcd00418	-0.025392577
232	0xbcd931b2	-0.026512954
233	0x3c77b6fb	0.01511931
234	0x3c879499	0.01655035
235	0x3bc18eac	0.0059069004
236	0x3cdea720	0.0271793
237	0xbc5a0990	-0.013307944
238	0x3c19d586	0.009389287
239	0x3b336710	0.0027374662
240	0x3c51fbe5	0.012816404
241	0x3cdbc110	0.026825458
242	0xbcbb0962	-0.022831623
243	0xbc2b8783	-0.01046932
244	0xbd0057f4	-0.03133388
245	0xbcd5d48d	-0.026102329
246	0x3bac3aef	0.005256049
247	0x3bfd1558	0.0077234916
248	0x3c863467	0.01638241
249	0x3c82ea90	0.015980989
250	0x3d05c4df	0.032658454
251	0xbcfb31f0	-0.03066346
252	0x3cb7a119	0.022415685
253	0x3ceb636a	0.028733928
254	0x3cd13e12	0.025542293
255	0xbbe93d8e	-0.0071179336

bias f4 [100]
0	0xbbd02fd3	-0.0063533573
1	0x3cb28989	0.021794097
2	0x3b234705	0.0024914157
3	0x3bc625ec	0.006047001
4	0x3cdc0a9c	0.026860528
5	0xba248444	-0.00062758126
6	0x3c2337f6	0.009962073
7	0xbd00c1ab	-0.031434696
8	0x3cb5b04e	0.022178795
9	0xbc47f3d6	-0.012204131
10	0xbce81fbf	-0.02833545
11	0x3a912913	0.0011074863
12	0xbb9f3732	-0.0048588747
13	0xbb87cda0	-0.0041443855
14	0x3c75fefa	0.015014404
15	0x3cde5b50	0.02714315
16	0xbcec1510	-0.028818637
17	0xbc18fab9	-0.009337121
18	0x3d029fed	0.0318908
19	0xbc8583b7	-0.016298158
20	0x3d26e886	0.040749095
21	0x3cbe9197	0.023262782
22	0xbca4262a	-0.02003773
23	0x3cb5edde	0.02220815
24	0xbc976c1b	-0.018484166
25	0xbcb64bb8	-0.022252902
26	0xbc4f3038	-0.012645774
27	0x3cfd21d3	0.030899918
28	0x3cc78d3a	0.024359334
29	0xbcf68ca2	-0.030096356
30	0x3be8e950	0.007107891
31	0xbcef61fc	-0.029221527
32	0xbb89e937	-0.0042087096
33	0x3c00303e	0.007824002
34	0x3cb2d811	0.021831544
35	0x3ac05724	0.0014674407
36	0x3c92fbe5	0.017942378
37	0x3ccfb817	0.025356336
38	0xbce6579e	-0.028117951
39	0x3c1996d5	0.00937434
40	0x3d194863	0.03742255
41	0x3ce049dc	0.027378969
42	0xbb67b428	-0.0035355184
43	0xbc5232f0	-0.012829527
44	0xbcc27046	-0.023735177
45	0xbcc1a6bf	-0.023639081
46	0x3ce31fc3	0.027725106
47	0x3ca0487a	0.01956581
48	0xbb248c3c	-0.0025108
49	0xbcddf643	-0.027094966
50	0x3c5d7129	0.013515749
51	0xbd1877ca	-0.037223615
52	0x3ba95008	0.005167011
53	0x3c5aa3ec	0.013344746
54	0xbcb95561	-0.02262372
55	0xbce8c375	-0.028413514
56	0x3c81054e	0.0157496
57	0x3cd01b93	0.025403773
58	0x3b8ac0a2	0.0042343894
59	0x3c079941	0.008276285
60	0xbcbd7512	-0.023127113
61	0xbbda5718	-0.0066632144
62	0xbc0a4c1b	-0.0084409965
63	0x3d1ac94b	0.037789624
64	0x3bb5bccd	0.0055461884
65	0x3d1c2cf3	0.038128804
66	0x3d151665	0.03639831
67	0x3c01cff8	0.007923119
68	0xbc9acb9f	-0.018895922
69	0xbb79a5bf	-0.0038093177
70	0xbc7ab9cd	-0.015303087
71	0xbcbf09d6	-0.02332012
72	0x3cff927e	0.031197783
73	0x3c4cf584	0.012509707
74	0xbbbe46ad	-0.005806765
75	0xbcc9e83a	-0.024646867
76	0xbce16e70	-0.027518481
77	0xbcb3ae48	-0.02193369
78	0x3c8bbe4a	0.01705851
79	0x3c53b13e	0.012920676
80	0xbc285cc1	-0.0102760205
81	0xbca38bfb	-0.019964209
82	0x3c1ecf82	0.009693028
83	0x3c2ce589	0.010552772
84	0xbcd6601c	-0.026168875
85	0x3c266e08	0.010158069
86	0x3c668e3a	0.014071995
87	0xbc5a8061	-0.013336272
88	0x3c14f43c	0.009091433
89	0xbc16c3b1	-0.00920193
90	0x3ce560a4	0.028000183
91	0x3b2a0ac0	0.002594635
92	0xbce79cc7	-0.028273
93	0x3c6894db	0.014195646
94	0x3cb30077	0.021850808
95	0x3d073f9b	0.033019643
96	0x3d169cca	0.03677062
97	0x3b499edb	0.0030764851
98	0x3c0c052c	0.008546155
99	0xba0d0536	-0.00053794996

weight f4 [40, 100]
0	0xbd6ed6a9	-0.058310185
1	0xbd34d1b4	-0.0441453
2	0xbdb5c03d	-0.08874557
3	0xbd1e3ee5	-0.0386342
4	0xbd75cf61	-0.060012225
5	0x3d1e68f3	0.038674306
6	0x3d8f1f08	0.069883406
7	0x3d3db1ad	0.046312023
8	0xbcfb13e9	-0.030649142
9	0x3d0a8b59	0.0338243
10	0xbdac3f98	-0.08410567
11	0xbd80afe4	-0.062835485
12	0xbd88f95a	-0.06688185
13	0xbda2229b	-0.07916757
14	0xbcf5c7c1	-0.030002477
15	0xbd0f1207	-0.0349293
16	0xbce3b267	-0.02779503
17	0xbce37853	-0.027767336
18	0xbd8b1b54	-0.06792322
19	0x3d630476	0.055424176
20	0xbd5b6390	-0.053561747
21	0xbcc50cb9	-0.024053918
22	0x3dbfa34a	0.09357317
23	0x3d6b77b7	0.057487216
24	0xbd609471	-0.054829065
25	0xbd400249	-0.04687718
26	0x3c94dcab	0.018171629
27	0xba38646f	-0.0007034009
28	0xbac36f68	-0.0014910521
29	0x3c7fd690	0.0156151205
30	0x3d35acf0	0.04435438
31	0x3db52621	0.08845163
32	0xbcefeb29	-0.029286938
33	0x3d3f5c34	0.04671879
34	0xbb16c5e5	-0.0023006138
35	0xbc2de4d1	-0.010613636
36	0x3d915161	0.070956
37	0x3bff6cb6	0.007794942
38	0x3db0d772	0.08634843
39	0x3db08553	0.086191796
40	0xbda84e0b	-0.082180105
41	0xbdcd8ccb	-0.1003662
42	0x3da6e97d	0.08150003
43	0xbd9c2f92	-0.07626261
44	0xbb2fbffd	-0.0026817315
45	0xbcaa6e87	-0.020804657
46	0xbdcea0c1	-0.10089255
47	0x3d4552f1	0.048174802
48	0xbbf22aae	-0.0073903417
49	0x3c47bb1a	0.012190605
50	0xbc17f94d	-0.0092757465
51	0x3d9bc22f	0.07605397
52	0xbcc47a5c	-0.023984127
53	0xbce46c41	-0.02788365
54	0xbd1d97b8	-0.03847477
55	0x3d54f9d3	0.051996063
56	0x3d6ed718	0.058310598
57	0xbd824219	-0.063602634
58	0xbdb0949b	-0.08622094
59	0xbdac2817	-0.08406084
60	0xbdd138b5	-0.10215894
61	0xbcafd86d	-0.021465505
62	0x3d1d32f0	0.038378656
63	0xbd9b0f50	-0.0757128
64	0xbc8a0486	-0.01684786
65	0x3d844761	0.06458927
66	0xbcc72b78	-0.02431272
67	0x3d1cb8bf	0.038262125
68	0xbca0e543	-0.01964057
69	0x3d21cc7f	0.039501663
70	0x3c563630	0.013074443
71	0xbd7d4dd1	-0.06184179
72	0x3d83dff9	0.06439204
73	0xbd6b166f	-0.05739444
74	0x3c07c7cc	0.008287381
75	0x3dbd394c	0.09239444
76	0x3ccd8ab3	0.025090551
77	0xbdacc527	-0.08436041
78	0xbdda626f	-0.10663306
79	0xbd7a9ba9	-0.061183605
80	0xbd7de565	-0.061986346
81	0xbd95289e	-0.07283138
82	0xbcab943b	-0.020944705
83	0xbdd087b1	-0.10182131
84	0x3cf39e1b	0.029738476
85	0xbda6f75a	-0.08152647
86	0x3ca77cf8	0.020445332
87	0xbb4df842	-0.003142849
88	0x3a87a4ea	0.0010348831
89	0x3c866096	0.016403478
90	0x3d91573a	0.07096715
91	0xbc39e230	-0.011345431
92	0xbd3cb1b3	-0.046067905
93	0xbcd49f18	-0.025954768
94	0xbb298646	-0.0025867387
95	0xbc8f75c8	-0.017512217
96	0x3c900221	0.01757914
97	0xbd1c5f21	-0.03817666
98	0x3ba5ee45	0.0050638043
99	0x3d2784c0	0.040898085
100	0xbd767dbd	-0.060178507
101	0xbc0d7768	-0.008634426
102	0x394a6e46	0.00019305301
103	0xbd34f4cd	-0.044178773
104	0xbd36bbd4	-0.04461272
105	0x3d4a207a	0.04934738
106	0xbd28ca7e	-0.041208737
107	0xbce09030	-0.027412504
108	0xbdcb4cba	-0.09926744
109	0x3d5ad97c	0.053430066
110	0x3c9db3cf	0.019250778
111	0x3bb36b9c	0.0054754745
112	0xbd521863	-0.05129279
113	0xbd29d8ae	-0.041466407
114	0x3d7755f2	0.0603847
115	0xbd4fa9d1	-0.05069906
116	0x3d5962c7	0.053072717
117	0x3d700787	0.05860093
118	0xbd829c46	-0.06377463
119	0xbc622456	-0.0138026085
120	0xbd911daa	-0.07085736
121	0x3dab7962	0.08372761
122	0x3d919588	0.07108599
123	0x3d939c4a	0.07207544
124	0x3d8d6c95	0.06905476
125	0x3d86b34b	0.06577166
126	0x3da7d9c9	0.08195836
127	0xbc793454	-0.01521023
128	0x3d9fc590	0.07801354
129	0x3d4484bd	0.04797815
130	0xbda0726b	-0.078343235
131	0xbce829da	-0.028340269
132	0xbd4377d5	-0.047721703
133	0x3d7cc9b0	0.06171578
134	0xbd566f1e	-0.052352063
135	0xbd821b15	-0.06352822
136	0xbddb6162	-0.10711934
137	0xbbb3d970	-0.005488567
138	0x3c653bcd	0.013991308
139	0x3d77c096	0.0604864
140	0xbc949be1	-0.018140735
141	0xbdb63e83	-0.08898642
142	0x3d08e28b	0.033419173
143	0xbdd11f1f	-0.10211014
144	0x3dc4ec43	0.09615376
145	0xbcb3b145	-0.021935115
146	0x3d58cd08	0.052929908
147	0x3db9a716	0.09065072
148	0xbd3c5217	-0.045976724
149	0xbda92dad	-0.08260665
150	0xbd3f8cfa	-0.046765305
151	0xbc9d1ec5	-0.019179711
152	0xbd4c61a3	-0.0498978
153	0x3cd5f424	0.026117392
154	0xbd76c623	-0.06024755
155	0x3d47064a	0.048589982
156	0x3ca266d2	0.01982442
157	0xbd98d004	-0.07461551
158	0x3db257ec	0.08708176
159	0xbd8b7993	-0.06810298
160	0xbd425f22	-0.047454007
161	0x3d18365a	0.03716121
162	0xbd8467b5	-0.06465093
163	0x3d24b453	0.040211033
164	0x3d9ef17d	0.07760904
165	0xbca01b96	-0.019544404
166	0xbce6a5e8	-0.028155282
167	0x3d2e4810	0.042549193
168	0xbcbd88b1	-0.023136469
169	0xbd4f63e3	-0.05063237
170	0xbda6af87	-0.08138948
171	0xbc890ba8	-0.016729191
172	0xbc7986a7	-0.0152298575
173	0xbd93b2df	-0.07211851
174	0xbd5af35b	-0.053454738
175	0x3b1ca134	0.0023899795
176	0xbd0b4dd4	-0.03400977
177	0x3d5ca3c1	0.053867105
178	0xbda59d11	-0.08086599
179	0x3d8ba37a	0.0681829
180	0xbd8be812	-0.06831373
181	0x3dc7bdfe	0.09753035
182	0xbd40fcb0	-0.04711598
183	0x3d333136	0.043748103
184	0x3da8beeb	0.0823954
185	0xbdaf7975	-0.08568088
186	0x3db9f4e1	0.0907991
187	0xbc96a009	-0.018386858
188	0x3bb948b8	0.0056544207
189	0xbd6e8834	-0.058235362
190	0x3b7f68d9	0.0038972406
191	0xbd9dc8cc	-0.077043146
192	0xbdd2eb21	-0.102987535
193	0xbc52da58	-0.01286944
194	0xbdbbea4e	-0.091755494
195	0x3d507bf5	0.050899465
196	0x3d2f03bb	0.042728167
197	0x3d7f41d7	0.06231865
198	0xbcc96ea8	-0.024588898
199	0xbdaba07e	-0.08380221
200	0x3d987e8d	0.07446013
201	0xbd76694c	-0.060159013
202	0x3d8186d1	0.06324542
203	0xbdc4a2ef	-0.096013896
204	0x3c4594ad	0.012059373
205	0xbd9f1c33	-0.077690504
206	0x3b4984ba	0.0030749277
207	0xbd9d0d1f	-0.07668518
208	0xbdda3c37	-0.10656016
209	0xbcff7822	-0.031185213
210	0x3d4f47f4	0.05060573
211	0x3d02503e	0.031814806
212	0xbd014d21	-0.031567696
213	0xbdcafd08	-0.09911543
214	0xbd407f92	-0.04699666
215	0x3c786509	0.015160807
216	0x3ca13abc	0.019681327
217	0xbcb3d129	-0.021950321
218	0x3da0aa3d	0.078449704
219	0xbd20ad8a	-0.039228
220	0xbd39825f	-0.045290347
221	0xbb2e05dd	-0.0026553788
222	0xbb9dcf7e	-0.0048159948
223	0x3dd8cf84	0.105864555
224	0xbd8a43b0	-0.067511916
225	0x3daf4a99	0.0855915
226	0xbd6cc054	-0.057800606
227	0xbd0560f0	-0.03256315
228	0xbdb7679c	-0.08955309
229	0x3c67560a	0.014119634
230	0xbd853667	-0.06504517
231	0xbae0bf04	-0.0017146771
232	0xbdcd6157	-0.10028332
233	0xbd82ba83	-0.063832305
234	0x3ce8edb1	0.028433653
235	0x3d63f7b5	0.055656154
236	0x3c82fd9b	0.01599007
237	0x3dda1186	0.106478736
238	0xbd798e0a	-0.060926475
239	0x3d30546e	0.04304927
240	0x3ced1af8	0.028943524
241	0xbd9d5c86	-0.07683663
242	0x3cc8438f	0.024446277
243	0x3d4995dc	0.049215183
244	0x3dccddcb	0.10003241
245	0xbda0f1c7	-0.07858615
246	0x3d0bfda6	0.034177445
247	0xbd533686	-0.05156567
248	0x3d8521ee	0.06500612
249	0x3c6c1999	0.0144104
250	0x3d3732f4	0.044726327
251	0x3dbeee06	0.09322743
252	0x3d36eb93	0.044658255
253	0x3d94c558	0.07264203
254	0x3d8e56de	0.06950162
255	0xbd23e099	-0.040009115

bias f4 [40]
0	0x3d815493	0.063149594
1	0xbd93acfc	-0.072107285
2	0xbbf88a80	-0.00758487
3	0xbc86bca0	-0.016447365
4	0x3db1afd2	0.08676113
5	0x3d13e2ce	0.03610497
6	0xbd627881	-0.055290703
7	0xbdb70c23	-0.08937862
8	0x3cdb3bb7	0.026761873
9	0x3b887ea1	0.004165486
10	0xbdb96372	-0.09052171
11	0xbd5cf9c0	-0.053949118
12	0xbd84f927	-0.064928345
13	0xbc9fa8f3	-0.019489741
14	0x3dbc9548	0.09208161
15	0x3d5cfb05	0.05395033
16	0xbd893819	-0.06700153
17	0x3c4948e9	0.01228545
18	0xbd1521a0	-0.03640902
19	0x3d430826	0.047615193
20	0xbdcf1d98	-0.101130664
21	0xbcc978b4	-0.024593689
22	0xbda738d2	-0.081651345
23	0xbd6ac439	-0.05731604
24	0x3cc00544	0.02344001
25	0xbd424d04	-0.04743673
26	0x3aff21bf	0.0019465013
27	0xbc2207ec	-0.009889584
28	0x3dadc663	0.08485105
29	0xbdc36868	-0.09541398
30	0xbbe1c016	-0.0068893535
31	0xbc57d7b0	-0.0131739825
32	0xba976797	-0.0011551258
33	0xbd160f4e	-0.03663569
34	0xbd9ebae1	-0.07750488
35	0x3cfee70e	0.031116035
36	0xbd413c4e	-0.04717665
37	0x3d856efb	0.065153085
38	0x3c9ca37c	0.019120924
39	0xbdb9dd3a	-0.09075399
