scripts/model_cnn.pt (torch_old, 378752 bytes, 12 tensors)

weight f4 [10, 3, 2, 2]
0.28575054 0.24265409 0.08042564 -0.03422803 0.2582107 -0.21510373 -0.04517907 -0.1786869
-0.22862299 0.23958342 0.2315468 -0.08922824 0.27423394 -0.1970051 0.23527104 -0.055794865
0.28113198 -0.11148569 -0.12299026 -0.1250206 0.03181381 -0.23940076 -0.101254106 0.04641564
-0.14362095 0.21832666 0.23797165 0.010198162 -0.25778982 0.078132994 -0.23672423 -0.2494375
-0.2289914 -0.03247952 0.24427618 0.11355849 -0.28648356 -0.07555335 -0.1349903 -0.031242229
0.13683265 -0.048700348 -0.2391264 -0.15211016 0.13567942 -0.2768195 -0.18495755 -0.075392395
-0.25494298 -0.08926842 0.17533883 -0.2783854 -0.21338102 0.07372701 -0.105378844 0.2264733
-0.051176492 -0.14235005 -0.120349206 0.19543938 -0.08985519 0.27093446 0.17229882 -0.0971775
0.28839883 0.12212261 -0.24552166 -0.01818071 -0.25805143 -0.20153503 -0.20633377 -0.116610385
0.00673581 0.16221862 -0.07897602 -0.0937445 -0.28574076 0.26874715 -0.18720618 0.19797197
-0.12801237 -0.27834323 0.22572437 0.0035896508 -0.038218953 0.09847662 -0.20398515 -0.011440849
-0.15618534 -0.26712838 -0.0631221 -0.081425905 0.20046568 0.14031647 -0.25538254 0.09977892
-0.090581186 0.2887355 0.024896545 -0.26704076 -0.1696508 0.033001397 -0.14672184 0.04281329
0.0669541 -0.0372571 0.015505817 -0.25480402 0.016809637 -0.28484246 0.25149572 -0.16576318
0.06427137 -0.075750776 0.28979635 -0.23212937 -0.1546665 0.2290118 0.0374199 -0.28833956
00000000: e54d 923e 507a 783e 33b6 a43d b132 0cbd
00000010: 3134 843e 2744 5cbe b00d 39bd b3f9 36be
00000020: 251c 6abe 5b55 753e 9b1a 6d3e 4cbd b6bd
00000030: 6468 8c3e b4bb 49be e4ea 703e 2889 64bd
00000040: 88f0 8f3e 9c52 e4bd 51e2 fbbd 6605 00be
00000050: 334f 023d 7925 75be 505e cfbd 531e 3e3d
00000060: 5f11 13be 0691 5f3e d7ae 733e 3116 273c
00000070: 07fd 83be 3104 a03d d667 72be 8b6c 7fbe
00000080: b97c 6abe 3f09 05bd 8923 7a3e 5b91 e83d
00000090: f9ad 92be b7bb 9abd e63a 0abe b4ef ffbc
000000a0: dc1d 0c3e 047a 47bd 8ddd 74be c4c2 1bbe
000000b0: 8cef 0a3e 49bb 8dbe 8365 3dbe 5467 9abd
000000c0: e387 82be 5dd2 b6bd 068c 333e 8888 8ebe
000000d0: 8e80 5abe 30fe 963d ddd0 d7bd 9ee8 673e
000000e0: 719e 51bd 36c4 11be a579 f6bd 4321 483e
000000f0: ff05 b8bd ecb7 8a3e 1a6f 303e ff04 c7bd
00000100: 03a9 933e 6b1b fa3d 086a 7bbe b6ef 94bc
00000110: 511f 84be 335f 4ebe 2949 53be 6dd1 eebd
00000120: 12b8 dc3b a31c 263e 2ebe a1bd 1efd bfbd
00000130: 9d4c 92be 3a99 893e fab2 3fbe 2ab9 4a3e
00000140: ad15 03be 0183 8ebe 4a24 673e 5940 6b3b
00000150: 7a8b 1cbd 1cae c93d 7ce1 50be 6672 3bbc
00000160: 0def 1fbe 0dc5 88be 2946 81bd a0c2 a6bd
00000170: e046 4d3e 1faf 0f3e 80c1 82be e458 cc3d
00000180: a182 b9bd 24d5 933e d7f3 cb3c 91b9 88be
00000190: f0b8 2dbe 792c 073d 403e 16be fd5c 2f3d
000001a0: 3b1f 893d e79a 18bd 1c0c 7e3c ac75 82be
000001b0: 5db4 893c dfd6 91be 0cc4 803e d3bd 29be
000001c0: b5a0 833d 3923 9bbd 3060 943e 52b3 6dbe
000001d0: e560 1ebe 1282 6a3e 9c45 193d 3ea1 93be

bias f4 [10]
0.108171284 0.23849082 0.283092 0.037545174 -0.1410217 -0.1431494 0.04207863 -0.07300788
-0.24579321 0.036298536
00000000: e888 dd3d f036 743e 6ff1 903e f8c8 193d
00000010: fe67 10be c295 12be a45a 2c3d 2885 95bd
00000020: 37b1 7bbe c6ad 143d

weight f4 [10, 10, 3, 3]
0.022247985 0.0019573143 -0.049530163 -0.03457856 -0.08558743 0.03318002 0.020504083 0.018380102
-0.02077227 -0.04426863 -0.04568115 -0.08789405 0.092438236 0.06785645 0.092812225 -0.021394564
0.0620956 0.080192775 0.091702536 0.017393105 -0.004732127 0.07147027 -0.061091278 0.10846397
-0.0697568 -0.0037324184 -0.08874352 0.050889272 -0.02316602 0.043797612 0.07752679 0.094557144
-0.061999194 -0.011075864 -0.09667668 -0.09605841 -0.06281468 -0.013919242 0.058758114 0.020259803
-0.0045154104 0.030113641 -0.033816747 0.07776884 -0.098810785 0.025316551 0.09599676 0.09144136
0.04138802 0.03973034 -0.041071527 0.06994236 0.04831593 0.024614064 -0.04301107 0.04503924
-0.09057598 -0.09076928 0.016886715 -0.019251196 0.0031998015 -0.024728738 0.017880784 0.061620623
-0.033176877 0.10650243 -0.09551179 -0.09604926 -0.018833332 -0.025097905 -0.0801286 -0.041216034
0.1031911 0.09157647 0.016776573 -0.044293225 -0.04541687 0.02750355 0.09889758 0.008407037
0.07696595 0.07551671 -0.026518054 -0.022470977 0.06756074 -0.098591365 0.052234247 -0.051128652
0.10325991 0.025249753 -0.038777016 0.071264416 0.05554908 0.06488137 0.014999722 0.031903967
-0.019792346 0.0024723609 0.023060113 -0.10187865 0.044509362 0.092093565 -0.055857904 -0.0017502352
0.0762134 0.04512524 0.046020977 0.102982186 -0.0041587995 0.1050193 -0.060561225 0.049560938
-0.028272606 0.043093134 -0.05927675 0.022833526 -0.040401503 0.044538196 -0.017187659 0.015311145
0.09019712 -0.051329613 0.0148952585 -0.050656382 -0.05244442 -0.08934435 -0.02915792 -0.055610415
0.04112741 0.0017430701 0.046801995 -0.100210056 0.054546878 0.033484187 0.065302625 -0.07517557
0.06352402 0.106015384 -0.0928753 -0.018411681 -0.0821349 -0.002840982 0.0659509 0.015896559
-0.036271777 -0.00077864685 0.051134296 -0.007937397 -0.021446962 0.0613873 0.002520182 0.10715024
0.038121805 0.057143874 -0.061543155 -0.09546568 0.06912641 0.011821721 0.08251728 0.018452667
0.08681568 -0.056091838 -0.05020923 0.08867151 -0.03732727 0.068007015 0.08467853 0.04650139
0.094542414 -0.045984935 -0.03489875 0.026386697 0.0091412915 0.1027945 0.0826903 -0.06765714
-0.00609059 -0.07922399 0.08247947 0.009033029 -0.059109043 0.054474656 0.101519816 0.037182868
-0.009664505 0.009800879 -0.066780075 -0.034143798 -0.103757046 -0.052946076 0.06783211 0.04088303
0.046254374 -0.049831722 0.02143198 0.0033099093 -0.015600755 0.04209348 -0.026473753 0.05244275
-0.10377125 0.04456131 -0.093260095 0.01525627 -0.0131976595 0.0012793067 -0.0038078234 0.05129357
0.068562634 -0.05095386 0.08543961 0.045861132 0.084906496 -0.029269608 -0.052557513 -0.0075118206
-0.029878145 0.059469394 0.08175381 -0.100458875 -0.09213722 0.10044316 -0.1055649 -0.0072775884
-0.0075164656 -0.04956764 0.008383801 -0.07779974 0.04029262 0.02726388 -0.059246425 -0.042376373
0.08338986 -0.025355523 -0.006238239 0.0025591503 -0.09620823 0.07224159 -0.078352004 0.08947118
-0.065429054 -0.03525771 -0.079098195 0.07448857 0.045901056 -0.078111686 0.06821391 -0.001027699
-0.069455795 -0.100869715 0.0748561 0.024022568 0.09406934 0.01639904 -0.09249035 -0.06366099
00000000: 6841 b63c 4946 003b 24e0 4abd 40a2 0dbd
00000010: 7648 afbd c6e7 073d 2ef8 a73c de91 963c
00000020: 9c2a aabc 0653 35bd 281c 3bbd cc01 b4bd
00000030: 4250 bd3d 53f8 8a3d 5614 be3d a743 afbc
00000040: f557 7e3d 1c3c a43d 8ace bb3d fc7b 8e3c
00000050: f50f 9bbb 015f 923d d93a 7abd 5c22 de3d
00000060: a7dc 8ebd 979b 74bb 2abf b5bd 4571 503d
00000070: aac6 bdbc 2065 333d 5ec6 9e3d 2da7 c13d
00000080: def2 7dbd 8a77 35bc 6cfe c5bd 46ba c4bd
00000090: fca4 80bd 880d 64bc 59ac 703d e3f7 a53c
000000a0: 02f6 93bb e2b0 f63c 6e83 0abd 4545 9f3d
000000b0: 4f5d cabd a864 cf3c f399 c43d 9c45 bb3d
000000c0: 7c86 293d 48bc 223d 9e3a 28bd f13d 8f3d
000000d0: ede6 453d 6fa3 c93c 602c 30bd 117b 383d
000000e0: e67f b9bd 3fe5 b9bd 0256 8a3c afb4 9dbc
000000f0: c3b3 513b ec93 cabc b97a 923c e865 7c3d
00000100: 7ae4 07bd f21d da3d af9b c3bd 79b5 c4bd
00000110: 5c48 9abc 1f9a cdbc 771a a4bd 25d2 28bd
00000120: db55 d33d 728c bb3d 066f 893c d06c 35bd
00000130: 0a07 3abd 204f e13c d08a ca3d abbd 093c
00000140: 53a0 9d3d 81a8 9a3d 643c d9bc 0e15 b8bc
00000150: 495d 8a3d 45ea c9bd 94f3 553d 476c 51bd
00000160: ef79 d33d 92d8 ce3c a6d4 1ebd 14f3 913d
00000170: 6f87 633d 86e0 843d 65c1 753c bcad 023d
00000180: 8f23 a2bc 5507 223b 90e8 bc3c c1a5 d0bd
00000190: 734f 363d 8d9b bc3d 42cb 64bd 2668 e5ba
000001a0: c515 9c3d 3ed5 383d 7e80 3c3d 53e8 d23d
000001b0: 8a46 88bb 5c14 d73d 0c0f 78bd 6900 4b3d
000001c0: f49b e7bc 6d82 303d 2dcc 72bd 600d bb3c
000001d0: 0c7c 25bd af6d 363d 22cd 8cbc 99db 7a3c
000001e0: 45b9 b83d 003f 52bd 3e0b 743c 117d 4fbd
000001f0: f6cf 56bd 2cfa b6bd 97dc eebc bfc7 63bd
00000200: 3775 283d ba77 e43a 73b3 3f3d ee3a cdbd
00000210: 8c6c 5f3d b726 093d 62bd 853d a6f5 99bd
00000220: e218 823d 981e d93d 6835 bebd 18d4 96bc
00000230: 5836 a8bd c52f 3abb 4411 873d 8039 823c
00000240: b791 14bd 1b1e 4cba 3272 513d db0b 02bc
00000250: 8ab1 afbc 4071 7b3d a329 253b 9671 db3d
00000260: 9c25 1c3d b20f 6a3d ad14 7cbd 8383 c3bd
00000270: 2692 8d3d e4af 413c d2fe a83d 0c2a 973c
00000280: 6bcc b13d 8ec0 65bd 32a8 4dbd 6999 b53d
00000290: 7be4 18bd 4347 8b3d f06b ad3d 3e78 3e3d
000002a0: 749f c13d b35a 3cbd fef1 0ebd ea28 d83c
000002b0: 5bc5 153c ec85 d23d 8859 a93d d48f 8abd
000002c0: 9293 c7bb 3040 a2bd ffea a83d 45ff 133c
000002d0: 531c 72bd d120 5f3d 9fe9 cf3d 104d 183d
000002e0: df57 1ebc de93 203c fec3 88bd 5eda 0bbd
000002f0: 937e d4bd fcdd 58bd 90eb 8a3d f774 273d
00000300: 3a75 3d3d 591c 4cbd 1f92 af3c 10eb 583b
00000310: 4f9a 7fbc 366a 2c3d 7cdf d8bc 36ce 563d
00000320: 0586 d4bd ec85 363d 26ff bebd 6ff5 793c
00000330: ff3a 58bc 69ae a73a ad8c 79bb 3519 523d
00000340: 916a 8c3d ffb4 50bd f6fa ae3d e2d8 3b3d
00000350: 75e3 ad3d d1c6 efbc 8c46 57bd b825 f6bb
00000360: 03c3 f4bc 2e96 733d 8b6e a73d 62bd cdbd
00000370: 70b2 bcbd 25b5 cd3d 6932 d8bd d678 eebb
00000380: af4c f6bb 7007 4bbd 365c 093c 7855 9fbd
00000390: e009 253d 8058 df3c 61ac 72bd d992 2dbd
000003a0: 4ec8 aa3d 63b6 cfbc 246a ccbb 6bb7 273b
000003b0: d208 c5bd 66f3 933d 0477 a0bd ab3c b73d
000003c0: abff 85bd 636a 10bd 3cfe a1bd 778d 983d
000003d0: bf02 3c3d 05f9 9fbd bcb3 8b3d dbb3 86ba
000003e0: d73e 8ebd c894 cebd 284e 993d faca c43c
000003f0: 6da7 c03d 4857 863c 956b bdbd b160 82bd

bias f4 [10]
0.09839169 -0.06631546 0.0317714 0.052274015 0.0022088517 0.08820461 -0.036546294 -0.033136953
0.050433487 0.02861812
00000000: 9581 c93d 66d0 87bd ba22 023d 471d 563d
00000010: 62c2 103b 9ea4 b43d 91b1 15bd 9dba 07bd
00000020: 5893 4e3d 8c70 ea3c

weight f4 [10, 10, 4, 4]
-0.05875372 -0.05780063 0.020778902 -0.044209123 -0.0378842 -0.08054503 -0.07216156 0.05104022
0.0020803537 0.063753344 0.028688112 0.06761557 -0.009296803 -0.025111413 0.060971472 -0.07236793
-0.062045332 0.049346823 -0.046651676 -0.00025858538 -0.042462226 0.012903988 -0.076383434 -0.07076183
-0.014105428 0.038375072 -0.028200291 -0.004394263 0.051911578 -0.023093717 -0.06686677 0.016428303
0.017652271 0.05716165 0.009796956 -0.013256404 0.06654285 0.06913404 -0.062623024 -0.07825288
-0.016684998 0.0027000667 -0.04500849 -0.049896337 0.05008585 0.038852148 0.01875217 0.007262658
0.024607837 -0.054125942 0.035351414 0.04390677 0.07500433 -0.021646759 0.025751868 0.035607
0.008135261 0.003074774 0.043328974 0.06576162 -0.07047504 -0.07309533 0.015893143 -0.060049858
-0.059942257 -0.047654446 -0.00456951 -0.07557053 0.06394463 -0.039459005 0.06469415 0.06498327
0.04237468 0.0014492536 -0.057733983 -0.018043328 0.038306754 0.0041618617 -0.06553186 -0.06570841
0.009179369 -0.048927754 0.047084183 0.03788331 -0.0065552234 0.04148487 0.0045669638 0.0011346476
0.07571028 -0.023747528 -0.021243567 0.056910522 0.047976483 -0.07377916 -0.049945343 0.058189314
0.06373572 0.06834305 -0.05175522 -0.009309137 0.008789542 -0.031594165 -0.040809236 0.011853426
0.073553056 0.034537822 -0.08007352 -0.046501245 0.053945884 -0.022304265 -0.024794117 0.06501749
0.011930494 -0.074008845 -0.059189897 -0.004237542 0.07174273 -0.028194815 -0.08064073 0.035175975
0.027257783 0.02693759 -0.06770328 -0.010058958 0.0016760369 -0.050847493 -0.014053174 0.0480398
-0.056341752 0.012238576 0.030827438 0.061295733 -0.076775394 0.03292149 0.024632713 -0.04216702
0.024742484 0.07014846 0.021142747 -0.016634788 -0.03981227 0.056035224 -0.07328251 -0.06897403
0.03532344 0.0049237246 -0.024023263 -0.0069764815 0.0710636 0.07587162 0.0658639 0.0703257
0.05334226 -0.0062086396 0.075401194 -0.08147438 0.050150074 -0.031814944 0.026618335 -0.07650978
-0.066591695 0.030446066 0.020071946 -0.06839917 -0.0645764 0.007245768 0.056346677 -0.009973473
0.03041583 0.048934918 0.07590212 -0.055988535 -0.0062515098 0.049392905 -0.05161632 -0.06071892
0.044474054 0.016400704 -0.06146206 0.016925711 -0.032187805 0.028416825 -0.05169153 0.059468813
-0.037618507 -0.060427707 -0.032146975 0.07158763 -0.051300723 -0.028542746 0.05357783 0.07896597
-0.04110834 0.037623666 -0.03058257 0.011370821 -0.04306332 0.04437138 -0.07328221 -0.0035443224
-0.074737504 -0.029357234 -0.06619632 0.07884783 -0.03611969 -0.043210812 0.028355625 -0.028967857
0.010258876 0.021271786 -0.038393583 0.059491836 0.05672863 0.04170672 0.08130524 0.03323718
0.019281097 0.044917047 0.056415923 -0.03883064 -0.0035890816 0.066536665 -0.025985058 0.0784823
-0.06002723 0.05915246 -0.033730734 -0.015061977 -0.07618989 -0.046696756 0.057616938 0.006122258
-0.06264531 0.06935417 -0.017419795 0.039549638 -0.03845849 0.030880857 0.05988135 -0.031320397
-0.024258945 -0.06267029 0.0657799 0.058365464 0.020544179 0.037234012 0.027239831 -0.05111735
0.055429704 -0.0021153344 0.033678446 0.025667034 0.04152373 -0.008543009 0.0522902 -0.014598914
00000000: bea7 70bd 5ac0 6cbd 8438 aa3c a014 35bd
00000010: 772c 1bbd cbf4 a4bd 71c9 93bd 8d0f 513d
00000020: 8b56 083b 1d91 823d 5503 eb3c 087a 8a3d
00000030: 9e51 18bc 73b6 cdbc 39bd 793d a335 94bd
00000040: 3f23 7ebd e51f 4a3d d415 3fbd be92 87b9
00000050: dfec 2dbd 406b 533c eb6e 9cbd 94eb 90bd
00000060: 741a 67bc 2e2f 1d3d 4c04 e7bc c0fd 8fbb
00000070: 3ca1 543d 092f bdbc 72f1 88bd a694 863c
00000080: 7f9b 903c 5622 6a3d 6983 203c 6331 59bc
00000090: 9e47 883d 2696 8d3d 8040 80bd 0c43 a0bd
000000a0: faae 88bc 9af3 303b d35a 38bd 1a60 4cbd
000000b0: d226 4d3d 6e23 1f3d 279e 993c 97fb ed3b
000000c0: 6096 c93c 2ab3 5dbd a5cc 103d 96d7 333d
000000d0: df9b 993d 8b54 b1bc 95f5 d23c a5d8 113d
000000e0: c249 053c 2682 493b b979 313d 07ae 863d
000000f0: 3855 90bd 01b3 95bd 5632 823c d7f6 75bd
00000100: 0386 75bd 4f31 43bd d4bb 95bb b9c4 9abd
00000110: 67f5 823d c49f 21bd 5e7e 843d f315 853d
00000120: 1391 2d3d e2f4 bd3a 787a 6cbd 9acf 93bc
00000130: 8be7 1c3d 3a60 883b 9135 86bd 2292 86bd
00000140: 1065 163c 7868 48bd 58db 403d 882b 1b3d
00000150: 33cd d6bb 0aec 293d 78a6 953b 75b8 943a
00000160: fe0d 9b3d 2d8a c2bc fd06 aebc 021b 693d
00000170: fd82 443d 8719 97bd 7d93 4cbd eb57 6e3d
00000180: e087 823d 71f7 8b3d 48fd 53bd 5a85 18bc
00000190: 0302 103c e268 01bd 9627 27bd df34 423c
000001a0: fca2 963d 8877 0d3d 96fd a3bd 1778 3ebd
000001b0: 5cf6 5c3d 6fb7 b6bc 081d cbbc e427 853d
000001c0: 1e78 433c f391 97bd 1b71 72bd 14db 8abb
000001d0: daed 923d d0f8 e6bc f826 a5bd af14 103d
000001e0: b74b df3c 39ac dc3c 04a8 8abd 54ce 24bc
000001f0: 77ae db3a 7645 50bd 493f 66bc 62c5 443d
00000200: 9cc6 66bd 4f84 483c d389 fc3c 3c11 7b3d
00000210: 6b3c 9dbd afd8 063d 8bca c93c 53b7 2cbd
00000220: c0b0 ca3c ffa9 8f3d 8e33 ad3c ae45 88bc
00000230: 3112 23bd 3185 653d 2415 96bd 4242 8dbd
00000240: 50af 103d 3257 a13b 6fcc c4bc f89a e4bb
00000250: cb89 913d 9462 9b3d a7e3 863d ec06 903d
00000260: 6a7d 5a3d d871 cbbb f16b 9a3d 0adc a6bd
00000270: 2a6a 4d3d 6350 02bd b20e da3c 29b1 9cbd
00000280: 3a61 88bd 076a f93c ec6d a43c dd14 8cbd
00000290: a240 84bd e86d ed3b c6cb 663d c767 23bc
000002a0: 9e2a f93c fb6f 483d 9272 9b3d 3c54 65bd
000002b0: 77d9 ccbb 3750 4a3d a26b 53bd 67b4 78bd
000002c0: 6d2a 363d c55a 863c a4bf 7bbd caa7 8a3c
000002d0: 5cd7 03bd 67ca e83c 7fba 53bd 9295 733d
000002e0: dd15 1abd 0b83 77bd 8cac 03bd 899c 923d
000002f0: b520 52bd 7ad2 e9bc 6d74 5b3d e9b8 a13d
00000300: 3861 28bd 461b 1a3d 4c88 fabc ae4c 3a3c
00000310: 2a63 30bd c4be 353d fc14 96bd dd47 68bb
00000320: fa0f 99bd 957e f0bc f091 87bd f97a a13d
00000330: 3df2 13bd d2fd 30bd 0e4a e83c 004e edbc
00000340: d814 283c 2b42 ae3c 9742 1dbd b6ad 733d
00000350: 485c 683d aad4 2a3d 5d83 a63d b623 083d
00000360: 64f3 9d3c f0fa 373d 6214 673d e10c 1fbd
00000370: cc36 6bbb 6044 883d 9ede d4bc 54bb a03d
00000380: 1ddf 75bd da49 723d 3d29 0abd 83c6 76bc
00000390: 7209 9cbd 1945 3fbd bdff 6b3d 399d c83b
000003a0: 2f4c 80bd 8f09 8e3d f5b3 8ebc cdfe 213d
000003b0: a686 1dbd daf9 fc3c 2546 753d d149 00bd
000003c0: b2ba c6bc 4859 80bd 9db7 863d a010 6f3d
000003d0: 444c a83c b182 183d 1126 df3c 6d60 51bd
000003e0: 420a 633d 6ca1 0abb 69f2 093d ac43 d23c
000003f0: c914 2a3d faf7 0bbc 402e 563d 4930 6fbc

bias f4 [10]
0.056562122 -0.04760157 0.0002351632 -0.049157772 -0.059146408 0.03624702 -0.07706849 -0.058568373
0.022688616 0.039682366
00000000: afad 673d ddf9 42bd 2496 7639 a959 49bd
00000010: 8143 72bd c177 143d 16d6 9dbd 64e5 6fbd
00000020: 7add b93c fa89 223d

weight f4 [10, 10, 5, 5]
-0.041544966 -0.062165495 -0.026222894 -0.027593318 -0.0061255386 -0.0021997774 0.054554846 -0.039578144
-0.054249723 -0.009650833 -0.025438735 -0.06288745 0.021320034 0.053807143 -0.037045863 -0.0641191
-0.060510628 -0.008880912 0.009390124 -0.03236439 -0.05170436 -0.0492008 -0.034588784 0.004993361
-0.03749493 -0.0053809155 0.03184673 -0.04941112 0.053464748 -0.044937998 -0.05237842 -0.045642946
-0.030821772 -0.06392042 0.00936921 0.054388482 0.04548848 0.027356083 -0.06455814 0.0013692889
-0.010149289 -0.037444167 -0.008327526 0.02113678 -0.022275772 0.029416539 -0.05545621 0.03833703
0.033744603 0.061219424 0.060512494 -0.0133953085 0.012738965 -0.013143012 0.038325354 -0.010571388
0.018731793 0.04014296 -0.0106459735 -0.0059013097 0.04951829 -0.010014236 -0.008312577 -0.041630406
0.033473328 0.049703438 0.044751376 0.0112827355 0.03480086 0.030262828 -0.042505138 -0.008762834
0.036798175 -0.04774106 0.036523495 0.009332272 -0.009228936 -0.019699294 -0.021126065 0.014613998
0.012014615 0.049187023 -0.019214645 0.017614756 -0.04064076 0.03089263 -0.03245036 -0.026362248
0.050568357 -0.019135868 -0.023361092 -0.057052203 -0.03765811 0.05709452 0.016488912 -0.062030848
0.028636677 0.058585078 0.036863256 -0.035789654 -0.05066413 0.008099847 -0.01607322 0.020537842
0.0047188853 0.0035586776 -0.037701566 -0.046608232 0.041628167 0.06259092 0.024415549 -0.0440276
-0.049577847 0.015432171 -0.031082647 -0.046577774 -0.042941783 0.011094124 0.05639955 -0.015829401
0.018877191 0.035545297 -0.031344187 0.02090684 0.03255579 -0.014582444 -0.039688278 -0.06501094
0.016929831 -0.05941404 0.05379458 0.019301685 -0.048163924 0.021257652 0.030550336 -0.0403853
0.034235824 0.0163199 -0.056364253 0.041219164 0.034578543 -0.052301727 -0.05512524 -0.054810878
0.018742386 0.0064256303 -0.03188869 0.03288248 -0.042517766 0.01734479 -0.061493106 0.033372615
0.03647631 -0.04510177 0.050137434 -0.031956 0.04006521 0.052441146 0.004611463 0.032449763
0.026543144 -0.04070079 -0.027325485 0.026491793 0.026595587 -0.053825136 0.026835976 0.05713286
0.0019750863 0.022119807 -0.04174223 0.05141175 0.040542353 0.0074922773 0.053045716 0.032214772
-0.046461158 -0.013158508 -0.050463136 0.039865762 0.024282215 0.035035238 0.031136436 -0.0059084618
0.033250947 -0.04470617 0.027957693 -0.06419772 -0.058109105 0.026273305 0.022303253 -0.019683046
-0.028514365 0.05720425 -0.047800366 0.0061093 0.019977808 -0.043748822 -0.013732215 -0.0011437401
-0.0502847 0.023958586 0.008252972 -0.006812896 0.026078854 -0.03161574 -0.00010247864 -0.0014526681
-0.0032464748 -0.05895516 -0.052626155 -0.010355755 -0.01902206 -0.04635405 0.059065133 -0.014509361
0.058856215 -0.039613552 -0.015908716 0.012654906 0.06096717 -0.039463114 0.044317152 -0.027693534
-0.0014720487 0.0026123927 0.01674636 -0.044890948 -0.02407381 0.03798866 -0.05663162 -0.031039588
-0.03443541 0.0015355279 -0.02170999 -0.024802048 0.045067597 0.046532277 0.035076056 -0.045313835
0.0068505015 -0.056968797 0.05255746 0.013572859 -0.0020136714 0.02573312 -0.05395947 0.024691215
-0.052727595 -0.04779886 0.058315076 0.0077362065 -0.025494907 -0.052481346 -0.011456617 -0.015549063
00000000: 0e2b 2abd 3fa1 7ebd 65d1 d6bc 620b e2bc
00000010: beb8 c8bb 242a 10bb e774 5f3d b11c 22bd
00000020: f534 5ebd 871e 1ebc e564 d0bc 23cb 80bd
00000030: 5aa7 ae3c e164 5c3d 67bd 17bd e050 83bd
00000040: fed9 77bd 3f81 11bc 09d9 193c 8690 04bd
00000050: f3c7 53bd c786 49bd f8ac 0dbd 599f a33b
00000060: 4994 19bd 6452 b0bb b771 023d 5163 4abd
00000070: dafd 5a3d e810 38bd c18a 56bd 19f4 3abd
00000080: f17d fcbc b6e8 82bd 5181 193c 75c6 5e3d
00000090: 2152 3a3d dd19 e03c 0f37 84bd b679 b33a
000000a0: 3449 26bc 0e5f 19bd 2d70 08bc 0a27 ad3c
000000b0: ae7b b6bc f4fa f03c 0d26 63bd 4a07 1d3d
000000c0: c837 0a3d 38c1 7a3d f3db 773d ff77 5bbc
000000d0: 18b7 503c ca55 57bc 0cfb 1c3d 9d33 2dbc
000000e0: 6b73 993c f26c 243d 736c 2ebc c65f c1bb
000000f0: b1d3 4a3d c012 24bc 7a31 08bc a584 2abd
00000100: 541b 093d d595 4b3d 384d 373d 39db 383c
00000110: 598b 0e3d c0e9 f73c de19 2ebd fd91 0fbc
00000120: afb9 163d 218c 43bd a999 153d 63e6 183c
00000130: f734 17bc 6a60 a1bc 9210 adbc 8d6f 6f3c
00000140: f3d8 443c 5578 493d 0868 9dbc d24c 903c
00000150: ed76 26bd 8a12 fd3c abea 04bd a4f5 d7bc
00000160: c420 4f3d d3c2 9cbc c35f bfbc 92af 69bd
00000170: 643f 1abd f2db 693d c113 873c 0f14 7ebd
00000180: 7797 ea3c e8f6 6f3d edfd 163d 2c98 12bd
00000190: 3185 4fbd 38b5 043c fcab 83bc fa3e a83c
000001a0: e1a0 9a3b b438 693b f56c 1abd 46e8 3ebd
000001b0: 4c82 2a3d ab2f 803d 1e03 c83c 4956 34bd
000001c0: 2412 4bbd 37d7 7c3c 09a1 febc 56c8 3ebd
000001d0: b9e3 2fbd 21c4 353c 3703 673d a9ac 81bc
000001e0: 57a4 9a3c f297 113d c362 00bd d244 ab3c
000001f0: 3859 053d 34eb 6ebc 2d90 22bd 7524 85bd
00000200: 6eb0 8a3c 235c 73bd b557 5c3d 911e 9e3c
00000210: 8947 45bd 8724 ae3c b344 fa3c 0e6b 25bd
00000220: dd3a 0c3d 50b1 853c 34de 66bd 6dd5 283d
00000230: 3ba2 0d3d 563a 56bd 01cb 61bd 5f81 60bd
00000240: a289 993c 188e d23b b79d 02bd c8af 063d
00000250: 1c27 2ebd a916 8e3c 32e0 7bbd b9b1 083d
00000260: 2f68 153d a2bc 38bd e95c 4d3d 4be4 02bd
00000270: 6b1b 243d 87cc 563d c11b 973b 0bea 043d
00000280: 0271 d93c dfb5 26bd b2d9 dfbc 5105 d93c
00000290: fdde d93c bf77 5cbd 1fd7 db3c 2504 6a3d
000002a0: 7370 013b 9934 b53c e7f9 2abd 2195 523d
000002b0: bd0f 263d c781 f53b 7746 593d a3f3 033d
000002c0: 0e4e 3ebd c896 57bc 6fb2 4ebd 484a 233d
000002d0: 7feb c63c 1c81 0f3d d711 ff3c c59b c1bb
000002e0: 2532 083d d11d 37bd 8807 e53c 187a 83bd
000002f0: d003 6ebd 1d3b d73c 50b5 b63c 573e a1bc
00000300: f596 e9bc 014f 6a3d 51ca 43bd 8630 c83b
00000310: 80a8 a33c f731 33bd 16fd 60bc 8de9 95ba
00000320: 54f7 4dbd cc44 c43c 7937 073c b73e dfbb
00000330: 52a3 d53c 827f 01bd cde9 d6b8 7467 beba
00000340: cfc2 54bb f77a 71bd 868e 57bd 2fab 29bc
00000350: 27d4 9bbc bfdd 3dbd 48ee 713d acb8 6dbc
00000360: 3713 713d d241 22bd ff52 82bc 8656 4f3c
00000370: b6b8 793d 13a4 21bd e785 353d 8ddd e2bc
00000380: c2f1 c0ba ad34 2b3b aa2f 893c 92df 37bd
00000390: 7036 c5bc ff99 1b3d 8ff6 67bd bc46 febc
000003a0: 250c 0dbd c443 c93a 26d9 b1bc aa2d cbbc
000003b0: cd98 383d a198 3e3d e9ab 0f3d 009b 39bd
000003c0: 2c7a e03b 1d58 69bd 7e46 573d b260 5e3c
000003d0: cdf7 03bb 44ce d23c 9b04 5dbd 3b45 ca3c
000003e0: e4f8 57bd bdc8 43bd cadb 6e3d 0180 fd3b
000003f0: b2da d0bc aef6 56bd 89b4 3bbc 7fc1 7ebc

bias f4 [10]
-0.015511048 0.006008803 -0.009882208 0.0082349675 0.0036607804 0.032655504 0.002271719 -0.014111778
-0.047115184 0.062478844
00000000: 0d22 7ebc 7ee5 c43b fce8 21bc f5eb 063c
00000010: b4e9 6f3b c7c1 053d 1fe1 143b 1635 67bc
00000020: dafb 40bd d1e9 7f3d

weight f4 [100, 810]
0.016583132 0.016957352 0.0023695014 -0.01945398 -0.010310939 -0.008885207 -0.0066244607 0.033230558
0.03350763 -0.016070649 -0.026809923 0.014200783 0.03023276 0.035708144 -0.007967842 0.0014194296
0.03200293 0.022422832 -0.0043001827 0.009352366 -0.012610984 -0.01785813 0.014373102 0.0017136685
0.03487065 -0.020039733 0.0073891873 0.011227491 0.030067885 0.008721587 0.023663199 -0.0032696037
-0.004638373 -0.013331813 -0.014118818 0.0011685663 -0.02893892 -0.014358501 -0.029754302 -0.0036737518
0.0040393155 -0.004213224 0.012433451 -0.02452918 0.018072413 0.025423257 0.017405856 -0.0134466095
0.019581374 -0.027024837 0.021849837 0.019928845 -0.009936214 0.0107173445 0.0049554165 0.027418748
0.031746138 0.003909792 0.034523305 0.010641742 0.013811357 -0.012893816 -0.012757975 0.020855835
0.007067436 -0.0061203185 -0.029678555 -0.008848286 -0.009007123 0.01305987 0.015263251 0.030948553
0.0066946577 -0.033485718 0.0019445835 0.028910741 0.00818638 -0.027123922 0.003095601 0.012406608
-0.013456154 -0.014696647 0.011045031 -0.037694763 0.023367787 0.02196871 -0.013265999 -0.01017099
-0.0032460834 -0.024748273 0.011671114 0.0032716123 -0.012372429 -0.013504284 -0.017744172 0.0270134
0.017013982 -0.0071398136 -0.011471838 0.022092853 -0.028670872 0.024155738 -0.008439253 0.011950415
-0.0005164528 0.008051219 -0.035977963 -0.033378497 -0.027949382 0.03191273 0.024091715 -0.0035897808
0.0019721114 0.019734053 0.032075148 -0.035974693 -0.024356363 -0.02708718 0.004729477 0.025307432
-0.03499264 -0.0009635865 0.011037911 0.0022592358 0.005664766 -0.021078574 0.0051705553 -0.034291837
0.0027307475 -0.037923243 0.020096816 -0.031764027 0.013645168 0.015579815 0.006162466 -0.026185967
0.020733645 -0.0075303297 0.020827 -0.019639388 -0.024387375 0.0145425545 -0.022945724 -0.025287274
-0.0043964693 0.003844032 -0.029094305 -0.011814077 -0.01294144 0.027070668 -0.02555316 0.011126043
-0.0035501255 -0.015671244 -0.0032829565 0.0036523757 -0.021011317 -0.015403789 0.0059651784 0.0058216527
0.0075597432 -0.037657347 -0.031166503 -0.023838764 0.0046618213 0.01951931 0.00027165413 0.010539508
-0.009868047 -0.020759284 -0.004975851 -0.005308302 -0.01967246 0.011181272 -0.009036411 0.011396737
0.03157125 0.00657917 -0.02419046 0.0020819097 -0.017098228 -0.009471361 0.0337834 -0.0013569483
0.007907501 -0.020107446 -0.024561144 0.033069067 0.027703067 0.022903854 0.016120164 0.00521574
0.031138796 0.016004361 -0.024431098 0.029333701 -0.015126842 -0.018424863 -0.0025681616 -0.018128924
-0.0055583282 0.01608145 0.014662305 -0.0043519926 0.0047805863 0.0076682675 0.031667683 -0.018267598
0.022890132 -0.006377234 0.0054384493 0.011823265 0.030589273 0.0016591076 0.015738208 0.03258451
-0.0066319793 -0.015843607 -0.026519017 0.020482536 0.018581338 0.016416913 0.027373137 -0.030980464
0.024633264 -0.022450296 0.0030605705 -0.0023899204 0.0074762157 -0.0051616044 0.025675055 -0.009337179
-0.01719371 -0.0009595979 -0.0071727927 0.02013227 -0.010273935 0.031736813 0.02150891 -0.0130285
0.012820472 0.030386211 0.0023697638 -0.0094376635 0.016085539 -0.03184052 -0.03276429 -0.009856727
0.017579714 0.0025978636 -0.013674488 0.030826004 0.014724013 0.0012673014 -0.021930588 -0.011322355
00000000: 59d9 873c 25ea 8a3c a349 1b3b f45d 9fbc
00000010: 36ef 28bc 4293 11bc 0112 d9bb c41c 083d
00000020: 4c3f 093d 98a6 83bc 7ca0 dbbc 67aa 683c
00000030: b1aa f73c b442 123d 8d8b 02bc 270c ba3a
00000040: 8115 033d 16b0 b73c 8ce8 8cbb ab3a 193c
00000050: 4d9e 4ebc 374b 92bc 297d 6b3c 2c9d e03a
00000060: 87d4 0e3d 5e2a a4bc ff20 f23b 83f3 373c
00000070: ed50 f63c fde4 0e3c 53d9 c13c d946 56bb
00000080: 7efd 97bb ad6d 5abc 9d52 67bc 942a 993a
00000090: 5011 edbc eb3f 6bbc 4bbf f3bc 54c3 70bb
000000a0: 3c5c 843b 160f 8abb acb5 4b3c 6bf1 c8bc
000000b0: 990c 943c 6f44 d03c ba96 8e3c 2b4f 5cbc
000000c0: 1e69 a03c 3163 ddbc 6efe b23c d141 a33c
000000d0: 81cb 22bc cd97 2f3c 0c61 a23b 489d e03c
000000e0: 3d08 023d b61d 803b 4f68 0d3d b35a 2e3c
000000f0: 0849 623c 9640 53bc d306 51bc dbd9 aa3c
00000100: f395 e73b f48c c8bb 7120 f3bc 67f8 10bc
00000110: 9d92 13bc 11f9 553c b712 7a3c d287 fd3c
00000120: dc5e db3b 5228 09bd 65e1 fe3a 38d6 ec3c
00000130: 2b20 063c fd32 debc 91df 4a3b 1645 4b3c
00000140: 3377 5cbc 35ca 70bc 38f6 343c d365 1abd
00000150: cd6d bf3c b9f7 b33c a259 59bc 39a4 26bc
00000160: 3ebc 54bb e4bc cabc 3338 3f3c 8c68 563b
00000170: bab5 4abc 1341 5dbc 3a5c 91bc 354b dd3c
00000180: e860 8b3c 19f5 e9bb 60f4 3bbc 12fc b43c
00000190: 2ddf eabc 41e2 c53c cb44 0abc accb 433c
000001a0: 9062 07ba 43e9 033c a15d 13bd e4b7 08bd
000001b0: 1af6 e4bc ecb6 023d fd5b c53c 8742 6bbb
000001c0: 8a3e 013b 4fa9 a13c 3b61 033d 335a 13bd
000001d0: ff86 c7bc efe5 ddbc bbf9 9a3b 8851 cf3c
000001e0: 7154 0fbd 3299 7cba 5bd8 343c b00f 143b
000001f0: 809f b93b f9ac acbc c36d a93b 9975 0cbd
00000200: 57f6 323b 6755 1bbd 14a2 a43c ff1a 02bd
00000210: fc8f 5f3c 7b42 7f3c 83ee c93b f483 d6bc
00000220: 9bd9 a93c fcc0 f6bb 629d aa3c c8e2 a0bc
00000230: 08c8 c7bc e543 6e3c acf8 bbbc 4227 cfbc
00000240: 4210 90bb 28ec 7b3b 2e57 eebc d58f 41bc
00000250: 5508 54bc 4ec3 dd3c dc54 d1bc 024a 363c
00000260: 39a9 68bb fb60 80bc df26 57bb b25c 6f3b
00000270: ed1f acbc 2c60 7cbc 8b77 c33b 90c3 be3b
00000280: b9b7 f73b 973e 1abd e550 ffbc 8349 c3bc
00000290: 31c2 983b f6e6 9f3c cd6c 8e39 e7ad 2c3c
000002a0: 97ad 21bc 600f aabc 770c a3bb 44f1 adbb
000002b0: 2428 a1bc a731 373c 740d 14bc 61b9 3a3c
000002c0: db50 013d 1496 d73b 122b c6bc a670 083b
000002d0: 9511 8cbc c42d 1bbc 7660 0a3d a1db b1ba
000002e0: 778e 013c 5fb8 a4bc 7434 c9bc 6e73 073d
000002f0: 8bf1 e23c dda0 bb3c 6f0e 843c cce8 aa3b
00000300: ca16 ff3c 941b 833c ba23 c8bc 3b4d f03c
00000310: 93d6 77bc bdef 96bc 9a4e 28bb 1c83 94bc
00000320: a322 b6bb 3fbd 833c 2a3a 703c 299b 8ebb
00000330: 77a6 9c3b 1746 fb3b f9b5 013d eea5 95bc
00000340: 1684 bb3c 1ef8 d0bb 0535 b23b 5eb6 413c
00000350: 5b96 fa3c 6a76 d93a 6aed 803c 5677 053d
00000360: 1351 d9bb 74ca 81bc 693e d9bc feca a73c
00000370: e437 983c c37c 863c a13d e03c beca fdbc
00000380: b3cb c93c afe9 b7bc da93 483b 36a0 1cbb
00000390: 0bfb f43b ad22 a9bb 7e54 d23c f8fa 18bc
000003a0: d3d9 8cbc 868d 7bba bf09 ebbb 6eec a43c
000003b0: 0254 28bc 76fe 013d 7433 b03c 7d75 55bc
000003c0: f50c 523c 81ec f83c 0a4e 1b3b 6ea0 1abc
000003d0: d2c5 833c 356b 02bd d933 06bd 1c7e 21bc
000003e0: 5503 903c eb40 2a3b f60a 60bc d186 fc3c
000003f0: fd3c 713c 941b a63a c7a7 b3bc 6681 39bc

bias f4 [100]
-0.021176998 0.011537294 -0.032786526 -0.007856174 0.027573878 0.025264133 0.009368459 -0.033418775
-0.00045962085 -0.030082786 -0.01462613 0.037073057 0.024901338 -0.023622526 -0.02180466 -0.024039768
0.012284389 0.035567455 0.030682523 0.025557335 0.0012826879 -7.440515e-05 0.025919938 -0.021197692
0.0061848913 -0.03234899 0.024759924 -0.029893922 0.009730726 0.013930504 0.028381249 0.017192105
-0.018643707 -0.0023516766 -0.011535211 -0.019182017 0.011003159 0.0007265175 -0.01379863 -0.0196434
-0.022335948 -8.772112e-05 -0.0013417496 0.035131607 0.016073927 -0.018367466 0.0005022009 -0.031572018
0.03507682 0.019465525 -0.0057583814 0.016223788 -0.010838152 -0.013551731 -0.0150197195 0.015378022
0.025304744 -0.03541821 -0.0021120773 -0.0069835703 0.0012902658 -0.014089054 -0.0041180486 -0.022816868
0.002985238 0.035442375 -0.023369655 0.01356913 0.016471678 0.02341077 0.006923183 0.005158512
0.03284562 -0.015299365 0.012836847 -0.03496242 -0.005894398 -0.02216278 -0.022397581 0.01570895
-0.009192509 -0.021221636 0.013523211 0.022093236 -0.015234915 -0.02505232 -0.020184906 0.007510456
-0.035129614 -0.025955282 -0.015659349 -0.017754285 -0.012731837 0.012742402 0.008752584 0.027044598
0.008951551 -0.014779718 -0.00735931 -0.0095696775
00000000: 627b adbc eb06 3d3c 2a4b 06bd 2fb7 00bc
00000010: 9de2 e13c baf6 ce3c 2a7e 193c 20e2 08bd
00000020: 44f9 f0b9 2d70 f6bc 70a2 6fbc ebd9 173d
00000030: e4fd cb3c 0784 c1bc b09f b2bc 0cef c4bc
00000040: 7644 493c 2eaf 113d ea59 fb3c 9e5d d13c
00000050: dd1f a83a f609 9cb8 0d56 d43c c8a6 adbc
00000060: a1aa ca3b 6080 04bd 53d5 ca3c 19e4 f4bc
00000070: 9f6d 1f3c c53c 643c cb7f e83c 75d6 8c3c
00000080: b0ba 98bc 961e 1abb 2efe 3cbc 9b23 9dbc
00000090: 9846 343c c473 3e3a a613 62bc 32eb a0bc
000000a0: e1f9 b6bc ebf6 b7b8 a5dd afba 29e6 0f3d
000000b0: 78ad 833c 5e77 96bc 22a6 033a a951 01bd
000000c0: b6ac 0f3d 2a76 9f3c ceb0 bcbb c0e7 843c
000000d0: 8192 31bc 1408 5ebc 4515 76bc 19f4 7b3c
000000e0: e54b cf3c af12 11bd c76a 0abb 6fd6 e4bb
000000f0: 231e a93a c7d5 66bc b2f0 86bb 71ea babc
00000100: fca3 433b 062c 113d b871 bfbc 0e51 5e3c
00000110: 9def 863c f1c7 bf3c dedb e23b bc08 a93b
00000120: 2189 063d 30aa 7abc a451 523c c134 0fbd
00000130: cb25 c1bb b88e b5bc 227b b7bc 0eb0 803c
00000140: 2d9c 16bc ffd8 adbc 7590 5d3c e0fc b43c
00000150: dd9b 79bc 863a cdbc d15a a5bc 451a f63b
00000160: 12e4 0fbd 2ca0 d4bc 0948 80bc 6f71 91bc
00000170: 3299 50bc 82c5 503c 0067 0f3c a28c dd3c
00000180: 87a9 123c a126 72bc 5e26 f1bb 23ca 1cbc

weight f4 [40, 100]
-0.0050312886 0.10121285 -0.09081708 0.035847213 0.0047410624 -0.041883994 0.0727492 0.0038920925
0.07790542 -0.010912799 0.06975532 -0.0077440897 0.081675164 0.06272025 0.056658775 -0.0050025294
-0.08937493 -0.06791993 -9.867742e-05 -0.09179898 -0.023500396 0.05571451 -0.0886985 -0.041545615
0.032046903 0.05067771 0.043318357 0.08967994 -0.051560566 -0.067555726 -0.041985564 -0.08297975
0.013797193 -0.03375657 -0.055373177 0.07767351 0.050630584 -0.005724255 0.032301594 -0.0534888
0.046109937 0.06439919 -0.06771032 -0.093895234 -0.06797232 -0.016999207 -0.034682583 -0.01076131
-0.09285069 0.06864909 0.003219278 -0.007982337 0.008821963 -0.087054454 -0.012208958 -0.07703569
0.046507735 0.016813261 0.0896564 -0.010778065 0.05053093 0.07018782 0.012590204 -0.0655203
0.03868635 0.048297714 0.095629826 -0.041097276 -0.07986687 -0.056384455 -0.068640746 0.027366482
-0.02604672 -0.07379225 0.006319764 -0.027959906 -0.028214183 -0.05356515 -0.055123188 -0.06857918
-0.04899626 0.069694705 -0.042599753 0.030628193 -0.048886806 0.02405736 -0.024316853 -0.06336651
0.07099347 -0.07498603 -0.001350896 -0.05509746 0.009704739 0.04142377 0.01911096 0.10013199
-0.011475034 0.039971784 0.09367595 0.010120086 -0.06844219 0.040887255 -0.089008786 -0.08147563
-0.040915728 -0.016798161 -0.016987257 0.046922974 -0.06490046 0.06579228 0.032439444 0.06146117
-0.07849922 0.044333823 0.05067407 0.059113074 0.049296584 -0.045883 0.033746902 0.08669878
-0.030725643 -0.021349844 0.087495826 0.086208746 0.08811958 0.0096417535 -0.08777026 -0.06943757
-0.09556901 -0.07562511 0.06220607 -0.08340735 -0.00676405 -0.059695665 -0.052152026 -0.006413535
-0.057635177 -0.08156503 -0.09296751 -0.09934979 -0.04165491 -0.019920737 -0.0251559 0.034250077
-0.07573919 -0.03842252 0.08103143 0.0086693065 -0.021075454 -0.039268162 0.0017461703 0.057467736
0.06625679 -0.09550973 -0.027732136 0.06855259 -0.028359141 -0.05233622 0.085939765 0.020225016
-0.014015054 -0.047528148 0.052324377 0.08658773 0.039727792 -0.062093433 -0.077657975 -0.0169432
-0.04935314 -0.049622063 0.034212746 -0.020981407 -0.03491799 -0.07199669 0.09177147 -0.07909106
0.012533892 -0.071421765 0.015236136 -0.04731849 0.09430962 0.083834425 -0.026318742 -0.07012915
0.057992697 0.011384007 -0.009529378 -0.03218166 0.07178863 0.010137663 -0.042585704 -0.034642484
-0.06603703 0.07614362 0.03215193 -0.010178716 -0.011482385 -0.06926756 0.052775115 -0.074431114
0.034601808 -0.027610881 0.07378611 -0.058673255 -0.02882254 0.09383418 0.09818917 0.026013771
-0.077967614 0.051731225 0.050249018 -0.020347893 -0.08587959 0.033434752 -0.035977345 0.029781736
-0.100481115 -0.03548463 -0.08859564 -0.044444945 -0.038144343 -0.05881074 0.056411225 -0.03941121
0.08058224 0.05099874 -0.07954117 0.04200401 -0.056920726 0.072105356 -0.001522278 -0.023974208
-0.015899317 0.06394852 -0.0007859308 0.037882995 -0.063938916 0.09709636 0.10189456 0.028036937
-0.078088954 -0.06504332 0.100495175 0.09672533 -0.013493359 -0.09524506 0.024170877 -0.0044820607
-0.09219813 -0.04012437 -0.031936653 -0.05100044 0.07707327 -0.085839815 -0.036043137 0.047233257
00000000: 82dd a4bb af48 cf3d 4efe b9bd 87d4 123d
00000010: ea5a 9b3b 8d8e 2bbd 88fd 943d 7a12 7f3b
00000020: e08c 9f3d 99cb 32bc e1db 8e3d 22c2 fdbb
00000030: 4f45 a73d 7973 803d 0813 683d 42ec a3bb
00000040: 340a b7bd 9b19 8bbd 09f1 ceb8 1b01 bcbd
00000050: e783 c0bc e634 643d 8fa7 b5bd bc2b 2abd
00000060: 9d43 033d 6e93 4f3d 976e 313d 1eaa b73d
00000070: 2c31 53bd a85a 8abd 0ef9 2bbd 4af1 a9bd
00000080: 9f0d 623c 5444 0abd fcce 62bd 4a13 9f3d
00000090: 0462 4f3d 8892 bbbb ad4e 043d 1217 5bbd
000000a0: c6dd 3c3d b9e3 833d b5ab 8abd 254c c0bd
000000b0: 1235 8bbd ec41 8bbc 530f 0ebd 3550 30bc
000000c0: 8128 bebd e597 8c3d 86fa 523b 59c8 02bc
000000d0: ff89 103c 9b49 b2bd 1508 48bc e3c4 9dbd
000000e0: e57e 3e3d f7bb 893c c69d b73d 7b96 30bc
000000f0: 85f9 4e3d a2be 8f3d 2547 4e3c 822f 86bd
00000100: 9475 1e3d d3d3 453d 92d9 c33d 9e55 28bd
00000110: 3e91 a3bd 63f3 66bd 8593 8cbd ac2f e03c
00000120: ee5f d5bc 6420 97bd 0616 cf3b 2c0c e5bc
00000130: 6e21 e7bc 2167 5bbd dac8 61bd 3e73 8cbd
00000140: 4db0 48bd 19bc 8e3d 147d 2ebd fae7 fa3c
00000150: 883d 48bd f113 c53c 2334 c7bc 4dc6 81bd
00000160: 0665 913d 4792 99bd 8c10 b1ba e0ad 61bd
00000170: a000 1f3c f9ab 293d 978e 9c3c 0012 cd3d
00000180: c801 3cbc 74b9 233d 2dd9 bf3d b8ce 253c
00000190: 6b2b 8cbd 6579 273d 3d4a b6bd b2dc a6bd
000001a0: 4097 27bd 4c9c 89bc dc28 8bbc 4e32 403d
000001b0: 88ea 84bd 1abe 863d 39df 043d b5be 7b3d
000001c0: 33c4 a0bd 6297 353d 9d8f 4f3d 8d20 723d
000001d0: 37eb 493d d0ef 3bbd 313a 0a3d 218f b13d
000001e0: 58b4 fbbc dee5 aebc 0331 b33d 368e b03d
000001f0: 0a78 b43d 72f8 1d3c e5c0 b3bd 4935 8ebd
00000200: afb9 c3bd 56e1 9abd cbcb 7e3d 79d1 aabd
00000210: f7a4 ddbb 7183 74bd 5d9d 55bd a228 d2bb
00000220: dd12 6cbd 910b a7bd c065 bebd e777 cbbd
00000230: 579e 2abd d030 a3bc bf13 cebc cf49 0c3d
00000240: 261d 9bbd ef60 1dbd cef3 a53d b509 0e3c
00000250: 6ea6 acbc a7d7 20bd c1df e43a 4a63 6b3d
00000260: a4b1 873d 9b9a c3bd 812e e3bc 4d65 8c3d
00000270: 6e51 e8bc 815e 56bd 3001 b03d efae a53c
00000280: 669f 65bc e0ac 42bd 1652 563d e854 b13d
00000290: 9cb9 223d af55 7ebd 250b 9fbd 77cc 8abc
000002a0: 8526 4abd 8140 4bbd aa22 0c3d 33e1 abbc
000002b0: 2b06 0fbd 0073 93bd aef2 bb3d 7efa a1bd
000002c0: f45a 4d3c 9345 92bd fca0 793c 08d1 41bd
000002d0: 6725 c13d 62b1 ab3d 679a d7bc df9f 8fbd
000002e0: c089 6d3d fc83 3a3c 1c21 1cbc ebd0 03bd
000002f0: eb05 933d 7118 263c 596e 2ebd 47e5 0dbd
00000300: 6c3e 87bd 30f1 9b3d beb1 033d a1c4 26bc
00000310: 9d20 3cbc 27dc 8dbd b82a 583d 576f 98bd
00000320: a0ba 0d3d 3730 e2bc 2c1d 973d 5e53 70bd
00000330: 3f1d ecbc 222c c03d 6717 c93d d51a d53c
00000340: 7cad 9fbd 1fe4 533d ead1 4d3d a0b0 a6bc
00000350: a3e1 afbd e1f2 083d fb5c 13bd d4f8 f33c
00000360: 0bc9 cdbd 5558 11bd a271 b5bd e70b 36bd
00000370: 3e3d 1cbd 88e3 70bd 750f 673d a66d 21bd
00000380: 4d08 a53d 0ee4 503d 7be6 a2bd 660c 2c3d
00000390: b525 69bd f9ab 933d 2c87 c7ba 8f65 c4bc
000003a0: 493f 82bc 71f7 823d ec06 4eba 332b 1b3d
000003b0: 68f2 82bd 75da c63d 18ae d03d b8ad e53c
000003c0: 1aed 9fbd 6f35 85bd 6ad0 cd3d ee17 c63d
000003d0: 4013 5dbc d80f c3bd 0102 c63c 40de 92bb
000003e0: 60d2 bcbd 7459 24bd 02d0 02bd d6e5 50bd
000003f0: 97d8 9d3d c9cc afbd f8a1 13bd a977 413d

bias f4 [40]
0.020707298 -0.08160215 -0.012825495 -0.07547226 -0.046223678 0.06228863 0.08247817 -0.07308263
0.06883448 0.026530279 0.0707219 0.06540516 -0.004998146 0.04357977 0.037651293 0.058555752
0.017829964 0.065624185 -0.09085344 0.04905551 -0.017488524 -0.056702554 0.06284832 0.07988004
0.030656666 -0.05832731 0.035729162 0.050659783 0.0007265545 -0.02736128 0.05699886 0.03936911
0.07057164 -0.061617803 -0.07923553 -0.031672522 -0.0793721 -0.026196843 -0.019013032 -0.06905763
00000000: 5aa2 a93c 071f a7bd 0622 52bc 3391 9abd
00000010: 0a55 3dbd 5d22 7f3d 51ea a83d 59ac 95bd
00000020: 18f9 8c3d 0756 d93c a5d6 903d 24f3 853d
00000030: 7dc7 a3bb b380 323d 3e38 1a3d 28d8 6f3d
00000040: 2510 923c f965 863d 5e11 babd 6eee 483d
00000050: 1844 8fbc f040 68bd 9fb6 803d 2598 a33d
00000060: b023 fb3c 9ee8 6ebd be58 123d a280 4f3d
00000070: 3f76 3e3a c324 e0bc a377 693d 8141 213d
00000080: dd87 903d f362 7cbd 3d46 a2bd 0cbb 01bd
00000090: d78d a2bd c39a d6bc 38c1 9bbc 166e 8dbd
