scripts/model_cnn.pt (torch_old, 364849 bytes, 12 tensors)

weight f4 [10, 3, 2, 2]
0	0x3e3d5a0a	0.18491378
1	0xbddc0649	-0.10743386
2	0xbc5c33c4	-0.013440076
3	0xbe082120	-0.13293886
4	0xbd924127	-0.07141333
5	0xbc3f2f20	-0.01166895
6	0xbdac149c	-0.084023684
7	0xbe3f7d2b	-0.18700092
8	0xbd45cb32	-0.048289485
9	0xbe65fadc	-0.22458977
10	0x3d1575a5	0.036489148
11	0x3c4b7446	0.0124178585
12	0x3d6758d2	0.05648119
13	0xbccae09c	-0.024765305
14	0xbe9731ec	-0.29530275
15	0x3d081127	0.033219483
16	0xbe2674e5	-0.16255529
17	0xbe41eaec	-0.18937272
18	0x3e03628b	0.1283056
19	0x3e91b03d	0.28454772
20	0x3e1e9cc0	0.15489483
21	0x3e2503ab	0.1611468
22	0xbe9076a0	-0.28215504
23	0x3e847f81	0.25878528
24	0x3e88419d	0.2661256
25	0xbe560e55	-0.20903905
26	0xbe79e06e	-0.2440202
27	0xbd717917	-0.05895337
28	0x3e548852	0.20755127
29	0xbd1e4a81	-0.03864527
30	0xbe27c8ce	-0.16385195
31	0x3e6236b4	0.2209118
32	0xbdf6f9c4	-0.12059358
33	0xbe114a7e	-0.14188573
34	0x3e1de76b	0.1542031
35	0xbe58174d	-0.21102639
36	0xbe841169	-0.25794533
37	0xbc94fd45	-0.018187175
38	0x3e4845ec	0.19557923
39	0xbd25c195	-0.040467817
40	0xbdfbebae	-0.12300812
41	0x3e765c36	0.24058613
42	0x3daa20bb	0.08307024
43	0xbdad09f3	-0.08449163
44	0x3cf9a3fb	0.0304737
45	0xbe5110d9	-0.20416583
46	0x3e224749	0.15847506
47	0xbd827aee	-0.06371103
48	0xbe35b9c1	-0.1774664
49	0x3e863850	0.26214838
50	0xbd823545	-0.063578166
51	0xbe17b52f	-0.1481521
52	0x3d9624d8	0.07331246
53	0x3e82fd0a	0.25583678
54	0x3d02fa93	0.031977247
55	0x3e85de83	0.26146325
56	0xbde56d60	-0.11202502
57	0x3e790c3e	0.24321076
58	0x3e440c5e	0.19145343
59	0xbe0255a6	-0.12727985
60	0x3d08e1ac	0.033418342
61	0xbc9f0216	-0.019410174
62	0xbbfce20e	-0.0077173775
63	0x3e4aefe6	0.19818076
64	0x3e70205b	0.23449843
65	0xbe002a26	-0.12516078
66	0x3e027b21	0.12742282
67	0xbc871647	-0.016490115
68	0xbd7c1824	-0.06154646
69	0x3e891baa	0.26778919
70	0xbe6f1f13	-0.23351698
71	0x3b953563	0.0045534833
72	0xbdd188e2	-0.102311864
73	0xbe960b40	-0.29305458
74	0x3e2515a7	0.16121541
75	0x3e2bda7f	0.16782568
76	0x3e75a5d5	0.23989041
77	0x3e475bb8	0.19468582
78	0x3e004a93	0.12528448
79	0xbe8a2981	-0.2698479
80	0x3e6130f1	0.21991326
81	0x3debc319	0.11511821
82	0x3d758fc8	0.059951574
83	0xbe49b469	-0.19697727
84	0x3d412802	0.047157295
85	0xbe95b420	-0.29238987
86	0x3e5c48fb	0.21512215
87	0xbda97544	-0.0827432
88	0xbd293433	-0.041309547
89	0x3e35830c	0.17725772
90	0xbdae1700	-0.08500481
91	0xbe338a0e	-0.17533132
92	0x3e86b792	0.26311928
93	0x3e4055a5	0.18782671
94	0x3e6cf2eb	0.23139541
95	0x3d2bd9fe	0.04195594
96	0x3e0e2bcd	0.13883896
97	0xbe8c5d8d	-0.27415124
98	0xbda27460	-0.07932353
99	0x3e15b82b	0.14621036
100	0x3e66d8d5	0.22543652
101	0xbd94cf1c	-0.072660655
102	0x3e8735b3	0.26408157
103	0xbe6cf9ad	-0.23142119
104	0x3d0d8289	0.034548316
105	0x3bd967b4	0.006634677
106	0x3ceeff74	0.029174544
107	0xbdc5ee27	-0.096645646
108	0xbe1544a7	-0.1457697
109	0xbd8c259d	-0.06843112
110	0x3d3013eb	0.042987745
111	0xbe850d87	-0.25986883
112	0x3e5a0521	0.21291019
113	0xbd82cc65	-0.063866414
114	0xbd324135	-0.043519218
115	0xbce2ff57	-0.027709646
116	0xbe4af78e	-0.19820997
117	0xbe11d0e6	-0.14239845
118	0x3e6a60b4	0.22888452
119	0xbe484f9f	-0.19561623

bias f4 [10]
0	0xbd8a94b7	-0.06766646
1	0xbe651cc3	-0.22374253
2	0xbe77e729	-0.24209274
3	0x3dea9c9a	0.11455651
4	0x3dd236c0	0.10264349
5	0x3e2387c6	0.15969762
6	0x3e7d5896	0.24740824
7	0x3d937225	0.07199506
8	0xbcffb09f	-0.03121215
9	0x3de0183b	0.109421216

weight f4 [10, 10, 3, 3]
0	0x3d974e5d	0.073879935
1	0xbd22c1fa	-0.03973577
2	0x3c1f0352	0.0097053815
3	0x3dc7f390	0.09763253
4	0xbdcf69f7	-0.10127633
5	0xbd3db318	-0.046313375
6	0x3d946842	0.07246448
7	0xbbdeca9e	-0.006799056
8	0x3dad18fc	0.08452031
9	0xbcf597ec	-0.029979669
10	0xbdcc242b	-0.09967836
11	0x3d640447	0.05566814
12	0x3dbc48d3	0.091935776
13	0x3bb3e08f	0.005489416
14	0x3d37bf39	0.0448601
15	0x3d1a0cf3	0.037610006
16	0xbda14d5d	-0.07876084
17	0xbd9e13a2	-0.077185884
18	0xbd8750c5	-0.066072024
19	0x3d7574e9	0.059925947
20	0xbdd922c3	-0.106023334
21	0xbd85971a	-0.06522961
22	0xbd81df2f	-0.06341397
23	0xbdaebe94	-0.08532444
24	0x3d39d9f0	0.045373857
25	0xbbfd8d0d	-0.007737762
26	0xbd9759e5	-0.07390193
27	0x3d44d401	0.048053745
28	0x39e59936	0.00043792435
29	0xbde4abf1	-0.11165608
30	0xbdcadd70	-0.09905517
31	0x3d55e267	0.052217867
32	0xbd7e269f	-0.06204855
33	0xbdc33ab9	-0.09532685
34	0xbdc0b974	-0.094103724
35	0xbdbfe4af	-0.0936979
36	0x3d1edda6	0.0387856
37	0x3c32d813	0.010915774
38	0x3ccf07c8	0.025272265
39	0x3c81cb2c	0.01584395
40	0xbda1bfc2	-0.07897903
41	0x3d8ea96c	0.069659084
42	0x3d040498	0.032230943
43	0x3d9fb0db	0.077974044
44	0xbcd34be1	-0.025793018
45	0xbc764d2b	-0.015033047
46	0xbd337926	-0.043816708
47	0xbca3ce90	-0.019995958
48	0xbbb512b1	-0.00552591
49	0xbc97e451	-0.018541487
50	0x3d553993	0.05205686
51	0x3cb5fc6c	0.02221509
52	0xbdb181ca	-0.086673334
53	0xbd494e76	-0.04914709
54	0xbd00f25e	-0.03148114
55	0xbac71b0a	-0.0015190553
56	0x3d3f14a9	0.046650562
57	0xbd42eb0d	-0.047587443
58	0xbd930165	-0.07178
59	0xbdbbdc86	-0.09172921
60	0xbdbff593	-0.093730114
61	0x3d0f3611	0.03496367
62	0xbd9c6c29	-0.076378174
63	0xbdc444fc	-0.0958347
64	0xbc4a27e0	-0.0123386085
65	0x3c891974	0.01673577
66	0x3cb124f9	0.021624075
67	0xbdca0f8c	-0.098662466
68	0x3d7305cb	0.059331696
69	0xbd7e11d9	-0.06202874
70	0x3d377005	0.044784565
71	0x3d68d7c9	0.056846414
72	0xbb805784	-0.0039166827
73	0x3d36ac6d	0.04459803
74	0x3daa320e	0.083103284
75	0xbde26e75	-0.11056224
76	0xba6d023f	-0.0009041167
77	0xbd93f00e	-0.07223521
78	0x3db8115e	0.089876875
79	0xbd30a3f0	-0.043125093
80	0xbd9c9579	-0.07645697
81	0xbdcb96e0	-0.099408865
82	0x3beafb08	0.0071710385
83	0x3c698e97	0.0142551875
84	0xbdaaafe0	-0.08334327
85	0x3dba43d3	0.09094968
86	0xbd478f41	-0.048720602
87	0xbbc33de3	-0.005958305
88	0x3dac53e9	0.08414442
89	0x3bbb7602	0.0057208547
90	0x3c351bb7	0.011053971
91	0xbd58348b	-0.052784484
92	0xbd60ddcb	-0.05489902
93	0x3ddb8201	0.10718156
94	0x3db25869	0.08708269
95	0x3d35c3eb	0.044376295
96	0xbc69c24c	-0.014267515
97	0xbdb0a2b0	-0.0862478
98	0xbc61c2ed	-0.013779384
99	0x3d940bec	0.072288364
100	0xbd9b91dc	-0.0759618
101	0xbc3b5d4f	-0.011435821
102	0x3daa524d	0.08316479
103	0x3d0a7243	0.033800375
104	0x3d08999e	0.033349626
105	0x3db339eb	0.08751281
106	0x3d7012c6	0.058611654
107	0x3ddc4131	0.10754622
108	0x3d150b06	0.036387466
109	0xbc489f98	-0.012245081
110	0xbda023f4	-0.078193575
111	0xbd3a4cb8	-0.04548332
112	0xbce764ad	-0.028246248
113	0x3d497f4e	0.049193673
114	0x3d31aa22	0.043375142
115	0xbd203ac2	-0.039118536
116	0x3d4227a8	0.0474011
117	0x3dcb1dc0	0.09917784
118	0x3cc280e8	0.023743108
119	0x3db5a291	0.08868898
120	0x3de481e7	0.111575894
121	0x3ce0f56a	0.027460773
122	0xbd527a48	-0.051386148
123	0xbc8ee400	-0.017442703
124	0x3ddb1ed1	0.10699237
125	0x3cdd6c81	0.027029278
126	0x3c90fc8a	0.017698545
127	0xbccbd592	-0.024882112
128	0x3dcb4439	0.09925122
129	0x3b86b162	0.004110501
130	0x3d930d0c	0.07180223
131	0x3d29777f	0.041373726
132	0xbcb00f06	-0.021491539
133	0x3ce2f201	0.027703287
134	0xbd88e7e7	-0.06684857
135	0xbb349fb7	-0.0027561018
136	0xbb8fc77a	-0.004387793
137	0x3d8636db	0.065534316
138	0x3ce3b9cd	0.027798558
139	0xbd02d054	-0.03193696
140	0x3cddadb5	0.027060369
141	0x3dc97044	0.09835866
142	0x3ddbaaf1	0.10725964
143	0x3db14b4b	0.08656939
144	0x3dbbf435	0.09177438
145	0x3dcf1023	0.101105
146	0xbc4c023a	-0.012451703
147	0xbd2de54c	-0.042455003
148	0xbda8a802	-0.0823517
149	0x3d5c27be	0.05374884
150	0xbc9a5eae	-0.018843975
151	0xbd535259	-0.051592205
152	0x3dcaa278	0.0989427
153	0x3d707439	0.05870459
154	0x3c82d8fb	0.015972605
155	0xbd3f4266	-0.04669418
156	0x3c33f124	0.010982785
157	0x3daa9934	0.083300024
158	0x3cbc198c	0.0229614
159	0x3d502861	0.05081976
160	0x3a7b407a	0.0009584498
161	0x3d04f9ef	0.032464918
162	0x3d8ce5c9	0.068797655
163	0x3dc0e992	0.0941955
164	0x3c7c3eed	0.015395862
165	0x3ddf53c2	0.109046474
166	0x3d9c3e04	0.07629016
167	0x3c8d6058	0.017257854
168	0xbd0e42fd	-0.034731854
169	0x3d83c450	0.06433928
170	0x3dc977e9	0.09837324
171	0xbd5140a7	-0.051087048
172	0x3d852ea8	0.065030396
173	0x3d37e99c	0.04490052
174	0x3dae1848	0.08500725
175	0xbd3d31d1	-0.046190087
176	0x3da20ca8	0.0791257
177	0x3a840fe9	0.0010075542
178	0x3de3826e	0.11108862
179	0x3d4d9bf8	0.05019757
180	0x3c0930ea	0.008373478
181	0x3d850222	0.064945474
182	0x3bf77d01	0.0075527434
183	0x3d12c298	0.03583011
184	0x3da36357	0.07977932
185	0xbd27175e	-0.04079377
186	0x3de09fb7	0.10967963
187	0x3d7ec20a	0.06219677
188	0xbd8bcaf0	-0.06825817
189	0xbcce7994	-0.025204457
190	0x3dbbb009	0.091644354
191	0xbd6a6d86	-0.057233356
192	0xbc9f65a0	-0.019457638
193	0xbd02dc8e	-0.03194862
194	0xbceb54e1	-0.028726997
195	0xbd8e467f	-0.0694704
196	0x3dc9671c	0.0983412
197	0xbdc7c763	-0.09754827
198	0x3c938e0b	0.018012067
199	0x3da84c2d	0.082176544
200	0xbd76340b	-0.060108226
201	0x3ce695f4	0.028147675
202	0xbd91733b	-0.071020566
203	0x3ce76a3b	0.028248897
204	0x3d630298	0.055422395
205	0x3d9d7377	0.07688039
206	0x3d45b175	0.04826494
207	0xbd58cc83	-0.052929413
208	0xb9a8def3	-0.00032209567
209	0xbda1b071	-0.07894982
210	0x3db4d305	0.08829311
211	0x3d96618a	0.07342823
212	0xbc9a3307	-0.01882316
213	0xbdb636be	-0.0889716
214	0x3d5986d0	0.053107083
215	0x3d7e5c14	0.06209953
216	0x3c166904	0.009180311
217	0xbc543202	-0.012951376
218	0xbdafbdd5	-0.085811295
219	0xbd260be9	-0.040538702
220	0xbd501dd2	-0.05080969
221	0x3c81c9c0	0.015843272
222	0xbcbaf7c5	-0.022823224
223	0xbd177b68	-0.036982924
224	0x3d96f3c6	0.07370715
225	0x3d8785a0	0.06617284
226	0x3b62b0ce	0.0034590247
227	0x3de44af8	0.11147112
228	0xbd3d7382	-0.046252735
229	0x3db06286	0.08612542
230	0xbd136cf9	-0.035992596
231	0x3dd84be9	0.10561354
232	0x3d9d0c18	0.07668322
233	0x3bfc6bf2	0.007703298
234	0x3d254758	0.04035124
235	0xbc66bf52	-0.0140837
236	0x3d998a90	0.07497132
237	0xbdb83db4	-0.08996144
238	0xbdbfbf87	-0.09362703
239	0xbdb8dac4	-0.09026101
240	0x3d27ad8d	0.040936995
241	0x3d88a5af	0.06672227
242	0x3d460739	0.04834673
243	0x3d3cb1e0	0.046068072
244	0xbcc87ec9	-0.024474518
245	0xbd066b35	-0.032817084
246	0x3da6fdf2	0.08153905
247	0x3dc78a18	0.09743136
248	0xbd846e0b	-0.064663015
249	0x3ddc6375	0.107611574
250	0x3dd6d3dd	0.104896285
251	0x3da4292e	0.08015667
252	0xbd7919e8	-0.06081572
253	0xbdc7ee5e	-0.09762262
254	0x3d7df9eb	0.06200592
255	0x3c936b81	0.017995598

bias f4 [10]
0	0xbd9424f8	-0.07233614
1	0xbc91440d	-0.017732644
2	0x3da1d22b	0.079014145
3	0xbd0db04a	-0.03459195
4	0x3bf22f0c	0.0073908623
5	0xbc832117	-0.01600699
6	0x3d280c82	0.041027553
7	0x3d857b89	0.06517703
8	0x3dacb70d	0.08433352
9	0x3d33cdcb	0.04389743

weight f4 [10, 10, 4, 4]
0	0xbd12dd19	-0.035855386
1	0x3d7e8aae	0.062143974
2	0x3d42f3a0	0.04759562
3	0xbcf7cef4	-0.03025005
4	0xbcc4b1e7	-0.024010612
5	0x3d0576ae	0.032583885
6	0x3b258d79	0.0025261326
7	0xbcef8c1c	-0.029241614
8	0x3c8757ce	0.01652136
9	0xbd06a820	-0.03287518
10	0xbd56aaf8	-0.052409142
11	0x3989c717	0.0002627901
12	0xbd05bbfd	-0.032649983
13	0x3ce16c5c	0.02751749
14	0x3d805daa	0.06267865
15	0x3ccc6569	0.0249507
16	0x3c95acef	0.018270938
17	0x3d4f0a05	0.050546665
18	0xbb3110c1	-0.0027018043
19	0xbc35b188	-0.01108969
20	0x3d5de90b	0.054177325
21	0x3d727d27	0.059201386
22	0xbcb3da5f	-0.021954713
23	0x3d8dd2bd	0.06924961
24	0x3c48f0b3	0.012264418
25	0xbd5938f8	-0.053032845
26	0x3d8e8178	0.06958288
27	0x3d357bc5	0.04430749
28	0x3c872eb6	0.016501766
29	0x3c84b5fd	0.01620006
30	0x3b5271d5	0.0032111306
31	0xbd2077ce	-0.039176755
32	0x3d9e9967	0.07744103
33	0xbbee39e7	-0.007270086
34	0x3d9ced62	0.07662465
35	0x3d150b27	0.03638759
36	0x3da6b284	0.08139518
37	0x3d3e2074	0.04641767
38	0x3c2701ff	0.010193347
39	0xbd486c92	-0.048931666
40	0xbd11fd76	-0.03564211
41	0xbd6f6d58	-0.058453888
42	0xbd20056c	-0.03906767
43	0xbc302bc0	-0.010752618
44	0x3d827b7f	0.06371211
45	0xbbc6d215	-0.006067524
46	0xbcc52461	-0.024065198
47	0xbd0eaff7	-0.034835782
48	0xbc92055b	-0.01782482
49	0x3c9d243e	0.01918232
50	0x3d44cae4	0.048045054
51	0x3d617afe	0.055048935
52	0x3d302ea8	0.043013245
53	0xbc649ccd	-0.0139534
54	0x3d75e01e	0.060028188
55	0x3d9fdab6	0.07805388
56	0xbc9511c7	-0.018196953
57	0xbc983de6	-0.018584203
58	0x3d0abf7d	0.033874024
59	0xbd026903	-0.03183843
60	0xbd2c4687	-0.042059448
61	0xbcb07d7c	-0.02154421
62	0x3cc39998	0.02387695
63	0x3c1e1245	0.0096479105
64	0xbd8ed259	-0.069737144
65	0x3d9dbb6c	0.077017635
66	0x3d3b4cc1	0.045727495
67	0x3cef2519	0.029192494
68	0xbd79e574	-0.06100984
69	0x3d54cd88	0.051953822
70	0xbd2acafa	-0.04169748
71	0x3d825376	0.06363575
72	0x3c29161e	0.010320215
73	0xbd1f188d	-0.038841773
74	0x3d8731a5	0.06601266
75	0x3d82ade6	0.06380825
76	0x3d91d336	0.071203634
77	0xbb36d6dc	-0.0027899062
78	0x3aa8d70e	0.0012881474
79	0xbca70673	-0.020388817
80	0xbd823337	-0.06357425
81	0xbd3c57a4	-0.045982018
82	0xbd4ded4e	-0.05027514
83	0x3d7364d9	0.059422348
84	0xbd750117	-0.059815492
85	0xbd6a555a	-0.057210304
86	0xbc7345b2	-0.01484816
87	0xbd1824b0	-0.037144363
88	0xbd8b05a1	-0.06788183
89	0x3cbe0577	0.023195965
90	0xbd8455ef	-0.06461703
91	0xbd7707a9	-0.06031004
92	0x3d4fa3aa	0.05069319
93	0x3d8c401e	0.06848167
94	0xbc538df0	-0.0129122585
95	0xbd2f438b	-0.042789023
96	0xb9701ce2	-0.00022898943
97	0xbd0ce9a3	-0.0344025
98	0xbd5548ea	-0.05207149
99	0xbd34aff4	-0.044113114
100	0x3d842d03	0.06453898
101	0x3c9c716d	0.019097054
102	0x3d8dc8ff	0.069231026
103	0x3d00d429	0.03145233
104	0x3d0b3275	0.033983666
105	0xbc7b171d	-0.015325335
106	0x3d855f4c	0.06512317
107	0xbc7677c5	-0.015043204
108	0x3d891f58	0.066954315
109	0xbd20aea5	-0.039229054
110	0x3d5e169f	0.054220792
111	0xbbc5edff	-0.0060403342
112	0xbd0601b3	-0.032716464
113	0xbd1096cc	-0.03530006
114	0x3d3e86e6	0.046515368
115	0x3d610b33	0.05494232
116	0x3da874d6	0.0822541
117	0x3d4ed8cb	0.05049972
118	0x3dad8c6c	0.08474049
119	0xbd263eb0	-0.040587127
120	0xbbd8ce74	-0.006616408
121	0xbd8cae6a	-0.06869204
122	0x3d903ece	0.07043229
123	0xbd002205	-0.031282444
124	0x3d27dba8	0.040980965
125	0x3d1783f0	0.03699106
126	0x3da71807	0.0815888
127	0x3d6f0171	0.058350984
128	0x3d894107	0.06701856
129	0x3c9a0e0c	0.018805526
130	0xbc148bec	-0.009066563
131	0xbd887000	-0.06661987
132	0xbd1d1cea	-0.038357653
133	0xbd50a9a3	-0.05094303
134	0x3c30e424	0.01079658
135	0x3cc027bc	0.023456447
136	0xbb052180	-0.0020314157
137	0x3ba1d5e2	0.004938827
138	0x3cb2f376	0.021844607
139	0xbd4c533c	-0.049884066
140	0xbd607d09	-0.054806743
141	0xbd174044	-0.036926523
142	0x3d77c1e4	0.060487643
143	0x3d3e4d87	0.046460655
144	0x3dac6cae	0.084191665
145	0xbd864c96	-0.06557576
146	0x3bab4217	0.0052263844
147	0x3d2ffd5b	0.042966228
148	0x3d93c51a	0.072153285
149	0x3cfef50f	0.031122712
150	0xbd6e8be0	-0.058238864
151	0x3d717283	0.058947098
152	0x3d0e29bc	0.03470777
153	0x3d2380ae	0.03991764
154	0x3cb3e231	0.021958442
155	0x3d5b2676	0.053503476
156	0xbd858a77	-0.06520551
157	0x3d6fbb06	0.05852797
158	0xbd5aed6f	-0.05344909
159	0x3d813f6a	0.063109234
160	0x3d21e426	0.03952422
161	0xbce1be21	-0.02755648
162	0x3d5594ee	0.052143984
163	0x3d8db64a	0.069195345
164	0xbca7f9b2	-0.020504806
165	0xbda97b5a	-0.082754806
166	0xbd5052c7	-0.050860193
167	0x3bd4ee31	0.006498121
168	0x3cfd48f6	0.03091858
169	0xbd9d2a67	-0.07674103
170	0x3d56155e	0.05226647
171	0x3d7db6ff	0.061942097
172	0x3d909a81	0.07060719
173	0xbc1de7e9	-0.009637811
174	0xbd77567c	-0.060385212
175	0x3d949dce	0.07256661
176	0x3d8b440a	0.06800087
177	0x3d1e7604	0.038686767
178	0x3d6d1818	0.057884306
179	0x3d83c082	0.06433202
180	0x3d02010c	0.03173928
181	0xbd57f309	-0.05272201
182	0x3cf24438	0.029573545
183	0x3c3e22c5	0.011604969
184	0xbb95a590	-0.0045668557
185	0xbd1c59d6	-0.03817161
186	0x3d8271fe	0.063693985
187	0x3da49bef	0.080375545
188	0xbd533ad2	-0.051569767
189	0x3d2b8569	0.041875277
190	0x3d7c208f	0.061554488
191	0x3d2d26ab	0.042273205
192	0x3cae93c6	0.021310698
193	0xbc559471	-0.0130358795
194	0x3da30f96	0.07961957
195	0xbc3ac61e	-0.011399774
196	0xbd4e4b3b	-0.050364714
197	0xbd7f9dcc	-0.062406346
198	0x3d991255	0.074742
199	0xbc272446	-0.010201519
200	0x3c385166	0.011249876
201	0x3bb59ae2	0.005542145
202	0xbcc92cf1	-0.024557563
203	0xbd7d7690	-0.061880648
204	0x3c170fa0	0.009220034
205	0x3d3484da	0.04407201
206	0x3ba9289d	0.005162312
207	0xbd60f517	-0.054921236
208	0x3d455386	0.048175357
209	0x3cec6f6a	0.02886172
210	0x3d01d839	0.031700347
211	0xbd46bda5	-0.048520703
212	0x3d9ce7cb	0.076613985
213	0x3d20a28a	0.03921751
214	0x3d7121de	0.05887019
215	0xbc10ff8f	-0.008849992
216	0xbd4c57d9	-0.049888466
217	0xbd4c87d9	-0.049934242
218	0xbcaddf32	-0.021224592
219	0xbb08e367	-0.0020887495
220	0xbd45a80e	-0.048255973
221	0xbd906be9	-0.07051832
222	0x3d77b9c8	0.06047991
223	0xbc929775	-0.017894486
224	0xbcd5469a	-0.026034642
225	0x3d85bd04	0.065301925
226	0xbd64ff31	-0.055907432
227	0xbb8c91c3	-0.004289837
228	0x3d78bd9d	0.060727704
229	0x3d78a982	0.06070853
230	0xbd744118	-0.05963239
231	0xbd07a875	-0.033119638
232	0xbd6804a1	-0.05664504
233	0x3a4bb13a	0.0007770244
234	0xbc9a2fd1	-0.018821629
235	0x3d2df176	0.042466603
236	0x3c0f3211	0.008739964
237	0x3d5c05f3	0.05371661
238	0xbcca08de	-0.024662431
239	0x3d61a85b	0.055092197
240	0xbca8f4bd	-0.020624513
241	0x3d9915f3	0.074748896
242	0xbd1b9f0b	-0.037993472
243	0xbd41868b	-0.04724745
244	0x3d993e72	0.074826136
245	0xbc5e793f	-0.013578712
246	0xbd5f925a	-0.05458293
247	0x3c16f696	0.009214064
248	0x3d3c39c4	0.045953527
249	0xbd453e29	-0.048154984
250	0xbd8ab4a4	-0.06772736
251	0xbc775bfc	-0.015097614
252	0x3d730d21	0.059338693
253	0xbd12f049	-0.035873685
254	0xbd7f4370	-0.062320173
255	0xbd7dd3cb	-0.06196956

bias f4 [10]
0	0xbd826b98	-0.06368178
1	0xbd015002	-0.031570442
2	0xbd27f71a	-0.04100714
3	0x3b9cce33	0.004785323
4	0x3cead191	0.028664382
5	0xbc257883	-0.010099533
6	0xbd851fc8	-0.065002024
7	0xb89ed0e6	-7.5729375e-05
8	0xbdae436c	-0.085089535
9	0x3d3be855	0.045875866

weight f4 [10, 10, 5, 5]
0	0xbcf9fb02	-0.030515198
1	0x3c599d7b	0.013282175
2	0x3d359137	0.04432794
3	0x3d641824	0.055687085
4	0xbc747d98	-0.014922522
5	0x3b242478	0.002504615
6	0xbb79d5ec	-0.0038121892
7	0x3d28b323	0.041186463
8	0x3d5786af	0.05261868
9	0xbcbf0555	-0.023317972
10	0x3d2e8595	0.042607863
11	0xbb850388	-0.004059259
12	0xbd111872	-0.035423703
13	0xbcca27f7	-0.02467726
14	0xbc83ee85	-0.016104946
15	0xbcba6810	-0.022754699
16	0x3c3cfd80	0.0115350485
17	0xbcd6fb12	-0.026242767
18	0x3d6d9eba	0.0580127
19	0x3d64533c	0.05574344
20	0x3aa3529e	0.0012460535
21	0x3b53843d	0.0032274865
22	0xbcc6e5f7	-0.024279578
23	0xbca2f7e4	-0.019893594
24	0xbd5e399f	-0.05425417
25	0x3d7782e8	0.060427576
26	0x3d7dd5f0	0.061971605
27	0x3d0d0294	0.034426287
28	0xbc32f7d1	-0.010923342
29	0xbb0917f1	-0.0020918811
30	0x3ca73d2f	0.020414917
31	0xbd0912fd	-0.033465374
32	0xbd3eb057	-0.04655489
33	0x3bc38570	0.0059668347
34	0x3d863b85	0.06554321
35	0x3d0e441e	0.03473293
36	0xbd003e8c	-0.03130965
37	0x3d740b8b	0.05958132
38	0x3d4da554	0.050206497
39	0xbcc0f7fa	-0.023555744
40	0xbd5124ad	-0.051060367
41	0x3d3e1cfc	0.04641436
42	0xbcc62a14	-0.024189986
43	0xbcfc3be1	-0.030790271
44	0x3d4632fa	0.04838846
45	0x3d61c879	0.055122826
46	0xbcac3ac6	-0.02102412
47	0xbc202184	-0.009773616
48	0x3d141412	0.036151953
49	0x3d000ee3	0.031264197
50	0x3d289cb0	0.041165054
51	0xbd110a65	-0.035410304
52	0xbcdda25a	-0.027054954
53	0x3d20e732	0.039282985
54	0x3d679d54	0.056546524
55	0x3d8255b5	0.063640036
56	0xbcb8a4e0	-0.022539556
57	0xbd3136be	-0.043265097
58	0x3d6d11cf	0.05787831
59	0x3d3a4544	0.045476213
60	0xbc27647f	-0.010216831
61	0xbd141610	-0.036153853
62	0xbbc0bff3	-0.005882257
63	0x3cf84ffc	0.030311577
64	0x3bb48530	0.0055090412
65	0x3d6d6b20	0.05796349
66	0x39411fd2	0.00018417768
67	0xbacb543e	-0.0015512777
68	0xbd0f56d3	-0.03499491
69	0xbcfaf00f	-0.030632047
70	0xbd508c64	-0.050915137
71	0x3bbea43e	0.005817919
72	0xbc0e1355	-0.008671601
73	0x3d66325e	0.056200378
74	0xbd2e1937	-0.042504515
75	0xbd34c75e	-0.044135444
76	0xbd0c17bd	-0.034202326
77	0xbc23c843	-0.009996477
78	0x3d6451d7	0.05574211
79	0xbca1260c	-0.019671462
80	0xbc99ae93	-0.018760001
81	0xbc7ef882	-0.015562179
82	0xbd3e36e2	-0.04643906
83	0xbbeab42a	-0.0071625905
84	0x3d00b4ee	0.031422548
85	0xbb9afdad	-0.0047299475
86	0x3d66a4e8	0.05630961
87	0x3d8c3c70	0.06847465
88	0x3beb348f	0.0071778963
89	0xbd214a23	-0.039377343
90	0x3c87a737	0.016559226
91	0x3bab9dbf	0.0052373107
92	0x3d6b822e	0.057497196
93	0xbc8252f6	-0.0159087
94	0xbc03586b	-0.008016686
95	0x3ca0aeb1	0.01961455
96	0x3c82371b	0.015895417
97	0x3c886b2a	0.016652662
98	0x3d35b293	0.044359755
99	0xbd10d1dc	-0.035356387
100	0x3c070462	0.008240791
101	0xbd5f7580	-0.054555416
102	0x3c339acb	0.0109621985
103	0xbcc88909	-0.024479406
104	0xbcac3373	-0.021020627
105	0xbd2fa0bb	-0.042877894
106	0xbb2a46fd	-0.0025982254
107	0x3bb48030	0.005508445
108	0x3b027b8f	0.0019910072
109	0x3c1b137a	0.009465093
110	0x3d0e97a2	0.034812577
111	0xbba0a758	-0.0049027614
112	0xbc8b6706	-0.017016899
113	0xbd5e7119	-0.054307077
114	0xbc0f2e76	-0.0087391045
115	0x3d35c9a1	0.04438174
116	0x3bb9fce6	0.0056759
117	0x3c34e661	0.011041255
118	0xbc4ab5fe	-0.012372492
119	0x3d8e7be1	0.06957222
120	0x3cf16347	0.029466284
121	0x3d600dab	0.054700535
122	0x3d0e7a3a	0.034784533
123	0x3d30faa7	0.04320779
124	0x3d179cbf	0.03701472
125	0x3d5eacd7	0.05436405
126	0x3d0bbc4d	0.034115124
127	0x3d854849	0.06507928
128	0x3d527f26	0.05139079
129	0xbd06aada	-0.03287778
130	0xbbaad73e	-0.005213647
131	0xbc4117b7	-0.011785439
132	0xbd2a72c6	-0.041613363
133	0xbaeb571c	-0.0017955038
134	0xbd25f07e	-0.040512554
135	0x3c832db9	0.016013013
136	0x3c04a0aa	0.008094946
137	0x3d84efb0	0.06491029
138	0xbcadc62b	-0.021212658
139	0x3b8f9502	0.004381777
140	0x3d815fbc	0.06317088
141	0x3ca6b609	0.020350473
142	0x3bb97383	0.005659522
143	0x3d5e2b22	0.054240353
144	0x3c0af293	0.008480686
145	0x3cc2eb3a	0.023793805
146	0xbc081e18	-0.008307956
147	0xbcedd3ae	-0.0290316
148	0x3cd13f7e	0.02554297
149	0x3d8160b7	0.06317275
150	0xbb446555	-0.0029967625
151	0xbd64adbf	-0.05582976
152	0xbacd021a	-0.0015640885
153	0x3d35a010	0.0443421
154	0x3c0bd043	0.00853354
155	0x3bc06fc5	0.005872699
156	0xbd275b67	-0.040858652
157	0xbca4110a	-0.020027656
158	0x3d1cbe8d	0.03826766
159	0xbcf78efd	-0.03021955
160	0x3d5d906e	0.054092817
161	0x3d253449	0.040333066
162	0x3caa35e0	0.020777643
163	0xbc2eb477	-0.010663143
164	0x3d21e6b9	0.039526675
165	0xbc84f710	-0.01623109
166	0xbd87df3f	-0.06634378
167	0xbd0c02e4	-0.034182444
168	0xbcf3fd40	-0.029783845
169	0xba47af79	-0.0007617395
170	0x3c9c7ecc	0.01910343
171	0xbd654538	-0.055974215
172	0xbbf68906	-0.0075236587
173	0xbd62b3c2	-0.05534721
174	0x3c45c45a	0.01207074
175	0x3d0338a7	0.03203645
176	0xbc892a80	-0.016743898
177	0xbd3ed28b	-0.04658751
178	0x3d671aa7	0.056421902
179	0xbd5ebd4e	-0.054379754
180	0x3cc2f6b0	0.02379927
181	0xbce068f1	-0.02739379
182	0x3ccb2396	0.024797242
183	0x3d7f12ba	0.06227372
184	0x3cf21167	0.029549314
185	0xbd3cdfb6	-0.046111785
186	0xbd06e03b	-0.032928687
187	0x3d868d35	0.06569902
188	0x3d8a0640	0.06739473
189	0xbd4964ad	-0.049168278
190	0x3c3be899	0.01146903
191	0xbd522a55	-0.051309902
192	0xbc8d892d	-0.017277325
193	0xbc367844	-0.011137072
194	0x3c9f4901	0.01944399
195	0x3cc25b8b	0.023725292
196	0xbcc71a39	-0.024304496
197	0x3d63c727	0.05560985
198	0xbc169fe9	-0.009193399
199	0xbd4f1412	-0.05055625
200	0x3cdc003f	0.026855586
201	0xbcfec4fc	-0.031099789
202	0x3cc3092c	0.023808084
203	0xbd9089b3	-0.07057514
204	0x3d51e2ed	0.051241804
205	0xbc8e98f0	-0.01740691
206	0xbd040925	-0.032235283
207	0x3d4e657e	0.05038976
208	0x3d537492	0.051624842
209	0xbca539a4	-0.020169087
210	0xbc1e1be1	-0.009650202
211	0xbd835f02	-0.06414606
212	0xbcf7095f	-0.030155836
213	0x3d27d0f8	0.040970773
214	0xbc7c72f7	-0.015408269
215	0x3cee0444	0.029054768
216	0x3d020a4e	0.03174811
217	0x3bfe06ff	0.007752299
218	0xbd58ef9f	-0.052962895
219	0xbd8a7115	-0.0675985
220	0x3c8514f7	0.016245348
221	0xbcee57dd	-0.02909463
222	0xbd691dbb	-0.05691312
223	0xbd8f9ef9	-0.070127435
224	0xbcd1c1fa	-0.02560519
225	0xb85c43b7	-5.251515e-05
226	0x3a9bc91a	0.0011885494
227	0xbc9740f1	-0.018463584
228	0x3d61af9d	0.05509912
229	0xbd3d2b50	-0.046183884
230	0x3cb7359a	0.022364426
231	0xbd2469db	-0.040140014
232	0xbd2aa8a3	-0.04166473
233	0x3cd16e66	0.025565337
234	0xbc3c3a47	-0.011488504
235	0xbd3cff5d	-0.04614197
236	0xbca9f25a	-0.020745445
237	0x3d7d1f54	0.061797455
238	0xbd16db72	-0.036830373
239	0x3ccdc02d	0.02511605
240	0x3ca8912c	0.020577036
241	0xbd379d1a	-0.044827558
242	0x3bf877e9	0.007582654
243	0xbc21423f	-0.009842454
244	0x3d2be9e2	0.041971095
245	0xbca0d2a5	-0.019631693
246	0x3d16a66c	0.036779806
247	0x3d7bf874	0.06151624
248	0xbc0e07fe	-0.008668898
249	0xbcb177c9	-0.021663563
250	0x3d573002	0.05253602
251	0xbbe3c71d	-0.0069512264
252	0xbc91bad4	-0.017789282
253	0xbd19f5a2	-0.03758777
254	0x3d754876	0.059883557
255	0x3d51c9f5	0.05121799

bias f4 [10]
0	0x3ba347d9	0.00498293
1	0xbd19608e	-0.037445597
2	0x3d8836d2	0.06651081
3	0xbce8a148	-0.028397217
4	0x3bb0d2de	0.005396231
5	0xbbca51e5	-0.0061743134
6	0x3c1f8067	0.009735203
7	0xbcf9f166	-0.030510616
8	0xbba4a594	-0.0050246213
9	0x3d8c1b16	0.06841104

weight f4 [100, 810]
0	0x3c9b7d6d	0.018980706
1	0x3bf6cb77	0.007531579
2	0x3caa403d	0.020782584
3	0xbc735a66	-0.014853096
4	0x3c94ba31	0.01815519
5	0x3bd66526	0.0065428196
6	0xbd0c09f9	-0.0341892
7	0x3b938f26	0.0045031486
8	0x3be6c5ea	0.007042636
9	0xbc223c14	-0.009902019
10	0x3cbfcdf1	0.02341363
11	0x3bd8ece6	0.0066200374
12	0x3ca59e75	0.02021716
13	0xbc4d40cd	-0.012527657
14	0x3b8b9fab	0.0042609773
15	0x3cb271bd	0.02178275
16	0xbc72df49	-0.014823743
17	0xbc21020f	-0.009827151
18	0x3cab9bab	0.020948252
19	0xbcac50bb	-0.021034589
20	0x3c13b6fc	0.009015795
21	0x3c1987be	0.009370742
22	0xbd10a16a	-0.035310186
23	0x3bf79d83	0.0075566187
24	0xbd00dd1b	-0.031460863
25	0x3a71d529	0.0009225184
26	0xbb966c62	-0.004590557
27	0xbcd72b73	-0.026265835
28	0x3be21548	0.0068995096
29	0xbcb9c435	-0.022676567
30	0x3c78dcba	0.015189344
31	0xbc2cb7b5	-0.010541846
32	0x3c597595	0.013272663
33	0x3c2f9e93	0.010718959
34	0x3ad12c11	0.0015958567
35	0x3c9a032c	0.01880034
36	0x3c6688e5	0.014070724
37	0xbce057c6	-0.027385604
38	0xbcf99dbd	-0.030470723
39	0xbd082313	-0.033236574
40	0x3be452d5	0.006967882
41	0xbd036cb0	-0.032086074
42	0xbca96838	-0.020679578
43	0xbcd35734	-0.025798418
44	0xbd1a2771	-0.03763527
45	0x3cb761d7	0.02238552
46	0xbc400fbf	-0.011722504
47	0xbcfab768	-0.030605033
48	0xbce0389f	-0.027370749
49	0x3c291e79	0.010322207
50	0xbd06f8ee	-0.03295224
51	0x3cdf1f51	0.027236613
52	0xbd1773b2	-0.03697557
53	0x3bfa7954	0.007643858
54	0x3bf8c53e	0.0075918725
55	0xbcb5499d	-0.022129828
56	0x3c97ed79	0.018545853
57	0xbb5c539b	-0.0033619169
58	0x3cab1404	0.020883568
59	0x3ce42ba5	0.027852843
60	0x3c557e16	0.0130305495
61	0x3c8174ff	0.015802858
62	0xbd0f21b6	-0.03494426
63	0x3a1699ca	0.0005744962
64	0x3c226d29	0.009913721
65	0xba9fbc27	-0.0012186811
66	0xbceb2702	-0.028705124
67	0xbbf74f87	-0.007547322
68	0xbd18f935	-0.037347037
69	0xbc503817	-0.012708685
70	0x3c228add	0.009920803
71	0xbcde5539	-0.027140247
72	0x3cd0706f	0.025444238
73	0x3c2a2bd2	0.010386424
74	0xbced3877	-0.028957589
75	0xbbf5e81b	-0.007504476
76	0x3c0cf30b	0.008602868
77	0xbcaf893e	-0.021427747
78	0xbc399b19	-0.011328482
79	0xbbb9bb42	-0.005668075
80	0x3bde69c2	0.0067875097
81	0x3a2dd424	0.00066310377
82	0xbc5ded7a	-0.013545388
83	0xbc31eb65	-0.010859345
84	0x3bfe8b4e	0.0077680713
85	0x3caa7e2b	0.020812115
86	0xb9a7c969	-0.00032002784
87	0xbc9280b7	-0.017883642
88	0xbd03f5c3	-0.0322168
89	0x3c7af3ba	0.015316898
90	0x3c569694	0.013097424
91	0xbcf5d455	-0.030008474
92	0xbd036916	-0.03208264
93	0xbc78acb8	-0.015177898
94	0x3b9b9a28	0.0047486015
95	0xbc8ba83a	-0.01704799
96	0x3ce8cf61	0.028419198
97	0x3c264876	0.010149112
98	0x391907d4	0.00014594133
99	0xbb518723	-0.0031971417
100	0xbd0d7b1c	-0.034541234
101	0x3bf0e586	0.00735158
102	0x3c963f86	0.018340837
103	0xbc06eac1	-0.008234681
104	0x3c709e62	0.014686199
105	0xbcda99f8	-0.026684746
106	0x3ccd221f	0.025040684
107	0xbceebb14	-0.02914194
108	0xbc130fa8	-0.008975901
109	0x3cea538e	0.028604295
110	0xbc2d6b3b	-0.010584648
111	0x3cc7a5d3	0.024371063
112	0x3bbc9ec2	0.00575623
113	0x3c8ace89	0.016944187
114	0xbc923650	-0.017848164
115	0x3c05984b	0.008153985
116	0xbd22d9c8	-0.039758474
117	0x3c75b5be	0.014996944
118	0xbc4a3c5c	-0.012343492
119	0x3b96940a	0.0045952844
120	0x3c4472b0	0.011990234
121	0x3c7a1c48	0.015265532
122	0xbc37f81d	-0.011228588
123	0x3c82ec5c	0.015981846
124	0xbbffd538	-0.0078074
125	0x3bfb8f24	0.007676976
126	0x3ce67a97	0.028134627
127	0xbd06c8a7	-0.0329062
128	0x3bfa6dbf	0.0076424773
129	0x3c83febe	0.016112681
130	0xbcdfaba9	-0.027303534
131	0x3bd2e487	0.006435934
132	0x3cccb705	0.024989614
133	0xbc38c0e2	-0.011276456
134	0xbcf769c3	-0.030201798
135	0x3cdec69e	0.027194317
136	0xbca2aee8	-0.019858792
137	0x3aa6e244	0.0012732227
138	0xbd040f8e	-0.032241397
139	0xbbbd9f99	-0.005786848
140	0xbc4b5c73	-0.012412178
141	0xbd121cce	-0.035672
142	0xbc132db2	-0.008983063
143	0x3c8c64f1	0.017137976
144	0x3c89b249	0.016808646
145	0x3ce48f9a	0.027900506
146	0x3cd6e08b	0.026230117
147	0xbc6edb04	-0.014578585
148	0xbbf1b757	-0.007376592
149	0x3ce24247	0.027619494
150	0xbc8aafbf	-0.016929505
151	0x3c47cd30	0.012194917
152	0x3b0bdf9e	0.0021343003
153	0xbd0e7c0e	-0.034786277
154	0xbca91478	-0.020639643
155	0x3cea4917	0.028599305
156	0x3ca771ab	0.020439943
157	0xbc5d7e1d	-0.013518837
158	0x3c23371e	0.009961871
159	0xbbe3e75e	-0.0069550714
160	0xbd04c3f6	-0.032413445
161	0x3b1f27eb	0.0024285268
162	0x3c2c8006	0.01052857
163	0x3c852b81	0.016256096
164	0xbca1d62f	-0.019755451
165	0xbcb22e69	-0.021750646
166	0xbc41cf34	-0.011829186
167	0xbc986166	-0.01860113
168	0xbc839bad	-0.016065443
169	0x3cf945a4	0.030428715
170	0xbd1c6ec3	-0.038191568
171	0xbcbe61d9	-0.023240017
172	0xbb269823	-0.002542027
173	0xbcb5f758	-0.02221267
174	0xba30919b	-0.0006735564
175	0x3a13ab76	0.00056331547
176	0x3c9206ce	0.01782551
177	0x3ca62074	0.020279147
178	0x3c969bf2	0.018384907
179	0xbbe5daa0	-0.0070145875
180	0xbc840437	-0.016115291
181	0xbc86dfe9	-0.01646419
182	0x3cbac9cc	0.022801302
183	0x3b7aa52b	0.003824542
184	0xbb520d82	-0.0032051508
185	0x3c862a40	0.016377568
186	0xbb7e1488	-0.0038769562
187	0xbd1edc42	-0.038784273
188	0xbb87040c	-0.0041203555
189	0xbc9305c2	-0.017947081
190	0xbc11089e	-0.008852152
191	0xbc4d4149	-0.012527772
192	0xbd0fa3e5	-0.03506841
193	0x3cd55cf5	0.026045302
194	0x3cce8217	0.025208516
195	0x3c0a5d50	0.008445099
196	0x3ba9afb0	0.0051784143
197	0x3c93a5e4	0.018023439
198	0xbc6534f6	-0.013989678
199	0x3c9dc13d	0.019257182
200	0xbd0a3359	-0.033740375
201	0x3cae3213	0.021264112
202	0x3ce85be7	0.028364135
203	0xbcdd856b	-0.027041158
204	0xbb02f99a	-0.00199852
205	0xbc7d2d46	-0.015452689
206	0x3ceb9d4b	0.028761527
207	0xbcaf94f3	-0.02143333
208	0xbc920bbd	-0.017827863
209	0xbcacecdf	-0.021109043
210	0xbd196e4a	-0.037458695
211	0xbd163802	-0.036674507
212	0xbbc35ab3	-0.00596174
213	0x3c41fbe8	0.011839844
214	0xbc379787	-0.0112055605
215	0x3ccad0ef	0.02475783
216	0xbb68226b	-0.0035420905
217	0xbd22333b	-0.03959964
218	0xbca3d4e3	-0.019998973
219	0xbca3687b	-0.019947281
220	0xbd113b10	-0.035456717
221	0x3c8d952f	0.01728305
222	0x3c490aab	0.01227061
223	0xbcc4804c	-0.023986958
224	0x3c42d48c	0.011891495
225	0xbcd8a63a	-0.02644645
226	0xbb8a1006	-0.004213336
227	0xbb0194da	-0.001977256
228	0x3c7561d3	0.014976936
229	0xbc034afa	-0.008013481
230	0xbb800243	-0.0039065196
231	0x3c9e6e42	0.019339684
232	0xbd063785	-0.03276779
233	0xbbb7d25d	-0.005609794
234	0x3ced4f23	0.0289684
235	0xbcfbf108	-0.030754581
236	0xbc89ec28	-0.01683624
237	0xbaa0398c	-0.0012224182
238	0xbcc03836	-0.023464303
239	0x3cb3863d	0.021914596
240	0x3c974b6d	0.018468583
241	0x3c1547ab	0.009111325
242	0x3cdf9ec6	0.027297389
243	0xbce42846	-0.027851235
244	0xbc807f3f	-0.015685676
245	0x3ca7f7c4	0.020503886
246	0xbc4acf8d	-0.0123785855
247	0x3ccf0a06	0.025273334
248	0x3c0af283	0.008480671
249	0xbcca27ce	-0.024677183
250	0xbc615ed4	-0.013755519
251	0xbb313bc1	-0.0027043673
252	0xbbbc3c71	-0.00574451
253	0x3cdd0b97	0.026983066
254	0xbcda7e21	-0.026671471
255	0xbd0f56a5	-0.03499474

bias f4 [100]
0	0xbc8b3f9e	-0.016998108
1	0xbc4a8c41	-0.012362541
2	0x3cff3f89	0.031158226
3	0xbd0b3f60	-0.033995986
4	0xbd031968	-0.03200665
5	0x3b525978	0.0032096785
6	0xbc819331	-0.015817257
7	0xbc895c32	-0.016767595
8	0x3c456ffe	0.012050627
9	0xbb88d7fe	-0.004176139
10	0xbb7ff4a6	-0.0039055734
11	0x3c9f67ea	0.01945873
12	0x3c60474b	0.013688873
13	0x3cad9189	0.02118756
14	0xba99d604	-0.0011736755
15	0x3c13d0a4	0.009021912
16	0x3c6355c4	0.013875429
17	0x3bec11f0	0.0072042868
18	0x3cb9ac66	0.022665214
19	0xbd011624	-0.031515256
20	0xbcfabe04	-0.030608185
21	0xbcaa7b86	-0.020810854
22	0x3b7003cd	0.003662336
23	0x3bb6f0e2	0.0055829147
24	0xbc3d05f4	-0.011537064
25	0x3ce0262c	0.027361952
26	0xbb72c81e	-0.0037045549
27	0x3d007148	0.031358033
28	0xbc2d27f1	-0.010568605
29	0xbc1794aa	-0.009251753
30	0x3cc064f6	0.023485642
31	0x3bb30450	0.0054631606
32	0xbc191b74	-0.009344924
33	0x3c9c4a49	0.01907839
34	0x3d116385	0.0354953
35	0x3d04bf47	0.03240898
36	0xbbf929d3	-0.007603863
37	0xbcf30e06	-0.029669773
38	0x3d170b53	0.036876034
39	0xbcb4db2f	-0.022077171
40	0xbcbf3796	-0.023341935
41	0xbca0595e	-0.019573864
42	0xbc60dc27	-0.013724363
43	0x3c787796	0.01516523
44	0x3bf2a950	0.0074054375
45	0x3c6561f0	0.014000401
46	0xbc6bec0f	-0.0143995425
47	0xbbf653d4	-0.0075173173
48	0x3d1b2356	0.037875496
49	0x3a7fa9d7	0.0009752786
50	0xbcde9c4c	-0.027174138
51	0x3c329898	0.010900639
52	0xbd11f2d1	-0.03563196
53	0x3d08457d	0.033269394
54	0x3b11b786	0.0022234633
55	0x3d1d987e	0.038475506
56	0xbcc63067	-0.024193002
57	0xbcc34fb9	-0.023841726
58	0xbc90cf47	-0.017676963
59	0x3cbc5bae	0.022992935
60	0xbbb89874	-0.005633408
61	0xbd18ebb9	-0.037334178
62	0x3d203039	0.03910849
63	0xbcccbb65	-0.0249917
64	0x3c956f96	0.018241685
65	0xbca002b8	-0.019532546
66	0x3bac66eb	0.005261292
67	0x3c87c6a4	0.016574211
68	0x3cc1d5d1	0.023661526
69	0xbad7a848	-0.001645335
70	0xbd011f55	-0.03152402
71	0x3cafbd26	0.021452498
72	0x3c814649	0.015780585
73	0xbced9e65	-0.029006192
74	0xbd0509a3	-0.032479893
75	0x3cd71155	0.026253382
76	0x3bef06bf	0.0072945054
77	0xbcbb0fab	-0.02283462
78	0x3b7bcbb0	0.0038420968
79	0x3a809d5d	0.0009812523
80	0xbd19d0f4	-0.03755279
81	0xbc1833cc	-0.009289693
82	0x3781463d	1.5410706e-05
83	0xbccb0cb2	-0.024786327
84	0xbc48891f	-0.0122397235
85	0xbbfc3ba5	-0.00769754
86	0x3c73fe4a	0.01489217
87	0xbcfd07d8	-0.03088753
88	0xbbb607f7	-0.0055551487
89	0x3b3e5fcb	0.0029048796
90	0x3baf04ba	0.0053411396
91	0xbcdd674c	-0.027026795
92	0x3ca65214	0.02030281
93	0xbc815638	-0.015788183
94	0xbc82aa1f	-0.01595026
95	0x3d17a9d3	0.03702719
96	0x3c1a0595	0.009400745
97	0x3c251f65	0.010078286
98	0x3cd383bf	0.025819657
99	0xbca50b5e	-0.020147022

weight f4 [40, 100]
0	0xbdb76f9d	-0.089568354
1	0xbd7d76e5	-0.061880965
2	0xbd93f1bf	-0.07223844
3	0xbd2f68b1	-0.04282445
4	0x3d874106	0.06604199
5	0x3b541699	0.0032362102
6	0x3d9647ca	0.073379114
7	0xbd6e0e90	-0.058119357
8	0xbb313062	-0.0027036895
9	0x3d158285	0.036501426
10	0x3dbd7d7d	0.092524506
11	0xbcd94805	-0.0265236
12	0x3da68e9f	0.081326716
13	0x3d750092	0.059814997
14	0xbcaf0e1e	-0.021369036
15	0xbdb946dd	-0.09046719
16	0xbd7714c0	-0.060322523
17	0x3d8e8e76	0.06960766
18	0x3d70b1d3	0.058763336
19	0xbd8997f6	-0.067184374
20	0x3d8f8dd0	0.070094705
21	0x3d4d6d1e	0.05015289
22	0x3ce963d4	0.028489985
23	0x3be2bf6a	0.006919791
24	0xbc31b9e0	-0.010847539
25	0x3c83f6ce	0.016108897
26	0x3dc22eb0	0.09481561
27	0x3dc326b9	0.0952887
28	0x3d326e97	0.043562498
29	0xbced86b1	-0.02899489
30	0xbdd4f5f4	-0.10398474
31	0xbd9f2ce2	-0.077722326
32	0xbc883987	-0.016628994
33	0x3d753365	0.059863467
34	0x3c57e31f	0.0131767085
35	0xbd580eae	-0.052748375
36	0xbddac63b	-0.10682341
37	0xbd8fd1cf	-0.0702244
38	0x3da6182a	0.08110078
39	0xbd8f486d	-0.06996236
40	0x3da8f9e4	0.08250788
41	0xbda86748	-0.08222824
42	0x3b36be3f	0.0027884392
43	0xb9949a25	-0.00028343606
44	0xbca06150	-0.019577652
45	0x3d30a23c	0.04312347
46	0xbbdc62a8	-0.006725628
47	0x3cb68151	0.02227846
48	0xbdb5a0e5	-0.08868579
49	0x3d4efa3a	0.050531603
50	0x3d13526e	0.035967283
51	0xbdb926c3	-0.09040596
52	0xb911fab7	-0.00013921676
53	0x3cf44753	0.029819166
54	0x3d181d30	0.03713721
55	0x3cafa91a	0.021442939
56	0x3d92ecc0	0.07174063
57	0x3db162cc	0.08661422
58	0xbd1f0cd6	-0.0388306
59	0xbd89a49e	-0.06720851
60	0xbdb027c1	-0.086013325
61	0x3da15b5e	0.07878755
62	0x3d6cf4cd	0.057850648
63	0xbd99817e	-0.07495402
64	0x3d84ee3d	0.06490753
65	0xbc9e165b	-0.01929777
66	0x3c4a09f2	0.012331473
67	0x3cd4a1b0	0.025956005
68	0xbd4b6ac5	-0.04966237
69	0x3bd4dd06	0.0064960746
70	0xbd7baeee	-0.061446123
71	0xbd04f8f3	-0.03246398
72	0x3d14ed8a	0.036359347
73	0x3d6b0f3c	0.057387576
74	0xbd550145	-0.052003164
75	0xbdc55e03	-0.09637072
76	0xbd13b2f0	-0.03605932
77	0xbc1c3ca1	-0.009535939
78	0x3c525a31	0.012838886
79	0x3db7bd80	0.08971691
80	0x3ac3941f	0.0014921463
81	0x3dab76a0	0.08372235
82	0xbd67631f	-0.056491014
83	0x3d202e72	0.039106794
84	0xbc6a9784	-0.014318351
85	0xbd0c4ed0	-0.03425485
86	0xbdc4ff0d	-0.096189596
87	0xbdc1a3f1	-0.094550975
88	0x3c68da32	0.014212178
89	0x3d1598fc	0.03652285
90	0xbbf97d73	-0.0076138317
91	0xbd2aaebc	-0.041670546
92	0x3dbd61d0	0.09247172
93	0x3d344b10	0.044016898
94	0x3ac6d82f	0.0015170629
95	0xbd16a6a2	-0.036780007
96	0x3d6b955f	0.0575155
97	0xbc8db36d	-0.017297471
98	0xbc98446f	-0.01858732
99	0xbdaf9718	-0.08573741
100	0xbc667888	-0.014066823
101	0x3d82867e	0.063733086
102	0x3cf0ae13	0.02937988
103	0x3d004e90	0.031324923
104	0x3ca9411b	0.020660928
105	0x3d5d1699	0.05397663
106	0x3dca84fe	0.098886475
107	0x3d51984e	0.05117064
108	0x3d0b756c	0.03404753
109	0xbca388ee	-0.019962754
110	0xbc0feea7	-0.0087849265
111	0x3db98244	0.09058049
112	0xbd1d374f	-0.038382825
113	0xbd6d4dea	-0.057935633
114	0x3d96f389	0.073706694
115	0xbd24303d	-0.040085066
116	0xbd84c733	-0.06483307
117	0x3d9432bb	0.072362386
118	0x3d56be25	0.05242743
119	0x3cde3c19	0.027128266
120	0x3cf3addc	0.029745989
121	0xbd06d5a5	-0.03291859
122	0xbcf22522	-0.029558722
123	0x3d4a612f	0.049409088
124	0xbd92e666	-0.07172851
125	0x3d455dec	0.048185274
126	0x3ce9ed81	0.028555634
127	0xbdb127c1	-0.086501606
128	0x3cb794c8	0.022409812
129	0x3d6b0bae	0.057384185
130	0xbda7864e	-0.081799135
131	0xbd81f8e6	-0.06346302
132	0xbc49cb16	-0.012316486
133	0xbdc57c46	-0.09642844
134	0x3d4144fb	0.047184926
135	0xbd08d012	-0.033401556
136	0x3d24f979	0.04027698
137	0x3cbaced6	0.022803705
138	0xbc11b102	-0.0088923
139	0x3c968d14	0.018377818
140	0xbc8727cd	-0.01649847
141	0xbd7caafb	-0.061686497
142	0xbd927008	-0.071502745
143	0x3cb043d1	0.021516712
144	0xbcef26df	-0.02919334
145	0x3dbd63ae	0.09247528
146	0x3dc3c706	0.09559445
147	0x3da79e53	0.08184495
148	0xbc8e709e	-0.017387684
149	0x3d60249e	0.05472242
150	0xbb00d740	-0.001965955
151	0xbc838535	-0.016054729
152	0xbaa1e158	-0.0012350483
153	0x3d0435a2	0.03227771
154	0x3d33ab87	0.043864753
155	0xbdb879ff	-0.09007644
156	0xbd3029bb	-0.043008547
157	0xbd075845	-0.033043165
158	0x3db29c58	0.087212265
159	0xbd1a1629	-0.03761879
160	0xbd627e12	-0.05529601
161	0x3d031dd5	0.032010872
162	0xbd9fca45	-0.07802252
163	0xbd4b4689	-0.049627814
164	0xbd7d4a45	-0.061838407
165	0x3ca87c7b	0.02056717
166	0x3dac3f04	0.08410457
167	0xbc99f67b	-0.018794289
168	0x3dc152a9	0.09439594
169	0x3ca931fd	0.02065372
170	0xbd9db93f	-0.077013485
171	0xbd91ff1f	-0.071287386
172	0x3d5bb73d	0.053641547
173	0xbc430563	-0.01190314
174	0xbcdf1731	-0.027232738
175	0xbd13129e	-0.035906427
176	0xbdc1ff71	-0.0947255
177	0x3d8fa44a	0.070137575
178	0x3d696922	0.056985028
179	0x3d17c3ce	0.03705197
180	0xbce9c0e7	-0.028534366
181	0xbd4fb99c	-0.05071412
182	0xbc536b5b	-0.0129040135
183	0x3dbf1f0b	0.09332093
184	0x3d84e473	0.06488886
185	0xbcf1b2ab	-0.02950414
186	0x3d4c0f98	0.04981956
187	0xbd3bbcdb	-0.045834403
188	0xbd49139e	-0.049090974
189	0x3d64969e	0.055807702
190	0xbd67ecd6	-0.05662235
191	0xbca0adac	-0.019614063
192	0x3d88864b	0.06666239
193	0xbd7d205a	-0.06179843
194	0xbc16819d	-0.009186176
195	0xbd81ec94	-0.06343952
196	0xbd892623	-0.06696727
197	0xbdcb8743	-0.099379085
198	0x3d84a1b2	0.064761534
199	0x3d98138d	0.07425604
200	0xbcbb2aad	-0.022847498
201	0x3dc7ccc0	0.0975585
202	0x3c2dcfed	0.010608655
203	0x3da9efc1	0.082976826
204	0xbd900c8f	-0.07033645
205	0x3d32597a	0.043542363
206	0xbd027084	-0.031845585
207	0x3bf91b6a	0.007602145
208	0x3d1c0221	0.038087968
209	0xbdacc6c2	-0.084363475
210	0xbd4a56ab	-0.04939906
211	0x3c9fcf53	0.01950804
212	0x3d3db12b	0.04631154
213	0xbd73b9d6	-0.0595034
214	0x3d04347f	0.032276627
215	0xbd4df082	-0.050278194
216	0xbc9115b3	-0.017710542
217	0x3d1de94f	0.03855258
218	0xbdd5aa45	-0.10432867
219	0x3b76ce06	0.003765942
220	0xbdb483ef	-0.08814227
221	0xbce4eb6c	-0.02794429
222	0xbccd0ccb	-0.025030514
223	0x3d3b8e78	0.045790166
224	0xbd3b0249	-0.045656476
225	0xbd3b866e	-0.0457825
226	0x3d0a049e	0.03369581
227	0x3d5b8d68	0.053601652
228	0x3d9ce1fb	0.0766029
229	0xbc9938f9	-0.018703924
230	0xbd08701d	-0.033310045
231	0xbb28f834	-0.0025782706
232	0xbda11e52	-0.07867111
233	0xb93c1a40	-0.00017938856
234	0xbab04a9d	-0.0013449971
235	0x3d46e7e8	0.048561007
236	0xbdc86f1b	-0.09786817
237	0xbd569385	-0.05238678
238	0x3dbe9028	0.093048394
239	0x3d9f45ed	0.07777009
240	0xbdbbf6d7	-0.0917794
241	0x3a023a58	0.00049678003
242	0xbdbc1a09	-0.09184653
243	0xbba78cad	-0.0051132054
244	0xbd5c26ba	-0.05374787
245	0xbd06aec1	-0.032881502
246	0x3d026afc	0.03184031
247	0xbd1a4848	-0.03766659
248	0x3cbf86bf	0.023379682
249	0xbd960168	-0.07324487
250	0xbc6528fa	-0.01398682
251	0x3d886756	0.06660335
252	0xbdc53c40	-0.096306324
253	0xbca09295	-0.019601146
254	0xbcca55f9	-0.024699198
255	0xbc4f0914	-0.012636442

bias f4 [40]
0	0xbc26b60e	-0.010175241
1	0x3a1db2cc	0.00060157175
2	0x3c93e3a9	0.018052893
3	0xbb66f9f7	-0.0035244206
4	0xbd48b019	-0.048996065
5	0xbd9f362c	-0.07774004
6	0x3c23dde5	0.010001634
7	0x3dbc7a9f	0.092030756
8	0xbc942062	-0.018081848
9	0xbdc1637b	-0.094428025
10	0x3d8ee520	0.06977296
11	0xbd881e85	-0.06646446
12	0xbdb258a1	-0.08708311
13	0xbd32cc21	-0.043651704
14	0x3d6d3752	0.057914086
15	0xbd77784f	-0.06041747
16	0x3da3b551	0.07993568
17	0xbc522df0	-0.012828335
18	0xbd95785b	-0.072983466
19	0xbc8b7723	-0.017024582
20	0x3ca314ba	0.019907344
21	0xbccb0697	-0.024783416
22	0x3d863484	0.06552985
23	0x3c8c2b8b	0.017110607
24	0x3dce64ee	0.100778446
25	0x3dabbf7c	0.08386132
26	0xbda5f90f	-0.08104145
27	0xbd1ccc64	-0.03828086
28	0xbd775d6c	-0.06039183
29	0xbdb2b432	-0.08725776
30	0x3d881dff	0.06646346
31	0xbd213f66	-0.039367102
32	0xbd8f146b	-0.06986316
33	0x3d439ec7	0.047758844
34	0x3d3ec2da	0.046572544
35	0xbd96666d	-0.07343755
36	0xbd58f987	-0.052972343
37	0xbdaff5bd	-0.08591793
38	0xbdac09ec	-0.0840033
39	0xbd8754ba	-0.06607957
