scripts/model_baseline.pt (torch_old, 412135 bytes, 12 tensors)

weight f4 [10, 3, 2, 2]
0	0xbe59e041	-0.21276952
1	0xbd93ec21	-0.072227724
2	0xbe27591b	-0.16342585
3	0x3e6d8cfc	0.23198313
4	0xbdf9f4de	-0.12204908
5	0xbe47f842	-0.19528297
6	0xbe8bc856	-0.27301282
7	0xbe210f14	-0.15728408
8	0x3e6ba79e	0.2301316
9	0xbe7c6a8c	-0.2465002
10	0x3dec41fa	0.115360215
11	0x3e49b596	0.19698176
12	0x3e736ee1	0.23772766
13	0x3e29c53d	0.16579147
14	0xbda44887	-0.08021646
15	0x3e0bbd8a	0.13646522
16	0xbe55ed10	-0.20891213
17	0x3e3dd145	0.18536861
18	0xbddc1d8b	-0.107478224
19	0xbd9c27d9	-0.07624788
20	0x3e352168	0.17688525
21	0x3e3d4627	0.18483792
22	0x3e20eb47	0.15714751
23	0xbe76359c	-0.24043888
24	0x3e778536	0.2417191
25	0x3deef5a5	0.11667947
26	0xbe1b4d2b	-0.15166156
27	0xbe87acf5	-0.26499143
28	0xbe0eb672	-0.13936785
29	0x3e92e9c6	0.2869398
30	0x3d6d4c60	0.057934165
31	0xbe661070	-0.22467208
32	0xbe498d9f	-0.1968293
33	0x3c1b7c67	0.009490109
34	0x3e193f9a	0.14965668
35	0x3d36e8e1	0.044655684
36	0x3e9a9e2c	0.301988
37	0x3e51df20	0.20495272
38	0xbe0ee188	-0.13953221
39	0xbe03a17e	-0.12854573
40	0x3e6e974c	0.23299903
41	0x3e8f7717	0.28020546
42	0x3dcdb27e	0.1004381
43	0x3e167a32	0.14695051
44	0xbe8ce648	-0.2751944
45	0x3e0832cb	0.13300626
46	0x3dfe1582	0.12406446
47	0x3e2e730d	0.17036076
48	0xbe8a69cf	-0.2703385
49	0xbe560ae9	-0.209026
50	0x3cd39cf4	0.025831677
51	0x3dd395e4	0.10331324
52	0x3dae2af0	0.085042834
53	0xbd7d686f	-0.061867174
54	0x3e4d4717	0.2004665
55	0x3e680d7e	0.22661397
56	0xbe4aea5d	-0.19815965
57	0xbdf6aac5	-0.120442905
58	0xbddfa19d	-0.10919497
59	0xbe985470	-0.2975192
60	0x3dc76ccc	0.09737548
61	0x3dc25712	0.094892636
62	0x3e862ec1	0.26207545
63	0xbd14fd1a	-0.03637419
64	0xbe3f5a2b	-0.1868674
65	0xbc8c4417	-0.017122312
66	0x3e831b6f	0.25606868
67	0x3e7a6e03	0.24456029
68	0xbe8499e3	-0.25898656
69	0xbe926cbb	-0.2859858
70	0xbccdbc68	-0.025114253
71	0xbe6f2abb	-0.23356144
72	0xbe66176d	-0.22469874
73	0xbd888079	-0.06665129
74	0xbe84d9eb	-0.25947508
75	0xbd7ecf39	-0.06220934
76	0xbe1e9a16	-0.15488467
77	0x3e71eb39	0.23624887
78	0xbe01b033	-0.12664871
79	0x3e55129c	0.2080788
80	0x3e4ce2b8	0.20008361
81	0xbc4d369d	-0.012525228
82	0x3e013cb1	0.12620808
83	0x3e78f2dc	0.24311393
84	0x3e82039e	0.25393385
85	0x3de75974	0.11296359
86	0xbe8b238f	-0.27175567
87	0xbd1adae1	-0.037806395
88	0x3e1ccec7	0.15313254
89	0x3e518dfd	0.2046432
90	0xbdc4829e	-0.09595226
91	0xbe6eb852	-0.233125
92	0x3e526905	0.20547874
93	0xbe5ca14c	-0.21545905
94	0xbd9b5da0	-0.07586217
95	0x3e8db5d6	0.27677792
96	0x3d607b0f	0.054804858
97	0xbe9abefb	-0.30223832
98	0x3d92072c	0.07130274
99	0x3e16e39b	0.14735262
100	0xbe041766	-0.12899551
101	0xbd385d98	-0.045011133
102	0x3c1a63e8	0.009423234
103	0xbdedf8f7	-0.11619752
104	0xbe4260e2	-0.1898227
105	0x3e97a776	0.2961995
106	0xbe55f14e	-0.20892832
107	0x3dc9c4ff	0.09852027
108	0xbe8a7733	-0.27044067
109	0x3e58b227	0.2116171
110	0x3dd00b88	0.101584494
111	0x3e03dcf4	0.12877256
112	0xbbb23be1	-0.005439267
113	0xbe8a8ed4	-0.27062094
114	0xbe1f9cee	-0.15587208
115	0x3ced32bd	0.028954858
116	0x3db38aaf	0.08766686
117	0xbe16002b	-0.14648502
118	0x3d173fcc	0.036926076
119	0xbb83bf0c	-0.0040205773

bias f4 [10]
0	0x3e859459	0.26089743
1	0xbe6f0537	-0.23341833
2	0x3cc90959	0.02454059
3	0x3c462354	0.012093384
4	0x3e8bf4d2	0.2733522
5	0x3ddec99b	0.10878297
6	0x3e07d5b8	0.13265121
7	0x3d459c78	0.048244923
8	0x3e6435f2	0.22286204
9	0x3dd7aaae	0.105306014

weight f4 [10, 10, 3, 3]
0	0x3cb62273	0.022233224
1	0x3d24c0bf	0.04022288
2	0x3dea5d4b	0.114435755
3	0x3d35f5eb	0.04442398
4	0x3defe07f	0.11712741
5	0xbd4e2867	-0.0503315
6	0x3d0ee157	0.03488287
7	0xbdb584e1	-0.08863235
8	0xbd679c03	-0.05654527
9	0xbdb61cc2	-0.08892204
10	0x3bc3105f	0.0059528793
11	0x3d58aff9	0.052902196
12	0xbc6f587a	-0.014608497
13	0xbd9a461f	-0.07532906
14	0xbdb92e44	-0.090420276
15	0x3d57f542	0.05272413
16	0xbc1842d0	-0.009293273
17	0xbd1c24be	-0.038120978
18	0x3d67af29	0.05656353
19	0xbc8a6bcf	-0.01689711
20	0x3c8e396b	0.017361363
21	0x3c4c8368	0.012482502
22	0x3d83f61e	0.064434275
23	0xbd4f362b	-0.050588768
24	0x3d81710e	0.063203916
25	0x3d0855d3	0.033284973
26	0xbd59009b	-0.052979093
27	0xbd2e818c	-0.042604014
28	0xbc17f6af	-0.009275123
29	0x3dd80f31	0.105497725
30	0xbd4bfd83	-0.049802314
31	0x3dcc57e7	0.099777035
32	0x3dea17f6	0.114303514
33	0x3d5d4a90	0.054026186
34	0xbd9572ce	-0.07297288
35	0x3deda279	0.11603255
36	0x3d6494d4	0.055805996
37	0x3dcb6b4d	0.099325754
38	0x3dc0a66f	0.09406745
39	0xbdb20d8f	-0.08693992
40	0x3b97958e	0.0046259826
41	0x3cf2bde7	0.029631568
42	0xbd234ef1	-0.039870206
43	0xbd83caac	-0.06435141
44	0xbce2a52c	-0.02766665
45	0xbd6a8279	-0.057253335
46	0x3d7c359f	0.061574575
47	0x3d99a5ab	0.07502302
48	0x3c5ebb90	0.013594523
49	0xbda020cb	-0.07818755
50	0x3dd9ae4a	0.10628946
51	0x3d3e5b8a	0.046474017
52	0x3d3c9074	0.0460362
53	0xbd8f389c	-0.06993219
54	0x3dd2dfcb	0.10296591
55	0xbca29821	-0.019847931
56	0x3d461574	0.048360303
57	0x3cb08506	0.021547806
58	0x3dacd219	0.084385104
59	0x3d58cc73	0.052929353
60	0x3d16dbc7	0.03683069
61	0xbd59b826	-0.053154133
62	0xbdb32cac	-0.08748755
63	0xbd63ba0f	-0.05559736
64	0xbca8de2e	-0.020613756
65	0xbd903297	-0.07040899
66	0x3d34f7ca	0.044181623
67	0x3cd58b95	0.026067534
68	0x3d7b0aa6	0.061289452
69	0x3c4337bd	0.0119151445
70	0x3ce61401	0.02808571
71	0x3d0cd539	0.034383032
72	0xbbc4cf6e	-0.006006173
73	0x3d54a64c	0.051916406
74	0x3cd3d40c	0.025857948
75	0xbc756b97	-0.014979265
76	0xbcc22466	-0.023698997
77	0xbce14aab	-0.027501425
78	0x3dead1a4	0.11465767
79	0xbcad67e8	-0.02116771
80	0xbd26f78a	-0.040763415
81	0xbd8bcae7	-0.0682581
82	0x3d712b73	0.058879327
83	0x3c8d6f0a	0.017264862
84	0x3cac36ac	0.021022163
85	0xbd9c3952	-0.076281205
86	0x3de0ff2e	0.10986172
87	0xbd41583d	-0.04720329
88	0x3d74370c	0.05962281
89	0x3dbd6e3b	0.092495404
90	0xbcd35198	-0.025795743
91	0xbdac6e0a	-0.08419426
92	0x3ca122dc	0.019669943
93	0x3c3ff6af	0.011716529
94	0xbbc22635	-0.005924965
95	0xbd9e53db	-0.07730838
96	0xbd812ee9	-0.063077755
97	0xbd9ed718	-0.077558696
98	0xbd9155bf	-0.07096433
99	0x3cb2202f	0.021743862
100	0xbdc279ed	-0.09495912
101	0x3d6e3ffe	0.058166496
102	0x3da4702e	0.08029209
103	0xbd7dbef9	-0.061949704
104	0xbd10266a	-0.035192885
105	0x3daa3e2c	0.083126396
106	0xbdc1be41	-0.09460116
107	0x3d8b1518	0.06791133
108	0x3d946679	0.072461076
109	0xbd703a37	-0.058649268
110	0x3d9eb5a7	0.07749491
111	0x3c7d9b42	0.015478911
112	0x3cfd2827	0.030902935
113	0x3ce0567f	0.027384995
114	0x3d8bf5d0	0.068339944
115	0xbc2792cc	-0.01022787
116	0xbdd03536	-0.10166399
117	0x3da1d17f	0.07901286
118	0x3d48d0c8	0.049027234
119	0xbd7a951e	-0.061177365
120	0x3bbafd53	0.005706468
121	0xbdb75e44	-0.089535266
122	0x3d040b47	0.032237317
123	0xbd105a4c	-0.035242364
124	0x3d936b7f	0.07198238
125	0xbd785a5d	-0.060633052
126	0x3d7a52c9	0.061114106
127	0x3c991598	0.018687055
128	0x3cb6bcad	0.022306764
129	0xbd89016a	-0.06689723
130	0xbddefaad	-0.10887656
131	0x3baa5f5a	0.005199355
132	0x3d8801bd	0.066409566
133	0x3d35b666	0.0443634
134	0x3cbe166e	0.023204055
135	0xbddfb18a	-0.10922535
136	0xbd75ec56	-0.06003984
137	0xbd7f209d	-0.06228696
138	0x3cdfc065	0.02731342
139	0xbc8fce2b	-0.017554363
140	0xbd020790	-0.031745493
141	0xbd2fad3e	-0.042889826
142	0x3d05f106	0.03270056
143	0x3da39c92	0.07988848
144	0x3db74795	0.089492
145	0x3d9b3cfe	0.07579993
146	0x3ccecd0f	0.025244264
147	0x3db152b1	0.0865835
148	0x3d084d71	0.03327698
149	0xbdb00b21	-0.08595873
150	0xbcbe9b87	-0.02326752
151	0x3d0d5284	0.03450252
152	0xbd8cb8df	-0.06871199
153	0xbc899a8d	-0.016797328
154	0xbd067be7	-0.032833006
155	0x3dbfde24	0.09368542
156	0xbad51ed3	-0.0016259797
157	0x3c6cf4c7	0.014462656
158	0xbda92e03	-0.08260729
159	0x3c5295cc	0.012853097
160	0xbd88829b	-0.06665536
161	0xbdd0c9f0	-0.101947665
162	0x3ce536b5	0.027980188
163	0x3d6ad410	0.057331145
164	0x3dac8208	0.08423239
165	0x3d83e69e	0.06440471
166	0x3c7de4e3	0.015496465
167	0x3bdf16b3	0.006808126
168	0xbd98ffd7	-0.074706726
169	0x3d2db58b	0.04240946
170	0xbd286ab4	-0.041117385
171	0xbd75f6b0	-0.060049713
172	0xbd16e770	-0.03684181
173	0xbd8d741f	-0.06906914
174	0xbdcf233a	-0.10114141
175	0x3d7ba9c3	0.061441194
176	0xbd3820d1	-0.04495317
177	0x3dc563a5	0.09638146
178	0xbc9261dd	-0.01786893
179	0x3dcf033d	0.101080395
180	0xbd186a9a	-0.03721104
181	0xbd6a8ba6	-0.057262085
182	0x3d7ebb8f	0.06219059
183	0x3d98fc05	0.07469944
184	0xbccaf6eb	-0.024775943
185	0x3dce4c64	0.10073164
186	0x3b5441ba	0.003238781
187	0xbdd886e3	-0.105726026
188	0xbdc353b6	-0.09537451
189	0xbdce1629	-0.100628205
190	0x3c86a55e	0.016436275
191	0xbdd22f70	-0.10262954
192	0xbdb2574c	-0.08708057
193	0xbcdb943c	-0.026804082
194	0x3dd09944	0.10185483
195	0x3d885bc5	0.06658129
196	0xbd8f79f8	-0.070056856
197	0x3dc97400	0.09836578
198	0x39608ff0	0.00021415926
199	0x3d627f72	0.055297323
200	0xbd5bbfb4	-0.05364962
201	0x3dcac916	0.09901635
202	0x3d31bfea	0.043395914
203	0x3de666c6	0.11250071
204	0x3dcde34c	0.10053119
205	0xbc3c4647	-0.011491365
206	0xbd9dd32f	-0.07706296
207	0x3cf2e8ec	0.029652081
208	0x3b7cf79c	0.0038599735
209	0x3d87b643	0.066265605
210	0xbd08647c	-0.033298954
211	0x3dfbdd1c	0.12298033
212	0x3da2ab08	0.07942778
213	0x3d19a642	0.03751207
214	0x3df34406	0.11878209
215	0x3c3c1b17	0.011481068
216	0x3d516fbc	0.05113195
217	0x3de786a6	0.11304979
218	0xbdb3c726	-0.08778219
219	0xbc30f961	-0.010801644
220	0x3ce33a35	0.027737716
221	0x3db531f1	0.08847416
222	0x3d4a1652	0.049337693
223	0x3afab987	0.0019128778
224	0x3dc8465b	0.09779044
225	0xbd8d5909	-0.06901748
226	0xbd8395d4	-0.06425062
227	0x3d2c4363	0.042056452
228	0x3d616459	0.05502734
229	0x3dbfb9a4	0.0936158
230	0xbdb70bf0	-0.08937824
231	0x3cf0fd9d	0.029417807
232	0x3d524f41	0.051345114
233	0x3b2e66d1	0.0026611576
234	0x3d9438b1	0.072373755
235	0x3ab21e3f	0.0013589336
236	0x3a68f225	0.000888618
237	0x3c8fa8b5	0.0175365
238	0xbd0c872a	-0.03430859
239	0x3d8a7f59	0.06762571
240	0xbd1970dd	-0.03746115
241	0xbce2d832	-0.02769098
242	0x3da73238	0.08163875
243	0xbdcbaa5c	-0.09944603
244	0xbdbaa41b	-0.09113332
245	0xbd71eea9	-0.059065495
246	0xbd5e3b5f	-0.05425584
247	0xbd8edda7	-0.069758706
248	0xbd8ff02a	-0.070282295
249	0x3dd0b10d	0.1019002
250	0x3d416a7f	0.047220703
251	0x3d179113	0.037003588
252	0x3da12d92	0.0787002
253	0x3d88c1ff	0.06677627
254	0x3d4c4024	0.049865857
255	0x3d9cd59f	0.076579325

bias f4 [10]
0	0x3db344cc	0.08753356
1	0xbdd90117	-0.10595911
2	0x3dcc2704	0.09968379
3	0xbd1d59eb	-0.03841583
4	0xbbec320d	-0.007208115
5	0xbd56c64b	-0.0524352
6	0x3db49490	0.088173985
7	0x3d87f0c6	0.06637721
8	0x3ce7c225	0.028290818
9	0xbd1d3f23	-0.03839029

weight f4 [10, 10, 4, 4]
0	0x3d0b97b6	0.03408023
1	0x3d0e9f48	0.03481987
2	0x3d35fe12	0.044431753
3	0xbd3a1115	-0.045426447
4	0x3d77ab1e	0.060465924
5	0xbd72ab68	-0.059245497
6	0xbc0f0fd8	-0.008731805
7	0x3d45939e	0.04823648
8	0xbd2f8144	-0.042847887
9	0x3d9e6433	0.07733955
10	0xbd087f3d	-0.03332447
11	0x3d40ea3a	0.047098376
12	0xbc65aad0	-0.014017776
13	0x3cee7204	0.029107101
14	0x3c8c4450	0.017122418
15	0xbda06616	-0.07831971
16	0xbd271b57	-0.040797558
17	0x3c984d34	0.0185915
18	0xbd9b99a3	-0.07597663
19	0x3d30b286	0.043139003
20	0x3d4d74aa	0.050160088
21	0x3c2787a0	0.010225207
22	0xbd6728f2	-0.056435533
23	0x3d8afbf3	0.06786337
24	0x3d49f662	0.049307235
25	0x3b81f8a0	0.003966406
26	0xbc9837c8	-0.018581286
27	0xbc656230	-0.0140004605
28	0xbd7aeb12	-0.061259337
29	0x3d200496	0.039066873
30	0x3d806b21	0.06270433
31	0xbd960047	-0.07324272
32	0x3d7e3d6a	0.062070288
33	0xbd9da63f	-0.076977246
34	0x3d51125a	0.051042892
35	0x3ccf0d50	0.025274903
36	0x3d0625d0	0.032750905
37	0xbca4ac7c	-0.020101778
38	0x3b1df2a0	0.0024100915
39	0xbd132fd8	-0.0359343
40	0x3d286054	0.04110749
41	0x3d7a943e	0.06117653
42	0xbd1224c0	-0.03567958
43	0xbce144ae	-0.02749857
44	0x3d2b481c	0.041816816
45	0xbcc4965e	-0.023997482
46	0xbd7e0678	-0.062017888
47	0xbd4e0f42	-0.05030752
48	0x3a848640	0.001011081
49	0xbd07c433	-0.033146095
50	0x3d94b931	0.07261885
51	0xbd9683b0	-0.07349336
52	0xbd146356	-0.036227547
53	0xbda00af8	-0.07814592
54	0x3d84dc05	0.06487278
55	0xbd02a4a7	-0.031895306
56	0xbc9c43a0	-0.019075215
57	0xbbb3d420	-0.0054879338
58	0xbd173826	-0.03691878
59	0x3c7d2c30	0.01545243
60	0x3cc00b5c	0.023442917
61	0xbd426ac0	-0.047465086
62	0xbda0047f	-0.078133576
63	0x3cbec518	0.023287341
64	0xbd910af6	-0.07082169
65	0xbb715040	-0.0036821514
66	0xbd4ddae2	-0.05025757
67	0xbda191b8	-0.07889122
68	0x3d65dc06	0.056118034
69	0xbb54b0e0	-0.0032454059
70	0xbd9057c0	-0.07047987
71	0xbd930438	-0.07178539
72	0xbc310e38	-0.010806613
73	0x3da1053b	0.07862326
74	0x3917f000	0.00014489889
75	0xbb9c4330	-0.0047687516
76	0xbccae2de	-0.024766382
77	0x3c1c7d08	0.009551294
78	0xbc31ad80	-0.010844588
79	0x3c14ed28	0.009089746
80	0x3bf70090	0.007537909
81	0x3d37c7f6	0.044868432
82	0x3d8d3b57	0.06896084
83	0xbd35744c	-0.044300362
84	0xbce0358e	-0.027369287
85	0xbca3aa3e	-0.019978639
86	0xbd82d7c9	-0.06388814
87	0xbd7d4f62	-0.061843283
88	0x3d07adf4	0.03312488
89	0xbd8cf7ec	-0.06883225
90	0xbceaf86e	-0.028682914
91	0x3ce63254	0.02810017
92	0xbd43a5f1	-0.047765676
93	0xbc49f620	-0.012326747
94	0x3aef0b80	0.001823768
95	0xbb860120	-0.0040894896
96	0xbd39521c	-0.04524432
97	0x3d33f3ac	0.043933555
98	0x3d384056	0.04498323
99	0x3d853c43	0.06505635
100	0xbd83e8b8	-0.06440872
101	0xbc029048	-0.00796897
102	0x3d8db98d	0.06920157
103	0x3d2cad34	0.042157367
104	0xbcaa927e	-0.020821806
105	0x3c4cada0	0.012492567
106	0xbd9116b2	-0.07084407
107	0x3d5e5b96	0.054286562
108	0x3d052932	0.03250999
109	0xbcd33876	-0.025783759
110	0xbd88c8ad	-0.06678901
111	0x3ceb775c	0.028743438
112	0x3ca60f08	0.02027084
113	0xbd82ab14	-0.06380287
114	0x3d814b43	0.06313183
115	0xbc0ff5a0	-0.008786589
116	0x3d9b5333	0.07584228
117	0xbb467ec0	-0.0030287951
118	0xbcc8ded4	-0.024520315
119	0xbd98d887	-0.07463174
120	0xbcd6edf4	-0.026236512
121	0xbd5d3b46	-0.054011606
122	0xbc5e0418	-0.013550781
123	0x3d42fc9e	0.047604196
124	0xbd09f7dd	-0.033683646
125	0xba161e80	-0.0005726591
126	0x3c987e88	0.018615022
127	0x3d88f281	0.06686879
128	0xbd636006	-0.055511497
129	0xbc2337e0	-0.009962052
130	0xbc0b0cd0	-0.008486941
131	0xbd4bf254	-0.04979165
132	0xbd865036	-0.06558268
133	0x3d359d84	0.04433967
134	0x3d9106a3	0.07081344
135	0xbc91492c	-0.017735086
136	0x3d314722	0.04328073
137	0xbc4e50b0	-0.01259248
138	0xbac27780	-0.0014836639
139	0xbd2d72ec	-0.042345926
140	0xbd97f6ba	-0.07420106
141	0xbd1260a0	-0.03573668
142	0xbd3164fa	-0.04330919
143	0xbd71c3f3	-0.059024762
144	0x3b7fcb60	0.0039031133
145	0xbcffbc1a	-0.031217624
146	0x3da13bff	0.078727715
147	0x3d72b1c6	0.05925157
148	0x3d434996	0.0476776
149	0x3d8c7599	0.068583675
150	0x3c0f03b8	0.008728914
151	0xbd575da8	-0.052579552
152	0x3d5953aa	0.053058304
153	0x3d2e639c	0.042575464
154	0x3d7c1312	0.061541624
155	0xbd64d212	-0.0558644
156	0x3d566912	0.052346297
157	0x3d2143ae	0.039371185
158	0x3d14f454	0.036365822
159	0xbd311b95	-0.043239195
160	0xbc7218c9	-0.014776417
161	0x3cf3d491	0.029764445
162	0x3cbce675	0.02305911
163	0x3cffbc49	0.031217711
164	0x3ce873d6	0.028375547
165	0x3ce02a66	0.027363967
166	0x3c91718d	0.01775434
167	0xbd173b97	-0.036922064
168	0x3d81c9fb	0.06337353
169	0x3ce251a4	0.02762682
170	0xbd252cd5	-0.04032596
171	0xbd328cc7	-0.043591287
172	0x3d8063bb	0.06269022
173	0x3cef9786	0.029247057
174	0xbb889b9c	-0.0041689407
175	0xbd330ae7	-0.04371157
176	0x3cd4df4b	0.02598538
177	0x3d6c1800	0.057640076
178	0xbbf23c42	-0.007392437
179	0x3cff8a24	0.0311938
180	0xbd5c9359	-0.05385146
181	0xbd3d4da8	-0.046216637
182	0x3d288ed7	0.041151848
183	0x3ce3bdc0	0.02780044
184	0x3d5062cf	0.05087548
185	0x3d12bc92	0.035824366
186	0x3d8f2a3d	0.06990478
187	0x3c12dd56	0.008963903
188	0xbd37c69d	-0.044867147
189	0xbbcc2ea7	-0.0062311473
190	0x3ce60f23	0.02808339
191	0x3d454a22	0.0481664
192	0x3dab5f69	0.083678074
193	0x3d8724f5	0.06598846
194	0xbd6376cd	-0.05553322
195	0x3d887c9f	0.066643946
196	0x3c8799cc	0.016552828
197	0x3d6da963	0.058022868
198	0xbd2deb7c	-0.042460904
199	0x3cc82545	0.024431834
200	0x3c61e647	0.013787813
201	0x3d7c29f4	0.061563447
202	0x3d4dfb07	0.050288226
203	0xbd649a94	-0.05581148
204	0x3dbb31f9	0.09140391
205	0x3ce6fd66	0.028197002
206	0xbd604600	-0.054754257
207	0xbca5bdd0	-0.020232111
208	0xbcde6d72	-0.027151797
209	0x3cd24141	0.025665881
210	0x3d231d8f	0.03982311
211	0x3cdddfb7	0.027084215
212	0xbd0c600f	-0.034271296
213	0x3c97337d	0.018457169
214	0x3bd464bf	0.0064817364
215	0x3d8ecb47	0.06972366
216	0x3c87d704	0.01658202
217	0xbd2210ac	-0.03956668
218	0x3cfa8228	0.030579641
219	0xba8687f0	-0.0010263901
220	0xbcc99766	-0.024608325
221	0x3dbf05fb	0.093273126
222	0x3d761f52	0.060088463
223	0x3d87e04e	0.066345796
224	0xbd675d9f	-0.05648577
225	0xbd0a1b7b	-0.033717614
226	0x3d671ee1	0.056425933
227	0xbb466058	-0.0030269828
228	0x3db9c0d2	0.09069981
229	0x3dbfa855	0.09358279
230	0x3da130ee	0.07870661
231	0x3d5364e5	0.051609892
232	0xbd0e211e	-0.03469955
233	0xbd0820c9	-0.03323439
234	0x3d165515	0.036702234
235	0xbd67730a	-0.056506194
236	0x3d912ee4	0.07089022
237	0x3dbc7920	0.0920279
238	0x3dbb83e4	0.091560155
239	0x3d4a8697	0.04944476
240	0xbc8b83cf	-0.017030625
241	0x3dbedb18	0.093191326
242	0x3be9d413	0.007135877
243	0x3d0574ee	0.032582216
244	0x3dbc3580	0.09189892
245	0xbd6c1976	-0.05764147
246	0x3dbf96fb	0.09354969
247	0x3ca92ecf	0.020652203
248	0x3d2aa443	0.04166056
249	0x3d3e63dc	0.046481952
250	0xbb1d8dd0	-0.0024040826
251	0x3d7abbb0	0.06121415
252	0x3d848b88	0.06471926
253	0x3d277f00	0.0408926
254	0x3c1dafed	0.0096244635
255	0x3b270ef2	0.0025491086

bias f4 [10]
0	0xbcc15dfa	-0.023604382
1	0x3dbe62de	0.09296201
2	0x3d93be85	0.07214073
3	0xbd865b9f	-0.06560444
4	0x3dbc0ee9	0.091825314
5	0xbd379e20	-0.044828534
6	0xbd890352	-0.066900864
7	0xbd813b81	-0.063101776
8	0xbd199d60	-0.0375036
9	0x3cf4677e	0.029834505

weight f4 [10, 10, 5, 5]
0	0xbd7d6c11	-0.06187064
1	0xbd5f42ba	-0.054506995
2	0x3ce2f3b4	0.027704097
3	0xbd0b208c	-0.033966586
4	0xbc0409f8	-0.008059017
5	0xbc1eba38	-0.009687953
6	0x3c887bdc	0.016660623
7	0x3cb45090	0.022011071
8	0xbbf34648	-0.0074241497
9	0x3a2f8c00	0.0006696582
10	0xbd1a9cf8	-0.037747353
11	0x3c1a6558	0.009423576
12	0xbd7525c5	-0.059850473
13	0xbd623ecc	-0.05523567
14	0x3cd5d468	0.02610226
15	0xbcedd3a2	-0.029031578
16	0x3d3659f0	0.044519365
17	0xbd3d9f8e	-0.04629474
18	0xbaa6a620	-0.0012714304
19	0x3d71c0e6	0.059021853
20	0x3d4fc76a	0.050727285
21	0xbcb59df8	-0.022170052
22	0x3d44538c	0.04793124
23	0x3d6c33ce	0.057666592
24	0x3cbc067c	0.02295231
25	0xbc2b4790	-0.010454074
26	0x3d9aa811	0.075515874
27	0x3d88acd2	0.06673588
28	0x3cfe2581	0.031023743
29	0xba9586f6	-0.0011408019
30	0xbd0336e8	-0.032034785
31	0xbc89bddf	-0.01681417
32	0xbd28022a	-0.04101769
33	0xbd08558c	-0.03328471
34	0xbd160202	-0.03662301
35	0x3d46d768	0.04854527
36	0x3d96a5ff	0.0735588
37	0xbc0c96bf	-0.008580863
38	0x3d28afda	0.04118333
39	0x3c978b6c	0.018499099
40	0x3c5cd938	0.013479523
41	0xbd0cf869	-0.03441659
42	0x3cb15ab5	0.021649698
43	0x3d6aa0e4	0.057282344
44	0xbcc045d7	-0.023470802
45	0x3d9e444b	0.077278696
46	0x3d3acb76	0.04560419
47	0xbd28bfb5	-0.04119845
48	0x3d4d782e	0.05016344
49	0x3d461f09	0.04836944
50	0xbcbd082c	-0.023075186
51	0x3d3ce584	0.04611732
52	0x3d99a3dc	0.07501957
53	0x3d09ff0e	0.033690505
54	0x3d8b7667	0.06809693
55	0x3d0eda61	0.03487623
56	0x3d050773	0.032477807
57	0x3d18e418	0.037326902
58	0x3ce6f04c	0.028190754
59	0x3d6f9827	0.058494713
60	0x3cf95d0d	0.030439878
61	0x3d2bbc93	0.041927885
62	0xbc5b5f69	-0.013389447
63	0x3cdab52d	0.02669772
64	0x3cbc910f	0.023018388
65	0x3c7b14af	0.015324756
66	0x3b474b69	0.0030409938
67	0xbc2e10af	-0.010624095
68	0x3d9f6382	0.077826515
69	0xb991c146	-0.00027800555
70	0xbc17d4c3	-0.009267035
71	0xbc0875d0	-0.00832887
72	0x3d923ec1	0.071408756
73	0x3cfe8c31	0.031072708
74	0x3d24d6bc	0.04024385
75	0x3ce12b4b	0.027486464
76	0x3c516674	0.012780774
77	0xbb5b7b92	-0.0033490402
78	0x3cd4378e	0.025905397
79	0xbcfb7fd1	-0.030700596
80	0xbccb4fa3	-0.024818247
81	0x3d78313c	0.06059383
82	0x3d5e53ce	0.05427914
83	0xbce0e490	-0.027452737
84	0x3d97de05	0.07415394
85	0xbcc9ccfb	-0.024633875
86	0xbcae7bac	-0.021299206
87	0xbce542d1	-0.027985962
88	0xbcbc61a2	-0.022995774
89	0xbd512d49	-0.051068578
90	0x3c7d9c71	0.015479193
91	0xbceac3c7	-0.028657807
92	0xbd38c22c	-0.04510705
93	0x3c2e6950	0.010645226
94	0x3d196c7c	0.037456974
95	0x3d502a0c	0.05082135
96	0x3d5009f9	0.05079076
97	0xbc45714b	-0.012050937
98	0xbba5da03	-0.0050613894
99	0xbc8d5642	-0.017253045
100	0x3d887885	0.06663612
101	0x3cd2f799	0.02575283
102	0xbc9982a0	-0.018739045
103	0x3d1bb72f	0.038016494
104	0xbd32e7a1	-0.04367793
105	0x39f607bc	0.0004692654
106	0x3d48e541	0.04904676
107	0x3d253172	0.040330358
108	0x3d7abf55	0.061217625
109	0xbd2d7150	-0.04234439
110	0x3c80d301	0.015725615
111	0x3bd6a046	0.006549868
112	0xbd02afe8	-0.03190604
113	0x3cd8197f	0.026379345
114	0xbd223b53	-0.039607357
115	0x3c420331	0.011841581
116	0xbd129aec	-0.035792276
117	0x3c2e4152	0.010635691
118	0xbaa058ea	-0.001223353
119	0x3cc201f1	0.023682566
120	0x3c96fb65	0.018430421
121	0x3d57f888	0.052727252
122	0xbb7467b0	-0.0037293248
123	0xbd1741fc	-0.036928162
124	0x3d9e85c2	0.07740356
125	0x3d60ede1	0.05491436
126	0x3d76351d	0.060109247
127	0x3d46f841	0.048576597
128	0xbc98b271	-0.018639775
129	0xbd203469	-0.039112482
130	0x3b9405e2	0.004517303
131	0x3d90abf4	0.070640475
132	0xbc6f1d62	-0.014594408
133	0x3d3717d0	0.044700444
134	0xbcefa41a	-0.029253054
135	0x3aec2606	0.0018016703
136	0x3d9894c6	0.07450251
137	0xbc2238c0	-0.009901226
138	0x3d8cca65	0.06874541
139	0x3d541da1	0.05178607
140	0x3b1c12e9	0.0023814982
141	0xbd24205d	-0.040069927
142	0x3d05d6f1	0.032675687
143	0x3d72163d	0.05910324
144	0x3d01d866	0.031700514
145	0x3d8334b7	0.06406539
146	0x3d316ca0	0.043316483
147	0xbcd17f3d	-0.025573367
148	0xbd259530	-0.04042548
149	0xbca5fda0	-0.02026254
150	0x3d31c6c6	0.043402456
151	0x3d6fc653	0.058538746
152	0x3c502963	0.01270518
153	0xbc4e5202	-0.012592794
154	0xbbb1cea9	-0.005426247
155	0x3c87ac44	0.016561635
156	0x3d08c585	0.033391494
157	0x3cc2d87b	0.023784867
158	0xbd65511e	-0.055985563
159	0x3d2006bb	0.03906892
160	0x3d5a5cb7	0.053311076
161	0xbc00373f	-0.007825672
162	0xbc8a5495	-0.016886035
163	0x39900a8c	0.00027473678
164	0x3c07c263	0.0082860915
165	0x3cb2387d	0.021755451
166	0x3d55b38c	0.052173182
167	0xbd804c17	-0.06264513
168	0x3c3f6534	0.011681844
169	0xbc94fdec	-0.018187486
170	0xbd497906	-0.049187683
171	0xbb0ee411	-0.0021803419
172	0xbc014d01	-0.007891894
173	0xbd39d9de	-0.04537379
174	0x3d2d6bc4	0.0423391
175	0xbd32d6a6	-0.043661736
176	0x3d97b3fa	0.07407375
177	0xbcdc1903	-0.026867395
178	0x3cd58943	0.026066428
179	0xbb21a309	-0.0024663827
180	0x3d34a052	0.044098206
181	0xbccf1fde	-0.02528375
182	0xbc907bb1	-0.017637106
183	0xbd27a439	-0.0409281
184	0x3d1d16ff	0.03835201
185	0xbc8b300b	-0.016990682
186	0x3cd52fed	0.02602383
187	0x3d976929	0.073931046
188	0xbcbcb78e	-0.023036744
189	0x3d7a1e2f	0.06106394
190	0x3cad38ed	0.021145308
191	0x3cdbb1e6	0.026818227
192	0xbbd6f440	-0.0065598786
193	0x3d204291	0.039125983
194	0xbd004e1d	-0.031324495
195	0x3d6ede22	0.05831731
196	0x3d23f75e	0.04003083
197	0x3bad3a09	0.0052864593
198	0x3d403beb	0.046932142
199	0xbd04940b	-0.032367747
200	0x3b69e662	0.0035690297
201	0x3cf66304	0.030076511
202	0x3bc24b88	0.005929414
203	0x3d54f163	0.051988017
204	0x3d36679a	0.044532396
205	0xbc5417a7	-0.012945092
206	0xbcf19774	-0.029491164
207	0x3c76afe6	0.015056586
208	0x3d65a9aa	0.056070007
209	0x3d8fcba8	0.07021266
210	0x3ce4bcfd	0.027922148
211	0x3c8541c6	0.016266715
212	0x3d8e7788	0.069563925
213	0x3d5ae05f	0.053436633
214	0xbc591c79	-0.013251417
215	0x3ce66b68	0.028127387
216	0x3ccdbf97	0.025115771
217	0xbc593efb	-0.013259645
218	0xbb363efd	-0.002780854
219	0x3d15e0c5	0.03659131
220	0xbbb75728	-0.0055951066
221	0x3c889cf8	0.016676411
222	0xbcc0e25b	-0.023545435
223	0xbcecd300	-0.028909206
224	0x3ccbce15	0.024878541
225	0x3d5ff06e	0.05467265
226	0xbbe925c0	-0.007115096
227	0x3d53bd78	0.051694363
228	0x3a3a5cf2	0.0007109187
229	0x3d932291	0.071843274
230	0x3d944bca	0.07241018
231	0xbcc4422f	-0.02395734
232	0xbd336e31	-0.04380626
233	0x3d87842c	0.06617007
234	0x3d2791f2	0.04091067
235	0xbd386005	-0.045013446
236	0xbd1baf62	-0.038009055
237	0xbd27f17c	-0.04100178
238	0x3d8b64d1	0.068063386
239	0x3cc8aba2	0.024495903
240	0x3d940476	0.07227413
241	0xbcd69804	-0.026195534
242	0x3d41da6c	0.047327444
243	0xbc721326	-0.014775073
244	0xbca1553a	-0.01969396
245	0xbd339b1b	-0.043849092
246	0x3d6568a2	0.05600799
247	0x3d9ea5ae	0.07746445
248	0x3d0721bc	0.032991156
249	0xbd2fcfc6	-0.042922758
250	0xbca26324	-0.019822665
251	0xbd43deec	-0.047820017
252	0xbd5be14a	-0.05368165
253	0xbb174dc0	-0.0023087114
254	0xbd1a83fb	-0.037723523
255	0x3cb4b7d8	0.02206032

bias f4 [10]
0	0x3d67266e	0.056433134
1	0xbc22cd21	-0.009936602
2	0xbd389a0d	-0.04506879
3	0xbd39ba18	-0.04534349
4	0x3d879e04	0.06621936
5	0x3d0ee04a	0.034881867
6	0xbb27776a	-0.0025553354
7	0xbd1010ee	-0.035172395
8	0xbb208cbb	-0.0024497944
9	0x3ce58095	0.028015414

weight f4 [100, 810]
0	0xbc128664	-0.008943174
1	0xbd203f27	-0.039122727
2	0xbcfe27c6	-0.031024825
3	0xbcbaf19e	-0.02282029
4	0xbcea6a43	-0.028615123
5	0xbcf8ba00	-0.03036213
6	0x3beba28a	0.007191007
7	0xbd1b0004	-0.03784181
8	0x3c074fad	0.008258742
9	0xbb5d2e69	-0.0033749586
10	0x3c044a7d	0.0080744
11	0x3c9ffec6	0.019530665
12	0x3ba5dae8	0.005061496
13	0xbbfbd959	-0.007685822
14	0xbd199c13	-0.03750236
15	0x3c69f7d0	0.0142802745
16	0xbccba45b	-0.024858644
17	0xbce2b201	-0.02767277
18	0xbc960a7d	-0.018315548
19	0x3cd7414a	0.02627625
20	0x3c718343	0.014740768
21	0xbb8ab06f	-0.0042324583
22	0x3a5bd9b2	0.0008386626
23	0xbc8b129d	-0.016976649
24	0xbc10c819	-0.0088367695
25	0xbb1e31e3	-0.0024138622
26	0xbb7d1b5c	-0.0038621044
27	0xbb6230c8	-0.003451394
28	0xbc25523b	-0.010090406
29	0xbccbc813	-0.024875676
30	0xbcd6daa4	-0.026227303
31	0xbced5fbd	-0.028976316
32	0x3c4ae940	0.012384713
33	0xbceaae0d	-0.028647447
34	0x3c9723f4	0.018449761
35	0xbca91485	-0.020639667
36	0xbbe58f89	-0.007005636
37	0x3b860b1c	0.00409068
38	0x3cc80f15	0.024421254
39	0x3c707254	0.014675695
40	0x3c876c0e	0.016531017
41	0xbd012eaf	-0.03153866
42	0x3ccc7e6c	0.024962626
43	0xbce12e6c	-0.027487956
44	0xbd02bbd6	-0.031917416
45	0x3c00c9f7	0.007860652
46	0xbc55dddc	-0.013053384
47	0xbc9493ac	-0.018136822
48	0x3bc12cbc	0.0058952253
49	0xbb8e3a1c	-0.0043404233
50	0x3c992c2f	0.018697826
51	0xbd23ed5c	-0.040021285
52	0xbd11de61	-0.035612468
53	0xbd0a8113	-0.0338145
54	0xbcb3bc46	-0.021940362
55	0xb9867ec5	-0.00025652922
56	0x3cc7b99a	0.024380494
57	0xbc35e490	-0.011101857
58	0xbcf74ae6	-0.030187082
59	0xbcae6ab3	-0.021291113
60	0xbd095d2f	-0.033536132
61	0xbb4b1d7c	-0.0030992916
62	0x3afa74af	0.0019108261
63	0x3c85d90e	0.016338851
64	0xbc014862	-0.007890793
65	0xbc094e38	-0.008380465
66	0xbc10bdde	-0.00883433
67	0x3c51bb0e	0.012800945
68	0xbc956e0a	-0.018240947
69	0x3cca61d3	0.02470485
70	0x3a3cfc8c	0.0007209263
71	0xbc95d9dd	-0.018292362
72	0x3ce1de40	0.027571797
73	0xbb819acb	-0.0039552203
74	0xbd0f8a41	-0.03504396
75	0xbc9442b2	-0.018098209
76	0xbd0c8610	-0.03430754
77	0x3c29c7f7	0.010362617
78	0xbcce44e8	-0.025179341
79	0xbaa284ca	-0.0012399193
80	0xbc410490	-0.011780873
81	0x3cefc224	0.029267378
82	0x3d07e64d	0.033178616
83	0xbc241c23	-0.010016474
84	0x3cb05b81	0.021528007
85	0x3bdb43f8	0.006691452
86	0xbbf372a0	-0.007429436
87	0xbcfdf161	-0.030998887
88	0xbc891e03	-0.016737944
89	0x3c88e07e	0.016708609
90	0x3cdf853c	0.02728521
91	0x3cb9fd10	0.022703677
92	0xbca7285a	-0.020404983
93	0x3cbc7f43	0.023009902
94	0xbc21df1a	-0.009879852
95	0xbc8b7efd	-0.017028326
96	0xbc2290a2	-0.009922178
97	0xbc83debf	-0.016097425
98	0xbce040d5	-0.027374664
99	0x3a9c76e0	0.0011937283
100	0xbbf349ad	-0.0074245543
101	0x3c8b2750	0.01698652
102	0x3c8db150	0.017296463
103	0xbcf2fdfa	-0.029662121
104	0x3c9dcab4	0.019261695
105	0xbd08a107	-0.033356693
106	0xbd1679b4	-0.03673716
107	0x3ce09b32	0.027417753
108	0xbb824524	-0.0039755274
109	0x3cb57d6a	0.022154529
110	0x3b165c60	0.0022943243
111	0x3bd7eea5	0.006589728
112	0x3c89785e	0.016781028
113	0xbcba7d68	-0.022764876
114	0xbcaed9c8	-0.02134408
115	0x3c9def60	0.019279182
116	0xbcc1bf8c	-0.023650907
117	0xbd0f6892	-0.035011835
118	0xbc51c3c8	-0.012803026
119	0xba00e532	-0.0004916965
120	0x3cdc4c12	0.026891742
121	0x3ce70242	0.028199319
122	0xbcdec93a	-0.027195562
123	0x3ba389a8	0.004990775
124	0x3cc02917	0.023457093
125	0xbcf7019f	-0.03015214
126	0x3bdeaa00	0.006795168
127	0x3bf531a0	0.0074827224
128	0x3c2a953a	0.010411555
129	0x3c83e05e	0.016098198
130	0x3d056761	0.032569293
131	0xbcc27436	-0.023737054
132	0x3c34503b	0.011005457
133	0x3c917ff6	0.017761212
134	0x3c8e3566	0.017359447
135	0xbcb0bc90	-0.021574289
136	0x3b27b2e1	0.0025588798
137	0xbc94c616	-0.018160861
138	0x3c9863fc	0.018602364
139	0xbcf10947	-0.02942337
140	0xbc01e062	-0.007927032
141	0x3c4a5637	0.012349657
142	0xbcf566d4	-0.029956259
143	0x3c1fb494	0.009747643
144	0xbb4828d6	-0.0030541918
145	0xbd025600	-0.031820297
146	0xbcba4492	-0.022737775
147	0xbcd5d0d2	-0.02610055
148	0x3c385b98	0.011252306
149	0xba74d540	-0.0009339638
150	0xbb853609	-0.0040652794
151	0x3d0b7d4a	0.03405503
152	0x3c32be63	0.01090965
153	0x3c9db786	0.01925255
154	0x3c640ff4	0.013919819
155	0xbc680ee4	-0.014163706
156	0xbd06ea6b	-0.032938402
157	0x3b5b5400	0.0033466816
158	0x3c92ed46	0.017935406
159	0x3b84016e	0.0040284907
160	0x3a40dc80	0.0007357076
161	0x3bc4b410	0.0060029104
162	0xbc89345f	-0.016748605
163	0xbcec6e40	-0.028861165
164	0x3c0379ec	0.008024674
165	0x3c9b3e63	0.018950647
166	0xbd0a0447	-0.033695485
167	0x3c9827f4	0.018573739
168	0x3cd52783	0.026019817
169	0x3c137865	0.009000872
170	0x3c902f40	0.017600656
171	0x3cc6b1d0	0.02425471
172	0x3c2005d8	0.009767018
173	0xbc8f58e8	-0.017498448
174	0xbc301018	-0.010746025
175	0x3b2d7e52	0.0026472998
176	0xbc1fc9f6	-0.009752741
177	0x3cb6b31c	0.022302203
178	0xbbd38d21	-0.006456033
179	0xbc5ce59c	-0.0134824775
180	0x3c2729e3	0.010202858
181	0x3cdb23f2	0.026750538
182	0x3c371328	0.011174001
183	0xbcf2a46c	-0.029619418
184	0x3c87cf3e	0.016578313
185	0x3b339ea0	0.002740778
186	0x3b461dfc	0.0030230274
187	0xbbd82da9	-0.00659724
188	0xbd0bd5b7	-0.03413936
189	0xbc66c9ea	-0.014086226
190	0xbbb76c60	-0.005597636
191	0xbd1ab177	-0.0377669
192	0x3cb647bb	0.022251
193	0x3ce05d4a	0.027388234
194	0x3ccfd9c3	0.025372392
195	0x3cc9a000	0.024612427
196	0x3ce4df81	0.027938606
197	0x3b00105e	0.0019541006
198	0x3c0a26cd	0.008432102
199	0xbc0e20fa	-0.008674854
200	0x3ceae92a	0.028675634
201	0xbbec1588	-0.007204715
202	0x3c17be67	0.009261704
203	0xbbcd6ffc	-0.006269453
204	0x3c7a2da4	0.015269671
205	0x3cebf5d0	0.028803736
206	0xbc4d4c0e	-0.01253034
207	0xbb40793d	-0.0029369139
208	0x3c8bc240	0.017060399
209	0xbcf5fce0	-0.030027807
210	0x3cc5d337	0.024148567
211	0xbcf957f7	-0.030437453
212	0x3ae352ef	0.0017343442
213	0x3acd8500	0.0015679896
214	0x3cd42e40	0.02590096
215	0x3c26334b	0.010144065
216	0xbd0938f5	-0.033501584
217	0xbc445c06	-0.011984831
218	0x3bf16990	0.0073673204
219	0xbcc2d044	-0.02378095
220	0xbc979e17	-0.018508
221	0xbc49c8a3	-0.012315902
222	0xbbd0211c	-0.006351603
223	0x3abd57a2	0.0014445672
224	0xbb97b19c	-0.004629327
225	0x3a4481f9	0.0007496174
226	0x3cb6cf02	0.022315506
227	0xbd17d806	-0.03707125
228	0x3c2ad0f4	0.010425795
229	0xbc3542bc	-0.011063274
230	0x3cb8e4fa	0.022570122
231	0xbceb38b2	-0.028713558
232	0xbcd8292a	-0.026386816
233	0xbca6c31e	-0.020356711
234	0x3d060cfd	0.03272723
235	0xbcbb4521	-0.022860112
236	0x3d0ef09f	0.034897443
237	0xbcd91135	-0.026497463
238	0x3cca1b78	0.024671301
239	0x3c59a3cc	0.013283681
240	0xb8f876ed	-0.00011847713
241	0xbc4e2baa	-0.0125836525
242	0xbb9fcbd4	-0.004876593
243	0xbc4d26f8	-0.012521498
244	0x3c3e49c8	0.0116142705
245	0xbcdfdd76	-0.02732728
246	0x3b3abda0	0.0028494373
247	0xbbadc18c	-0.0053026136
248	0xbca95c5e	-0.020673927
249	0x3be611a8	0.0070211478
250	0x3ce63b46	0.028104436
251	0xbc8d147b	-0.01722168
252	0x3ce5e052	0.028061066
253	0x3ca1d6fc	0.019755833
254	0x3cf0dd92	0.029402528
255	0x3b97afc8	0.004629109

bias f4 [100]
0	0xbcde0602	-0.027102474
1	0x3bae24a0	0.0053144246
2	0xbc662a53	-0.014048177
3	0xbcc3abc5	-0.023885617
4	0x3cbc95ab	0.023020586
5	0xbc1bd24c	-0.009510588
6	0xbca17c90	-0.019712716
7	0xbc6adaaa	-0.01433436
8	0xbcc9943e	-0.02460682
9	0x3c28117f	0.010258078
10	0x3cbef984	0.023312338
11	0x3cc6b691	0.024256976
12	0x3d1ffe4d	0.03906088
13	0x3cb03596	0.021509927
14	0xbce229b2	-0.027607772
15	0xbcabd477	-0.020975335
16	0x3ca46c5e	0.020071205
17	0xbb706a9a	-0.0036684633
18	0xbc760e6e	-0.015018089
19	0xbccfd5aa	-0.025370438
20	0x3cd7de34	0.026351072
21	0xb9ddf181	-0.0004233234
22	0x3cdc83a3	0.026918238
23	0x3d0b0b8a	0.03394655
24	0xba1a96f3	-0.0005897127
25	0x3d543b7e	0.05181455
26	0x3cbea1d5	0.023270527
27	0x3cd4a448	0.025957242
28	0xbcccd90a	-0.025005836
29	0x3cdf00b5	0.027222017
30	0x3c0daace	0.00864668
31	0x3d584d4f	0.052808102
32	0xbc45ec59	-0.012080275
33	0x3d034fe0	0.032058597
34	0xbc33ed4e	-0.010981871
35	0xbd1cfb97	-0.038325872
36	0x3d144633	0.03619976
37	0x3c8bf151	0.017082842
38	0x3c913850	0.017727047
39	0x3c0fc390	0.008774653
40	0x3d572f7f	0.05253553
41	0xbcc06934	-0.023487665
42	0xbd002251	-0.031282727
43	0xbbeae7d1	-0.007168748
44	0x3ce1d9de	0.027569707
45	0x3d3453c7	0.04402521
46	0xbccfa470	-0.025346965
47	0x3c02fd4c	0.007994961
48	0x3d5411ed	0.051774908
49	0x3d05fa6a	0.032709517
50	0xbc137f18	-0.0090024695
51	0x3cb45d90	0.02201727
52	0xbb4e4e57	-0.00314798
53	0xbd0d126e	-0.034441404
54	0x3c473a41	0.012159885
55	0xbd0d0d43	-0.034436475
56	0x3d2bd630	0.041952312
57	0x3cc3bdf0	0.02389428
58	0xbc607b44	-0.013701264
59	0x3d28f97e	0.04125356
60	0xbca06a3b	-0.019581905
61	0x3c92b47b	0.017908325
62	0xbcd49b28	-0.02595289
63	0xbd1b3501	-0.037892345
64	0xbb147f09	-0.0022658727
65	0xbcc37fe7	-0.0238647
66	0xbcbc5d54	-0.022993721
67	0x3cf1eb4c	0.029531144
68	0x3cc17939	0.023617374
69	0x3be478e1	0.0069724177
70	0xbbf5e8e5	-0.00750457
71	0x3cfe1c6b	0.03101941
72	0x3c89e228	0.016831473
73	0x3c2f5de1	0.010703535
74	0xbbb63ce8	-0.00556146
75	0xbc8e988c	-0.017406724
76	0xbcaca3a6	-0.021074127
77	0xbcd320f3	-0.025772547
78	0x3c2b5f1d	0.0104596885
79	0x3d2bb9df	0.041925307
80	0x3d221cee	0.03957837
81	0x3ce87c2e	0.028379526
82	0x3d1672f9	0.03673074
83	0xbcd6a735	-0.026202777
84	0xbcbbb1a9	-0.022911863
85	0xbccb0e4a	-0.024787087
86	0xbcdad609	-0.026713388
87	0xbc386aca	-0.011255929
88	0xbc72c873	-0.014818299
89	0x3cb094b4	0.021555282
90	0xbce72916	-0.028217833
91	0x3c0e0bbc	0.00866979
92	0x3a20d3fa	0.00061351026
93	0xbd021860	-0.031761527
94	0xbbfd62ba	-0.0077327164
95	0x3d53826b	0.05163805
96	0x3cb669e8	0.022267297
97	0x3cce4fde	0.025184568
98	0xbcbe1522	-0.023203436
99	0x3c302b6e	0.010752542

weight f4 [123, 100]
0	0xbdb7c336	-0.089727804
1	0x3d9a72b5	0.0754141
2	0xbba68c94	-0.005082676
3	0xbc626438	-0.013817839
4	0x3d2166ce	0.039404683
5	0xbc9ffdef	-0.019530265
6	0x3cb68a94	0.022282876
7	0xbd369a17	-0.044580545
8	0xbd2b833f	-0.041873213
9	0xbdb4331a	-0.08798809
10	0xbd73fa67	-0.059564974
11	0xbd244c07	-0.040111568
12	0xbd4ed0b2	-0.050491996
13	0xbde4ce9f	-0.11172222
14	0x3d002a7a	0.03129051
15	0xbae1525a	-0.001719068
16	0x3d9a69a5	0.07539681
17	0xbd87365e	-0.066021666
18	0x3a674100	0.00088216364
19	0xbc542680	-0.012948632
20	0x3b77b240	0.0037795454
21	0x3d42ce4d	0.047560025
22	0x3d8cb67d	0.068707444
23	0x3d4ffd70	0.050778806
24	0xbdb2d85e	-0.08732675
25	0x3cc833d2	0.024438772
26	0xbd97f25b	-0.074192725
27	0xbd64277d	-0.05570172
28	0x3d4da5e4	0.050207034
29	0xbd21fc20	-0.039547086
30	0x3d823c78	0.0635919
31	0x3d1f28e7	0.038857367
32	0x3d88e44d	0.0668417
33	0xbd98990a	-0.07451065
34	0xbd8ccde2	-0.068752065
35	0xbcaea1ad	-0.021317327
36	0x3d91489b	0.070939265
37	0xbdbb16bb	-0.09135195
38	0x3c57dff4	0.013175953
39	0x3d2f02dc	0.042727336
40	0xbcdf05c4	-0.027224429
41	0xbd21d0a3	-0.039505612
42	0x3cbcb373	0.023034787
43	0xbda3d229	-0.07999069
44	0xbd88c912	-0.06678976
45	0xbd9a9c5d	-0.07549355
46	0xbd86f429	-0.065895386
47	0xbcbc722a	-0.023003656
48	0x3d718121	0.058961038
49	0x3d71e1fd	0.05905341
50	0x3d3162a2	0.043306954
51	0xbb1145a6	-0.0022166758
52	0xbc82802c	-0.015930258
53	0xbd4f182a	-0.050560154
54	0xbda7e54f	-0.08198034
55	0x3d5c6c06	0.053813957
56	0xbc031b57	-0.008002124
57	0x3d6d50f5	0.057938535
58	0x3c37a950	0.011209801
59	0xbdd5bde5	-0.1043661
60	0xbd004823	-0.031318795
61	0xbdc0a9e3	-0.09407403
62	0x3dbef20d	0.09323511
63	0xbdd2fe36	-0.10302393
64	0x3cae6e8b	0.021292945
65	0xbd1ca662	-0.038244613
66	0x3c840cab	0.016119322
67	0x3d93d454	0.07218233
68	0xbc7d5fba	-0.0154647175
69	0x3d4fb0dd	0.05070578
70	0xbc246267	-0.010033227
71	0xbb6d04a9	-0.0036166108
72	0x3d1aa922	0.037758954
73	0xbd6ee9f2	-0.058328576
74	0xbdb5fd3b	-0.088861905
75	0x3db05387	0.086096816
76	0x3d67b877	0.056572404
77	0xbd7fa0da	-0.06240926
78	0xbd636f2b	-0.05552594
79	0xbd48ce5f	-0.049024936
80	0xbd8304db	-0.063974105
81	0xbda9499f	-0.08265995
82	0xbd99a37c	-0.07501885
83	0x3d9b98d1	0.07597507
84	0x3dc8da89	0.09807307
85	0x3c9cb7d8	0.019130632
86	0x3dbf538b	0.093421064
87	0xbd90b4b5	-0.07065717
88	0x3d70307e	0.058639996
89	0xbd819451	-0.06327117
90	0xbd42dc40	-0.047573328
91	0xbdb03302	-0.08603479
92	0x3d6760b8	0.056488723
93	0xbd9f01fd	-0.07764051
94	0xbd071409	-0.03297809
95	0xbdbe409c	-0.09289667
96	0xbd94a88f	-0.072587125
97	0xbd9dcf7c	-0.0770559
98	0x3d046a54	0.032327965
99	0xbd93ce81	-0.07217122
100	0xbd3498b8	-0.044090956
101	0xbd57045d	-0.052494396
102	0xbdaf0cf5	-0.08547393
103	0x3d1d44d6	0.038395725
104	0xbdc3cea1	-0.09560896
105	0xbd89265d	-0.0669677
106	0xbd2b9e7a	-0.041899182
107	0x3c3d96f0	0.011571631
108	0x3daf6d78	0.085658014
109	0xbc6d13ec	-0.014470082
110	0x3d153a07	0.036432292
111	0xba3906b8	-0.0007058191
112	0xbdb0a59d	-0.08625338
113	0xbd738ac0	-0.059458494
114	0xbd56a6e3	-0.05240525
115	0x3d8b464c	0.068005174
116	0xbb6c7a60	-0.0036083683
117	0xbdd469c3	-0.10371735
118	0x3d9e9599	0.07743377
119	0x3d9ed0d9	0.07754678
120	0xbd0ec7a0	-0.034858346
121	0x3b64e02d	0.0034923658
122	0xbd8432af	-0.0645498
123	0xbcfcc2bf	-0.03085458
124	0xbd1b35bc	-0.037893042
125	0xbdce7e89	-0.100827284
126	0xbd03ccd9	-0.03217778
127	0xbdd521a4	-0.10406807
128	0xbca2e146	-0.01988281
129	0xbdd5a0a4	-0.104310304
130	0x3cbc64e6	0.02299733
131	0xbd820690	-0.06348908
132	0x3d04164f	0.032247838
133	0xbdce3e47	-0.10070472
134	0xbd82ab13	-0.06380286
135	0x3c271b5e	0.010199396
136	0xbddcebe9	-0.10787184
137	0xbc375105	-0.01118875
138	0x3db866a2	0.09003951
139	0x3c5afb61	0.013365597
140	0x3c1d7e0c	0.009612571
141	0x3d8684d1	0.065683015
142	0x3d3f2c56	0.04667314
143	0xbce5f8f9	-0.028072821
144	0x3cdd702b	0.027031025
145	0xbda1b3ff	-0.0789566
146	0x3c8eee53	0.017447626
147	0x3d6e9a62	0.0582527
148	0xbdb72df0	-0.08944309
149	0x3d6f823d	0.058473814
150	0xbdbd6530	-0.092478156
151	0x3cbf20dd	0.0233311
152	0x3dbc0d6a	0.09182246
153	0x3d87f073	0.06637659
154	0x3dbc9edd	0.09209988
155	0x3b801e60	0.003909871
156	0xbdbb874d	-0.09156666
157	0x3d5873f9	0.052844975
158	0x3c2aa0c0	0.010414302
159	0xbcd1ab0c	-0.025594257
160	0x3d928962	0.0715511
161	0x3d20b26c	0.039232656
162	0xbd49d0bd	-0.049271334
163	0x3d6d8702	0.05799008
164	0xbd6b63bc	-0.05746816
165	0x3d9e8708	0.07740599
166	0xbd477f04	-0.048705116
167	0xbc9cf108	-0.019157901
168	0x3d830790	0.06397927
169	0x3bc0aa54	0.0058796797
170	0xbd99723a	-0.0749249
171	0xbd2468dd	-0.040139068
172	0xbd2bf880	-0.041985035
173	0x3d26eec0	0.040755033
174	0x3d30075a	0.04297576
175	0xbcd847b4	-0.026401378
176	0xbc52a8ff	-0.012857675
177	0xbd33df87	-0.043914344
178	0x3cdf1de3	0.02723593
179	0x3aaa8aa9	0.0013011295
180	0x3b7ab26a	0.0038253316
181	0x3d5076ab	0.05089442
182	0xbd84f833	-0.06492653
183	0xbda4ef94	-0.080535084
184	0xbcecce08	-0.028906837
185	0x3d5db48a	0.054127254
186	0xbd7f58e7	-0.062340643
187	0x3d0a0352	0.033694573
188	0x3d16617b	0.03671406
189	0xbd942ff5	-0.072357096
190	0xbc891714	-0.016734637
191	0xbde61474	-0.1123437
192	0x3d025853	0.031822514
193	0xbccbc9a6	-0.024876427
194	0x3c9ca6ec	0.019122563
195	0x3cd02295	0.025407115
196	0xbdb9c413	-0.09070601
197	0x3d97dbc3	0.07414963
198	0x3da99c72	0.08281793
199	0xbcff5555	-0.03116862
200	0x3d0f3be9	0.034969244
201	0x3d700a22	0.058603413
202	0xbdd1851e	-0.10230468
203	0xbd055ada	-0.032557346
204	0xbb0a622c	-0.0021115644
205	0x3da7d08e	0.081940755
206	0xbdc8b93f	-0.09800958
207	0x3d84be2b	0.06481584
208	0xbc6a06e7	-0.014283872
209	0xbdaf22d4	-0.08551565
210	0xbdef7dce	-0.11693917
211	0x3c8dfdf1	0.017333003
212	0x3da91a3b	0.08256956
213	0xbba0c88b	-0.004906719
214	0xbd84b890	-0.06480515
215	0xbde31f81	-0.11089993
216	0x3b8fb820	0.004385963
217	0xbd1598e9	-0.03652278
218	0x3dbea125	0.0930808
219	0x3d4e2402	0.05032731
220	0xbdcc1e5d	-0.09966729
221	0xbd50e5b1	-0.0510003
222	0xbd74d3f8	-0.05977246
223	0x3dacd31a	0.08438702
224	0x3da56196	0.08075254
225	0xbd8819fc	-0.06645581
226	0xbd5713d8	-0.05250916
227	0x3da5bbcf	0.08092462
228	0xbd19c929	-0.037545357
229	0xbd9739a7	-0.07384043
230	0xbd58ec3c	-0.052959666
231	0x3d5d25f9	0.05399129
232	0x3cf24e6b	0.029578408
233	0xbbe03855	-0.006842653
234	0xbda9d466	-0.08292465
235	0x3d9684b8	0.07349533
236	0x3b92caa6	0.004479724
237	0xbcfc21bf	-0.03077781
238	0xbdb2d73e	-0.087324604
239	0xbd77f82e	-0.060539417
240	0xbb7f653b	-0.003897025
241	0xbda5ccb2	-0.08095683
242	0xbcdff030	-0.02733621
243	0xbd8a789a	-0.06761284
244	0xb9eaaa7a	-0.00044758973
245	0xbd051dd7	-0.03249916
246	0xbdca2520	-0.09870362
247	0x3ca86549	0.020556109
248	0x3d504c5a	0.050854065
249	0xbddfedaa	-0.10934003
250	0x3d30dc22	0.043178685
251	0x3cf281e4	0.029602952
252	0x3d85c270	0.06531227
253	0x3d95f00b	0.07321175
254	0xbda2484f	-0.07923948
255	0xbda30ee8	-0.079618275

bias f4 [123]
0	0xbdda3233	-0.10654106
1	0xbd8eb4da	-0.069680884
2	0xbde98296	-0.114018604
3	0x3cf01717	0.029307885
4	0xbdad41a3	-0.08459785
5	0x3d7617e4	0.060081378
6	0x3cf92e4d	0.030417586
7	0xbd58da5f	-0.05294263
8	0xbddd0a71	-0.10793007
9	0xbc5da668	-0.013528444
10	0x3da37265	0.079808034
11	0xbd78e3ad	-0.060764004
12	0x3d2eff53	0.042723965
13	0xbdd4c770	-0.10389602
14	0xbd3ee2be	-0.046602957
15	0xbdc3fe10	-0.09569943
16	0xbde50309	-0.111822195
17	0xbd8bb1bf	-0.06821012
18	0xbc28d63d	-0.010304985
19	0x3d8d5ba6	0.06902246
20	0xbbc8b297	-0.006124805
21	0x3d9a011b	0.07519742
22	0xbcb9651c	-0.02263122
23	0xbc8ae7d1	-0.016956242
24	0xbd9adb29	-0.07561333
25	0xbd9da4ba	-0.07697435
26	0xbda1f4af	-0.07907998
27	0x3d4ad9b7	0.049524035
28	0x3c4679de	0.012114016
29	0xbd6a6ffc	-0.057235703
30	0x3d336b42	0.04380346
31	0x3d0152b3	0.03157301
32	0x3d614c7f	0.055004593
33	0xbd163af1	-0.036677305
34	0xbcf3086e	-0.029667106
35	0x3c38a0de	0.0112688225
36	0x3d93cab2	0.072163954
37	0xbd47c797	-0.048774328
38	0xbca0e830	-0.019641966
39	0x3d15a5af	0.03653496
40	0xbd9bb96a	-0.07603724
41	0xbd5e2ed5	-0.05424388
42	0xbd1531ed	-0.036424566
43	0x3cf798c8	0.030224219
44	0x3d7d5089	0.061844382
45	0x3d71b8ae	0.059014015
46	0x3d9ce8ae	0.07661568
47	0x3d838561	0.064219244
48	0x3d8950cb	0.06704863
49	0x3d1087e5	0.03528585
50	0x3c868edd	0.016425544
51	0x3d721a16	0.05910691
52	0xbdb813d5	-0.08988158
53	0xbd8c89f7	-0.06862252
54	0x3c50bf5f	0.012740939
55	0xbd1c65cc	-0.03818302
56	0xbdc1c833	-0.09462013
57	0xbbef6535	-0.007305766
58	0xbd6857ae	-0.056724243
59	0xbd960718	-0.07325572
60	0x3cee144f	0.029062418
61	0x3d8a3ab7	0.0674948
62	0x3da381b1	0.07983721
63	0x3caece9e	0.021338757
64	0xbd5db445	-0.054126997
65	0x3d97de4c	0.07415447
66	0x3d7fa038	0.062408656
67	0xbd5a3f09	-0.05328277
68	0xbbbda6e4	-0.005787717
69	0xbc0b44ec	-0.008500319
70	0xbcdb8c4e	-0.0268003
71	0xbdac62df	-0.08417296
72	0x3d99344f	0.0748068
73	0x3cfb9b26	0.030713629
74	0xbdcfb875	-0.10142604
75	0xb9ed812a	-0.00045300397
76	0x3bdff8f3	0.006835097
77	0xbd84a34a	-0.064764574
78	0x3d962dce	0.07332955
79	0x3d8aaa12	0.067707196
80	0xbd91775a	-0.07102843
81	0x3abc5140	0.0014367476
82	0xbdd04f0c	-0.10171327
83	0x3d749cbe	0.059719793
84	0xbd951845	-0.0728002
85	0xbc808b90	-0.015691549
86	0xbd372cd3	-0.044720482
87	0xbddac268	-0.10681611
88	0xbd43d7a2	-0.047813065
89	0x3d8cd7a2	0.06877066
90	0x3d09c2ba	0.03363297
91	0xbdaa42be	-0.08313511
92	0x3c78f9d8	0.015196286
93	0xbd35c262	-0.04437483
94	0xbda9a7f3	-0.08283987
95	0xba9accec	-0.0011810339
96	0xbd09effc	-0.033676133
97	0xbd2968c5	-0.04135968
98	0x3c890300	0.016725063
99	0xbd1f7269	-0.03892747
100	0x3c6f9b75	0.014624466
101	0x3d0286b8	0.03186676
102	0xbd0727c9	-0.032996926
103	0xbdf12669	-0.11774904
104	0xbcb98bf9	-0.022649752
105	0xbd5926e2	-0.053015597
106	0x3d7bfc1d	0.06151973
107	0xbd1c4c90	-0.038158953
108	0xbd4e0e32	-0.050306506
109	0xbba282b8	-0.0049594305
110	0x3c13a4be	0.009011446
111	0x3d3914bd	0.045185793
112	0xbc8346ac	-0.01602491
113	0xbc6b1b21	-0.01434973
114	0xbdef82ec	-0.11694893
115	0xbdd60932	-0.104509726
116	0xbdd6f8f0	-0.104967
117	0xbce4ae79	-0.027915226
118	0xbd99d0b7	-0.07510512
119	0x3d0c25c1	0.034215692
120	0xbde0a77c	-0.10969445
121	0x3cd82282	0.026383642
122	0x3ccb723e	0.024834748
