Assignment_4_2/MyBest.pt (torch_old, 97264 bytes, 12 tensors)

conv1.weight f4 [10, 3, 3, 3]
00000000: 8962 15be 0cd7 52bd 567c e9bb ca53 4cbe
00000010: aaa5 593c e499 40be fdf1 d93d 49d4 bc3d
00000020: 5c5c 5b3d d75a cdba da3c ffbd 24c9 9a3c
00000030: e0bb a0be b3c6 3fbe 75c2 a5be bbcb 19be
00000040: e1a0 89be 6389 943d 4d0c 293b bc54 6b3d
00000050: 380f ebbc c457 85be 4b91 673d 54ad a1be
00000060: da53 69be efb8 6abe b873 20be e69a 583e
00000070: 6ed3 9f3b 497c 1f3e 4afd 07be f9a4 b23c
00000080: 6689 69bc 5a3c 0dbe 2501 88be ccc4 213d
00000090: c6e7 79be 4b0b cdbe c29b cfbd 8696 a8be
000000a0: c4ab b4be f00f 14be dc9f 6dbe 4ff6 e3be
000000b0: 84c9 053d 446f 4abe bc26 95be dfe4 2bbd
000000c0: be05 9abe 1bfb 01be 02e8 b03c 93c2 6ebe
000000d0: 5059 8cbe 9f14 143e b0fd f73d 336e 0e3d
000000e0: d407 c3bd 6b65 2e3e 2126 b73d 3b4b cdbd
000000f0: 9281 1d3e 94f1 053d f45e 1bbe 1ff1 69bd
00000100: a7f0 16be 740b 4bbe 396d 3a3d 027c 00be
00000110: 6726 913d 4eed 073e b339 883d cdde 073e
00000120: 895a 48bd 72af f23b b242 b33d 0a5c ef3d
00000130: 1801 333d bee6 0c3e 0c44 c83d b076 243e
00000140: 5df8 3bbe b170 e9bd cd84 17be a1a5 593e
00000150: 5a0d 563e 331d 73be 2023 283e 7cd7 b8bd
00000160: 2afd 4dbe 755f 1dbd 34ef 60be a7d9 f0bd
00000170: 691c 22be e1c7 803d c9a8 52be 8074 b93b
00000180: be5e 49be d614 c9bd 43b3 04be 10e1 58be
00000190: b580 dfbd 77d2 c33d 84f8 a4bd c749 82be
000001a0: f009 06bb 258b e5bd 49b3 63be a6f7 f8bd
000001b0: d83f f63e ed25 cdbc 0047 0f3f bc5c 0f3f
000001c0: d8c6 77bd 0a36 1f3d 8095 e03e 7e26 fbbd
000001d0: 50c4 a43e e623 0f3b 398a febe 60de 973d
000001e0: eb28 563d a378 22bf 787f f2be 245a ce3d
000001f0: b943 11bf 2076 b4be e6f4 1abe 44ec f6be
00000200: 2d68 1ebe a0f8 873c 5b0a 5fbe a3a8 71be
00000210: b150 9d3e 4fde b3be 74c9 a7be 94e0 0fbd
00000220: 07db 6b3d 00c6 933d 7375 88be d5c0 23bd
00000230: a61f 36be c48f 88bd d684 883c 20bd c53d
00000240: 89b1 18be ed97 5ebd 6f49 023d ca8c 8ebe
00000250: f3ef ae3d abac 5a3e 90f0 57be 3782 4e3e
00000260: 98a4 ab3d 1f61 fc3d 5194 1c3e 57a9 2ebe
00000270: 9fe1 9a3d c36e 333c c974 af3d d6ea eebd
00000280: e726 fdbd 09a9 ab3d 2950 de3d f501 053e
00000290: 2957 13be f433 1abe fa01 f43d 6014 38bd
000002a0: a370 183d 0b7f c0bc 28f4 6cbb 375c b23d
000002b0: 63e0 1fbe 3e35 613d d656 883d f1ec df3d
000002c0: 589d 06be 001a 443e 2009 193e fadb f9bd
000002d0: 33db 683e 254a 3e3d f2a2 203e 0a76 663e
000002e0: abd0 573d b1da 7d3b 7a1e f43d 7ff8 1a3e
000002f0: 1e48 45be 81ac 173d 3000 823e a595 c6bd
00000300: 28ad 73bd 794f 863d beee d33d 707b 1d3e
00000310: 811e 6d3d c65b b43d c0e8 e9bd 3da9 423e
00000320: c9a8 10be 0fe9 fa3d 6451 db3d f4db 2d3e
00000330: 9e01 3b3e cc65 55bd 6920 1f3e 8c74 35be
00000340: 798b 013e d5e9 12be 49a2 0cbe 6500 0dbe
00000350: b2b0 383e bcd7 873d 7c88 03be b941 06be
00000360: 02e2 1e3c 4912 80bd 9af5 143d 75b3 ea3d
00000370: 2257 09be b310 39be 7c34 a03b 8a79 d93d
00000380: f381 c13d 71c5 2c3c df70 51bd 96ee 883d
00000390: 4818 123e 7ae8 27be 6bc7 2abc df41 0e3e
000003a0: 87d9 093e 69fd 2a3e 7901 b83d 1f85 473e
000003b0: 66d1 34be 2d9e 3d3d d672 003d c5be 113e
000003c0: 43ae 073d 858b e53d 6738 36be 59a3 c6bc
000003d0: 9291 453e 4f63 893e 7aa7 4f3c d15f 503e
000003e0: cf96 de3d 1aec 9abd 6863 6d3e 7185 933e
000003f0: 7bef 2dbd 07ba 52be 1eff 883d cfb2 b0be
-0.1458837 -0.051474616 -0.0071254177 -0.19953838 0.013284126 -0.18808705 0.10641859 0.09220178
0.053554878 -0.0015667331 -0.124627784 0.01889474 -0.31393337 -0.18728141 -0.3237492 -0.15019123
-0.26880553 0.07252767 0.0025794685 0.057453856 -0.02869378 -0.26043522 0.056535047 -0.3157755
-0.22785893 -0.22922109 -0.15669143 0.21152839 0.0048774993 0.15574755 -0.13280216 0.02180718
-0.01425395 -0.13792554 -0.26563373 0.03949432 -0.24404821 -0.40047678 -0.1013713 -0.3292734
-0.35287297 -0.14459205 -0.23205513 -0.44523856 0.032662883 -0.19769007 -0.29131114 -0.041966315
-0.30082506 -0.12693445 0.021595005 -0.23316412 -0.2741189 0.14460991 0.12108934 0.034773063
-0.095229775 0.17030875 0.089428194 -0.10024115 0.15381458 0.03270109 -0.1517294 -0.057114717
-0.14740239 -0.19828588 0.04551432 -0.12547305 0.07087403 0.13274118 0.0665163 0.13268586
-0.048914466 0.0074061686 0.087529555 0.11687477 0.043702215 0.13759896 0.09778604 0.160609
-0.18356462 -0.11398447 -0.14796753 0.21254589 0.2090353 -0.23741607 0.16419649 -0.090254754
-0.20116106 -0.038421113 -0.21966249 -0.11760264 -0.1583115 0.06288124 -0.20572199 0.00565964
-0.19665048 -0.09818427 -0.12959008 -0.21179605 -0.10913221 0.09561627 -0.08055213 -0.25446913
-0.00204527 -0.1120818 -0.2223636 -0.1215661 0.48095584 -0.025042498 0.5596771 0.56000876
-0.060492367 0.038869895 0.4386406 -0.12263201 0.32181025 0.0021841465 -0.4971483 0.074154615
0.052285116 -0.6346533 -0.47362876 0.10075787 -0.5674396 -0.35246372 -0.15132484 -0.4822713
-0.15469427 0.016598046 -0.21781294 -0.23599486 0.30725625 -0.35130545 -0.32770884 -0.035126284
0.057581928 0.072155 -0.26652107 -0.03997882 -0.1778551 -0.06668046 0.016664904 0.09655213
-0.14911474 -0.054344106 0.031808313 -0.2784179 0.085418604 0.2135493 -0.21087861 0.2016686
0.08381003 0.12323212 0.15290953 -0.17056786 0.07562565 0.010951701 0.08567197 -0.11665885
-0.12360936 0.0838185 0.10855133 0.12989028 -0.14388718 -0.15058881 0.119144395 -0.044941306
0.037216794 -0.023498079 -0.003615627 0.08708995 -0.1561294 0.054982416 0.06657188 0.10933865
-0.1314596 0.19150543 0.14944887 -0.1220016 0.22739868 0.04645743 0.15687159 0.22505966
0.052689236 0.0038735087 0.119198754 0.15133856 -0.19265792 0.037029747 0.25390768 -0.09696511
-0.059491307 0.06558127 0.10348271 0.15379119 0.05789042 0.08806567 -0.11421347 0.19009872
-0.14126886 0.12251484 0.107088834 0.16978437 0.18262336 -0.052099034 0.15539707 -0.1772024
0.12650861 -0.14347012 -0.13733782 -0.13769682 0.18036154 0.06632945 -0.12845033 -0.13111009
0.009697439 -0.062534876 0.036367036 0.1146001 -0.13412145 -0.18072776 0.004889069 0.10618885
0.09448614 0.010545121 -0.051133033 0.06686132 0.14267075 -0.16397277 -0.0104235215 0.13892315
0.13461886 0.16698231 0.08984656 0.19484375 -0.17658004 0.046293426 0.031359516 0.14232929
0.033125173 0.11208252 -0.17794953 -0.024247812 0.19293812 0.2683358 0.012674207 0.20349051
0.10868608 -0.07564564 0.23182452 0.28812745 -0.042464714 -0.20578776 0.06689285 -0.3451142

conv1.bias f4 [10]
00000000: 1aa7 2cbc 3b75 14be df8e 07be 9417 96bd
00000010: db90 fdbd eb56 04be 8513 d1bd eba4 11be
00000020: b442 103d 2b54 bfbc
-0.010537887 -0.14497845 -0.13238095 -0.07328716 -0.123811446 -0.12923782 -0.10208801 -0.14223067
0.035219863 -0.023355564

conv2.weight f4 [10, 10, 3, 3]
00000000: 7ad4 5bbd 4079 fa3c ca0f e8bc 093a f3bd
00000010: 3db0 8f3c bc09 3cbd 0bdf 1dbd ffde d43d
00000020: 893e 603e 1938 5c3c daaa e43b 9895 253c
00000030: 074e efbd 8e9b 0dbd 576d 483e 8955 ebbd
00000040: 254d bfbd d0b4 9e3e e4cd 813d aff9 a73d
00000050: 4278 19bd f509 bebc 0c68 443c 890d 65bc
00000060: 7862 0d3d e44c 533c eddb 9bbc df12 cdbd
00000070: 8203 9ebb dc40 8bbd 74fd f8bc 6a40 863d
00000080: 4d03 0e3e ea70 08bd 6fcf 8abd 68e6 0c3e
00000090: 130e b2b9 4b97 8d3e 319e 043e 25fd d6bb
000000a0: 8167 ab3e 24e2 7d3e 0062 2ebe a03b 1e3e
000000b0: e79b cf3e 8bcb 6cbd c3e8 0bbc d140 5a3d
000000c0: 8f36 66bc b5d1 eabd 6abc 033c f26c cf3c
000000d0: ad42 87bd 2736 a53c a67f 583d a41e 873d
000000e0: de0c 5ebd bba5 143e 65c6 0d3e d7a2 803d
000000f0: abaa 0dbc dd68 a8bb b49e 8e3c d1aa 80bd
00000100: 2451 82bb 4d36 0abd c7e0 19bd 645c ed3c
00000110: f1b7 82bd 358a 3b3d c5f7 ac3c 4523 01bd
00000120: 6aa3 c2bc 2070 6abd 6382 863d 0bd1 063d
00000130: 4dcf 2fbc 8805 d9bc eb65 3fbd 7f45 8ebd
00000140: 3ce4 b4bd 8979 27bd 3671 3bbc bd3a 003e
00000150: b7f9 763d 4a16 51bd dfee 163e 090d a6bc
00000160: 1c68 1dbd c2e6 263e 003c 87bd ecc9 e63c
00000170: c872 043d 722a ef3c 0754 6abd c0ef b33d
00000180: cf49 a6bd c15d 29bd c354 c93d 9301 b0bc
00000190: ad83 29bd 7b3e c0bd 78bc dabd 0559 b3bd
000001a0: e7a7 01bd 5a13 9cbd cd88 163d e9cf 3dbd
000001b0: 2334 63bd 745f 83bd 0ffe c63d f43a f03b
000001c0: 10e3 d33c 4433 c03c 18c7 c03d 094b 23bc
000001d0: 6bd3 ccbc 70e0 15bd 74f4 9dbd afb8 d4bc
000001e0: eedf 0a3c 6f6a c73c 3b74 783c 6ffc 75bb
000001f0: 80ef b23d 8ef8 413c 2e04 0dbd 922d 7bbd
00000200: 3544 c6bd 1420 9bbd 61f6 193d a4d6 c43d
00000210: 502c e0bc 07e6 923d 44b2 50bd 7bd2 043d
00000220: a258 973d 0ea7 acbd 6d41 1cbc fa70 28bd
00000230: e49a b4bc 0990 be3d 3b89 4ebd b965 a43d
00000240: 1484 1b3c 67cc aebd 9214 dfb9 dda2 2dbc
00000250: a2ef 6abd fbcb ba3d 7bef 84bd 37e8 c53d
00000260: d287 63bd d2c2 7dbc 5a88 5f3d e0ab 46bd
00000270: 0010 7cbd 7a92 21bd 6ada 653d d55f 99bd
00000280: 8589 8ebd c321 9e3d 7cb2 cb3c 9285 92bc
00000290: 4222 c63d 4477 5abd d6dc a73c c23f 41bc
000002a0: ae86 cdbd 5042 72bd df97 a73d d52a c33d
000002b0: 224b b2bd bede e8ba fb6f a83d 4cec 49bd
000002c0: 8932 c5ba 8f5a 06bc cf85 66bd 8b34 513c
000002d0: bffa 323d d5c3 d83d 063f 403d c329 d2bd
000002e0: ac86 34bd 6513 fb3c 376d f33c 5ffb 893d
000002f0: c6fd d83d 7b7a cbbd 8031 85bd fa78 153e
00000300: 58bb 9fbc 5607 b4bd 4e69 8e3d ba91 cfbd
00000310: 7ed2 48bd 7475 113e 93a2 5a3d f883 b93d
00000320: e940 63bd aa34 abbc 6358 a13c 5d77 c63d
00000330: d5f7 833d 6c9e 383c edc9 ae3d dcdb 29bd
00000340: 5a0e 6dbd 6910 003e 2017 e3bd 5ee3 c33b
00000350: b150 d03d caa8 c8bd 1a92 9c3d 6d7e 22bd
00000360: df0a 97bd 8d7b b23d 9d24 503e 2618 b7bc
00000370: 615a bd3c 6550 353e 6514 95bd 9c8a 3a3d
00000380: 2add be3d 12d9 a5bd ca33 ba3d 41e3 d9bd
00000390: b939 8ebd 2183 8d3c 5d89 e1bc f665 6c3b
000003a0: 9675 99bd ae01 a0bd 8e69 90bd df9d abbd
000003b0: 9bd1 a73d 339a d0bc a964 e33d 2b30 da3d
000003c0: 2f11 94bd 53f9 91bd 8497 41bd 2e8c bbbd
000003d0: 875b a63d 6523 b5bc d3e9 793d 3806 a13b
000003e0: 5585 263d 7d2e aebd 619a b1bd ee4a d83d
000003f0: 3c79 81bd 7921 ff3d 0a78 92bd 54ac cf3d
-0.05366943 0.030575395 -0.028327841 -0.11876304 0.017540092 -0.04590772 -0.03854279 0.10394096
0.21898855 0.013441109 0.006978375 0.010106467 -0.116848044 -0.034572177 0.1957296 -0.11490924
-0.09340886 0.30997324 0.06338099 0.0820192 -0.037468202 -0.023198107 0.011987697 -0.013980278
0.034517735 0.01289675 -0.019025767 -0.10013365 -0.0048221955 -0.0679948 -0.030394293 0.06555255
0.13868447 -0.03331081 -0.06777846 0.13759768 -0.00033961292 0.2765449 0.1295097 -0.006560939
0.33477405 0.24793297 -0.17029572 0.15452433 0.40548632 -0.0578113 -0.008539381 0.05328447
-0.014051094 -0.1146578 0.008040527 0.025320504 -0.06604514 0.020167423 0.05285611 0.06597641
-0.05421149 0.14516346 0.13845213 0.06281059 -0.008646647 -0.005139454 0.01740966 -0.06282581
-0.003976958 -0.03374319 -0.03756788 0.02897472 -0.0638274 0.0457861 0.02111424 -0.031527776
-0.023759563 -0.057235837 0.06567838 0.032914203 -0.010730577 -0.026491895 -0.046728056 -0.06946849
-0.08832595 -0.04088739 -0.011440566 0.12522407 0.06029674 -0.051046647 0.1473956 -0.020269888
-0.038429365 0.16298965 -0.06603241 0.028172456 0.032336026 0.029195044 -0.05720904 0.08785963
-0.081195466 -0.041349176 0.0983062 -0.021485126 -0.04138534 -0.09386917 -0.10680479 -0.087572135
-0.031654265 -0.076208785 0.036751557 -0.046340857 -0.055469643 -0.064146906 0.097164266 0.0073312465
0.025865108 0.023461945 0.09412974 -0.00996662 -0.025003156 -0.036590993 -0.07712641 -0.02596697
0.008476241 0.024342744 0.01516443 -0.0037534495 0.08737087 0.011839045 -0.034427814 -0.061322756
-0.09680978 -0.07574478 0.03758848 0.09611252 -0.02736488 0.071727805 -0.050951257 0.032427292
0.07389952 -0.08430301 -0.009537083 -0.041123368 -0.022046514 0.09304816 -0.050423842 0.080272146
0.009491939 -0.085350804 -0.000425492 -0.010597912 -0.057357438 0.091209374 -0.0649099 0.09663432
-0.05554945 -0.015488343 0.054573394 -0.048503757 -0.061538696 -0.03944633 0.0561165 -0.07488982
-0.069598235 0.07721283 0.024865381 -0.017885957 0.09674503 -0.053336397 0.020491045 -0.011794986
-0.10035454 -0.05914527 0.08183264 0.09529654 -0.08705737 -0.0017766578 0.082244836 -0.049297616
-0.0015044968 -0.008200302 -0.056279954 0.012768875 0.04369616 0.10584227 0.046935104 -0.10261872
-0.044073746 0.030648896 0.029715164 0.06737398 0.105952784 -0.09935471 -0.06503582 0.1459693
-0.019498512 -0.08790462 0.06953679 -0.10135217 -0.049028866 0.14204961 0.0533777 0.09058374
-0.055481825 -0.020899136 0.019695466 0.096907355 0.064437546 0.0112682395 0.08534608 -0.04146944
-0.057875015 0.1250626 -0.11088395 0.005978032 0.10171641 -0.09797819 0.07645054 -0.03967135
-0.0737512 0.08714972 0.20326467 -0.022350382 0.023114385 0.1770645 -0.072792806 0.045542344
0.093195274 -0.080980435 0.09091909 -0.10639048 -0.069446035 0.017274441 -0.02753132 0.0036071516
-0.07493131 -0.078128204 -0.07051383 -0.08379721 0.08194276 -0.025464153 0.11103184 0.106537186
-0.0722984 -0.07127633 -0.047263637 -0.091575965 0.08122926 -0.022111604 0.061014008 0.0049140714
0.0406545 -0.08504961 -0.086720236 0.10561167 -0.06321952 0.12457556 -0.07151802 0.10140291

conv2.bias f4 [10]
00000000: 707a b43d b079 d9bb a82a c23d 3be4 16bd
00000010: 8ec5 413d 0b39 c03d 8a74 fe3c fb99 b8bd
00000020: 9a8f 92bd 5ced 5abc
0.088124156 -0.0066368207 0.09480792 -0.03683875 0.047307543 0.0938588 0.03106143 -0.090137444
-0.07156296 -0.013362255

conv3.weight f4 [10, 10, 3, 3]
00000000: 754a 923b 8bc6 183d 02e0 a23d 77cc 903d
00000010: b0af 083d 8044 4dbc 996e 86bd ae77 0c3c
00000020: bdeb c1bc 5b60 613d 3e2d 3ebd d540 8bbd
00000030: e475 a53d 718f d8bc 9c2b 283c 215b 8f3c
00000040: 69e2 d3bc 618a ad3d cffb cebd 089b b53d
00000050: d4c9 da3b 80ec 6b3d 7f11 b6bd ca8d 143d
00000060: d07d 0c3d 50a2 30bc de74 563d 12c5 41bd
00000070: d1a4 a4bd 040c 03bd 59b8 cdbd 74ff 03bc
00000080: 1ed8 afbb b222 f2bc 48b2 5d3d ede5 793d
00000090: 3df3 c1bc 5857 cbbb e5a0 eb3c c0d7 a2bd
000000a0: 30d8 693c 520d 253d 90db 2fbd 0254 31bb
000000b0: b47a 153d ccb3 743d ae93 b9bd 777b ea3b
000000c0: b5ba cfbd 9a83 9bbb 1992 833d 5e52 8b3d
000000d0: 199a 8d3d d7a4 0cbd 0b9c bebd ae36 a4bd
000000e0: bd34 9e3d 5fb8 9d3d 2536 d83d 6b84 243d
000000f0: 361c 763d cd26 6b3c 29e8 99bd 2577 fa3c
00000100: a049 c4bd d64c a6bd e073 e5bc f697 893c
00000110: dacc 50bd 8eb8 3cbd 636f cbbd c613 aabd
00000120: 5da9 e43c 0129 7cbd a938 d83d 69ea a3bd
00000130: 5515 cbbc dc4b 82bd e170 8c3a 5923 853d
00000140: 84b1 ebbc fa6f 16bc c162 b9bd 1c85 4eba
00000150: e810 4fbd 7b2f 873d 5221 be3d 3842 ea3c
00000160: 4581 84bd 8db1 86bb c8bf d33d 7316 ad3d
00000170: 72e4 dbbd 4b06 623d 3851 013e 1abb 85bd
00000180: b7ec dbbd 9d66 a4b9 fd92 26be 7d71 c53d
00000190: 09a6 e43c fd1c 77bd ad71 983d 19b2 20bc
000001a0: 1286 c33d c70c 9bbc 7e77 b4bd 05da 8cbc
000001b0: 99fb eb3d 48d3 80bd dd1d 58bc 89fe 813d
000001c0: 018d 1c3c d6fa 6abd 07ad 7ebd 6129 723d
000001d0: f52d febc 25b1 45bc 28c9 63bd e150 e0bb
000001e0: 6fe0 663c a63d 433d a2ef e6bb 52cc 1d3d
000001f0: b632 d4bd 1bea 98bd 39f3 4dbd 2b56 18be
00000200: 4475 0abe 2be1 c83c 6e6e 6dbc 8fd3 1f3d
00000210: 1bac a7bc 90f1 ffbc e3f5 043c 9669 803d
00000220: 455d aebd 6f58 7d3c 25d4 72bd fa70 8cbd
00000230: b521 a0bd aa07 65bd 35b6 bd3d 5baa 1abd
00000240: bf3b dfbd 9687 023e 016c 9b3d 3417 90bc
00000250: 83dc 903d 6431 3bbd 18ba 273d 1b46 883c
00000260: e527 37bd 3121 cebb 2f43 853d cfe0 9fbc
00000270: c820 f0bd 09e7 9f3e e18a 383e e28f 583d
00000280: 1e78 b2bc 8615 0abe a260 063d 651e e73c
00000290: 1777 43bd 66ed 2a3d f650 553c 77ae d33d
000002a0: 644e 3cbc 462d b23d 0e5a 903c c62a 813d
000002b0: a184 a7bd f5f5 bd3b 67c8 313c 9412 ca3d
000002c0: ede8 263d 15cf e9bc 2feb 503d 7304 c9ba
000002d0: ba5e 263e c412 bf3e 94d5 103d 98fd 45bd
000002e0: ed94 cc3e 10df f5bd f005 4fbe d64f a3bd
000002f0: ad7f 3dbe 5b11 81bd 9e81 67bd 8f49 873d
00000300: a844 8cbb bdd5 823d 4735 033d 7eb0 bd3d
00000310: c357 4dbc 2872 973d 5625 ef3d f1be a43d
00000320: 3fd2 d7bc a3ef 4f3d db98 4e3e 539c 18be
00000330: 8c69 a63a e09c a4bc 1690 20be d4ed d2bd
00000340: 7b6c 293d 3ff9 313e e62e 61bd 2d96 8abd
00000350: 3d59 833d 129a 243d 9cad 86bd daea 57bb
00000360: a647 40be fb6c 7cbe f4f7 22be 27b3 09be
00000370: 2c2d 9e3d bf84 d83d 4c30 7cbd f1d4 323d
00000380: 71c1 1e3e e8f7 843d c4bb a4bd 5133 cdbd
00000390: 1976 39b7 842b ae3d 2f54 76bd 9fe4 17be
000003a0: adf3 ef3c c1ab a5bc eab1 cebd 4c06 123e
000003b0: 74ef 8e3d 2fa5 5dbc b2a4 d03e 4731 223e
000003c0: d62b 6bbe 4380 8bbd b7b8 47be ffa6 e5bd
000003d0: fbbe f53e 901f 793e b658 a2bd 1924 343f
000003e0: 9455 d93e db10 8dbe 8f0b 30be c66a b4be
000003f0: 29a4 1fbd a643 653d 9f5b cd3c 3603 c63c
0.0044644424 0.03729872 0.07952882 0.070702486 0.033370674 -0.012528539 -0.065640636 0.008573456
-0.02367198 0.055023532 -0.046429865 -0.06799475 0.080791265 -0.026435586 0.010264304 0.017499508
-0.025864797 0.08473659 -0.101066224 0.088674605 0.006676892 0.05759859 -0.08890056 0.036268033
0.03429967 -0.010780886 0.052357547 -0.04730708 -0.08039249 -0.03199388 -0.10044927 -0.00805651
-0.0053663393 -0.02955756 0.0541251 0.06101029 -0.023675555 -0.0062054805 0.028763244 -0.07951307
0.0142727345 0.040295906 -0.042934 -0.002705813 0.036493972 0.05974178 -0.09061371 0.0071558314
-0.101430334 -0.0047459127 0.0642435 0.0680282 0.069141574 -0.03433689 -0.093071066 -0.08018242
0.07724903 0.077011816 0.10557202 0.040165346 0.060085498 0.014352513 -0.07514984 0.03057439
-0.09584355 -0.08120124 -0.028009355 0.016796093 -0.05097661 -0.046074443 -0.09933355 -0.08304553
0.02791279 -0.061562542 0.10557682 -0.080036946 -0.024790445 -0.06362125 0.0010714793 0.06500883
-0.02877117 -0.009181971 -0.09052039 -0.0007878111 -0.050553232 0.06600853 0.09283699 0.028596029
-0.06469969 -0.004110521 0.10339314 0.084515475 -0.10736932 0.055181783 0.12628639 -0.065298274
-0.10738509 -0.0003135697 -0.16267009 0.09640787 0.027911203 -0.06033038 0.07443557 -0.009808087
0.09547056 -0.018926991 -0.08811854 -0.017193804 0.11522598 -0.06290299 -0.013190714 0.06347377
0.009555102 -0.057368122 -0.06217673 0.059121493 -0.031027773 -0.01206616 -0.05561176 -0.006845579
0.014091595 0.047666214 -0.0070476094 0.038524933 -0.10361235 -0.07466527 -0.050280783 -0.1487662
-0.13521296 0.024521431 -0.0144916605 0.039020117 -0.020467808 -0.031243116 0.008115265 0.06270139
-0.085138835 0.015462979 -0.059284348 -0.06857486 -0.07818929 -0.055915512 0.09263269 -0.03776012
-0.109000675 0.12747034 0.075889595 -0.01758919 0.07073309 -0.0457014 0.040948957 0.016634991
-0.04471578 -0.006290578 0.06506955 -0.019516377 -0.117250025 0.31230953 0.18021728 0.052871592
-0.021785792 -0.13484773 0.032807 0.028212735 -0.047720995 0.041730307 0.013019791 0.10336011
-0.011493299 0.087000415 0.017621066 0.063069865 -0.08179594 0.0057971426 0.010851002 0.09866825
0.04074948 -0.028541127 0.05100554 -0.0015336409 0.16247073 0.37319005 0.035359934 -0.04833755
0.3995737 -0.120054364 -0.20217109 -0.07974212 -0.18505736 -0.063021384 -0.056520097 0.06605827
-0.0042806454 0.063884236 0.03203323 0.09262179 -0.012533131 0.073948205 0.11677043 0.08044232
-0.02634537 0.050765645 0.20175497 -0.14903383 0.001269625 -0.020094335 -0.15679964 -0.10299268
0.04136322 0.17380236 -0.054976366 -0.06766925 0.06413505 0.040185995 -0.06576082 -0.003294638
-0.18777332 -0.24650948 -0.15914899 -0.13447247 0.077234596 0.10572194 -0.061569497 0.043660108
0.1550348 0.06492597 -0.08043626 -0.100195535 -1.1054356e-05 0.08504394 -0.060138877 -0.14833306
0.029290998 -0.0202235 -0.10092528 0.14260215 0.06979266 -0.013528152 0.40750653 0.1583911
-0.22965941 -0.06811573 -0.19504057 -0.112134926 0.4799727 0.24328446 -0.079270765 0.7036758
0.42448103 -0.27551922 -0.17191909 -0.35237712 -0.038974915 0.055972718 0.025068102 0.024171453

conv3.bias f4 [10]
00000000: 8067 7b3b d99c 49bd a94a 14be 5400 fabc
00000010: 8fa2 0f3d 91d2 52bc 0296 49bd 512f d0bd
00000020: 5fdb 86bd e390 013e
0.0038361251 -0.049221847 -0.14481606 -0.030517735 0.035067137 -0.012867586 -0.049215324 -0.10165275
-0.065848105 0.12652926

conv4.weight f4 [10, 10, 3, 3]
00000000: 34ca c33d 8aab 973d b2b2 a1bd b400 98bc
00000010: b6be 283d 4b8a bdbd e408 b2bd bced 6fbc
00000020: 7cea 893c 2a85 cbbc b852 943b bcbe 32bc
00000030: a7ce 033e 23e6 b0bc c2d8 ecbd f708 513d
00000040: 6b67 a23d 073b 2bbe db69 bfbd 8fd0 bdbd
00000050: 58fb be3c 6deb dcbd 6af4 1bbe b421 54be
00000060: e8f0 6a3e b3eb 13be a95a aabe feb0 b1bd
00000070: 0b1b 1c3d c9d9 863c b5f6 e73d 5050 e1bb
00000080: d6da 093d 1e85 b93d 813d 8a3d 0307 97bc
00000090: e6db ae3d 5676 bfbb 3da9 bd3d 4bf1 93bd
000000a0: 0ff7 cebc 9818 88bd fee9 a93d 22e4 c1bd
000000b0: 375a c63d 8a1e 15be 8ec2 6abe f1c4 24be
000000c0: 9c41 91bd 7f9e 51be 7586 6bbe e5e8 3a3e
000000d0: 9230 dcbd 6e32 35be 0884 8cbd fe6e bdbd
000000e0: 5ac0 6f3d 2caa 17bd 70ec 2cbd 36a4 88bc
000000f0: aabe d13c cd70 05bc f009 c7bd a64f 2abd
00000100: 304f 31bd 7b21 f73c 7d7d 093c 433b 323d
00000110: 21d2 93bd 9aa5 88bd 1976 bbbd 55c6 7cbd
00000120: c3fa 073e 35f4 c0bd d60f 50be 7051 493e
00000130: 8396 07bd 505e 2cbe 922c d93e 2549 9d3e
00000140: 0d1a 59bb e5e3 a63c d790 90bd 67ea d73c
00000150: 6c5b 943d e2b1 cc3c 7bcc 89bd d342 2bbd
00000160: 9520 9f3d d128 30bb 7393 5cbb cba7 9bbd
00000170: 5218 73bd 3072 8d3d dbe5 72bc 3753 9a3d
00000180: 998d a8bd 28e3 c23b 6d50 493d d01f 21bd
00000190: bace 3f3c 02f8 f5bd 6eac 3b3d 9585 563e
000001a0: ef43 0fbe a66e 95bd f5ac 09bc 8c3c b23d
000001b0: 239a 463e a0a8 3b3e 65d6 b4bd 062c 9b3d
000001c0: 5ddd ac3e 00b5 c3be 00a4 31be 590f 853e
000001d0: a0c0 4f3d dd04 9bbb 004d 4bbd 1ebf 28be
000001e0: 2253 043c bae0 323e f73d 86bd 5281 03be
000001f0: bbde 57bd 0639 81bd 5dd0 b33d 6104 ac3d
00000200: d2d7 1d3d 8e8a 7e3d 51e4 73bd 02c9 f5bc
00000210: db6b c13d 5575 153d 0d7f ab3d 2a11 563e
00000220: 331b 4bbd c1cc 00bf 0fa4 783e fe42 59bd
00000230: 6631 7dbe b811 9e3d a5fb 323e badb 673c
00000240: fd34 743e 4994 a9bc 3ec6 a9be 5d76 623e
00000250: 65c6 6a3d 2867 bebe b46f ecbc 652e ad3d
00000260: ebc2 e2bd 3ef8 cbbd 10ab 213d 5d5a 34bb
00000270: 4573 b73d 4ef2 bebd c99e cf3b 0ba0 b7bc
00000280: 3db7 c73d 3087 22bd 6729 88be 515d 5c3e
00000290: 4cf4 dbbd ed70 77be 9169 2b3e b44e 93bc
000002a0: 294e 4bbe c280 e53c 0acd 983e 65c0 5cbc
000002b0: f5b1 ccbd c361 9fbd 90f2 2f3e 3ab8 8cbe
000002c0: 04cd 99be 6948 aebd 93b7 dfbd 2b37 bdbe
000002d0: 051d 98bd d50e 6c3d 377c ae3c 67ac 343d
000002e0: 544d a8bb ad2d 233c bc21 71bd 1a10 83bc
000002f0: 18b3 e03c f365 703e c083 023e 7c3e 5fbd
00000300: 6fca 213b 78dd 65bd aa42 53bd a5ad 99be
00000310: e2b8 99bd 3cf7 1d3c cedf ee3e 9721 a83e
00000320: 8654 82bd 6eb9 7f3e d2e8 903e 5865 703c
00000330: ad1a 1cbf 93c1 a5be 7582 0ebe d981 97bd
00000340: 30b9 c03d 38e0 5a3d 3637 84bd d28e c83d
00000350: 9ab9 983b ca74 83bd 19f9 4fbc 14a6 d4bd
00000360: fd61 91bd db73 b03d c01e 943d f7e0 8abd
00000370: 21b5 f2bd 0ffb 83bd fc97 983d f0a2 bebd
00000380: 8075 b5bd 88d5 3b3e 582a 44bd 191b dfbd
00000390: 5ca7 57be b78e 7bbd 179d 8ebc e65d e7be
000003a0: a643 f33c 051b 093e 4e17 0d3e 3562 073e
000003b0: 3373 733c af66 543d 51c5 4ebc 96bb 8fbd
000003c0: 460e a0be 6784 78bc 3575 4c3d 932e 52bd
000003d0: ffb0 69bd a0d8 403d 3fb2 8a3d afe5 98bd
000003e0: 97f3 01bd 5c1c 753d 4735 fb3c f214 aebd
000003f0: 6f95 bb3e 2ce8 043f cc3d d33e 6244 78be
0.095600516 0.07405765 -0.078954116 -0.018555023 0.0411975 -0.09254893 -0.08693102 -0.014644083
0.016835444 -0.024843771 0.0045264624 -0.010909732 0.128718 -0.021594113 -0.11564781 0.05103394
0.07929882 -0.16721736 -0.09346362 -0.09268295 0.02331321 -0.107870914 -0.15229955 -0.20715982
0.22943461 -0.14445381 -0.33272293 -0.08676337 0.038111728 0.01646127 0.113263525 -0.006876029
0.033655964 0.09058593 0.06750012 -0.01843596 0.08538036 -0.005842964 0.09260795 -0.07223757
-0.025264291 -0.06645316 0.082965836 -0.09467341 0.09685176 -0.14562431 -0.22925779 -0.16090752
-0.07092592 -0.20470618 -0.2300051 0.18252905 -0.107514516 -0.17695019 -0.068611205 -0.09249686
0.05853305 -0.037027523 -0.042217672 -0.016679864 0.025603611 -0.00814457 -0.09718692 -0.041579865
-0.04328841 0.030167332 0.008391735 0.043513548 -0.07217813 -0.06672211 -0.09153385 -0.06171258
0.13279252 -0.09421579 -0.20318541 0.19659972 -0.033102524 -0.16832852 0.42416817 0.30719867
-0.00331271 0.02037234 -0.07058876 0.026356889 0.07244 0.024987165 -0.06728455 -0.041811775
0.077698864 -0.0026879797 -0.0033657223 -0.07600363 -0.059349366 0.06906545 -0.01482531 0.07535403
-0.082301326 0.0059474893 0.049148966 -0.03933698 0.011707002 -0.12010194 0.04581874 0.20949395
-0.13990758 -0.07296495 -0.008403053 0.08702955 0.19394736 0.18326044 -0.08829955 0.07576756
0.33762637 -0.3822403 -0.17347717 0.25988272 0.05072081 -0.0047308044 -0.04963398 -0.16479155
0.008076461 0.17468539 -0.065547876 -0.128423 -0.052702647 -0.063097045 0.087799765 0.08399273
0.0385359 0.062143855 -0.05954391 -0.030003075 0.094444 0.03648885 0.083738424 0.20904985
-0.049586486 -0.5031243 0.24281333 -0.053042404 -0.24725875 0.07718223 0.17478807 0.014151508
0.23848338 -0.02070059 -0.3315906 0.22115465 0.05731811 -0.37188077 -0.028861858 0.08456115
-0.11072334 -0.09959458 0.03946978 -0.002751968 0.08957533 -0.0932356 0.0063360673 -0.022415182
0.09751747 -0.039679706 -0.26594087 0.21519972 -0.10739955 -0.24164172 0.16739489 -0.017981865
-0.19854034 0.028015498 0.29843932 -0.013473605 -0.0999488 -0.077823184 0.17182374 -0.27484304
-0.30039227 -0.08509905 -0.10923686 -0.36956152 -0.0742741 0.057631332 0.021299465 0.04410973
-0.0051361714 0.00995962 -0.058870062 -0.015998889 0.027429149 0.2347639 0.12745571 -0.05450295
0.002468731 -0.056119412 -0.051577248 -0.30015293 -0.07505967 0.009641465 0.46655124 0.32838127
-0.06363778 0.2497308 0.28302628 0.0146726 -0.60978204 -0.32374248 -0.13916953 -0.07397813
0.09410322 0.053436488 -0.06455843 0.09792866 0.0046607973 -0.0641876 -0.012693667 -0.103832394
-0.07098768 0.08615848 0.072324276 -0.0678119 -0.11850954 -0.0644437 0.07450864 -0.093084216
-0.08860302 0.18343174 -0.047891945 -0.1089384 -0.21059936 -0.0614154 -0.01740889 -0.45188826
0.029695343 0.13389213 0.13778421 0.13221057 0.014859009 0.05185574 -0.012620286 -0.07018201
-0.3126089 -0.015168286 0.049916465 -0.051313948 -0.057053562 0.04708159 0.06772279 -0.07465684
-0.031726446 0.0598415 0.030665053 -0.08500089 0.36637446 0.51916766 0.41258085 -0.24244836

conv4.bias f4 [10]
00000000: 940b 963d 5150 c3bc b79e c1bc 3258 38bd
00000010: 1374 233d 5c64 fc3c db59 c0bd a2f7 bdbd
00000020: 5b2c dfbd 18d5 473d
0.07326427 -0.023842009 -0.023635251 -0.045005985 0.03990562 0.030809574 -0.093921386 -0.09275748
-0.10897132 0.048787206

fc1.weight f4 [32, 640]
00000000: 2889 0f3d 418c a839 8211 ffbc 2a1d c53c
00000010: db46 643d 6c39 1e3c d5ba 4f3d d612 19bc
00000020: 61cf 03bc b1fe b33c 5031 02bd 8ea8 5bbc
00000030: d101 813d 1409 bb3c 84f4 9e3d 3271 883d
00000040: 3d88 063d 71eb 113c 6ea7 aebb c423 933d
00000050: 8b96 ed3d 4b01 6f3d 70be bf3d 6131 943c
00000060: a0de 013d bef8 f8bc e160 dbbc 8164 84bc
00000070: ca74 e33c 2bc4 103e 5b5d 053d 8859 7a3b
00000080: ee99 31bd dd65 5d3c f222 bebb 0a07 39bd
00000090: 54d2 5abc d586 cd3c c69f 5b3d ff68 a63b
000000a0: 4a54 1d3c 7b92 0cbd 1daf c8bc 7582 273c
000000b0: 4b5f 46bd 9d82 3d3c 163b d23b 9fda b83c
000000c0: ee87 10bc e8f3 fc3c ccb5 fcbc d55e 3ebd
000000d0: 7fc6 39bd dfdf eebc b357 363b 93e0 9ebc
000000e0: 1fa5 2ebd cc55 a23a 2ac9 0e3d 368a e33c
000000f0: c6cb 41bd 0f16 f8bb f509 92bd de22 bdbd
00000100: 8dda 63bc d29d 8ebd c141 dfbd ccef 98bd
00000110: c7b1 7f3d 3f56 9b3d 4a01 02be 3d73 0fbe
00000120: fb4d 3cbd 7f30 c4bd 3eaa bfbd 9a06 b43c
00000130: da75 7cbd 4db5 3c3d 2a30 aebd b3a7 13be
00000140: 835d 54bd 6b93 7dbd df29 5ebd 623b fa3d
00000150: 2766 8bbd b941 b3bb 4361 8abd de28 05be
00000160: 149d d3bd 8511 14bd dbd2 033d b7c3 cf3d
00000170: bd48 a7bc 588e 84bd 40f4 6e3d 44da a0bb
00000180: 0976 d7bd 2b10 52bd b299 2fbd d54d a2bb
00000190: a0a5 413d 0028 b73c 56b7 d63d 00f0 a43d
000001a0: 4e9b 6ebd 4459 a8bd a655 b5bd c5de f8bd
000001b0: 53ed 3d3d 34cc e33c c2fd 1abc 25c9 f53d
000001c0: b97c c5bd f141 88bd 56c6 f2bd 031e 2bbe
000001d0: 3689 663d bf1d 973d f55e 433d 1f26 0c3e
000001e0: 6fae f0bd cc86 1cbe 363e 2ebe 1aef 02be
000001f0: 2043 3a3d c662 323d 66eb 1d3c 5d04 1d3e
00000200: ae32 023e 4fda b73c f2b8 b33c 2cc2 463d
00000210: 35f0 99bc c4fe aabd f779 7ebd 941e 36bd
00000220: 6292 b63d 196a 8e3d bee1 cabc bf11 33bb
00000230: b4c3 22bd 42ba 8abb e7ec 02bd 6ad6 8fbd
00000240: dcdc 3e3e 500a b43d 5e4c 1bbd 852a 66bd
00000250: a364 da3b 229a c6bb 3bfd 02bd 6de7 9cbd
00000260: 46ef 223e 6a8e 023c 9184 553d 2cfd 4fbb
00000270: 67e9 eabc bcf8 cf3c 060b 14bc 4dcd 86bd
00000280: 78c2 b63d 1243 933c dc14 853c 3267 3f3e
00000290: 257c cf3d 69a4 a93d 0228 38bc a3eb e1bd
000002a0: cb6d 9bbd 420d 2fbe 6497 8bbb e4f2 ef38
000002b0: 4f79 9d3c 170c 7cbc 1e12 343d 60fe 50bc
000002c0: 5dd0 aebd 8bba 81bc 0bda 653d 3c1c a83c
000002d0: 0613 9fbc 8b53 04ba aeac 793d 78c2 e4ba
000002e0: dfde 7c3c d3d5 d63d 9f9b 8a3d 2d2a 20bd
000002f0: 76bb cd3c 9f47 4e3d 6620 7b3c cbe4 5d3d
00000300: 92b3 0dbd fefa d23c 6885 073d 3954 463d
00000310: eb8e 8c3c d51a 3b3c b21a 873c a0fc e53c
00000320: 8af7 a2bc 113c 803c 549b 24bc f043 403b
00000330: 2c5f 073d 07f2 bb3b fb49 963c 0fe8 3cbc
00000340: 4824 36bd 4110 ec3c 79aa cc3c 0cf6 d3bc
00000350: 83ae ce3c 977c 08bd b5d0 81bc 4103 15bc
00000360: 5116 31bd c2b7 45bd 025a 95bc 2b95 263d
00000370: 7d14 debc cc19 d8bc 1b0a ad3b c703 30bc
00000380: e02c a2bc 4f2d 2fbd fe7e fb3c 0c9b 15bc
00000390: cbbb cdbc 6364 1ebd 8f66 b7bb 7dd0 3bbd
000003a0: bfca 7eb9 e4b9 bebc af07 77bc f2dc 90bc
000003b0: 0db8 413c c24c cabc 0a7a e9bb 7862 b0bb
000003c0: 16ca b0b7 0e9c 6dbb b864 ac3b 7599 a2bc
000003d0: 15e8 a0bc bf38 473b b4de e5bc 15e8 f4bc
000003e0: 6369 9e3c 1b6c 1cbd 676a c93c 58d1 b6bc
000003f0: 7fea 27bc 420e 0b3d 00ec ee3b 7f59 cd3b
0.03504291 0.00032147954 -0.031136278 0.024061758 0.055731636 0.009657245 0.050715286 -0.00934287
-0.008045048 0.021972032 -0.03178531 -0.013406886 0.062991746 0.022831477 0.077614814 0.06662215
0.03284477 0.008906231 -0.005330018 0.07184556 0.116009794 0.058350842 0.09362495 0.018089952
0.031706452 -0.030392047 -0.026779594 -0.016161205 0.02776565 0.14137332 0.032559734 0.0038200337
-0.04335969 0.013513056 -0.0058025056 -0.04517273 -0.01335581 0.025088707 0.05361917 0.0050784345
0.009602616 -0.034319382 -0.024497563 0.0102239745 -0.048430722 0.011566785 0.006415735 0.022565184
-0.008821471 0.030878022 -0.030848406 -0.046477158 -0.045355316 -0.029159484 0.002782327 -0.019394195
-0.04263794 0.0012385189 0.034859814 0.027775865 -0.047313474 -0.007570989 -0.071308054 -0.09235166
-0.013907087 -0.069636956 -0.109012134 -0.074676126 0.0624254 0.075848095 -0.12695804 -0.14008804
-0.045972805 -0.095795624 -0.09358643 0.021975804 -0.06163583 0.04607134 -0.0850528 -0.14419441
-0.051846992 -0.061908167 -0.05423915 0.122183576 -0.068065934 -0.0054704812 -0.067568325 -0.13003871
-0.10332695 -0.03614952 0.03218351 0.101447515 -0.020420427 -0.064724624 0.058338404 -0.004908832
-0.1052056 -0.05128495 -0.042871185 -0.004953126 0.047277093 0.02235794 0.10484187 0.08053589
-0.05825358 -0.08220151 -0.08854227 -0.12151865 0.046368908 0.027807333 -0.009459915 0.12001256
-0.096429296 -0.06653202 -0.11854236 -0.16710667 0.0562832 0.073787205 0.04769798 0.13686417
-0.117520206 -0.15285796 -0.17015919 -0.12786523 0.04547417 0.04355123 0.009638643 0.15333696
0.12714645 0.022442965 0.021938775 0.04852502 -0.018791297 -0.08349374 -0.062128033 -0.044462755
0.08914639 0.0695383 -0.024765845 -0.002732381 -0.03973742 -0.0042336294 -0.03196421 -0.07023318
0.18638939 0.087910295 -0.037914626 -0.056192894 0.006664829 -0.0060608545 -0.03197978 -0.076613285
0.15911588 0.0079685245 0.05212838 -0.0031736596 -0.028675748 0.02538716 -0.009035831 -0.06582127
0.08923811 0.017976318 0.016245298 0.1869171 0.101311006 0.08283312 -0.011240007 -0.11031272
-0.07589301 -0.17094901 -0.0042599905 0.0001144165 0.019222884 -0.015383742 0.04396259 -0.01275596
-0.08535836 -0.015836021 0.056116145 0.020521276 -0.01941825 -0.0005047849 0.060955696 -0.0017452976
0.015433996 0.104900025 0.067679636 -0.039102722 0.025113802 0.050361272 0.015327549 0.054173272
-0.03459508 0.025754448 0.03308621 0.048420165 0.017157992 0.0114199715 0.016492222 0.028074563
-0.019893426 0.015653642 -0.010046799 0.002933737 0.033049747 0.005735639 0.018345824 -0.011529936
-0.044468194 0.028816344 0.024983631 -0.02587416 0.025229698 -0.033321943 -0.01584659 -0.009095014
-0.043234173 -0.04827095 -0.018231396 0.0406696 -0.027109379 -0.026379488 0.0052807457 -0.010743088
-0.019796789 -0.04276782 0.030700203 -0.009131204 -0.02511396 -0.038669955 -0.0055969427 -0.045853127
-0.00024298856 -0.023281999 -0.0150775155 -0.01768348 0.011823666 -0.024694804 -0.007125144 -0.005382832
-2.1074939e-05 -0.0036256346 0.00526103 -0.019848565 -0.019641915 0.0030398814 -0.028060295 -0.029895822
0.019337362 -0.038189035 0.02458687 -0.02231662 -0.010248779 0.033949144 0.007291317 0.0062667723

fc1.bias f4 [32]
00000000: 6505 033d e7d5 753d 1c7a 1a3c 6423 953c
00000010: 5cc9 edba b0d6 ac39 da68 323d d936 e13c
00000020: a056 1fbc 2319 7c39 6d60 b53c c2c9 243c
00000030: de38 ce3c 6287 933d 2b8b b0bb 9495 5ebc
00000040: 0ccb 0c3c bde8 f9bc f454 febc 9f7f eabc
00000050: a311 c4bb da5d 5b3c 6c4c 0cbc 3a3b 483d
00000060: c301 19bc da47 b5bc a1bf a0bc 713b e23a
00000070: 8a55 183c e9d6 6fbb 6996 223a 58df 703c
0.031987567 0.060018446 0.009428527 0.018205352 -0.0018141675 0.0003296635 0.043557025 0.027491974
-0.009725243 0.00024041957 0.022140706 0.010057868 0.0251736 0.072035566 -0.005387684 -0.013585467
0.008593332 -0.030506486 -0.031046368 -0.028625308 -0.005983548 0.013389075 -0.008563142 0.048884608
-0.009338799 -0.022128988 -0.019622626 0.0017260147 0.009297738 -0.0036596602 0.00062022224 0.014701687

fc2.weight f4 [10, 32]
00000000: 4f79 d3be b1fb aabe 2749 d5be b0da 11bf
00000010: dabf 4ebe 0d92 e4be 5a2e 8dbd 4de6 fabb
00000020: d689 d23d 754f 5b3e 1a41 09bb 101b 0dbe
00000030: 1294 6e3e 4774 8cbe 96d3 313e cc82 0e3d
00000040: 2b9f 7cbe d8a4 0f3e 5420 f3bd 3d4d ae3e
00000050: fcd1 4abe 5260 253e 2784 26be 4f01 80be
00000060: 36e0 7ebe 9954 a6bb 0ade c4bd ac04 733e
00000070: 8ab4 1bbe 0822 00bf 003d e4bc 8101 e7be
00000080: 6a2d cdbe ab9b 54bd b405 86bd cefc febe
00000090: 1302 8dbe 3108 d03d f7fd 58be 4715 ecbe
000000a0: 0242 7cbc 865e bdbd 38a2 853e 0fa5 da3d
000000b0: 6c02 e7bd 3851 223e d6c9 b73e b43b 2bbd
000000c0: 42d8 a0be da98 e2bd 8a1e 463e e6af b5be
000000d0: 2928 2a3e a920 01bf d0e8 91be e731 b8be
000000e0: ae6f ccbd f608 783d bc66 17bd 49ae cfbd
000000f0: 5474 b4bd 791f bcbe 2f66 4dbd e318 673e
00000100: 7f9b 95be 65ab 7e3e 6db8 413e 5415 c93e
00000110: 657c a5bd fbab d2bd d321 853d d691 03bf
00000120: a277 243e f265 6d3e 3c7c 08bf 01ec 11be
00000130: 0894 303e 705f 52be 60a1 0bbe 57c9 1bbd
00000140: 69e1 733c 2209 14be 771b 11bd e42b c0bd
00000150: 2141 0bbd 3cc3 8abe 327c 113d 6f9a 79bd
00000160: a50a 8fbe c612 1b3e e78c 83bd f3fd c5bc
00000170: 4004 9abe c063 cebe 775d 22be 78c2 93be
00000180: e116 393d c6d7 f3be cd67 0dbe ce7f 46be
00000190: d833 56be da16 92be f7c7 233e c259 5c3d
000001a0: 3c9d 373e 8d11 aebe 6fc1 b0bc 1929 c73d
000001b0: 0c4d 8cbd 24d5 75bd 7651 a6bd b44d bcbe
000001c0: ab5d 823e ae07 2f3e ae5b 85bd 3a49 e5bd
000001d0: c3c3 5abe 7e15 93be c373 16bf 2ef8 af3e
000001e0: 7651 6bbe 753c 893d 09bc 7ebe 2dc6 59bd
000001f0: 9608 09bf 1d63 5a3e c0ce 51bd 6d32 f23d
00000200: 11b5 88be 1950 933e 4fbb 94be 2bc5 11bf
00000210: 3425 f8be 64f2 32be a495 6fbd 203c af3d
00000220: 5e1b f2bc ba39 7cbe 21ea 8cbe a526 193e
00000230: 7efd 95be 9364 1dbf 709d aebe f9d5 923e
00000240: 672b c93b 857c 633d 75a0 983e f00f f7be
00000250: 1e25 823e a16e 52be cc1c 963e 729e 9ebe
00000260: 9eaf 59be 4954 313e 7374 2d3c ba84 40be
00000270: a3d9 07bf 76f3 0abe 92ad c43d 66ec 023e
00000280: ffe7 2c3e 9e78 64bd 12a8 25be d9c7 cbbe
00000290: 890d b73e 95bc 4dbd a534 733e aa0a 1d3d
000002a0: b294 813d 7de6 1a3d 656b 45be 1343 37be
000002b0: 4304 4dbe d85b ba3d 8f63 74be d1d7 10be
000002c0: aa86 c0be 0000 d7be ee9b 00bd d09c 9bbe
000002d0: 07d3 8dbe 7419 d4be 54bf 8ebe d3c7 c9bd
000002e0: 3a5e 383e f0d8 22be 9f79 a13e f4e3 87be
000002f0: 826c 32be 9f69 fabe a0b4 c43d 4195 33be
00000300: 5465 573e a1cf 473e 8eff cfbe 3aa8 40be
00000310: c296 a2be ab49 20be 565a 06bf 4cbc 66be
00000320: 846a 553e fe49 e1bd d0d1 40be 33f9 73be
00000330: 3a9d 37be d1df 69be d875 92be 51d8 ffbe
00000340: 8ed9 483e 20c1 e2be a806 57bd b25a 16be
00000350: 7dc8 c8bd cfa0 193d 5332 b63d 564e dc3e
00000360: 79b2 c7be 40b7 1e3d bd54 1b3d b277 4abd
00000370: ec04 23be 38bb 5ebc 7a2a 03be c9ea ce3e
00000380: 2f03 9dbd fde3 babd 1d59 943d 1723 b4be
00000390: c7fd c4bd f452 c5be e160 abbd e1a9 d4bd
000003a0: 4076 16be f358 023e 47e7 0fbe 856a aa3d
000003b0: 94d2 d83d 8e64 02bf c54f 64be 0cdb 11bf
000003c0: a334 4abd 0098 5abe e826 3fbe b754 bbbe
000003d0: 22cf d23e 4968 163c a9b1 15be c24f 00bf
000003e0: d0bc f4bd 561f 863d c1c2 573e 20ce 293d
000003f0: 9206 e93e 4c97 b83d 3e74 29be bc40 82bd
-0.4130349 -0.3339515 -0.41657373 -0.56974316 -0.20190373 -0.44642678 -0.068936065 -0.0076568485
0.10280196 0.21417029 -0.0020943345 -0.13779855 0.23298672 -0.27432463 0.1736587 0.034792706
-0.24670093 0.14027727 -0.118714005 0.34043303 -0.19806665 0.16150025 -0.1626135 -0.25000998
-0.24890217 -0.005076003 -0.09612663 0.23732251 -0.15205589 -0.5005193 -0.027861118 -0.45118335
-0.4007371 -0.05190627 -0.065440565 -0.4980225 -0.27540645 0.101578124 -0.2119063 -0.46109983
-0.015396597 -0.092465445 0.26100326 0.10676014 -0.11279759 0.15851295 0.35896176 -0.041804984
-0.31414992 -0.1106431 0.19347587 -0.35485762 0.16616882 -0.5044046 -0.28497934 -0.35975572
-0.09982239 0.06055542 -0.03696321 -0.10140664 -0.0881125 -0.36742762 -0.050146278 0.22568087
-0.29220197 0.2487007 0.18918009 0.39274085 -0.08080367 -0.10286709 0.06500592 -0.51394403
0.16061261 0.2318342 -0.53314567 -0.14250185 0.1724397 -0.20544219 -0.13635778 -0.03803381
0.014885285 -0.14456609 -0.035426583 -0.093833715 -0.03399766 -0.27102077 0.035518833 -0.060938295
-0.2793781 0.1514388 -0.06423359 -0.024168944 -0.30081367 -0.40310478 -0.15855967 -0.28859305
0.045187835 -0.4762556 -0.13809128 -0.19384691 -0.20918214 -0.2853306 0.1599425 0.053796537
0.17931074 -0.33997765 -0.021576611 0.09724636 -0.06850633 -0.06001772 -0.08121006 -0.36778033
0.25462088 0.17092773 -0.06511627 -0.111956075 -0.2136374 -0.28727335 -0.5877039 0.34369034
-0.22980294 0.067009844 -0.24876417 -0.05316751 -0.53528726 0.21326871 -0.051222563 0.11826024
-0.26700643 0.28772047 -0.29049155 -0.5694148 -0.48465884 -0.17475277 -0.058492318 0.0855639
-0.029554065 -0.24631396 -0.27522376 0.14956148 -0.29294962 -0.6148159 -0.3410449 0.28678873
0.006139207 0.055538673 0.2980992 -0.48254347 0.25418943 -0.20550014 0.29318845 -0.3098026
-0.21258399 0.17317308 0.010586846 -0.18800631 -0.5306646 -0.13569435 0.096034184 0.12785491
0.16885374 -0.055779092 -0.16177395 -0.3980091 0.35752514 -0.050228674 0.23750551 0.03834025
0.063271895 0.037817467 -0.19279249 -0.1789668 -0.20021157 0.09099549 -0.23866104 -0.14144827
-0.3760274 -0.41992188 -0.031398706 -0.30393076 -0.27700064 -0.4142567 -0.27880347 -0.098525666
0.18004695 -0.15903068 0.31538102 -0.26541102 -0.17424205 -0.48908707 0.09604764 -0.17537405
0.21034747 0.19512798 -0.4062466 -0.18814173 -0.31755644 -0.15653102 -0.5248159 -0.22532767
0.20841414 -0.11000441 -0.18830037 -0.2382553 -0.17931071 -0.22839285 -0.28605533 -0.49969724
0.1961424 -0.44287968 -0.052496582 -0.14683035 -0.09803865 0.037506875 0.08896317 0.43028516
-0.3900335 0.03874898 0.03792261 -0.049430557 -0.15919846 -0.013594441 -0.12809172 0.40413502
-0.07666623 -0.091255166 0.072435595 -0.3518302 -0.09618717 -0.3853985 -0.083680876 -0.10383964
-0.14693546 0.12729244 -0.14053069 0.08321098 0.105870396 -0.50934684 -0.22296055 -0.56974864
-0.049366605 -0.21347046 -0.18667185 -0.3658807 0.41173655 0.009180137 -0.14618553 -0.501217
-0.119500756 0.065489456 0.21070386 0.04145634 0.45512825 0.090132326 -0.16548249 -0.06360003

fc2.bias f4 [10]
00000000: 968f 3ebe 804b 01be 9bf7 47bd 0b3a fabb
00000010: b020 39bd 8595 9ebd 70e3 e7bd d9c7 e3bd
00000020: 7904 95bd 2366 1dbe
-0.18609461 -0.12626457 -0.04882012 -0.007636314 -0.04519719 -0.07743362 -0.11322677 -0.11122102
-0.07276244 -0.15370993
