Assignment_4_2/MyBestSmall.pt (torch_old, 19393 bytes, 10 tensors)

conv1.weight f4 [7, 3, 3, 3]
00000000: 8583 89bd cb84 023c 3ded 3b3d 50ee 61be
00000010: 89b5 f1bd 8969 81be 53de 2b3e b7df e63d
00000020: 980c 5b3e c1ee adbd 3a18 80be 2cb0 72bc
00000030: ce0a e4be 5758 e0be 9214 d6be 5cd8 25be
00000040: f64c b6be 749b 3e3e 5329 22bc e86f 543c
00000050: 2d72 b33a 239c a0be ef6a ddbd ad7e b2be
00000060: 3f5b 2fbe 0a74 81be 72de 71bc 6a8f d73d
00000070: ffe4 70be 60a4 86be b301 f1bd 9e7b b1bd
00000080: 09df 99be 8266 71be e42f 9cbe c7a3 08be
00000090: 9317 4abe 36a1 e9be 4eb8 94be a227 33be
000000a0: ebf6 9abe 2b97 72be a4db 3bbe 604c babe
000000b0: 1165 803c c50f d7bd f110 98be 28ec 23be
000000c0: b63b e0bd 7f83 51bd f8fc d3bc c046 16be
000000d0: 3103 35be af52 183e 52a5 8c3d 01de 9f3b
000000e0: 009d ddbd 51ed 243e 7aa9 b73d de67 9fbd
000000f0: e458 003e d57d 2439 1fe2 0dbe aef3 01be
00000100: 8431 1cbe 4b0d 04be ea7e b23b 6530 d5bd
00000110: 50a1 313e 693e 9b3d 4898 6f3d 3404 6d3e
00000120: 0776 d6bd 2f7c b93c a9fc 2e3e fffc a83d
00000130: 28aa 9a3d 312c 7c3e 74be 3d3d 6811 273e
00000140: c3e6 a8bd 4492 933d 8a9c 183d 13f9 2b3f
00000150: aa19 a63e a732 39be 8610 053f 7221 b33d
00000160: e012 45bd abc1 623e 3cfa b6be 3c3e a3be
00000170: aece b5bc eec3 a9bd e7a2 eabe 59c3 ef3d
00000180: f604 7dbe ad1c 79be 127f 82bd 3433 b4be
00000190: 03a8 90be 4c00 723e c4fe 46be f5e2 e7be
000001a0: 020b 013e 17dd 06be 392a aabe f22d 7dbd
000001b0: 9e25 0c3f 2330 4e3d 57a8 073f 4e4d eb3e
000001c0: 7479 babd 8c86 07bd 0bc3 9c3e 951b 7bbd
000001d0: 4909 0f3f e75c 633d 76d9 f9be 188a 5a3d
000001e0: 99e3 853c 5ee1 2abf b1c9 00bf 60c7 bd3d
000001f0: ae6b 01bf 3429 10be fc7f 0fbd 8cc1 c3be
00000200: 36b9 9ebd 5ba4 853d 6b5e 2fbe 8bad 3dbe
00000210: 3c15 c83e 2bba 5dbe 58be 84bd 28a4 1b3d
00000220: 09a7 af3d 3104 963d b2fa 27be 0428 26bd
00000230: 626b 71be 1bbe 873c 391d 21bc 1619 c63c
00000240: a55b ee3b f030 3c3d f242 813d 6156 b8bd
00000250: 2fc2 273e 78f2 523e eea2 58bd 368d 813e
00000260: 220e 993d 1ced 8e3e 495c 843e 2e9d 09be
00000270: f330 833e 393f be3d d227 ac3d 2128 bd3c
00000280: 32c4 a0bd f81e 953d f150 2a3e 31ec 3d3e
00000290: b602 51be 1ffa d9bd e7dc 103e 7fbc 95bd
000002a0: 2e25 2f3d c5e3 5abd 58a2 aabd 3fdc 1d3e
000002b0: 2cd9 2fbe 60da 1ebe 88ab 113e 4b15 ba3d
000002c0: 97f8 9fbe 528a 883e ca43 023e 2fd4 99be
000002d0: ab9c 943e ccb3 123d aa55 e5bc 27bf 9b3e
000002e0: 0564 3f3d 9bd7 14be cac4 533e b289 173e
000002f0: 5cf7 a9be
-0.067145385 0.007966231 0.045880545 -0.22063565 -0.11802203 -0.2527583 0.16784029 0.11273139
0.21391523 -0.08492804 -0.25018483 -0.01481251 -0.44539493 -0.43817398 -0.4181257 -0.16195816
-0.35605592 0.18613988 -0.009897548 0.012966134 0.0013690643 -0.31369123 -0.108114116 -0.3486227
-0.17124651 -0.25283843 -0.014762508 0.10525401 -0.23524855 -0.26297283 -0.11767902 -0.08666156
-0.30052975 -0.2357426 -0.30505288 -0.13343726 -0.19735555 -0.45630807 -0.29046863 -0.17495587
-0.30266508 -0.23690479 -0.18345505 -0.36386395 0.015673192 -0.10501055 -0.29700425 -0.16008055
-0.10948889 -0.051150795 -0.02587746 -0.14675426 -0.17676999 0.14875291 0.0686747 0.00487876
-0.10820961 0.16106154 0.08967872 -0.07783483 0.12533909 0.00015687135 -0.1385579 -0.12690613
-0.15253264 -0.12895696 0.0054472582 -0.10409621 0.17346692 0.07580263 0.058494836 0.23146135
-0.10471731 0.022642223 0.1708857 0.0825138 0.07551986 0.24626233 0.04632421 0.16315234
-0.08247139 0.07205632 0.037258662 0.6717693 0.32441455 -0.18085729 0.5197834 0.087466136
-0.048113704 0.22144191 -0.3573779 -0.3188342 -0.02219328 -0.08289324 -0.4582741 0.117071815
-0.24708924 -0.24327345 -0.06371893 -0.35195315 -0.28253183 0.23632926 -0.19433123 -0.45290342
0.12601855 -0.13170277 -0.33235338 -0.061811395 0.547449 0.050338876 0.5299124 0.45957416
-0.091051966 -0.0330873 0.30617556 -0.0613056 0.55873543 0.05550852 -0.48798722 0.053354353
0.016343879 -0.66750133 -0.50307757 0.092665434 -0.5055493 -0.14078218 -0.035034165 -0.38233602
-0.0775017 0.06525489 -0.17125861 -0.18523233 0.390787 -0.21653049 -0.06481618 0.03799835
0.08576781 0.07325018 -0.16404226 -0.040565506 -0.2357612 0.016570142 -0.009833627 0.024181884
0.0072741085 0.045945108 0.06311597 -0.090008505 0.16382669 0.20600307 -0.052889757 0.25303048
0.07473399 0.27915275 0.25851658 -0.13438866 0.25623283 0.092894025 0.084060326 0.023090424
-0.07849921 0.072812974 0.16632439 0.18547131 -0.2041119 -0.1064341 0.14146768 -0.073113434
0.042760067 -0.053439874 -0.08331746 0.15416048 -0.17172688 -0.15512991 0.1422559 0.090860926
-0.31244346 0.2666803 0.12721172 -0.30044696 0.29025778 0.035816 -0.02799495 0.30419275
0.046726245 -0.14535372 0.20680538 0.1479862 -0.33196533

conv1.bias f4 [7]
00000000: f115 86be 644c 34bd aa67 00be 3235 06be
00000010: 71bd 703e f211 b23d 20e2 c43d
-0.26188615 -0.044018164 -0.12539545 -0.1310623 0.23509766 0.08694829 0.096134424

conv2.weight f4 [7, 7, 3, 3]
00000000: c3c3 383e 3469 d73d 39ee e7bd a3f8 6b3e
00000010: 5bf9 ae3e 6147 a13e a177 393e c1b9 8a3e
00000020: efe3 663e 15e4 95bd da5e 4a3c 7a1c a2bd
00000030: 1d34 8d3d 3bc9 0a3e c4a8 913c daf3 223d
00000040: ea8f 943e 6232 c3bc 1ed9 10be 01cb 41be
00000050: 6db7 283c ec84 aabc 6002 c23b 1876 e93d
00000060: f4f5 debd 2775 24be 44b8 f2bc 5c24 0f3f
00000070: 401f 253f 7a13 bc3e e1a8 743e 0574 ec3e
00000080: ef5a fd3e df28 cbbd 5ccc 203d 17ee aa3e
00000090: 6e14 c93e 73fd 3a3f 2879 c83e 6283 b43e
000000a0: b84e 073f 55ee e43e d40d 2e3e d98e 043f
000000b0: c927 fc3e da8e 48bd ca98 89be b84d 963c
000000c0: a283 8e3d ebd8 38bd c453 2c3d 52c8 0d3e
000000d0: 9c79 32be d3c6 dcbd d203 2f3e 5d93 e23d
000000e0: ad43 43bd ecda c13d 76d6 513e 194a 98be
000000f0: 7c33 cb3e 6cc5 8c3e 4f7c 8dbd 805b 06bd
00000100: c140 8bbd 1cf6 dbbd b62f a43d 9d05 f63d
00000110: e0a7 d8bb b2fe 03be e080 3bbd 7e2f efb9
00000120: 193a 6f3d 9f68 ad3d 7c16 9d3c 9041 52bc
00000130: cc38 b3bd 5332 dfbb 3661 80bd 6f9b e2bd
00000140: e546 b7bd 3eea f4bd 21f4 993c f243 eebc
00000150: 9be1 89bd 8cba ed3c f7a9 bebb 8d8d b2bd
00000160: 06c1 753d 14aa e6bd 58a5 1f3d 1bfd d53d
00000170: 858c 8f3d 63c6 d43d 8a37 79bc e15d 873c
00000180: e188 a2bd 5192 5abc a22d 9a3d d7b6 bdbc
00000190: b1c6 04be 8078 c73d da79 b63d db62 de3d
000001a0: 02c4 f3bc 029a 5ebd 697b bdbc a1e7 45bd
000001b0: a997 8c3c 08e8 17bc fff8 a0bc 7fca b7bd
000001c0: c141 17bd 4aee 9bbd 4b5d 8f3c 2297 b83d
000001d0: 2f1f 9e3d 68be 313c f2be c7bd f4a5 063c
000001e0: ee4e 14bc 4a35 c23d 45d9 243d dc5a 9f3d
000001f0: dd10 d43d 2e1c 3bbc 0b5d 17be 1869 9bbd
00000200: c59b 643e f286 12bd c95b 843d e4b3 c73d
00000210: 6465 543e 446a 9d3d b0c7 673d 1a0b 01bc
00000220: a5ab 00bc 5dc3 633e ecf7 043d 2104 193e
00000230: d128 ab3d 704c 9a3e 19e6 9d3e 1e2d 2f3e
00000240: b7b0 c3bd eb6f a4bd 9538 343c 31ac 95bd
00000250: a95a 3abb 1d93 73bd 2abf 8cbd 6873 153c
00000260: 5470 cebd dbbe cfbc 2d2f 97bd 37d8 09be
00000270: adc2 60bd f751 cebd f72b b1bc 4b6b de3d
00000280: 2a07 853d 2477 98bd 7715 f7bd b368 63be
00000290: e452 0abe 8221 ebbc 7048 ddbd 13e0 56bd
000002a0: 12f5 1f3e bf0d adbd 4b5d 46bd 00b3 2cbd
000002b0: 82ef 33bd 362e c63d 4e15 b9bd f306 df3c
000002c0: 416b f33c ff31 5b3c 2d06 aebd 8b0c d43d
000002d0: f82c f2bd 28e6 7bbd 520c 2f3e 2126 47bd
000002e0: 7729 61bd 5a57 e8bd dc0f 29be d8c9 08be
000002f0: ff74 a3bd e60b d2bd 3ee1 413d 6def 5bbd
00000300: 405c 84bd ee74 adbd e108 f23d c694 603d
00000310: 521e fe3c 4265 603c 7d07 ae3d 42b0 07bd
00000320: a2b2 5dbd 2cc2 3abd 640c d5bd acce d3bc
00000330: c6f3 853d 36cc 233d 025c c13c e7cd ae3b
00000340: 467e e73d 2b93 da3c a748 24bd da15 8dbd
00000350: 95be d2bd c2c7 aebd 90d3 603d 37cd 073e
00000360: 0e06 32bd 7e0d 9f3d 1660 7abd 3e78 743d
00000370: 3872 ae3d 39d7 f3bd 64c9 5a3d 542b 0dbd
00000380: 62c1 1ebd 9b80 ab3d 9e24 97bd b5ad b53d
00000390: 65ff 8d3c dcb9 d6bd 68ee 47bc e9c0 073d
000003a0: 1bc7 8ebd 827f b03d d6c0 82bd 4309 f83d
000003b0: 3e3d 59bd 5d52 1d39 4102 a23d b192 15bd
000003c0: 671f 9bbd a638 13bd 99f5 b63d 5d93 c3bd
000003d0: a466 b7bd fd59 bf3d a1be bd3c abd4 f9bc
000003e0: 2dd5 f13d 26ee 86bd e5fb 843b 9684 dbbc
000003f0: b846 e7bd 7c69 e3bd ed37 4f3e ab00 c73c
0.18043427 0.10518113 -0.11324734 0.23044066 0.34174618 0.3149977 0.18112041 0.27094844
0.22547887 -0.07318894 0.012351716 -0.07915588 0.068947054 0.13553326 0.017780669 0.039783336
0.29016048 -0.023827735 -0.14145324 -0.18925096 0.010297638 -0.020815335 0.0059206933 0.11399478
-0.108867556 -0.16060315 -0.02962888 0.55914855 0.6450081 0.3673361 0.23892547 0.46182266
0.4948344 -0.09919905 0.039257392 0.33384773 0.392734 0.7304298 0.39154935 0.35256487
0.5285449 0.44713083 0.16997463 0.5178047 0.49249104 -0.04896436 -0.2687438 0.018347606
0.06958701 -0.045128744 0.042072073 0.13845947 -0.17429203 -0.1078011 0.17091301 0.110632636
-0.047671963 0.09465584 0.20491967 -0.29744032 0.39687717 0.2749437 -0.069084756 -0.032802105
-0.0679946 -0.10740301 0.08016913 0.120127894 -0.006611809 -0.12890127 -0.0457772 -0.00045621017
0.058405016 0.084672205 0.01917576 -0.012833014 -0.087510675 -0.006811419 -0.062685415 -0.11064803
-0.08949069 -0.11958741 0.018793168 -0.029085133 -0.06732484 0.029019617 -0.005818601 -0.08718405
0.059998535 -0.112629086 0.038976043 0.10448667 0.07009224 0.10389402 -0.015210995 0.016524257
-0.07936264 -0.013340549 0.07528235 -0.023158474 -0.1296642 0.097397804 0.0890996 0.10858699
-0.02975655 -0.054346092 -0.023130136 -0.0483166 0.017162161 -0.009271629 -0.01964998 -0.0897417
-0.036927942 -0.076138094 0.01750054 0.09013201 0.077207915 0.010848619 -0.09753217 0.008218277
-0.009052021 0.0948282 0.040246267 0.07781002 0.10354779 -0.011420293 -0.14781587 -0.075884044
0.22325046 -0.035773225 0.06462819 0.09751108 0.20741802 0.07686284 0.05658692 -0.007876182
-0.007853423 0.22242494 0.032463 0.14942981 0.083573945 0.30136442 0.30839613 0.17107055
-0.0955519 -0.08029159 0.010999818 -0.073082335 -0.0028435385 -0.05946647 -0.06872399 0.009121753
-0.10080019 -0.025359562 -0.07382045 -0.13461386 -0.054873157 -0.10074227 -0.02162741 0.10860308
0.06495507 -0.07444599 -0.12064641 -0.22207908 -0.13508183 -0.028702501 -0.10804832 -0.052459788
0.1562083 -0.084498875 -0.048428815 -0.042162895 -0.043929584 0.09676783 -0.09037267 0.027224993
0.029714229 0.013378619 -0.08497272 0.10353955 -0.11824983 -0.06149879 0.17094544 -0.048620347
-0.054971185 -0.11344786 -0.16509956 -0.13358247 -0.079812996 -0.10256176 0.04733395 -0.05369513
-0.06462908 -0.08469568 0.118181 0.05482938 0.031020317 0.013696017 0.08497522 -0.033127077
-0.054125436 -0.045595333 -0.10402754 -0.025855385 0.06540637 0.039989673 0.023603443 0.005334604
0.113033816 0.026681503 -0.04010835 -0.068889335 -0.10290257 -0.085341945 0.05488926 0.13261877
-0.043462805 0.07766245 -0.06112679 0.059684984 0.08517879 -0.11906285 0.053414717 -0.03446515
-0.038758643 0.08374139 -0.07380031 0.088710226 0.017333696 -0.104846686 -0.012202837 0.033142958
-0.0697157 0.0861807 -0.06384437 0.121111415 -0.05303692 0.0001500337 0.07910586 -0.03651685
-0.07574349 -0.035942696 0.08933563 -0.09549592 -0.08955124 0.09343336 0.023162188 -0.030496916
0.11808238 -0.06588392 0.0040583485 -0.02679662 -0.112927854 -0.11104104 0.20236178 0.02429231

conv2.bias f4 [7]
00000000: c840 8bbe 2eaf 183e bd06 7f3d 8545 063e
00000010: d1f2 2bbb ce6e cebc 986c 4b3d
-0.27197862 0.14910576 0.062262286 0.13112457 -0.002623726 -0.02519932 0.04966411

conv3.weight f4 [7, 7, 3, 3]
00000000: c721 ddbe 76c6 ab3e 6437 6e3d 6eb1 67bf
00000010: 8239 abbd dfa1 003f 9c77 04bf da13 d8be
00000020: 355f 183f ff78 5e3b b992 98bd 66d7 2c3d
00000030: 4398 01be a1ee d33d fa45 0dbe 9c73 16bd
00000040: 1855 71bd 22ce 7f3b 57a7 1a3d b81d 1fbd
00000050: c247 933e 003d 64bd e602 8c3c 2b98 ee3d
00000060: 088a db3d 22c0 043d 0344 893d e1e1 9fbd
00000070: 6472 d6bd 05bc 7abd 2beb afbd fb08 08ba
00000080: 8519 bc3d f41a d03d eaea 07bd c531 563d
00000090: 9620 e1bd 45e3 213e efa3 6a3c 52b1 75bd
000000a0: a980 3a3e 0d22 fb3d c1d9 67be 8e64 2a3e
000000b0: 7cd5 0f3e ff32 0dbd e5a6 123d 1e46 363e
000000c0: 7dbe 21be 1498 3ebe 1e85 ea3d aae1 463e
000000d0: 7b9d 21be 91eb 51be a6c0 8abc 7d3b 3dbd
000000e0: f1e7 5c3d a63f f5bd 0cd1 ee3d 68ef 8abd
000000f0: c09b c5bd 1004 e3bd 0067 023e fd5c 3b3f
00000100: 303e 853e 5e7e f03e 6dc6 1d3f 4ad7 33be
00000110: 7298 05bd 8d0d a7be 6067 5fbf d8d3 82bf
00000120: 9473 40bc 5a6e abbd 7642 793d af82 abbc
00000130: bffc f03d 6c92 ed3b 2b8d 0c3d ce06 afbd
00000140: 716a 66bd 599e c13d bb55 fc3d 01fb 833e
00000150: 12f7 2b3e 1640 6f3d 16fe e9bc d760 a3bd
00000160: 2b97 ea3d fe8c 61be 26c4 063e d1b3 033c
00000170: 7a02 37bd ee3e 063d d86a d3bd 9c6a 57bd
00000180: c2b5 5a3d 023d a83c edb9 cabd 617b 0b3d
00000190: 15fd 343c 2afb 07bc ce44 06bd ca92 943d
000001a0: 9a94 d6bb eec4 cd3d 079b 203d e1fe f4bd
000001b0: 6a77 853e 82d0 bfbc 0fed 1e3e d8a6 27bd
000001c0: 8bde 94bd 0267 bcbd ce2e 92be 3bcd 3cbe
000001d0: f39b 6ebe 8397 08be 8462 693c bc19 3f3e
000001e0: 30a1 4b3d ed1d c03b bf2a 903e 109c 363d
000001f0: 47a2 f73d e259 e13d 1a73 f23c 3ce9 3d3c
00000200: 8efa 033e 16d1 fabe 4b18 e73d 2cb5 f73e
00000210: d40b 8fbe b49b e63e 7408 233e 85a8 80bd
00000220: 2056 c83d 1953 f93d 2b6a a6bd 32a1 c2bd
00000230: 1823 e2bd 4a55 80bd 8513 d53c 2ee2 00be
00000240: 3bb1 c5bd e849 67bc 865c 62bd e184 b2bd
00000250: 126e ac3d 4331 cc3d ec7c 623e dd95 2d3e
00000260: 7bd3 ba3d 6ff9 76bd e566 9dbb 83ff a2bd
00000270: dd0a 89bd 7f74 dc3c 74fe 57bb 9193 583d
00000280: 220f b33d d97f 2fbb e214 243d 627f 47bd
00000290: f69b f43d 1b31 a53d 3ffa c1bc a1c4 a03c
000002a0: e28f 223e b7d7 c6bd e83f 283e a295 a9bd
000002b0: c97d cd3d 9a3e 283e 6373 b1be 100e b2be
000002c0: 3e82 853d b628 273c 7563 3cbe 8c45 94be
000002d0: 8f56 9cbe 7b86 81be 84a0 6cbe a20f 8c3d
000002e0: 2cc2 baba fa23 02be 294c 6bbd fd2b 5e3d
000002f0: cf8f 81bc 6987 5b3f 9e39 013f bf46 74bf
00000300: eb5e 4f3e 9708 7c3f e121 85be a368 c0bf
00000310: 8587 8a3e 3f3a 6c3d badf d23c 4136 42bd
00000320: 3629 8738 57e7 da3d fec3 8bbd 78fb c0bc
00000330: 6db0 9bbd 3e9f c0bd 007f 923d 00d3 52bd
00000340: d1aa f43d 093b ebbc 3133 b2bd 8dd4 26be
00000350: 2d24 7bbd 2a19 e0be 8b83 87be f765 eebd
00000360: 5295 dfbd fb5e 12bc c910 133e dcda 1b3d
00000370: 3fc1 883c 33aa a63d d160 973c b3d5 5a3d
00000380: da2e 8fbd 935e be3d 6256 7a3d 12b6 09be
00000390: b302 303e 8b3d 213e 2fc8 3c3c 78a6 b0bc
000003a0: f99e a73d 4d68 923d da9e 123e e779 a43e
000003b0: 0de1 be3d eb99 87bd 0d12 203e 7fca 353e
000003c0: c3ae ebbd 5813 b83d 61d0 91bd 0c99 153d
000003d0: 0475 f4bd db12 12be 3741 843e 399b 2c3e
000003e0: bb9e 8f3d 69db c53c ffd8 29be 6a8e 5d3d
000003f0: 777d 72bf e58c 39bf a9f5 653b 3ef0 7b3e
-0.43189833 0.3354985 0.058158293 -0.9050511 -0.08360578 0.50246996 -0.5174501 -0.42202646
0.59520274 0.003394663 -0.0744986 0.042197607 -0.1265574 0.10348249 -0.13796225 -0.036731347
-0.058919042 0.0039032777 0.037757244 -0.0388467 0.28765684 -0.055722237 0.017091226 0.116501175
0.10719687 0.032409795 0.06702425 -0.07806755 -0.10471037 -0.061214466 -0.085897766 -0.00051893265
0.09184555 0.10161391 -0.033183016 0.052293558 -0.109925434 0.15809353 0.014321311 -0.05998356
0.18213142 0.12262354 -0.2264166 0.16639921 0.14046282 -0.03447246 0.035803694 0.17800185
-0.15795322 -0.186127 0.11451171 0.19422022 -0.1578273 -0.20500018 -0.016937565 -0.04619931
0.053932134 -0.119750306 0.11660966 -0.06783944 -0.096488476 -0.11084759 0.12734604 0.73188764
0.26024008 0.4697141 0.616309 -0.17562595 -0.032616086 -0.32627526 -0.8726711 -1.02209
-0.011746306 -0.08370657 0.060854398 -0.020936338 0.117669575 0.007250121 0.034314316 -0.0854622
-0.056253854 0.094540305 0.12321039 0.25777438 0.16793469 0.058410726 -0.02856354 -0.07977455
0.11454614 -0.2202644 0.13160762 0.008038477 -0.044680096 0.03277486 -0.10323113 -0.052591905
0.053395994 0.020536903 -0.09898744 0.03405321 0.011046668 -0.008299628 -0.03278046 0.0725456
-0.0065484764 0.10047327 0.039210346 -0.11962677 0.26067668 -0.023414854 0.15520118 -0.0409306
-0.07269009 -0.09199335 -0.28551334 -0.18437664 -0.23301677 -0.13339047 0.014244679 0.1866216
0.049714267 0.0058629424 0.28157613 0.044582427 0.12091499 0.11003472 0.0295959 0.011591252
0.12888548 -0.48987645 0.112839304 0.4838041 -0.27938712 0.45040667 0.15921193 -0.062821425
0.09782052 0.12174053 -0.08125719 -0.09503402 -0.1104185 -0.062662676 0.026010284 -0.1258628
-0.09652945 -0.014116742 -0.05526402 -0.08716751 0.08419432 0.099703334 0.22117966 0.169517
0.09122368 -0.060296472 -0.0048035257 -0.07958891 -0.06691525 0.026911018 -0.0032958062 0.052875105
0.08743121 -0.0026779084 0.040058978 -0.048705466 0.1194381 0.08066007 -0.023678897 0.01962501
0.158752 -0.09709113 0.16430628 -0.08280493 0.10033757 0.1643013 -0.34658346 -0.34776354
0.06518982 0.010202577 -0.18397315 -0.2895931 -0.3053479 -0.25297913 -0.23108107 0.06838919
-0.0014248542 -0.12709036 -0.05744568 0.05424117 -0.015815644 0.85753495 0.5047854 -0.9542045
0.20251052 0.9845061 -0.2600241 -1.5031933 0.27056518 0.057672735 0.025741447 -0.04741502
6.444978e-05 0.10688656 -0.06824492 -0.02355741 -0.0760201 -0.09405373 0.071531296 -0.051470757
0.11946643 -0.028714674 -0.0870117 -0.16292019 -0.061313797 -0.437692 -0.26467547 -0.11640542
-0.109171525 -0.008933778 0.14361872 0.038050517 0.01669371 0.08137932 0.018478783 0.053426456
-0.06991358 0.09295382 0.061117537 -0.1344836 0.1718853 0.15746133 0.011522337 -0.021563753
0.081846185 0.071488 0.1431841 0.32124254 0.09320269 -0.066211544 0.15631886 0.17753027
-0.115079425 0.089880645 -0.07119823 0.03652291 -0.119363815 -0.14265005 0.25831005 0.16856088
0.07012697 0.024152474 -0.16586684 0.054090895 -0.94722694 -0.72480613 0.0035089052 0.24603364

conv3.bias f4 [7]
00000000: 3355 0b3d fd87 9fbd 79a9 2cbe 6e16 b6bd
00000010: e805 ebbd 3437 8e3c b61e 393c
0.0340168 -0.077896096 -0.16861524 -0.08890997 -0.11475736 0.017360307 0.011298826

fc1.weight f4 [18, 175]
00000000: bcc0 4cbe 9b81 75be 9dfc 853b f9cf 9dbc
00000010: a575 f9bc 5409 dbbe b81e d1be 2c9d 9abe
00000020: e877 7c3d a45d 39bc cf9a 53be 3a55 08be
00000030: 581f e83c 6b98 06bd 732a afbc b4ee ac3c
00000040: 5994 993c 4e84 263e 55d0 613e 830e 4b3d
00000050: 0551 55bd 4000 3dbc c0bf 1c3e 20c8 893e
00000060: 918f 843e 47e7 b93d ea41 8bbc be17 2c3d
00000070: 569d 313d 274f 16bd 9da2 b93e ee2c 8e3e
00000080: b151 163a ff4c 4bbe 076d 4cbe 72c9 ae3e
00000090: feac 093e d388 53be 3a7b a4be a8cd 16be
000000a0: 6ee1 92be c02b 1c3d 11f5 6d3d 006e d73c
000000b0: 15d0 c5bd a86d bc3d 790c f43d 1eb5 923e
000000c0: b9e7 323e 93af 20be f5bb 51bd a53d 52be
000000d0: e1b5 63be 8e4e 26bd f813 82be b14a 313b
000000e0: 8653 a7be 20e9 cc3b 5011 38be 90f5 adbd
000000f0: 629c ebbd 900f 8dbe 4b79 53be b80f ef3d
00000100: 8a26 483e 47fc 02be b240 833d 67b9 ae3e
00000110: c65c 1c3e 5f22 c43e 0512 c2be 13e6 81be
00000120: 1efd 58be 043d d43d 8aa6 1e3f dfda eb3d
00000130: ac70 913d 0198 a03c 970c c13d 6670 16be
00000140: a88d e33e 1d03 0c3e 31cd c33a bf4e 853e
00000150: 3591 bd3d 487e fb3d 0c3a 9fbd 2e4a 50bd
00000160: 7412 6a3e 491d 9bbe b6b0 30bf f46e a33d
00000170: 069b 9cbd ebff be3e 8c81 de3c 25e3 4ebe
00000180: 781e 4b3d 1e30 3cbe e951 c73e d863 8bbd
00000190: 5f89 0a3f 16b4 c33e 0325 32bd 732a 0a3e
000001a0: 9d9d 41be 878a a83e a82d 83be efac 2f3e
000001b0: 4284 ecbc d0ac 48bc b9ee 8d3e f3a3 00be
000001c0: 8549 79be 98a6 00bd 71ef 543e 353a 833e
000001d0: 85d7 993e 777a d13e 3874 e1ba 121f 973e
000001e0: 1347 acbe 2087 e5be d02f 34bf 757e a1be
000001f0: 4c3b a83e 73c7 06bd 8e5b 5ebd 0c4b 91bc
00000200: d698 8cbd ac88 b7bb 83ad 093c b1fe 8ebc
00000210: 0edb 1d3d 7084 343d 234a 9bbc 6f0a 2a3c
00000220: 1346 a33c 1623 76bd 06ad 263c d8f3 ed3c
00000230: e776 15bd 843a 2e3b f375 d03c 2f31 2d3d
00000240: e872 87bd 436a 9e3a f16e 9ebd 6d5c baba
00000250: 2b3c 403d 0f86 3c3d d923 c8bb 6d57 19be
00000260: eb6a 8dbc ea23 7bbd 2421 3a3c 07f1 c83c
00000270: a2c7 d4bd 894f 1f3e 2f40 6d3b f103 2d3d
00000280: 593a 34bd 4c70 48ba 3402 93bd 253b 313d
00000290: b344 5fbd 0da2 663b 76c6 b6bc a382 33bd
000002a0: f4d5 8cbd 0a86 12be 1bfb 4039 c6ea 8cbd
000002b0: 2922 3b3d 63a4 8abc 2e57 35bd 50f2 e3bc
000002c0: fba6 bd3c 6189 76bb 26af 0d3d 880e 49bc
000002d0: 4079 4bbe d5b3 b6bc 4978 083d 0b23 933d
000002e0: 2b02 743d 9af5 24bd ddcc 88bd f35b f43d
000002f0: 2fde a83d 9e5c 233c 98f1 af3c 4417 af3c
00000300: c5d4 b73d 208a fdbb f63a 62bd f7d2 a43d
00000310: 2abb 92bd 4d7f c73d be8b 0a3d 16c2 3ebd
00000320: 46ca 07bb 88f9 2c3d 8b39 c33d 3c03 063d
00000330: eb61 13bd ccfa e03c 54c7 b03d d030 a2bc
00000340: 9836 603e 75d9 403e 22b8 06bc bd99 b4bd
00000350: f712 63bd f635 c23d 6100 56bd e17d c6bd
00000360: 62d4 30be 3a57 ba3c 369f 263c 5d3a 9cbd
00000370: cd3c 9abc 62c5 023e c3f1 143e 8951 11be
00000380: 2933 56be 5b96 9fbd ea50 60bc 5f5f 943d
00000390: d3c7 de3d 6ecf fcbc 3b35 17be ada4 83be
000003a0: 2243 27bb f4c8 45bd ead5 a8bd a824 b9bd
000003b0: 801a 93bd 3b74 d63c 9c49 8cbe 9c70 3abe
000003c0: f833 433e b9b2 833d 56cf 4abd b964 e23b
000003d0: 9515 d7bd bd6a 973e 4c2a 943e 1710 78bd
000003e0: bdb2 863d 8c06 e8bd 58c9 f83c 39a6 dd3e
000003f0: 5945 d83e 236d 22be 4cca 2b3d 609c bc3d
-0.19995397 -0.23975222 0.0040889517 -0.019264208 -0.030451605 -0.42780554 -0.4084375 -0.30198038
0.06163779 -0.01131383 -0.20664524 -0.13313761 0.028335258 -0.0328602 -0.021382546 0.021109916
0.018747495 0.16261408 0.22052129 0.049574386 -0.05207922 -0.011535704 0.15307522 0.26910496
0.25890782 0.09077316 -0.016999204 0.04201483 0.043362938 -0.03669658 0.36256877 0.27768654
0.0005734219 -0.1985359 -0.19963466 0.34138066 0.13444898 -0.20657663 -0.32125264 -0.14726889
-0.28687614 0.03812766 0.05809504 0.02629757 -0.09658829 0.09200603 0.119164415 0.28653806
0.17471208 -0.15691976 -0.05120464 -0.20531328 -0.2223735 -0.04060226 -0.2540586 0.0027052576
-0.3268091 0.0062533766 -0.17975354 -0.08494103 -0.11504437 -0.27550936 -0.20651738 0.1167292
0.19545951 -0.12791549 0.06408824 0.34125826 0.15269765 0.38307473 -0.37904373 -0.25370845
-0.21190307 0.103632 0.6197287 0.11516356 0.071015686 0.019603731 0.094262294 -0.14691314
0.44444013 0.13673063 0.0014938471 0.2603664 0.09256212 0.122799456 -0.077747434 -0.050851993
0.22858602 -0.3029578 -0.6901964 0.07980147 -0.07646756 0.37304625 0.027161382 -0.20203836
0.049589604 -0.1837773 0.3892968 -0.06806153 0.5411586 0.38223332 -0.04349233 0.13492756
-0.18907781 0.32918188 -0.2562077 0.17155813 -0.02887166 -0.012248233 0.27721193 -0.12562542
-0.24344452 -0.031408876 0.20794465 0.25630346 0.3004724 0.40913746 -0.0017200774 0.29515892
-0.33647975 -0.44829655 -0.70385456 -0.31541792 0.3285774 -0.032905053 -0.054286532 -0.01773598
-0.06865089 -0.0056010094 0.008403185 -0.01745543 0.038538985 0.044071615 -0.01895625 0.010378464
0.019930875 -0.060092054 0.010173088 0.029046938 -0.036490347 0.002658517 0.025446868 0.042283233
-0.066137135 0.0012086112 -0.07736004 -0.0014218219 0.04693238 0.046026286 -0.006107789 -0.14974757
-0.017262897 -0.061313547 0.01136044 0.024528993 -0.103896394 0.15557684 0.0036201586 0.042240087
-0.044000957 -0.0007646128 -0.071781546 0.043269295 -0.054508876 0.0035191805 -0.02231143 -0.043825757
-0.06876746 -0.14308944 0.00018404091 -0.06880717 0.045686875 -0.016924089 -0.044272594 -0.027825505
0.023150912 -0.0037618505 0.034590863 -0.012271531 -0.19870472 -0.022302547 0.033317838 0.07184418
0.05957238 -0.040273286 -0.066796996 0.119316004 0.08245503 0.009970812 0.021477506 0.021373399
0.089761294 -0.007737413 -0.05523201 0.08048051 -0.07164605 0.097410776 0.033824675 -0.046571814
-0.002071993 0.04223016 0.0953246 0.03271793 -0.035982054 0.02746334 0.08631769 -0.019798666
0.21895826 0.18832953 -0.008222612 -0.08818386 -0.05543801 0.094829485 -0.052246455 -0.09691978
-0.17268518 0.022746671 0.010169795 -0.076283194 -0.01882782 0.12770608 0.1454535 -0.1419126
-0.20917954 -0.0779235 -0.013691166 0.07244753 0.10877957 -0.030860629 -0.147664 -0.25711575
-0.0025522192 -0.048287347 -0.08243926 -0.09040195 -0.07182789 0.02617847 -0.2739991 -0.1820702
0.19062793 0.06430573 -0.049514137 0.0069089797 -0.10502163 0.29573622 0.2893852 -0.06056222
0.0657706 -0.11329374 0.030369446 0.4329088 0.42240408 -0.15861945 0.041940972 0.09209514

fc1.bias f4 [18]
00000000: 6635 2e3d 9fd8 33bd 6485 21bd e98f 0ebd
00000010: 86d5 233d c2c0 713c ab31 bbbc 87bb 2cbd
00000020: de87 e23c 208d 62bd 348b 5a3d b021 883c
00000030: 0074 4cbd 084c b4bc 122d 76bd 51fc a83c
00000040: 3cd9 2fbd 1ba2 ddbb
0.042531393 -0.043907758 -0.03943385 -0.034805212 0.039998554 0.01475543 -0.022850832 -0.042171028
0.027652677 -0.05531037 0.05335541 0.016617626 -0.049915314 -0.02200891 -0.060101576 0.020628126
-0.04293178 -0.0067637092

fc2.weight f4 [10, 18]
00000000: 2bb5 82be 807e 0cbf a08c d7be 289a e0be
00000010: 7074 f6be 2953 43bd fbec 763d 32a1 483e
00000020: fce7 033d e349 a9bd ac81 4cbd fc45 64bf
00000030: 1bbd babe 7a07 33bf 35b3 e2bd 5282 283f
00000040: 0d6b 3c3c 19d7 b6be 46da 8ebe 7d8b c5be
00000050: ae56 e63d 1705 2f3e 8462 b2be 576e fabe
00000060: e44d 6abf 21f1 d43e bebc e93e 9c52 953d
00000070: f3ea afbd c3a7 d1be 7b1b f33d f506 02bf
00000080: ec46 2cbe acb0 5bbf 5e6a d53c a97d ecbd
00000090: 053b 2c3e 8881 973e 2787 e7bc 7ba4 73bf
000000a0: b094 f13e 8b37 e6bc 1c2c 06bf 3a7b b5be
000000b0: 95c9 53bd ccd2 ea3d 6a22 12be 77a1 9e3e
000000c0: 780a 853e 6d0f 473e 2e33 e43c c5aa 35bd
000000d0: 1912 afbe 41b0 08bf dd88 c8bd bb06 9c3e
000000e0: cf85 973e e899 7fbe 0579 56be ce8f 2fbe
000000f0: 25a8 e53e 961d 23bf 1126 cd3e c459 4c3d
00000100: aa62 013d 40c9 76be f576 c83d 4cf2 89bf
00000110: 3589 033c ccbb e5be f33c 583e a247 bdbc
00000120: 585e 4abf 38c2 e43d 64bc fd3e c502 90be
00000130: d489 70bf aa9d 5abf 208e 623e d9d4 963e
00000140: 4414 a6be 48dd 8c3d 38d8 373e cdd3 473d
00000150: c9cd 903e b8c3 143e 55a4 4abe c80e 143e
00000160: 27d3 d5be b0b6 4abf 7cbd 0bbf 6fe2 2ebe
00000170: 3a46 503e d84f ef3d d97d 12bf f0cb 38bf
00000180: bf00 25bf e593 26bf ae67 16be 4249 26be
00000190: 3692 03be a261 9f3e 9c33 b7bc 92e2 ab3e
000001a0: 57a2 da3d 2d3c 03bf 1042 ed3d 6ce9 eebe
000001b0: e096 763f 601e d5bd 319f a7bc 8e40 83be
000001c0: 5584 34bf 62b3 dcbe d4b1 873c 3fe7 b1be
000001d0: 3a60 a5be 71f3 febd 64d6 d23c eeb4 aebd
000001e0: 5baa afbd f45c 75bd d9ab cebd 715c a0be
000001f0: 79ad 9c3e b7ea 943d 42b8 6b3e 18ac 87be
00000200: af1e 2fbf 743b 5cbf cfdf 763e a072 5cbf
00000210: 9f19 1d3e 9b49 c43d 11c9 12bf 12fa bbbd
00000220: eb44 15be 24c1 17be 7318 3cbe 2418 393e
00000230: 5961 3ebd 80a8 00bf 1520 94be 9955 d03e
00000240: 23a7 6abf 407c 1dbf 3538 b7bb fe59 f73c
00000250: c868 83be 4dd2 1a3e 432a 4bbe 4dfa 2fbe
00000260: 7821 5dbf 2138 31bd 4a60 533d 0009 b1be
00000270: 1cea 833e cada ff3d 465d 083e 9061 223d
00000280: 9926 0fbf f209 c63e 0d73 7bbe 142e af3e
00000290: 7d8f 173e aa1f 183e 4e13 d3bd 8e4e a43e
000002a0: 8f0c 91bf 48c3 a0be be3a 25be 5cd7 473e
000002b0: 63dc 34bd da37 90be 6e5a 8dbe 07e6 cbbe
000002c0: 4517 90bc a822 d1be 8cbf 2cbe 747f b23d
-0.25528845 -0.54880524 -0.42099476 -0.43867612 -0.4813571 -0.04768673 0.060284596 0.19592741
0.03220366 -0.08266046 -0.049928352 -0.8916929 -0.364724 -0.69933283 -0.11069337 0.65823853
0.011500132 -0.3571098 -0.27900904 -0.38582984 0.112470016 0.17091785 -0.34840786 -0.48912308
-0.915251 0.41590217 0.4565181 0.07291147 -0.08589735 -0.40948305 0.11870476 -0.50791866
-0.1682393 -0.85816455 0.026051696 -0.11547405 0.16819389 0.29591012 -0.028262688 -0.9517285
0.47183752 -0.028102657 -0.52411056 -0.35445577 -0.051705915 0.114659876 -0.1427094 0.30982563
0.2598455 0.19439478 0.027856436 -0.04435231 -0.34193495 -0.5339394 -0.097917296 0.30473885
0.29594275 -0.24961054 -0.20944603 -0.17144701 0.44854847 -0.6371702 0.40068105 0.049890295
0.031588234 -0.24100208 0.09788314 -1.0777068 0.008028318 -0.4486984 0.21117 -0.023105446
-0.7905021 0.11169857 0.49557793 -0.28127113 -0.9396031 -0.85396826 0.22124529 0.29459265
-0.32437336 0.068781435 0.17953575 0.048785973 0.28282002 0.14527786 -0.1978925 0.14458764
-0.4176266 -0.7918501 -0.54586005 -0.17078565 0.2033929 0.11685151 -0.5722328 -0.72186184
-0.64454263 -0.6506942 -0.14687988 -0.16238883 -0.12848744 0.31129175 -0.022363476 0.33571297
0.10675495 -0.51263696 0.11584866 -0.46662462 0.96323967 -0.10406184 -0.02046165 -0.2563519
-0.7051442 -0.43105608 0.016564287 -0.3474674 -0.32299978 -0.124487765 0.025736995 -0.08530603
-0.085774146 -0.0599031 -0.10091371 -0.31320527 0.306011 0.07271331 0.23019508 -0.26498485
-0.68406194 -0.8602822 0.24108814 -0.86112404 0.15341805 0.09584352 -0.57338053 -0.091785565
-0.14577071 -0.14819771 -0.18368702 0.18075615 -0.046479557 -0.5025711 -0.28930727 0.40690306
-0.9166128 -0.61517715 -0.005591417 0.030194279 -0.2566588 0.15119286 -0.1984034 -0.17185326
-0.86379194 -0.04326642 0.0516055 -0.3457718 0.2576455 0.124929026 0.13316831 0.039643824
-0.5591827 0.38679463 -0.24555607 0.34214842 0.1480083 0.14855829 -0.103064165 0.32091182
-1.1331958 -0.31398988 -0.1613569 0.19515747 -0.04415549 -0.2816761 -0.27608055 -0.39823934
-0.01758922 -0.40846753 -0.16869944 0.08715716

fc2.bias f4 [10]
00000000: 31a6 a13d e97f 773e 0818 03be 2f21 d33d
00000010: e624 f5bd 052d 8d3e 2d56 23bc 8a80 80be
00000020: 9df7 9ebd 903f 0c3e
0.078930266 0.24169888 -0.12802136 0.10309064 -0.119699284 0.2757341 -0.009969276 -0.25098068
-0.07762072 0.13696122
